…
[2025-07-31 09:24:50,720] [INFO] [['656' '94' '52' ... <NA> <NA> <NA>]
 ['423' '87' '52' ... <NA> <NA> <NA>]
 ['423' '87' '52' ... <NA> <NA> <NA>]
 ...
 ['242' '87' '52' ... '1432' '1432' '64']
 ['60' '60' '52' ... <NA> <NA> <NA>]
 ['64' '52' '52' ... '1432' '1432' '1432']]
[2025-07-31 09:24:51,658] [INFO] Training from 0 to 100 / 3000
[2025-07-31 09:24:55,419] [INFO] Feature 0 normalized using token
[2025-07-31 09:24:55,419] [INFO] Train shape: (59143, 100), Val shape: (8450, 100), Test shape: (16899, 100)
[2025-07-31 09:24:55,468] [INFO] Classifier: VRScannerModel(
  (input_modules): ModuleList(
    (0): Embedding(1376, 512)
  )
  (rnn_layers): ModuleList(
    (0): GRU(512, 256, num_layers=3, batch_first=True, dropout=0.3, bidirectional=True)
  )
  (attn_nets): ModuleList(
    (0): Sequential(
      (0): Linear(in_features=512, out_features=64, bias=True)
      (1): Tanh()
      (2): Linear(in_features=64, out_features=1, bias=True)
    )
  )
  (projection_layers): ModuleList(
    (0): Linear(in_features=512, out_features=256, bias=True)
  )
  (feature_attn_net): Sequential(
    (0): Linear(in_features=256, out_features=128, bias=True)
    (1): Tanh()
    (2): Linear(in_features=128, out_features=1, bias=True)
  )
  (fc): Sequential(
    (0): Linear(in_features=256, out_features=128, bias=True)
    (1): ReLU()
    (2): Dropout(p=0.3, inplace=False)
    (3): Linear(in_features=128, out_features=91, bias=True)
  )
)
[2025-07-31 09:24:55,468] [INFO] Training...
[2025-07-31 09:25:11,368] [INFO] Epoch 1/50, ValAcc: 78.51%, TrainLoss: 1.8051, ValLoss: 0.8945, LR: 0.001
[2025-07-31 09:25:26,184] [INFO] Epoch 2/50, ValAcc: 80.12%, TrainLoss: 0.8912, ValLoss: 0.8214, LR: 0.001
[2025-07-31 09:25:41,017] [INFO] Epoch 3/50, ValAcc: 80.53%, TrainLoss: 0.8173, ValLoss: 0.8078, LR: 0.001
…
luation=False, device=device(type='cuda'), name='iplen_token_bigru_3000_64_50_0.001_512_256_3_0.3_256_128_100_100_0'),0.8296,0.8413,0.8642,0.8292
[2025-07-31 09:29:55,520] [INFO] [(0.8295757145393219, 0.8413168297460778, 0.8642488984653863, 0.8292423058076568)]
[2025-07-31 09:29:55,520] [INFO] Training from 100 to 200 / 3000
[2025-07-31 09:30:03,517] [INFO] Feature 0 normalized using token
[2025-07-31 09:30:03,518] [INFO] Train shape: (59143, 100), Val shape: (8450, 100), Test shape: (16899, 100)
[2025-07-31 09:30:03,538] [INFO] Classifier: VRScannerModel(
  (input_modules): ModuleList(
    (0): Embedding(1383, 512)
  )
  (rnn_layers): ModuleList(
    (0): GRU(512, 256, num_layers=3, batch_first=True, dropout=0.3, bidirectional=True)
  )
  (attn_nets): ModuleList(
    (0): Sequential(
      (0): Linear(in_features=512, out_features=64, bias=True)
      (1): Tanh()
      (2): Linear(in_features=64, out_features=1, bias=True)
    )
  )
  (projection_layers): ModuleList(
    (0): Linear(in_features=512, out_features=256, bias=True)
  )
  (feature_attn_net): Sequential(
    (0): Linear(in_features=256, out_features=128, bias=True)
    (1): Tanh()
    (2): Linear(in_features=128, out_features=1, bias=True)
  )
  (fc): Sequential(
    (0): Linear(in_features=256, out_features=128, bias=True)
    (1): ReLU()
    (2): Dropout(p=0.3, inplace=False)
    (3): Linear(in_features=128, out_features=91, bias=True)
  )
)
[2025-07-31 09:30:03,538] [INFO] Training...
[2025-07-31 09:30:18,379] [INFO] Epoch 1/50, ValAcc: 40.56%, TrainLoss: 3.0584, ValLoss: 2.4539, LR: 0.001
[2025-07-31 09:30:33,199] [INFO] Epoch 2/50, ValAcc: 44.47%, TrainLoss: 2.3796, ValLoss: 2.2814, LR: 0.001
[2025-07-31 09:30:48,004] [INFO] Epoch 3/50, ValAcc: 46.45%, TrainLoss: 2.2139, ValLoss: 2.2202, LR: 0.001
…
ation=False, device=device(type='cuda'), name='iplen_token_bigru_3000_64_50_0.001_512_256_3_0.3_256_128_100_100_100'),0.5120,0.5438,0.5970,0.5127
[2025-07-31 09:34:31,806] [INFO] [(0.5120421326705722, 0.5437600398541984, 0.5970044292545539, 0.5127449374041612)]
[2025-07-31 09:34:31,806] [INFO] Training from 200 to 300 / 3000
[2025-07-31 09:34:38,890] [INFO] Feature 0 normalized using token
[2025-07-31 09:34:38,890] [INFO] Train shape: (59143, 100), Val shape: (8450, 100), Test shape: (16899, 100)
[2025-07-31 09:34:38,911] [INFO] Classifier: VRScannerModel(
  (input_modules): ModuleList(
    (0): Embedding(1385, 512)
  )
  (rnn_layers): ModuleList(
    (0): GRU(512, 256, num_layers=3, batch_first=True, dropout=0.3, bidirectional=True)
  )
  (attn_nets): ModuleList(
    (0): Sequential(
      (0): Linear(in_features=512, out_features=64, bias=True)
      (1): Tanh()
      (2): Linear(in_features=64, out_features=1, bias=True)
    )
  )
  (projection_layers): ModuleList(
    (0): Linear(in_features=512, out_features=256, bias=True)
  )
  (feature_attn_net): Sequential(
    (0): Linear(in_features=256, out_features=128, bias=True)
    (1): Tanh()
    (2): Linear(in_features=128, out_features=1, bias=True)
  )
  (fc): Sequential(
    (0): Linear(in_features=256, out_features=128, bias=True)
    (1): ReLU()
    (2): Dropout(p=0.3, inplace=False)
    (3): Linear(in_features=128, out_features=91, bias=True)
  )
)
[2025-07-31 09:34:38,911] [INFO] Training...
[2025-07-31 09:34:53,716] [INFO] Epoch 1/50, ValAcc: 21.73%, TrainLoss: 3.8251, ValLoss: 3.3238, LR: 0.001
[2025-07-31 09:35:08,465] [INFO] Epoch 2/50, ValAcc: 28.39%, TrainLoss: 3.2133, ValLoss: 3.0621, LR: 0.001
[2025-07-31 09:35:23,255] [INFO] Epoch 3/50, ValAcc: 30.47%, TrainLoss: 3.0143, ValLoss: 2.9733, LR: 0.001
…
