…
[2025-07-29 05:10:40,317] [INFO] Feature 15 normalized using token
[2025-07-29 05:10:40,317] [INFO] Train shape: (10659, 1000), Val shape: (1523, 1000), Test shape: (3046, 1000)
[2025-07-29 05:10:45,237] [INFO] Feature 16 normalized using token
[2025-07-29 05:10:45,237] [INFO] Train shape: (10659, 1000), Val shape: (1523, 1000), Test shape: (3046, 1000)
[2025-07-29 05:11:05,483] [INFO] Feature 17 normalized using token
[2025-07-29 05:11:05,483] [INFO] Train shape: (10659, 1000), Val shape: (1523, 1000), Test shape: (3046, 1000)
[2025-07-29 05:11:05,904] [INFO] Classifier: VRScannerModel(
  (input_modules): ModuleList(
    (0): Linear(in_features=1, out_features=512, bias=True)
    (1): Identity()
    (2): Embedding(8, 512)
    (3): Identity()
    (4): Linear(in_features=1, out_features=512, bias=True)
    (5): Embedding(1384, 512)
    (6): Identity()
    (7): Linear(in_features=1, out_features=512, bias=True)
    (8): Embedding(2, 512)
    (9): Embedding(65536, 512)
    (10): Embedding(5137, 512)
    (11): Embedding(2, 512)
    (12-13): 2 x Linear(in_features=1, out_features=512, bias=True)
    (14): Embedding(2, 512)
    (15): Embedding(9, 512)
    (16): Embedding(7, 512)
    (17): Embedding(65537, 512)
  )
  (rnn_layers): ModuleList(
    (0): RNN(512, 128, num_layers=3, batch_first=True, dropout=0.3, bidirectional=True)
    (1): GRU(1, 128, num_layers=3, batch_first=True, dropout=0.3)
    (2): GRU(512, 128, num_layers=3, batch_first=True, dropout=0.3)
    (3): GRU(1, 128, num_layers=3, batch_first=True, dropout=0.3)
    (4): GRU(512, 128, num_layers=3, batch_first=True, dropout=0.3)
    (5): GRU(512, 128, num_layers=3, batch_first=True, dropout=0.3, bidirectional=True)
…
    (8): RNN(512, 128, num_layers=3, batch_first=True, dropout=0.3)
    (9): RNN(512, 128, num_layers=3, batch_first=True, dropout=0.3, bidirectional=True)
    (10-13): 4 x GRU(512, 128, num_layers=3, batch_first=True, dropout=0.3, bidirectional=True)
    (14): RNN(512, 128, num_layers=3, batch_first=True, dropout=0.3)
    (15): GRU(512, 128, num_layers=3, batch_first=True, dropout=0.3, bidirectional=True)
    (16): GRU(512, 128, num_layers=3, batch_first=True, dropout=0.3)
    (17): GRU(512, 128, num_layers=3, batch_first=True, dropout=0.3, bidirectional=True)
  )
  (attn_nets): ModuleList(
    (0): Sequential(
      (0): Linear(in_features=256, out_features=64, bias=True)
      (1): Tanh()
      (2): Linear(in_features=64, out_features=1, bias=True)
    )
    (1-4): 4 x Sequential(
      (0): Linear(in_features=128, out_features=64, bias=True)
      (1): Tanh()
      (2): Linear(in_features=64, out_features=1, bias=True)
    )
    (5-7): 3 x Sequential(
      (0): Linear(in_features=256, out_features=64, bias=True)
      (1): Tanh()
      (2): Linear(in_features=64, out_features=1, bias=True)
    )
    (8): Sequential(
      (0): Linear(in_features=128, out_features=64, bias=True)
      (1): Tanh()
      (2): Linear(in_features=64, out_features=1, bias=True)
    )
    (9-13): 5 x Sequential(
      (0): Linear(in_features=256, out_features=64, bias=True)
      (1): Tanh()
      (2): Linear(in_features=64, out_features=1, bias=True)
    )
    (14): Sequential(
      (0): Linear(in_features=128, out_features=64, bias=True)
      (1): Tanh()
      (2): Linear(in_features=64, out_features=1, bias=True)
    )
    (15): Sequential(
      (0): Linear(in_features=256, out_features=64, bias=True)
      (1): Tanh()
      (2): Linear(in_features=64, out_features=1, bias=True)
    )
    (16): Sequential(
      (0): Linear(in_features=128, out_features=64, bias=True)
      (1): Tanh()
      (2): Linear(in_features=64, out_features=1, bias=True)
    )
    (17): Sequential(
      (0): Linear(in_features=256, out_features=64, bias=True)
      (1): Tanh()
      (2): Linear(in_features=64, out_features=1, bias=True)
    )
  )
  (projection_layers): ModuleList(
    (0): Linear(in_features=256, out_features=256, bias=True)
    (1-4): 4 x Linear(in_features=128, out_features=256, bias=True)
    (5-7): 3 x Linear(in_features=256, out_features=256, bias=True)
    (8): Linear(in_features=128, out_features=256, bias=True)
    (9-13): 5 x Linear(in_features=256, out_features=256, bias=True)
    (14): Linear(in_features=128, out_features=256, bias=True)
    (15): Linear(in_features=256, out_features=256, bias=True)
    (16): Linear(in_features=128, out_features=256, bias=True)
    (17): Linear(in_features=256, out_features=256, bias=True)
  )
  (feature_attn_net): Sequential(
    (0): Linear(in_features=256, out_features=128, bias=True)
    (1): Tanh()
    (2): Linear(in_features=128, out_features=1, bias=True)
  )
  (fc): Sequential(
    (0): Linear(in_features=256, out_features=128, bias=True)
    (1): ReLU()
    (2): Dropout(p=0.3, inplace=False)
    (3): Linear(in_features=128, out_features=50, bias=True)
  )
)
[2025-07-29 05:11:05,904] [INFO] Training...
[2025-07-29 05:12:06,993] [INFO] Epoch 1/50, ValAcc: 38.28%, TrainLoss: 3.2881, ValLoss: 2.3410, LR: 0.001
[2025-07-29 05:13:06,792] [INFO] Epoch 2/50, ValAcc: 62.90%, TrainLoss: 1.9012, ValLoss: 1.4202, LR: 0.001
[2025-07-29 05:14:06,868] [INFO] Epoch 3/50, ValAcc: 70.65%, TrainLoss: 1.1789, ValLoss: 1.0822, LR: 0.001
…
