…
[2025-07-29 04:12:19,615] [INFO] Feature 19 normalized using token
[2025-07-29 04:12:19,615] [INFO] Train shape: (10659, 1000), Val shape: (1523, 1000), Test shape: (3046, 1000)
[2025-07-29 04:12:24,567] [INFO] Feature 20 normalized using token
[2025-07-29 04:12:24,567] [INFO] Train shape: (10659, 1000), Val shape: (1523, 1000), Test shape: (3046, 1000)
[2025-07-29 04:12:44,550] [INFO] Feature 21 normalized using token
[2025-07-29 04:12:44,550] [INFO] Train shape: (10659, 1000), Val shape: (1523, 1000), Test shape: (3046, 1000)
[2025-07-29 04:12:45,058] [INFO] Classifier: VRScannerModel(
  (input_modules): ModuleList(
    (0): Linear(in_features=1, out_features=512, bias=True)
    (1): Identity()
    (2): Embedding(8, 512)
    (3): Identity()
    (4): Linear(in_features=1, out_features=512, bias=True)
    (5): Embedding(1384, 512)
    (6): Identity()
    (7): Linear(in_features=1, out_features=512, bias=True)
    (8): Embedding(2, 512)
    (9): Embedding(65536, 512)
    (10-11): 2 x Embedding(58, 512)
    (12-13): 2 x Embedding(14118, 512)
    (14): Embedding(5137, 512)
    (15): Embedding(2, 512)
    (16-17): 2 x Linear(in_features=1, out_features=512, bias=True)
    (18): Embedding(2, 512)
    (19): Embedding(9, 512)
    (20): Embedding(7, 512)
    (21): Embedding(65537, 512)
  )
  (rnn_layers): ModuleList(
    (0): RNN(512, 128, num_layers=3, batch_first=True, dropout=0.3, bidirectional=True)
    (1): GRU(1, 128, num_layers=3, batch_first=True, dropout=0.3)
    (2): GRU(512, 128, num_layers=3, batch_first=True, dropout=0.3)
    (3): GRU(1, 128, num_layers=3, batch_first=True, dropout=0.3)
    (4): GRU(512, 128, num_layers=3, batch_first=True, dropout=0.3)
    (5): GRU(512, 128, num_layers=3, batch_first=True, dropout=0.3, bidirectional=True)
…
    (12): LSTM(512, 128, num_layers=3, batch_first=True, dropout=0.3, bidirectional=True)
    (13): GRU(512, 128, num_layers=3, batch_first=True, dropout=0.3)
    (14-17): 4 x GRU(512, 128, num_layers=3, batch_first=True, dropout=0.3, bidirectional=True)
    (18): RNN(512, 128, num_layers=3, batch_first=True, dropout=0.3)
    (19): GRU(512, 128, num_layers=3, batch_first=True, dropout=0.3, bidirectional=True)
    (20): GRU(512, 128, num_layers=3, batch_first=True, dropout=0.3)
    (21): GRU(512, 128, num_layers=3, batch_first=True, dropout=0.3, bidirectional=True)
  )
  (attn_nets): ModuleList(
    (0): Sequential(
      (0): Linear(in_features=256, out_features=64, bias=True)
      (1): Tanh()
      (2): Linear(in_features=64, out_features=1, bias=True)
    )
    (1-4): 4 x Sequential(
      (0): Linear(in_features=128, out_features=64, bias=True)
      (1): Tanh()
      (2): Linear(in_features=64, out_features=1, bias=True)
    )
    (5-7): 3 x Sequential(
      (0): Linear(in_features=256, out_features=64, bias=True)
      (1): Tanh()
      (2): Linear(in_features=64, out_features=1, bias=True)
    )
    (8): Sequential(
      (0): Linear(in_features=128, out_features=64, bias=True)
      (1): Tanh()
      (2): Linear(in_features=64, out_features=1, bias=True)
    )
    (9-12): 4 x Sequential(
      (0): Linear(in_features=256, out_features=64, bias=True)
      (1): Tanh()
      (2): Linear(in_features=64, out_features=1, bias=True)
    )
    (13): Sequential(
      (0): Linear(in_features=128, out_features=64, bias=True)
      (1): Tanh()
      (2): Linear(in_features=64, out_features=1, bias=True)
    )
    (14-17): 4 x Sequential(
      (0): Linear(in_features=256, out_features=64, bias=True)
      (1): Tanh()
      (2): Linear(in_features=64, out_features=1, bias=True)
    )
    (18): Sequential(
      (0): Linear(in_features=128, out_features=64, bias=True)
      (1): Tanh()
      (2): Linear(in_features=64, out_features=1, bias=True)
    )
    (19): Sequential(
      (0): Linear(in_features=256, out_features=64, bias=True)
      (1): Tanh()
      (2): Linear(in_features=64, out_features=1, bias=True)
    )
    (20): Sequential(
      (0): Linear(in_features=128, out_features=64, bias=True)
      (1): Tanh()
      (2): Linear(in_features=64, out_features=1, bias=True)
    )
    (21): Sequential(
      (0): Linear(in_features=256, out_features=64, bias=True)
      (1): Tanh()
      (2): Linear(in_features=64, out_features=1, bias=True)
    )
  )
  (projection_layers): ModuleList(
    (0): Linear(in_features=256, out_features=256, bias=True)
    (1-4): 4 x Linear(in_features=128, out_features=256, bias=True)
    (5-7): 3 x Linear(in_features=256, out_features=256, bias=True)
    (8): Linear(in_features=128, out_features=256, bias=True)
    (9-12): 4 x Linear(in_features=256, out_features=256, bias=True)
    (13): Linear(in_features=128, out_features=256, bias=True)
    (14-17): 4 x Linear(in_features=256, out_features=256, bias=True)
    (18): Linear(in_features=128, out_features=256, bias=True)
    (19): Linear(in_features=256, out_features=256, bias=True)
    (20): Linear(in_features=128, out_features=256, bias=True)
    (21): Linear(in_features=256, out_features=256, bias=True)
  )
  (feature_attn_net): Sequential(
    (0): Linear(in_features=256, out_features=128, bias=True)
    (1): Tanh()
    (2): Linear(in_features=128, out_features=1, bias=True)
  )
  (fc): Sequential(
    (0): Linear(in_features=256, out_features=128, bias=True)
    (1): ReLU()
    (2): Dropout(p=0.3, inplace=False)
    (3): Linear(in_features=128, out_features=50, bias=True)
  )
)
[2025-07-29 04:12:45,058] [INFO] Training...
[2025-07-29 04:14:04,977] [INFO] Epoch 1/50, ValAcc: 35.72%, TrainLoss: 3.2815, ValLoss: 2.3430, LR: 0.001
[2025-07-29 04:15:23,773] [INFO] Epoch 2/50, ValAcc: 60.80%, TrainLoss: 1.9472, ValLoss: 1.3498, LR: 0.001
[2025-07-29 04:16:42,498] [INFO] Epoch 3/50, ValAcc: 72.16%, TrainLoss: 1.1769, ValLoss: 0.9679, LR: 0.001
…
