…
[2025-07-25 06:21:23,148] [INFO] Processed data from meta-free-apps/meta-ip_len/meta-ip_len.csv:
[2025-07-25 06:21:23,148] [INFO] (84492, 10)
[2025-07-25 06:21:23,148] [INFO] [['656' '94' '52' ... '247' '181' '52']
 ['423' '87' '52' ... '503' '735' '75']
 ['423' '87' '52' ... '657' '94' '52']
 ...
 ['242' '87' '52' ... '52' '52' '52']
 ['60' '60' '52' ... '116' '227' '506']
 ['64' '52' '52' ... '1432' '1432' '1432']]
[2025-07-25 06:21:23,930] [INFO] Feature 0 normalized using token
[2025-07-25 06:21:23,930] [INFO] Train shape: (59143, 10), Val shape: (8450, 10), Test shape: (16899, 10)
[2025-07-25 06:21:24,037] [INFO] Classifier: VRScannerModel(
  (input_modules): ModuleList(
    (0): Embedding(1002, 512)
  )
  (rnn_layers): ModuleList(
    (0): GRU(512, 256, num_layers=3, batch_first=True, dropout=0.3, bidirectional=True)
  )
  (attn_nets): ModuleList(
    (0): Sequential(
      (0): Linear(in_features=512, out_features=64, bias=True)
      (1): Tanh()
      (2): Linear(in_features=64, out_features=1, bias=True)
    )
  )
  (projection_layers): ModuleList(
    (0): Linear(in_features=512, out_features=256, bias=True)
  )
  (feature_attn_net): Sequential(
    (0): Linear(in_features=256, out_features=128, bias=True)
    (1): Tanh()
    (2): Linear(in_features=128, out_features=1, bias=True)
  )
  (fc): Sequential(
    (0): Linear(in_features=256, out_features=128, bias=True)
    (1): ReLU()
    (2): Dropout(p=0.3, inplace=False)
    (3): Linear(in_features=128, out_features=91, bias=True)
  )
)
[2025-07-25 06:21:24,037] [INFO] Training...
[2025-07-25 06:21:38,058] [INFO] Epoch 1/50, ValAcc: 2.43%, TrainLoss: 4.4080, ValLoss: 4.2726, LR: 0.001
[2025-07-25 06:21:59,861] [INFO] Epoch 2/50, ValAcc: 3.38%, TrainLoss: 4.2539, ValLoss: 4.2195, LR: 0.001
[2025-07-25 06:22:19,617] [INFO] Epoch 3/50, ValAcc: 3.68%, TrainLoss: 4.2124, ValLoss: 4.2057, LR: 0.001
…
[2025-07-25 06:32:06,801] [INFO] Processed data from meta-free-apps/meta-ip_len/meta-ip_len.csv:
[2025-07-25 06:32:06,801] [INFO] (84492, 20)
[2025-07-25 06:32:06,801] [INFO] [['656' '94' '52' ... '1432' '536' '52']
 ['423' '87' '52' ... '1432' '52' '52']
 ['423' '87' '52' ... '91' '52' '52']
 ...
 ['242' '87' '52' ... '52' '52' '60']
 ['60' '60' '52' ... '1432' '1432' '1432']
 ['64' '52' '52' ... '52' '52' '52']]
[2025-07-25 06:32:08,150] [INFO] Feature 0 normalized using token
[2025-07-25 06:32:08,151] [INFO] Train shape: (59143, 20), Val shape: (8450, 20), Test shape: (16899, 20)
[2025-07-25 06:32:08,234] [INFO] Classifier: VRScannerModel(
  (input_modules): ModuleList(
    (0): Embedding(1156, 512)
  )
  (rnn_layers): ModuleList(
    (0): GRU(512, 256, num_layers=3, batch_first=True, dropout=0.3, bidirectional=True)
  )
  (attn_nets): ModuleList(
    (0): Sequential(
      (0): Linear(in_features=512, out_features=64, bias=True)
      (1): Tanh()
      (2): Linear(in_features=64, out_features=1, bias=True)
    )
  )
  (projection_layers): ModuleList(
    (0): Linear(in_features=512, out_features=256, bias=True)
  )
  (feature_attn_net): Sequential(
    (0): Linear(in_features=256, out_features=128, bias=True)
    (1): Tanh()
    (2): Linear(in_features=128, out_features=1, bias=True)
  )
  (fc): Sequential(
    (0): Linear(in_features=256, out_features=128, bias=True)
    (1): ReLU()
    (2): Dropout(p=0.3, inplace=False)
    (3): Linear(in_features=128, out_features=91, bias=True)
  )
)
[2025-07-25 06:32:08,235] [INFO] Training...
[2025-07-25 06:32:32,781] [INFO] Epoch 1/50, ValAcc: 7.42%, TrainLoss: 4.0913, ValLoss: 3.8261, LR: 0.001
[2025-07-25 06:32:53,412] [INFO] Epoch 2/50, ValAcc: 8.89%, TrainLoss: 3.7876, ValLoss: 3.6992, LR: 0.001
[2025-07-25 06:33:08,562] [INFO] Epoch 3/50, ValAcc: 9.99%, TrainLoss: 3.6748, ValLoss: 3.6506, LR: 0.001
…
[2025-07-25 06:44:05,633] [INFO] (84492, 30)
[2025-07-25 06:44:05,633] [INFO] [['656' '94' '52' ... '1432' '1432' '1432']
 ['423' '87' '52' ... '1432' '1432' '1432']
 ['423' '87' '52' ... '140' '52' '52']
 ...
 ['242' '87' '52' ... '64' '64' '52']
 ['60' '60' '52' ... '1432' '1432' '1432']
 ['64' '52' '52' ... '1432' '1432' '1432']]
[2025-07-25 06:44:07,689] [INFO] Feature 0 normalized using token
[2025-07-25 06:44:07,689] [INFO] Train shape: (59143, 30), Val shape: (8450, 30), Test shape: (16899, 30)
[2025-07-25 06:44:07,756] [INFO] Classifier: VRScannerModel(
  (input_modules): ModuleList(
    (0): Embedding(1235, 512)
  )
  (rnn_layers): ModuleList(
    (0): GRU(512, 256, num_layers=3, batch_first=True, dropout=0.3, bidirectional=True)
  )
  (attn_nets): ModuleList(
    (0): Sequential(
      (0): Linear(in_features=512, out_features=64, bias=True)
      (1): Tanh()
      (2): Linear(in_features=64, out_features=1, bias=True)
    )
  )
  (projection_layers): ModuleList(
    (0): Linear(in_features=512, out_features=256, bias=True)
  )
  (feature_attn_net): Sequential(
    (0): Linear(in_features=256, out_features=128, bias=True)
    (1): Tanh()
    (2): Linear(in_features=128, out_features=1, bias=True)
  )
  (fc): Sequential(
    (0): Linear(in_features=256, out_features=128, bias=True)
    (1): ReLU()
    (2): Dropout(p=0.3, inplace=False)
    (3): Linear(in_features=128, out_features=91, bias=True)
  )
)
[2025-07-25 06:44:07,756] [INFO] Training...
[2025-07-25 06:44:37,057] [INFO] Epoch 1/50, ValAcc: 12.97%, TrainLoss: 3.8484, ValLoss: 3.4362, LR: 0.001
[2025-07-25 06:45:04,942] [INFO] Epoch 2/50, ValAcc: 15.54%, TrainLoss: 3.3865, ValLoss: 3.2622, LR: 0.001
[2025-07-25 06:45:34,000] [INFO] Epoch 3/50, ValAcc: 17.16%, TrainLoss: 3.2488, ValLoss: 3.1762, LR: 0.001
…
[2025-07-25 07:00:57,047] [INFO] (84492, 50)
[2025-07-25 07:00:57,047] [INFO] [['656' '94' '52' ... '1432' '1432' '1432']
 ['423' '87' '52' ... '52' '52' '1432']
 ['423' '87' '52' ... '141' '167' '52']
 ...
 ['242' '87' '52' ... '1432' '1432' '1432']
 ['60' '60' '52' ... '1432' '1432' '1432']
 ['64' '52' '52' ... '1432' '1432' '1432']]
[2025-07-25 07:01:00,232] [INFO] Feature 0 normalized using token
[2025-07-25 07:01:00,233] [INFO] Train shape: (59143, 50), Val shape: (8450, 50), Test shape: (16899, 50)
[2025-07-25 07:01:00,283] [INFO] Classifier: VRScannerModel(
  (input_modules): ModuleList(
    (0): Embedding(1306, 512)
  )
  (rnn_layers): ModuleList(
    (0): GRU(512, 256, num_layers=3, batch_first=True, dropout=0.3, bidirectional=True)
  )
  (attn_nets): ModuleList(
    (0): Sequential(
      (0): Linear(in_features=512, out_features=64, bias=True)
      (1): Tanh()
      (2): Linear(in_features=64, out_features=1, bias=True)
    )
  )
  (projection_layers): ModuleList(
    (0): Linear(in_features=512, out_features=256, bias=True)
  )
  (feature_attn_net): Sequential(
    (0): Linear(in_features=256, out_features=128, bias=True)
    (1): Tanh()
    (2): Linear(in_features=128, out_features=1, bias=True)
  )
  (fc): Sequential(
    (0): Linear(in_features=256, out_features=128, bias=True)
    (1): ReLU()
    (2): Dropout(p=0.3, inplace=False)
    (3): Linear(in_features=128, out_features=91, bias=True)
  )
)
[2025-07-25 07:01:00,283] [INFO] Training...
[2025-07-25 07:01:36,482] [INFO] Epoch 1/50, ValAcc: 30.69%, TrainLoss: 3.3088, ValLoss: 2.6652, LR: 0.001
[2025-07-25 07:02:10,465] [INFO] Epoch 2/50, ValAcc: 32.64%, TrainLoss: 2.6486, ValLoss: 2.5283, LR: 0.001
[2025-07-25 07:02:45,756] [INFO] Epoch 3/50, ValAcc: 33.37%, TrainLoss: 2.5271, ValLoss: 2.4710, LR: 0.001
…
[2025-07-25 07:14:46,824] [INFO] Processed data from meta-free-apps/meta-ip_len/meta-ip_len.csv:
[2025-07-25 07:14:46,825] [INFO] (84492, 70)
[2025-07-25 07:14:46,825] [INFO] [['656' '94' '52' ... '52' '52' '1432']
 ['423' '87' '52' ... '52' '52' '1432']
 ['423' '87' '52' ... '52' '569' '52']
 ...
 ['242' '87' '52' ... '64' '64' '1432']
 ['60' '60' '52' ... '52' '52' '52']
 ['64' '52' '52' ... '1432' '1432' '1432']]
[2025-07-25 07:14:51,574] [INFO] Feature 0 normalized using token
[2025-07-25 07:14:51,574] [INFO] Train shape: (59143, 70), Val shape: (8450, 70), Test shape: (16899, 70)
[2025-07-25 07:14:51,626] [INFO] Classifier: VRScannerModel(
  (input_modules): ModuleList(
    (0): Embedding(1352, 512)
  )
  (rnn_layers): ModuleList(
    (0): GRU(512, 256, num_layers=3, batch_first=True, dropout=0.3, bidirectional=True)
  )
  (attn_nets): ModuleList(
    (0): Sequential(
      (0): Linear(in_features=512, out_features=64, bias=True)
      (1): Tanh()
      (2): Linear(in_features=64, out_features=1, bias=True)
    )
  )
  (projection_layers): ModuleList(
    (0): Linear(in_features=512, out_features=256, bias=True)
  )
  (feature_attn_net): Sequential(
    (0): Linear(in_features=256, out_features=128, bias=True)
    (1): Tanh()
    (2): Linear(in_features=128, out_features=1, bias=True)
  )
  (fc): Sequential(
    (0): Linear(in_features=256, out_features=128, bias=True)
    (1): ReLU()
    (2): Dropout(p=0.3, inplace=False)
    (3): Linear(in_features=128, out_features=91, bias=True)
  )
)
[2025-07-25 07:14:51,626] [INFO] Training...
[2025-07-25 07:15:29,367] [INFO] Epoch 1/50, ValAcc: 47.98%, TrainLoss: 2.8253, ValLoss: 2.0416, LR: 0.001
[2025-07-25 07:16:09,020] [INFO] Epoch 2/50, ValAcc: 50.53%, TrainLoss: 1.9860, ValLoss: 1.8726, LR: 0.001
[2025-07-25 07:16:49,124] [INFO] Epoch 3/50, ValAcc: 51.15%, TrainLoss: 1.8648, ValLoss: 1.8270, LR: 0.001
…
[2025-07-25 07:34:06,254] [INFO] (84492, 100)
[2025-07-25 07:34:06,254] [INFO] [['656' '94' '52' ... '1432' '1432' '1432']
 ['423' '87' '52' ... '652' '94' '52']
 ['423' '87' '52' ... '52' '1432' '1432']
 ...
 ['242' '87' '52' ... '1432' '52' '1432']
 ['60' '60' '52' ... '181' '52' '1432']
 ['64' '52' '52' ... '1432' '52' '1432']]
[2025-07-25 07:34:13,744] [INFO] Feature 0 normalized using token
[2025-07-25 07:34:13,744] [INFO] Train shape: (59143, 100), Val shape: (8450, 100), Test shape: (16899, 100)
[2025-07-25 07:34:13,809] [INFO] Classifier: VRScannerModel(
  (input_modules): ModuleList(
    (0): Embedding(1376, 512)
  )
  (rnn_layers): ModuleList(
    (0): GRU(512, 256, num_layers=3, batch_first=True, dropout=0.3, bidirectional=True)
  )
  (attn_nets): ModuleList(
    (0): Sequential(
      (0): Linear(in_features=512, out_features=64, bias=True)
      (1): Tanh()
      (2): Linear(in_features=64, out_features=1, bias=True)
    )
  )
  (projection_layers): ModuleList(
    (0): Linear(in_features=512, out_features=256, bias=True)
  )
  (feature_attn_net): Sequential(
    (0): Linear(in_features=256, out_features=128, bias=True)
    (1): Tanh()
    (2): Linear(in_features=128, out_features=1, bias=True)
  )
  (fc): Sequential(
    (0): Linear(in_features=256, out_features=128, bias=True)
    (1): ReLU()
    (2): Dropout(p=0.3, inplace=False)
    (3): Linear(in_features=128, out_features=91, bias=True)
  )
)
[2025-07-25 07:34:13,809] [INFO] Training...
[2025-07-25 07:34:58,908] [INFO] Epoch 1/50, ValAcc: 77.21%, TrainLoss: 1.8447, ValLoss: 0.9841, LR: 0.001
[2025-07-25 07:35:41,778] [INFO] Epoch 2/50, ValAcc: 79.12%, TrainLoss: 0.9444, ValLoss: 0.8729, LR: 0.001
[2025-07-25 07:36:24,111] [INFO] Epoch 3/50, ValAcc: 80.14%, TrainLoss: 0.8549, ValLoss: 0.8175, LR: 0.001
…
[2025-07-25 07:52:08,276] [INFO] (84492, 200)
[2025-07-25 07:52:08,276] [INFO] [['656' '94' '52' ... '52' '52' '52']
 ['423' '87' '52' ... '1432' '1432' '52']
 ['423' '87' '52' ... '52' '1432' '1432']
 ...
 ['242' '87' '52' ... '52' '1432' '1432']
 ['60' '60' '52' ... '1432' '1432' '52']
 ['64' '52' '52' ... '52' '52' '1432']]
[2025-07-25 07:52:25,388] [INFO] Feature 0 normalized using token
[2025-07-25 07:52:25,388] [INFO] Train shape: (59143, 200), Val shape: (8450, 200), Test shape: (16899, 200)
[2025-07-25 07:52:25,441] [INFO] Classifier: VRScannerModel(
  (input_modules): ModuleList(
    (0): Embedding(1385, 512)
  )
  (rnn_layers): ModuleList(
    (0): GRU(512, 256, num_layers=3, batch_first=True, dropout=0.3, bidirectional=True)
  )
  (attn_nets): ModuleList(
    (0): Sequential(
      (0): Linear(in_features=512, out_features=64, bias=True)
      (1): Tanh()
      (2): Linear(in_features=64, out_features=1, bias=True)
    )
  )
  (projection_layers): ModuleList(
    (0): Linear(in_features=512, out_features=256, bias=True)
  )
  (feature_attn_net): Sequential(
    (0): Linear(in_features=256, out_features=128, bias=True)
    (1): Tanh()
    (2): Linear(in_features=128, out_features=1, bias=True)
  )
  (fc): Sequential(
    (0): Linear(in_features=256, out_features=128, bias=True)
    (1): ReLU()
    (2): Dropout(p=0.3, inplace=False)
    (3): Linear(in_features=128, out_features=91, bias=True)
  )
)
[2025-07-25 07:52:25,442] [INFO] Training...
[2025-07-25 07:53:11,012] [INFO] Epoch 1/50, ValAcc: 85.51%, TrainLoss: 1.8164, ValLoss: 0.6219, LR: 0.001
[2025-07-25 07:53:58,326] [INFO] Epoch 2/50, ValAcc: 86.97%, TrainLoss: 0.6149, ValLoss: 0.5558, LR: 0.001
[2025-07-25 07:54:37,727] [INFO] Epoch 3/50, ValAcc: 86.91%, TrainLoss: 0.5592, ValLoss: 0.5620, LR: 0.001
…
