…
[2025-07-25 01:33:43,684] [INFO] Processed data from vrchat-worlds/meta-tcp_urgptr/meta-tcp_urgptr.csv:
[2025-07-25 01:33:43,685] [INFO] (15228, 500)
[2025-07-25 01:33:43,685] [INFO] [['0' '0' '0' ... '0' '0' '0']
 ['0' '0' '0' ... '0' '0' '0']
 ['0' '0' '0' ... '0' '0' '0']
 ...
 ['0' '0' '0' ... '0' '0' '0']
 ['0' '0' '0' ... '0' '0' '0']
 ['0' '0' '0' ... '0' '0' '0']]
[2025-07-25 01:33:46,667] [INFO] Feature 0 normalized using token
[2025-07-25 01:33:46,667] [INFO] Train shape: (10659, 500), Val shape: (1523, 500), Test shape: (3046, 500)
[2025-07-25 01:33:46,700] [INFO] Classifier: VRScannerModel(
  (input_modules): ModuleList(
    (0): Embedding(2, 128)
  )
  (rnn_layers): ModuleList(
    (0): GRU(128, 128, num_layers=3, batch_first=True, dropout=0.3)
  )
  (attn_nets): ModuleList(
    (0): Sequential(
      (0): Linear(in_features=128, out_features=64, bias=True)
      (1): Tanh()
      (2): Linear(in_features=64, out_features=1, bias=True)
    )
  )
  (projection_layers): ModuleList(
    (0): Linear(in_features=128, out_features=128, bias=True)
  )
  (feature_attn_net): Sequential(
    (0): Linear(in_features=128, out_features=128, bias=True)
    (1): Tanh()
    (2): Linear(in_features=128, out_features=1, bias=True)
  )
  (fc): Sequential(
    (0): Linear(in_features=128, out_features=128, bias=True)
    (1): ReLU()
    (2): Dropout(p=0.3, inplace=False)
    (3): Linear(in_features=128, out_features=50, bias=True)
  )
)
[2025-07-25 01:33:46,700] [INFO] Training...
[2025-07-25 01:33:50,705] [INFO] Epoch 1/5, ValAcc: 3.28%, TrainLoss: 3.9078, ValLoss: 3.8986, LR: 0.001
[2025-07-25 01:33:54,925] [INFO] Epoch 2/5, ValAcc: 2.36%, TrainLoss: 3.8904, ValLoss: 3.8918, LR: 0.001
[2025-07-25 01:33:59,138] [INFO] Epoch 3/5, ValAcc: 2.43%, TrainLoss: 3.8853, ValLoss: 3.8908, LR: 0.001
…
ug', leaderboard_path='output/vrchat-worlds/step2/step2_meta_tcp_urgptr.csv', step1=False, step2=True, step3=False, train=False, longitudinal_evaluation=False, openworld_evaluation=False, device=device(type='cuda'), metadata='urgptr', name='tcpurgptr_token_gru_500_32_5_0.001_128_128_3_0.3_128_128'),0.0286,0.0026,0.0014,0.0298
[2025-07-25 01:34:10,832] [INFO] Feature 0 normalized using token
[2025-07-25 01:34:10,832] [INFO] Train shape: (10659, 500), Val shape: (1523, 500), Test shape: (3046, 500)
[2025-07-25 01:34:10,844] [INFO] Classifier: VRScannerModel(
  (input_modules): ModuleList(
    (0): Embedding(2, 128)
  )
  (rnn_layers): ModuleList(
    (0): GRU(128, 128, num_layers=3, batch_first=True, dropout=0.3, bidirectional=True)
  )
  (attn_nets): ModuleList(
    (0): Sequential(
      (0): Linear(in_features=256, out_features=64, bias=True)
      (1): Tanh()
      (2): Linear(in_features=64, out_features=1, bias=True)
    )
  )
  (projection_layers): ModuleList(
    (0): Linear(in_features=256, out_features=128, bias=True)
  )
  (feature_attn_net): Sequential(
    (0): Linear(in_features=128, out_features=128, bias=True)
    (1): Tanh()
    (2): Linear(in_features=128, out_features=1, bias=True)
  )
  (fc): Sequential(
    (0): Linear(in_features=128, out_features=128, bias=True)
    (1): ReLU()
    (2): Dropout(p=0.3, inplace=False)
    (3): Linear(in_features=128, out_features=50, bias=True)
  )
)
[2025-07-25 01:34:10,844] [INFO] Training...
[2025-07-25 01:34:15,469] [INFO] Epoch 1/5, ValAcc: 2.36%, TrainLoss: 3.9120, ValLoss: 3.9002, LR: 0.001
[2025-07-25 01:34:20,072] [INFO] Epoch 2/5, ValAcc: 2.30%, TrainLoss: 3.8920, ValLoss: 3.9027, LR: 0.001
[2025-07-25 01:34:24,723] [INFO] Epoch 3/5, ValAcc: 2.30%, TrainLoss: 3.8975, ValLoss: 3.9077, LR: 0.001
…
