…
 ['0' '0' '0' ... '0' '0' '0']
 ['0' '0' '0' ... '0' '0' '0']
 ...
 ['0' '0' '0' ... '0' '0' '0']
 ['0' '0' '0' ... '0' '0' '0']
 ['0' '0' '0' ... '0' '0' '0']]
[2025-07-25 00:57:21,320] [INFO] Feature 0 normalized using none
[2025-07-25 00:57:21,321] [INFO] Train shape: (10659, 500), Val shape: (1523, 500), Test shape: (3046, 500)
[2025-07-25 00:57:21,353] [INFO] Classifier: VRScannerModel(
  (input_modules): ModuleList(
    (0): Identity()
  )
  (rnn_layers): ModuleList(
    (0): GRU(1, 128, num_layers=3, batch_first=True, dropout=0.3)
  )
  (attn_nets): ModuleList(
    (0): Sequential(
      (0): Linear(in_features=128, out_features=64, bias=True)
      (1): Tanh()
      (2): Linear(in_features=64, out_features=1, bias=True)
    )
  )
  (projection_layers): ModuleList(
    (0): Linear(in_features=128, out_features=128, bias=True)
  )
  (feature_attn_net): Sequential(
    (0): Linear(in_features=128, out_features=128, bias=True)
    (1): Tanh()
    (2): Linear(in_features=128, out_features=1, bias=True)
  )
  (fc): Sequential(
    (0): Linear(in_features=128, out_features=128, bias=True)
    (1): ReLU()
    (2): Dropout(p=0.3, inplace=False)
    (3): Linear(in_features=128, out_features=50, bias=True)
  )
)
[2025-07-25 00:57:21,353] [INFO] Training...
[2025-07-25 00:57:24,643] [INFO] Epoch 1/5, ValAcc: 1.97%, TrainLoss: 3.9148, ValLoss: 3.9131, LR: 0.001
[2025-07-25 00:57:27,080] [INFO] Epoch 2/5, ValAcc: 1.71%, TrainLoss: 3.9136, ValLoss: 3.9156, LR: 0.001
[2025-07-25 00:57:30,050] [INFO] Epoch 3/5, ValAcc: 2.10%, TrainLoss: 3.9135, ValLoss: 3.9152, LR: 0.001
…
lse, device=device(type='cuda'), metadata='tos', name='iptos_none_gru_500_32_5_0.001_128_128_3_0.3_128_128'),0.0158,0.0006,0.0003,0.0200
[2025-07-25 00:57:40,998] [INFO] Feature 0 normalized using none
[2025-07-25 00:57:40,998] [INFO] Train shape: (10659, 500), Val shape: (1523, 500), Test shape: (3046, 500)
[2025-07-25 00:57:41,011] [INFO] Classifier: VRScannerModel(
  (input_modules): ModuleList(
    (0): Identity()
  )
  (rnn_layers): ModuleList(
    (0): GRU(1, 128, num_layers=3, batch_first=True, dropout=0.3, bidirectional=True)
  )
  (attn_nets): ModuleList(
    (0): Sequential(
      (0): Linear(in_features=256, out_features=64, bias=True)
      (1): Tanh()
      (2): Linear(in_features=64, out_features=1, bias=True)
    )
  )
  (projection_layers): ModuleList(
    (0): Linear(in_features=256, out_features=128, bias=True)
  )
  (feature_attn_net): Sequential(
    (0): Linear(in_features=128, out_features=128, bias=True)
    (1): Tanh()
    (2): Linear(in_features=128, out_features=1, bias=True)
  )
  (fc): Sequential(
    (0): Linear(in_features=128, out_features=128, bias=True)
    (1): ReLU()
    (2): Dropout(p=0.3, inplace=False)
    (3): Linear(in_features=128, out_features=50, bias=True)
  )
)
[2025-07-25 00:57:41,011] [INFO] Training...
[2025-07-25 00:57:45,275] [INFO] Epoch 1/5, ValAcc: 1.71%, TrainLoss: 3.9159, ValLoss: 3.9152, LR: 0.001
[2025-07-25 00:57:49,517] [INFO] Epoch 2/5, ValAcc: 1.71%, TrainLoss: 3.9138, ValLoss: 3.9142, LR: 0.001
[2025-07-25 00:57:54,047] [INFO] Epoch 3/5, ValAcc: 1.58%, TrainLoss: 3.9132, ValLoss: 3.9180, LR: 0.001
…
