…
[2025-07-25 01:25:43,567] [INFO] [['61714' '61816' '29483' ... '51632' '11470' '11288']
 ['20568' '51632' '20575' ... '11013' '19906' '5121']
 ['24518' '24517' '24516' ... '49692' '51576' '32726']
 ...
 ['13216' '35238' '35237' ... '42287' '42310' '33568']
 ['52321' '53412' '44799' ... '59763' '59762' '59761']
 ['47514' '45635' '40750' ... '7241' '7240' '7239']]
[2025-07-25 01:25:53,320] [INFO] Feature 0 normalized using token
[2025-07-25 01:25:53,321] [INFO] Train shape: (10659, 500), Val shape: (1523, 500), Test shape: (3046, 500)
[2025-07-25 01:25:53,418] [INFO] Classifier: VRScannerModel(
  (input_modules): ModuleList(
    (0): Embedding(65536, 128)
  )
  (rnn_layers): ModuleList(
    (0): GRU(128, 128, num_layers=3, batch_first=True, dropout=0.3)
  )
  (attn_nets): ModuleList(
    (0): Sequential(
      (0): Linear(in_features=128, out_features=64, bias=True)
      (1): Tanh()
      (2): Linear(in_features=64, out_features=1, bias=True)
    )
  )
  (projection_layers): ModuleList(
    (0): Linear(in_features=128, out_features=128, bias=True)
  )
  (feature_attn_net): Sequential(
    (0): Linear(in_features=128, out_features=128, bias=True)
    (1): Tanh()
    (2): Linear(in_features=128, out_features=1, bias=True)
  )
  (fc): Sequential(
    (0): Linear(in_features=128, out_features=128, bias=True)
    (1): ReLU()
    (2): Dropout(p=0.3, inplace=False)
    (3): Linear(in_features=128, out_features=50, bias=True)
  )
)
[2025-07-25 01:25:53,418] [INFO] Training...
[2025-07-25 01:25:57,336] [INFO] Epoch 1/5, ValAcc: 4.60%, TrainLoss: 3.8332, ValLoss: 3.7278, LR: 0.001
[2025-07-25 01:26:00,056] [INFO] Epoch 2/5, ValAcc: 8.67%, TrainLoss: 3.6208, ValLoss: 3.5019, LR: 0.001
[2025-07-25 01:26:03,900] [INFO] Epoch 3/5, ValAcc: 8.40%, TrainLoss: 3.4091, ValLoss: 3.4110, LR: 0.001
…
ebug', leaderboard_path='output/vrchat-worlds/step2/step2_meta_ip_chksum.csv', step1=False, step2=True, step3=False, train=False, longitudinal_evaluation=False, openworld_evaluation=False, device=device(type='cuda'), metadata='chksum', name='ipchksum_token_gru_500_32_5_0.001_128_128_3_0.3_128_128'),0.0739,0.0581,0.0694,0.0724
[2025-07-25 01:26:22,460] [INFO] Feature 0 normalized using token
[2025-07-25 01:26:22,461] [INFO] Train shape: (10659, 500), Val shape: (1523, 500), Test shape: (3046, 500)
[2025-07-25 01:26:22,512] [INFO] Classifier: VRScannerModel(
  (input_modules): ModuleList(
    (0): Embedding(65536, 128)
  )
  (rnn_layers): ModuleList(
    (0): GRU(128, 128, num_layers=3, batch_first=True, dropout=0.3, bidirectional=True)
  )
  (attn_nets): ModuleList(
    (0): Sequential(
      (0): Linear(in_features=256, out_features=64, bias=True)
      (1): Tanh()
      (2): Linear(in_features=64, out_features=1, bias=True)
    )
  )
  (projection_layers): ModuleList(
    (0): Linear(in_features=256, out_features=128, bias=True)
  )
  (feature_attn_net): Sequential(
    (0): Linear(in_features=128, out_features=128, bias=True)
    (1): Tanh()
    (2): Linear(in_features=128, out_features=1, bias=True)
  )
  (fc): Sequential(
    (0): Linear(in_features=128, out_features=128, bias=True)
    (1): ReLU()
    (2): Dropout(p=0.3, inplace=False)
    (3): Linear(in_features=128, out_features=50, bias=True)
  )
)
[2025-07-25 01:26:22,512] [INFO] Training...
[2025-07-25 01:26:27,478] [INFO] Epoch 1/5, ValAcc: 5.84%, TrainLoss: 3.7920, ValLoss: 3.5715, LR: 0.001
[2025-07-25 01:26:32,451] [INFO] Epoch 2/5, ValAcc: 7.29%, TrainLoss: 3.5567, ValLoss: 3.5014, LR: 0.001
[2025-07-25 01:26:37,946] [INFO] Epoch 3/5, ValAcc: 8.27%, TrainLoss: 3.4375, ValLoss: 3.4661, LR: 0.001
…
