…
 ['2932805791' '2932805791' '2932805791' ... '1970574820' '4047635516'
  '1357470443']
 ...
 ['670653263' '3502194759' '3502194759' ... '3696499472' '3696499472'
  '3858801904']
 ['4255824745' '4255824745' '4135560264' ... '2535508924' '2535508924'
  '2535508924']
 ['3212272523' '977748651' '2033179499' ... '1533325913' '1533325913'
  '1533325913']]
[2025-07-25 01:48:46,477] [INFO] Feature 0 normalized using zscore
[2025-07-25 01:48:46,477] [INFO] Train shape: (10659, 500), Val shape: (1523, 500), Test shape: (3046, 500)
[2025-07-25 01:48:46,507] [INFO] Classifier: VRScannerModel(
  (input_modules): ModuleList(
    (0): Linear(in_features=1, out_features=128, bias=True)
  )
  (rnn_layers): ModuleList(
    (0): GRU(128, 128, num_layers=3, batch_first=True, dropout=0.3)
  )
  (attn_nets): ModuleList(
    (0): Sequential(
      (0): Linear(in_features=128, out_features=64, bias=True)
      (1): Tanh()
      (2): Linear(in_features=64, out_features=1, bias=True)
    )
  )
  (projection_layers): ModuleList(
    (0): Linear(in_features=128, out_features=128, bias=True)
  )
  (feature_attn_net): Sequential(
    (0): Linear(in_features=128, out_features=128, bias=True)
    (1): Tanh()
    (2): Linear(in_features=128, out_features=1, bias=True)
  )
  (fc): Sequential(
    (0): Linear(in_features=128, out_features=128, bias=True)
    (1): ReLU()
    (2): Dropout(p=0.3, inplace=False)
    (3): Linear(in_features=128, out_features=50, bias=True)
  )
)
[2025-07-25 01:48:46,507] [INFO] Training...
[2025-07-25 01:48:51,417] [INFO] Epoch 1/5, ValAcc: 3.41%, TrainLoss: 3.9108, ValLoss: 3.8839, LR: 0.001
[2025-07-25 01:48:55,614] [INFO] Epoch 2/5, ValAcc: 3.28%, TrainLoss: 3.8751, ValLoss: 3.8563, LR: 0.001
[2025-07-25 01:48:59,805] [INFO] Epoch 3/5, ValAcc: 7.62%, TrainLoss: 3.7731, ValLoss: 3.6700, LR: 0.001
…
ack.debug', leaderboard_path='output/vrchat-worlds/step2/step2_meta_tcp_ack.csv', step1=False, step2=True, step3=False, train=False, longitudinal_evaluation=False, openworld_evaluation=False, device=device(type='cuda'), metadata='ack', name='tcpack_zscore_gru_500_32_5_0.001_128_128_3_0.3_128_128'),0.2518,0.2342,0.3197,0.2482
[2025-07-25 01:49:12,779] [INFO] Feature 0 normalized using zscore
[2025-07-25 01:49:12,779] [INFO] Train shape: (10659, 500), Val shape: (1523, 500), Test shape: (3046, 500)
[2025-07-25 01:49:12,789] [INFO] Classifier: VRScannerModel(
  (input_modules): ModuleList(
    (0): Linear(in_features=1, out_features=128, bias=True)
  )
  (rnn_layers): ModuleList(
    (0): GRU(128, 128, num_layers=3, batch_first=True, dropout=0.3, bidirectional=True)
  )
  (attn_nets): ModuleList(
    (0): Sequential(
      (0): Linear(in_features=256, out_features=64, bias=True)
      (1): Tanh()
      (2): Linear(in_features=64, out_features=1, bias=True)
    )
  )
  (projection_layers): ModuleList(
    (0): Linear(in_features=256, out_features=128, bias=True)
  )
  (feature_attn_net): Sequential(
    (0): Linear(in_features=128, out_features=128, bias=True)
    (1): Tanh()
    (2): Linear(in_features=128, out_features=1, bias=True)
  )
  (fc): Sequential(
    (0): Linear(in_features=128, out_features=128, bias=True)
    (1): ReLU()
    (2): Dropout(p=0.3, inplace=False)
    (3): Linear(in_features=128, out_features=50, bias=True)
  )
)
[2025-07-25 01:49:12,789] [INFO] Training...
[2025-07-25 01:49:17,385] [INFO] Epoch 1/5, ValAcc: 2.95%, TrainLoss: 3.9147, ValLoss: 3.8986, LR: 0.001
[2025-07-25 01:49:22,652] [INFO] Epoch 2/5, ValAcc: 4.40%, TrainLoss: 3.8689, ValLoss: 3.8223, LR: 0.001
[2025-07-25 01:49:27,923] [INFO] Epoch 3/5, ValAcc: 9.46%, TrainLoss: 3.7340, ValLoss: 3.6149, LR: 0.001
…
