…
[2025-07-25 01:22:03,909] [INFO] Processed data from vrchat-worlds/meta-ip_flags/meta-ip_flags.csv:
[2025-07-25 01:22:03,909] [INFO] (15228, 500)
[2025-07-25 01:22:03,909] [INFO] [['DF' 'DF' 'DF' ... 'DF' 'DF' 'DF']
 ['DF' 'DF' 'DF' ... 'DF' 'DF' 'DF']
 ['DF' 'DF' 'DF' ... 'DF' 'DF' 'DF']
 ...
 ['DF' 'DF' 'DF' ... 'DF' 'DF' 'DF']
 ['DF' 'DF' 'DF' ... 'DF' 'DF' 'DF']
 ['DF' 'DF' 'DF' ... 'DF' 'DF' 'DF']]
[2025-07-25 01:22:07,835] [INFO] Feature 0 normalized using token
[2025-07-25 01:22:07,835] [INFO] Train shape: (10659, 500), Val shape: (1523, 500), Test shape: (3046, 500)
[2025-07-25 01:22:07,875] [INFO] Classifier: VRScannerModel(
  (input_modules): ModuleList(
    (0): Embedding(2, 128)
  )
  (rnn_layers): ModuleList(
    (0): GRU(128, 128, num_layers=3, batch_first=True, dropout=0.3)
  )
  (attn_nets): ModuleList(
    (0): Sequential(
      (0): Linear(in_features=128, out_features=64, bias=True)
      (1): Tanh()
      (2): Linear(in_features=64, out_features=1, bias=True)
    )
  )
  (projection_layers): ModuleList(
    (0): Linear(in_features=128, out_features=128, bias=True)
  )
  (feature_attn_net): Sequential(
    (0): Linear(in_features=128, out_features=128, bias=True)
    (1): Tanh()
    (2): Linear(in_features=128, out_features=1, bias=True)
  )
  (fc): Sequential(
    (0): Linear(in_features=128, out_features=128, bias=True)
    (1): ReLU()
    (2): Dropout(p=0.3, inplace=False)
    (3): Linear(in_features=128, out_features=50, bias=True)
  )
)
[2025-07-25 01:22:07,875] [INFO] Training...
[2025-07-25 01:22:11,470] [INFO] Epoch 1/5, ValAcc: 1.97%, TrainLoss: 3.9166, ValLoss: 3.9129, LR: 0.001
[2025-07-25 01:22:14,521] [INFO] Epoch 2/5, ValAcc: 1.97%, TrainLoss: 3.9132, ValLoss: 3.9139, LR: 0.001
[2025-07-25 01:22:18,807] [INFO] Epoch 3/5, ValAcc: 1.97%, TrainLoss: 3.9124, ValLoss: 3.9150, LR: 0.001
…
s.debug', leaderboard_path='output/vrchat-worlds/step2/step2_meta_ip_flags.csv', step1=False, step2=True, step3=False, train=False, longitudinal_evaluation=False, openworld_evaluation=False, device=device(type='cuda'), metadata='flags', name='ipflags_token_gru_500_32_5_0.001_128_128_3_0.3_128_128'),0.0141,0.0006,0.0003,0.0200
[2025-07-25 01:22:30,360] [INFO] Feature 0 normalized using token
[2025-07-25 01:22:30,361] [INFO] Train shape: (10659, 500), Val shape: (1523, 500), Test shape: (3046, 500)
[2025-07-25 01:22:30,372] [INFO] Classifier: VRScannerModel(
  (input_modules): ModuleList(
    (0): Embedding(2, 128)
  )
  (rnn_layers): ModuleList(
    (0): GRU(128, 128, num_layers=3, batch_first=True, dropout=0.3, bidirectional=True)
  )
  (attn_nets): ModuleList(
    (0): Sequential(
      (0): Linear(in_features=256, out_features=64, bias=True)
      (1): Tanh()
      (2): Linear(in_features=64, out_features=1, bias=True)
    )
  )
  (projection_layers): ModuleList(
    (0): Linear(in_features=256, out_features=128, bias=True)
  )
  (feature_attn_net): Sequential(
    (0): Linear(in_features=128, out_features=128, bias=True)
    (1): Tanh()
    (2): Linear(in_features=128, out_features=1, bias=True)
  )
  (fc): Sequential(
    (0): Linear(in_features=128, out_features=128, bias=True)
    (1): ReLU()
    (2): Dropout(p=0.3, inplace=False)
    (3): Linear(in_features=128, out_features=50, bias=True)
  )
)
[2025-07-25 01:22:30,372] [INFO] Training...
[2025-07-25 01:22:35,190] [INFO] Epoch 1/5, ValAcc: 1.71%, TrainLoss: 3.9196, ValLoss: 3.9126, LR: 0.001
[2025-07-25 01:22:40,541] [INFO] Epoch 2/5, ValAcc: 1.71%, TrainLoss: 3.9129, ValLoss: 3.9131, LR: 0.001
[2025-07-25 01:22:45,881] [INFO] Epoch 3/5, ValAcc: 1.44%, TrainLoss: 3.9124, ValLoss: 3.9137, LR: 0.001
…
