…
 ['42508' '11397' '11398' ... '5739' '5740' '18042']
 ['2023' '2024' '7341' ... '52442' '52443' '52444']
 ['1512' '7010' '6931' ... '40440' '40441' '40442']]
[2025-07-25 01:15:34,016] [INFO] Feature 0 normalized using none
[2025-07-25 01:15:34,017] [INFO] Train shape: (10659, 500), Val shape: (1523, 500), Test shape: (3046, 500)
[2025-07-25 01:15:34,057] [INFO] Classifier: VRScannerModel(
  (input_modules): ModuleList(
    (0): Identity()
  )
  (rnn_layers): ModuleList(
    (0): GRU(1, 128, num_layers=3, batch_first=True, dropout=0.3)
  )
  (attn_nets): ModuleList(
    (0): Sequential(
      (0): Linear(in_features=128, out_features=64, bias=True)
      (1): Tanh()
      (2): Linear(in_features=64, out_features=1, bias=True)
    )
  )
  (projection_layers): ModuleList(
    (0): Linear(in_features=128, out_features=128, bias=True)
  )
  (feature_attn_net): Sequential(
    (0): Linear(in_features=128, out_features=128, bias=True)
    (1): Tanh()
    (2): Linear(in_features=128, out_features=1, bias=True)
  )
  (fc): Sequential(
    (0): Linear(in_features=128, out_features=128, bias=True)
    (1): ReLU()
    (2): Dropout(p=0.3, inplace=False)
    (3): Linear(in_features=128, out_features=50, bias=True)
  )
)
[2025-07-25 01:15:34,057] [INFO] Training...
[2025-07-25 01:15:37,337] [INFO] Epoch 1/5, ValAcc: 2.82%, TrainLoss: 3.9151, ValLoss: 3.8959, LR: 0.001
[2025-07-25 01:15:41,186] [INFO] Epoch 2/5, ValAcc: 4.33%, TrainLoss: 3.8742, ValLoss: 3.8522, LR: 0.001
[2025-07-25 01:15:45,311] [INFO] Epoch 3/5, ValAcc: 5.91%, TrainLoss: 3.8260, ValLoss: 3.8157, LR: 0.001
…
False, device=device(type='cuda'), metadata='id', name='ipid_none_gru_500_32_5_0.001_128_128_3_0.3_128_128'),0.0489,0.0288,0.0428,0.0519
[2025-07-25 01:15:57,201] [INFO] Feature 0 normalized using none
[2025-07-25 01:15:57,201] [INFO] Train shape: (10659, 500), Val shape: (1523, 500), Test shape: (3046, 500)
[2025-07-25 01:15:57,212] [INFO] Classifier: VRScannerModel(
  (input_modules): ModuleList(
    (0): Identity()
  )
  (rnn_layers): ModuleList(
    (0): GRU(1, 128, num_layers=3, batch_first=True, dropout=0.3, bidirectional=True)
  )
  (attn_nets): ModuleList(
    (0): Sequential(
      (0): Linear(in_features=256, out_features=64, bias=True)
      (1): Tanh()
      (2): Linear(in_features=64, out_features=1, bias=True)
    )
  )
  (projection_layers): ModuleList(
    (0): Linear(in_features=256, out_features=128, bias=True)
  )
  (feature_attn_net): Sequential(
    (0): Linear(in_features=128, out_features=128, bias=True)
    (1): Tanh()
    (2): Linear(in_features=128, out_features=1, bias=True)
  )
  (fc): Sequential(
    (0): Linear(in_features=128, out_features=128, bias=True)
    (1): ReLU()
    (2): Dropout(p=0.3, inplace=False)
    (3): Linear(in_features=128, out_features=50, bias=True)
  )
)
[2025-07-25 01:15:57,213] [INFO] Training...
[2025-07-25 01:16:02,136] [INFO] Epoch 1/5, ValAcc: 2.30%, TrainLoss: 3.9163, ValLoss: 3.8840, LR: 0.001
[2025-07-25 01:16:07,250] [INFO] Epoch 2/5, ValAcc: 3.09%, TrainLoss: 3.8731, ValLoss: 3.8760, LR: 0.001
[2025-07-25 01:16:12,346] [INFO] Epoch 3/5, ValAcc: 4.46%, TrainLoss: 3.8507, ValLoss: 3.8457, LR: 0.001
…
