…
 ['1006363683' '1006365063' '1006366443' ... '375200377' '1357469725'
  '4047635516']
 ...
 ['4241334048' '3977323112' '3977324492' ... '3858801880' '3858801904'
  '3696499472']
 ['4135558596' '4135559976' '4255824745' ... '3919525443' '3919526823'
  '3919528203']
 ['3844023282' '2033179499' '977779011' ... '2343468812' '2343470192'
  '2343471572']]
[2025-07-25 01:45:18,028] [INFO] Feature 0 normalized using zscore
[2025-07-25 01:45:18,028] [INFO] Train shape: (10659, 500), Val shape: (1523, 500), Test shape: (3046, 500)
[2025-07-25 01:45:18,059] [INFO] Classifier: VRScannerModel(
  (input_modules): ModuleList(
    (0): Linear(in_features=1, out_features=128, bias=True)
  )
  (rnn_layers): ModuleList(
    (0): GRU(128, 128, num_layers=3, batch_first=True, dropout=0.3)
  )
  (attn_nets): ModuleList(
    (0): Sequential(
      (0): Linear(in_features=128, out_features=64, bias=True)
      (1): Tanh()
      (2): Linear(in_features=64, out_features=1, bias=True)
    )
  )
  (projection_layers): ModuleList(
    (0): Linear(in_features=128, out_features=128, bias=True)
  )
  (feature_attn_net): Sequential(
    (0): Linear(in_features=128, out_features=128, bias=True)
    (1): Tanh()
    (2): Linear(in_features=128, out_features=1, bias=True)
  )
  (fc): Sequential(
    (0): Linear(in_features=128, out_features=128, bias=True)
    (1): ReLU()
    (2): Dropout(p=0.3, inplace=False)
    (3): Linear(in_features=128, out_features=50, bias=True)
  )
)
[2025-07-25 01:45:18,059] [INFO] Training...
[2025-07-25 01:45:22,534] [INFO] Epoch 1/5, ValAcc: 3.48%, TrainLoss: 3.9143, ValLoss: 3.9120, LR: 0.001
[2025-07-25 01:45:26,677] [INFO] Epoch 2/5, ValAcc: 3.28%, TrainLoss: 3.9003, ValLoss: 3.8917, LR: 0.001
[2025-07-25 01:45:29,978] [INFO] Epoch 3/5, ValAcc: 5.12%, TrainLoss: 3.8514, ValLoss: 3.8104, LR: 0.001
…
seq.debug', leaderboard_path='output/vrchat-worlds/step2/step2_meta_tcp_seq.csv', step1=False, step2=True, step3=False, train=False, longitudinal_evaluation=False, openworld_evaluation=False, device=device(type='cuda'), metadata='seq', name='tcpseq_zscore_gru_500_32_5_0.001_128_128_3_0.3_128_128'),0.1451,0.1206,0.1687,0.1418
[2025-07-25 01:45:39,306] [INFO] Feature 0 normalized using zscore
[2025-07-25 01:45:39,306] [INFO] Train shape: (10659, 500), Val shape: (1523, 500), Test shape: (3046, 500)
[2025-07-25 01:45:39,316] [INFO] Classifier: VRScannerModel(
  (input_modules): ModuleList(
    (0): Linear(in_features=1, out_features=128, bias=True)
  )
  (rnn_layers): ModuleList(
    (0): GRU(128, 128, num_layers=3, batch_first=True, dropout=0.3, bidirectional=True)
  )
  (attn_nets): ModuleList(
    (0): Sequential(
      (0): Linear(in_features=256, out_features=64, bias=True)
      (1): Tanh()
      (2): Linear(in_features=64, out_features=1, bias=True)
    )
  )
  (projection_layers): ModuleList(
    (0): Linear(in_features=256, out_features=128, bias=True)
  )
  (feature_attn_net): Sequential(
    (0): Linear(in_features=128, out_features=128, bias=True)
    (1): Tanh()
    (2): Linear(in_features=128, out_features=1, bias=True)
  )
  (fc): Sequential(
    (0): Linear(in_features=128, out_features=128, bias=True)
    (1): ReLU()
    (2): Dropout(p=0.3, inplace=False)
    (3): Linear(in_features=128, out_features=50, bias=True)
  )
)
[2025-07-25 01:45:39,316] [INFO] Training...
[2025-07-25 01:45:43,884] [INFO] Epoch 1/5, ValAcc: 2.56%, TrainLoss: 3.9175, ValLoss: 3.8990, LR: 0.001
[2025-07-25 01:45:48,445] [INFO] Epoch 2/5, ValAcc: 4.01%, TrainLoss: 3.8991, ValLoss: 3.8756, LR: 0.001
[2025-07-25 01:45:53,012] [INFO] Epoch 3/5, ValAcc: 7.35%, TrainLoss: 3.8413, ValLoss: 3.7403, LR: 0.001
…
