…
[2025-07-25 01:08:01,510] [INFO] Processed data from vrchat-worlds/meta-ip_proto/meta-ip_proto.csv:
[2025-07-25 01:08:01,510] [INFO] (15228, 500)
[2025-07-25 01:08:01,510] [INFO] [['6' '6' '6' ... '6' '6' '6']
 ['6' '6' '6' ... '6' '6' '6']
 ['6' '6' '6' ... '6' '6' '6']
 ...
 ['6' '6' '6' ... '6' '6' '6']
 ['6' '6' '6' ... '6' '6' '6']
 ['6' '6' '6' ... '6' '6' '6']]
[2025-07-25 01:08:05,167] [INFO] Feature 0 normalized using quantile
[2025-07-25 01:08:05,167] [INFO] Train shape: (10659, 500), Val shape: (1523, 500), Test shape: (3046, 500)
[2025-07-25 01:08:05,202] [INFO] Classifier: VRScannerModel(
  (input_modules): ModuleList(
    (0): Linear(in_features=1, out_features=128, bias=True)
  )
  (rnn_layers): ModuleList(
    (0): GRU(128, 128, num_layers=3, batch_first=True, dropout=0.3)
  )
  (attn_nets): ModuleList(
    (0): Sequential(
      (0): Linear(in_features=128, out_features=64, bias=True)
      (1): Tanh()
      (2): Linear(in_features=64, out_features=1, bias=True)
    )
  )
  (projection_layers): ModuleList(
    (0): Linear(in_features=128, out_features=128, bias=True)
  )
  (feature_attn_net): Sequential(
    (0): Linear(in_features=128, out_features=128, bias=True)
    (1): Tanh()
    (2): Linear(in_features=128, out_features=1, bias=True)
  )
  (fc): Sequential(
    (0): Linear(in_features=128, out_features=128, bias=True)
    (1): ReLU()
    (2): Dropout(p=0.3, inplace=False)
    (3): Linear(in_features=128, out_features=50, bias=True)
  )
)
[2025-07-25 01:08:05,202] [INFO] Training...
[2025-07-25 01:08:08,539] [INFO] Epoch 1/5, ValAcc: 1.97%, TrainLoss: 3.9169, ValLoss: 3.9149, LR: 0.001
[2025-07-25 01:08:10,943] [INFO] Epoch 2/5, ValAcc: 1.58%, TrainLoss: 3.9129, ValLoss: 3.9141, LR: 0.001
[2025-07-25 01:08:13,351] [INFO] Epoch 3/5, ValAcc: 1.97%, TrainLoss: 3.9126, ValLoss: 3.9142, LR: 0.001
…
g', leaderboard_path='output/vrchat-worlds/step2/step2_meta_ip_proto.csv', step1=False, step2=True, step3=False, train=False, longitudinal_evaluation=False, openworld_evaluation=False, device=device(type='cuda'), metadata='proto', name='ipproto_quantile_gru_500_32_5_0.001_128_128_3_0.3_128_128'),0.0141,0.0006,0.0003,0.0200
[2025-07-25 01:08:24,683] [INFO] Feature 0 normalized using quantile
[2025-07-25 01:08:24,683] [INFO] Train shape: (10659, 500), Val shape: (1523, 500), Test shape: (3046, 500)
[2025-07-25 01:08:24,701] [INFO] Classifier: VRScannerModel(
  (input_modules): ModuleList(
    (0): Linear(in_features=1, out_features=128, bias=True)
  )
  (rnn_layers): ModuleList(
    (0): GRU(128, 128, num_layers=3, batch_first=True, dropout=0.3, bidirectional=True)
  )
  (attn_nets): ModuleList(
    (0): Sequential(
      (0): Linear(in_features=256, out_features=64, bias=True)
      (1): Tanh()
      (2): Linear(in_features=64, out_features=1, bias=True)
    )
  )
  (projection_layers): ModuleList(
    (0): Linear(in_features=256, out_features=128, bias=True)
  )
  (feature_attn_net): Sequential(
    (0): Linear(in_features=128, out_features=128, bias=True)
    (1): Tanh()
    (2): Linear(in_features=128, out_features=1, bias=True)
  )
  (fc): Sequential(
    (0): Linear(in_features=128, out_features=128, bias=True)
    (1): ReLU()
    (2): Dropout(p=0.3, inplace=False)
    (3): Linear(in_features=128, out_features=50, bias=True)
  )
)
[2025-07-25 01:08:24,701] [INFO] Training...
[2025-07-25 01:08:29,402] [INFO] Epoch 1/5, ValAcc: 1.90%, TrainLoss: 3.9220, ValLoss: 3.9132, LR: 0.001
[2025-07-25 01:08:34,390] [INFO] Epoch 2/5, ValAcc: 1.97%, TrainLoss: 3.9126, ValLoss: 3.9138, LR: 0.001
[2025-07-25 01:08:39,616] [INFO] Epoch 3/5, ValAcc: 1.97%, TrainLoss: 3.9123, ValLoss: 3.9141, LR: 0.001
…
