…
[2025-07-25 00:35:57,470] [INFO] Processed data from vrchat-worlds/meta-pkt_dir/meta-pkt_dir.csv:
[2025-07-25 00:35:57,471] [INFO] (15228, 500)
[2025-07-25 00:35:57,471] [INFO] [['-1' '-1' '1' ... '-1' '1' '1']
 ['1' '-1' '1' ... '-1' '1' '1']
 ['-1' '-1' '-1' ... '1' '1' '-1']
 ...
 ['-1' '1' '1' ... '1' '1' '-1']
 ['-1' '-1' '1' ... '1' '1' '1']
 ['1' '-1' '1' ... '1' '1' '1']]
[2025-07-25 00:36:01,138] [INFO] Feature 0 normalized using token
[2025-07-25 00:36:01,138] [INFO] Train shape: (10659, 500), Val shape: (1523, 500), Test shape: (3046, 500)
[2025-07-25 00:36:01,170] [INFO] Classifier: VRScannerModel(
  (input_modules): ModuleList(
    (0): Embedding(3, 128)
  )
  (rnn_layers): ModuleList(
    (0): GRU(128, 128, num_layers=3, batch_first=True, dropout=0.3)
  )
  (attn_nets): ModuleList(
    (0): Sequential(
      (0): Linear(in_features=128, out_features=64, bias=True)
      (1): Tanh()
      (2): Linear(in_features=64, out_features=1, bias=True)
    )
  )
  (projection_layers): ModuleList(
    (0): Linear(in_features=128, out_features=128, bias=True)
  )
  (feature_attn_net): Sequential(
    (0): Linear(in_features=128, out_features=128, bias=True)
    (1): Tanh()
    (2): Linear(in_features=128, out_features=1, bias=True)
  )
  (fc): Sequential(
    (0): Linear(in_features=128, out_features=128, bias=True)
    (1): ReLU()
    (2): Dropout(p=0.3, inplace=False)
    (3): Linear(in_features=128, out_features=50, bias=True)
  )
)
[2025-07-25 00:36:01,170] [INFO] Training...
[2025-07-25 00:36:06,404] [INFO] Epoch 1/5, ValAcc: 1.97%, TrainLoss: 3.8935, ValLoss: 3.8858, LR: 0.001
[2025-07-25 00:36:10,661] [INFO] Epoch 2/5, ValAcc: 2.17%, TrainLoss: 3.8626, ValLoss: 3.8459, LR: 0.001
[2025-07-25 00:36:14,874] [INFO] Epoch 3/5, ValAcc: 5.32%, TrainLoss: 3.8372, ValLoss: 3.7995, LR: 0.001
…
t_dir.debug', leaderboard_path='output/vrchat-worlds/step2/step2_meta_pkt_dir.csv', step1=False, step2=True, step3=False, train=False, longitudinal_evaluation=False, openworld_evaluation=False, device=device(type='cuda'), metadata='dir', name='pktdir_token_gru_500_32_5_0.001_128_128_3_0.3_128_128'),0.0772,0.0519,0.0813,0.0769
[2025-07-25 00:36:25,997] [INFO] Feature 0 normalized using token
[2025-07-25 00:36:25,997] [INFO] Train shape: (10659, 500), Val shape: (1523, 500), Test shape: (3046, 500)
[2025-07-25 00:36:26,012] [INFO] Classifier: VRScannerModel(
  (input_modules): ModuleList(
    (0): Embedding(3, 128)
  )
  (rnn_layers): ModuleList(
    (0): GRU(128, 128, num_layers=3, batch_first=True, dropout=0.3, bidirectional=True)
  )
  (attn_nets): ModuleList(
    (0): Sequential(
      (0): Linear(in_features=256, out_features=64, bias=True)
      (1): Tanh()
      (2): Linear(in_features=64, out_features=1, bias=True)
    )
  )
  (projection_layers): ModuleList(
    (0): Linear(in_features=256, out_features=128, bias=True)
  )
  (feature_attn_net): Sequential(
    (0): Linear(in_features=128, out_features=128, bias=True)
    (1): Tanh()
    (2): Linear(in_features=128, out_features=1, bias=True)
  )
  (fc): Sequential(
    (0): Linear(in_features=128, out_features=128, bias=True)
    (1): ReLU()
    (2): Dropout(p=0.3, inplace=False)
    (3): Linear(in_features=128, out_features=50, bias=True)
  )
)
[2025-07-25 00:36:26,012] [INFO] Training...
[2025-07-25 00:36:31,170] [INFO] Epoch 1/5, ValAcc: 3.22%, TrainLoss: 3.8914, ValLoss: 3.8752, LR: 0.001
[2025-07-25 00:36:36,473] [INFO] Epoch 2/5, ValAcc: 2.63%, TrainLoss: 3.8641, ValLoss: 3.8446, LR: 0.001
[2025-07-25 00:36:41,782] [INFO] Epoch 3/5, ValAcc: 5.25%, TrainLoss: 3.8366, ValLoss: 3.7741, LR: 0.001
…
