…
 ['157.240.215.16' '157.240.215.16' '157.240.215.16' ... '10.0.0.11'
  '10.0.0.11' '157.240.215.51']
 ...
 ['157.240.199.22' '10.0.0.17' '10.0.0.17' ... '10.0.0.17' '10.0.0.17'
  '157.240.215.16']
 ['157.240.199.22' '157.240.199.22' '10.0.0.17' ... '10.0.0.17'
  '10.0.0.17' '10.0.0.17']
 ['10.0.0.17' '31.13.82.1' '10.0.0.17' ... '10.0.0.17' '10.0.0.17'
  '10.0.0.17']]
[2025-07-25 01:00:40,408] [INFO] Feature 0 normalized using token
[2025-07-25 01:00:40,408] [INFO] Train shape: (10659, 500), Val shape: (1523, 500), Test shape: (3046, 500)
[2025-07-25 01:00:40,441] [INFO] Classifier: VRScannerModel(
  (input_modules): ModuleList(
    (0): Embedding(58, 128)
  )
  (rnn_layers): ModuleList(
    (0): GRU(128, 128, num_layers=3, batch_first=True, dropout=0.3)
  )
  (attn_nets): ModuleList(
    (0): Sequential(
      (0): Linear(in_features=128, out_features=64, bias=True)
      (1): Tanh()
      (2): Linear(in_features=64, out_features=1, bias=True)
    )
  )
  (projection_layers): ModuleList(
    (0): Linear(in_features=128, out_features=128, bias=True)
  )
  (feature_attn_net): Sequential(
    (0): Linear(in_features=128, out_features=128, bias=True)
    (1): Tanh()
    (2): Linear(in_features=128, out_features=1, bias=True)
  )
  (fc): Sequential(
    (0): Linear(in_features=128, out_features=128, bias=True)
    (1): ReLU()
    (2): Dropout(p=0.3, inplace=False)
    (3): Linear(in_features=128, out_features=50, bias=True)
  )
)
[2025-07-25 01:00:40,441] [INFO] Training...
[2025-07-25 01:00:44,122] [INFO] Epoch 1/5, ValAcc: 11.10%, TrainLoss: 3.4660, ValLoss: 3.2018, LR: 0.001
[2025-07-25 01:00:48,168] [INFO] Epoch 2/5, ValAcc: 11.56%, TrainLoss: 3.2145, ValLoss: 3.0842, LR: 0.001
[2025-07-25 01:00:52,514] [INFO] Epoch 3/5, ValAcc: 17.60%, TrainLoss: 3.0888, ValLoss: 2.9670, LR: 0.001
…
_ip_src.debug', leaderboard_path='output/vrchat-worlds/step2/step2_meta_ip_src.csv', step1=False, step2=True, step3=False, train=False, longitudinal_evaluation=False, openworld_evaluation=False, device=device(type='cuda'), metadata='src', name='ipsrc_token_gru_500_32_5_0.001_128_128_3_0.3_128_128'),0.1871,0.1496,0.2259,0.1867
[2025-07-25 01:01:06,449] [INFO] Feature 0 normalized using token
[2025-07-25 01:01:06,450] [INFO] Train shape: (10659, 500), Val shape: (1523, 500), Test shape: (3046, 500)
[2025-07-25 01:01:06,460] [INFO] Classifier: VRScannerModel(
  (input_modules): ModuleList(
    (0): Embedding(58, 128)
  )
  (rnn_layers): ModuleList(
    (0): GRU(128, 128, num_layers=3, batch_first=True, dropout=0.3, bidirectional=True)
  )
  (attn_nets): ModuleList(
    (0): Sequential(
      (0): Linear(in_features=256, out_features=64, bias=True)
      (1): Tanh()
      (2): Linear(in_features=64, out_features=1, bias=True)
    )
  )
  (projection_layers): ModuleList(
    (0): Linear(in_features=256, out_features=128, bias=True)
  )
  (feature_attn_net): Sequential(
    (0): Linear(in_features=128, out_features=128, bias=True)
    (1): Tanh()
    (2): Linear(in_features=128, out_features=1, bias=True)
  )
  (fc): Sequential(
    (0): Linear(in_features=128, out_features=128, bias=True)
    (1): ReLU()
    (2): Dropout(p=0.3, inplace=False)
    (3): Linear(in_features=128, out_features=50, bias=True)
  )
)
[2025-07-25 01:01:06,460] [INFO] Training...
[2025-07-25 01:01:11,053] [INFO] Epoch 1/5, ValAcc: 12.54%, TrainLoss: 3.4550, ValLoss: 3.1493, LR: 0.001
[2025-07-25 01:01:15,650] [INFO] Epoch 2/5, ValAcc: 12.67%, TrainLoss: 3.1476, ValLoss: 3.0320, LR: 0.001
[2025-07-25 01:01:20,938] [INFO] Epoch 3/5, ValAcc: 17.47%, TrainLoss: 3.0133, ValLoss: 2.8890, LR: 0.001
…
