…
[2025-07-25 01:11:28,665] [INFO] (15228, 500)
[2025-07-25 01:11:28,665] [INFO] [['244' '141' '52' ... '60' '52' '233']
 ['60' '60' '52' ... '94' '52' '52']
 ['1432' '1432' '1432' ... '52' '770' '94']
 ...
 ['52' '1432' '1432' ... '76' '52' '76']
 ['1432' '340' '52' ... '1432' '1432' '1432']
 ['52' '52' '1432' ... '1432' '1432' '1432']]
[2025-07-25 01:11:35,552] [INFO] Feature 0 normalized using token
[2025-07-25 01:11:35,552] [INFO] Train shape: (10659, 500), Val shape: (1523, 500), Test shape: (3046, 500)
[2025-07-25 01:11:35,589] [INFO] Classifier: VRScannerModel(
  (input_modules): ModuleList(
    (0): Embedding(1384, 128)
  )
  (rnn_layers): ModuleList(
    (0): GRU(128, 128, num_layers=3, batch_first=True, dropout=0.3)
  )
  (attn_nets): ModuleList(
    (0): Sequential(
      (0): Linear(in_features=128, out_features=64, bias=True)
      (1): Tanh()
      (2): Linear(in_features=64, out_features=1, bias=True)
    )
  )
  (projection_layers): ModuleList(
    (0): Linear(in_features=128, out_features=128, bias=True)
  )
  (feature_attn_net): Sequential(
    (0): Linear(in_features=128, out_features=128, bias=True)
    (1): Tanh()
    (2): Linear(in_features=128, out_features=1, bias=True)
  )
  (fc): Sequential(
    (0): Linear(in_features=128, out_features=128, bias=True)
    (1): ReLU()
    (2): Dropout(p=0.3, inplace=False)
    (3): Linear(in_features=128, out_features=50, bias=True)
  )
)
[2025-07-25 01:11:35,590] [INFO] Training...
[2025-07-25 01:11:40,389] [INFO] Epoch 1/5, ValAcc: 5.71%, TrainLoss: 3.7866, ValLoss: 3.5731, LR: 0.001
[2025-07-25 01:11:44,650] [INFO] Epoch 2/5, ValAcc: 21.67%, TrainLoss: 3.1485, ValLoss: 2.7106, LR: 0.001
[2025-07-25 01:11:48,894] [INFO] Epoch 3/5, ValAcc: 34.60%, TrainLoss: 2.4995, ValLoss: 2.2424, LR: 0.001
…
_ip_len.debug', leaderboard_path='output/vrchat-worlds/step2/step2_meta_ip_len.csv', step1=False, step2=True, step3=False, train=False, longitudinal_evaluation=False, openworld_evaluation=False, device=device(type='cuda'), metadata='len', name='iplen_token_gru_500_32_5_0.001_128_128_3_0.3_128_128'),0.5318,0.5217,0.5721,0.5266
[2025-07-25 01:12:04,108] [INFO] Feature 0 normalized using token
[2025-07-25 01:12:04,108] [INFO] Train shape: (10659, 500), Val shape: (1523, 500), Test shape: (3046, 500)
[2025-07-25 01:12:04,121] [INFO] Classifier: VRScannerModel(
  (input_modules): ModuleList(
    (0): Embedding(1384, 128)
  )
  (rnn_layers): ModuleList(
    (0): GRU(128, 128, num_layers=3, batch_first=True, dropout=0.3, bidirectional=True)
  )
  (attn_nets): ModuleList(
    (0): Sequential(
      (0): Linear(in_features=256, out_features=64, bias=True)
      (1): Tanh()
      (2): Linear(in_features=64, out_features=1, bias=True)
    )
  )
  (projection_layers): ModuleList(
    (0): Linear(in_features=256, out_features=128, bias=True)
  )
  (feature_attn_net): Sequential(
    (0): Linear(in_features=128, out_features=128, bias=True)
    (1): Tanh()
    (2): Linear(in_features=128, out_features=1, bias=True)
  )
  (fc): Sequential(
    (0): Linear(in_features=128, out_features=128, bias=True)
    (1): ReLU()
    (2): Dropout(p=0.3, inplace=False)
    (3): Linear(in_features=128, out_features=50, bias=True)
  )
)
[2025-07-25 01:12:04,121] [INFO] Training...
[2025-07-25 01:12:08,756] [INFO] Epoch 1/5, ValAcc: 12.54%, TrainLoss: 3.6857, ValLoss: 3.2102, LR: 0.001
[2025-07-25 01:12:13,573] [INFO] Epoch 2/5, ValAcc: 28.30%, TrainLoss: 2.8743, ValLoss: 2.4246, LR: 0.001
[2025-07-25 01:12:18,940] [INFO] Epoch 3/5, ValAcc: 46.95%, TrainLoss: 2.1263, ValLoss: 1.7656, LR: 0.001
…
