…
 ['5' '5' '5' ... '5' '5' '5']
 ['5' '5' '5' ... '5' '5' '5']
 ...
 ['5' '5' '5' ... '5' '5' '5']
 ['5' '5' '5' ... '5' '5' '5']
 ['5' '5' '5' ... '5' '5' '5']]
[2025-07-25 00:50:34,247] [INFO] Feature 0 normalized using none
[2025-07-25 00:50:34,247] [INFO] Train shape: (10659, 500), Val shape: (1523, 500), Test shape: (3046, 500)
[2025-07-25 00:50:34,278] [INFO] Classifier: VRScannerModel(
  (input_modules): ModuleList(
    (0): Identity()
  )
  (rnn_layers): ModuleList(
    (0): GRU(1, 128, num_layers=3, batch_first=True, dropout=0.3)
  )
  (attn_nets): ModuleList(
    (0): Sequential(
      (0): Linear(in_features=128, out_features=64, bias=True)
      (1): Tanh()
      (2): Linear(in_features=64, out_features=1, bias=True)
    )
  )
  (projection_layers): ModuleList(
    (0): Linear(in_features=128, out_features=128, bias=True)
  )
  (feature_attn_net): Sequential(
    (0): Linear(in_features=128, out_features=128, bias=True)
    (1): Tanh()
    (2): Linear(in_features=128, out_features=1, bias=True)
  )
  (fc): Sequential(
    (0): Linear(in_features=128, out_features=128, bias=True)
    (1): ReLU()
    (2): Dropout(p=0.3, inplace=False)
    (3): Linear(in_features=128, out_features=50, bias=True)
  )
)
[2025-07-25 00:50:34,279] [INFO] Training...
[2025-07-25 00:50:37,590] [INFO] Epoch 1/5, ValAcc: 1.64%, TrainLoss: 3.9151, ValLoss: 3.9160, LR: 0.001
[2025-07-25 00:50:40,449] [INFO] Epoch 2/5, ValAcc: 1.71%, TrainLoss: 3.9138, ValLoss: 3.9155, LR: 0.001
[2025-07-25 00:50:44,091] [INFO] Epoch 3/5, ValAcc: 1.90%, TrainLoss: 3.9129, ValLoss: 3.9153, LR: 0.001
…
lse, device=device(type='cuda'), metadata='ihl', name='ipihl_none_gru_500_32_5_0.001_128_128_3_0.3_128_128'),0.0161,0.0006,0.0003,0.0200
[2025-07-25 00:50:54,776] [INFO] Feature 0 normalized using none
[2025-07-25 00:50:54,777] [INFO] Train shape: (10659, 500), Val shape: (1523, 500), Test shape: (3046, 500)
[2025-07-25 00:50:54,784] [INFO] Classifier: VRScannerModel(
  (input_modules): ModuleList(
    (0): Identity()
  )
  (rnn_layers): ModuleList(
    (0): GRU(1, 128, num_layers=3, batch_first=True, dropout=0.3, bidirectional=True)
  )
  (attn_nets): ModuleList(
    (0): Sequential(
      (0): Linear(in_features=256, out_features=64, bias=True)
      (1): Tanh()
      (2): Linear(in_features=64, out_features=1, bias=True)
    )
  )
  (projection_layers): ModuleList(
    (0): Linear(in_features=256, out_features=128, bias=True)
  )
  (feature_attn_net): Sequential(
    (0): Linear(in_features=128, out_features=128, bias=True)
    (1): Tanh()
    (2): Linear(in_features=128, out_features=1, bias=True)
  )
  (fc): Sequential(
    (0): Linear(in_features=128, out_features=128, bias=True)
    (1): ReLU()
    (2): Dropout(p=0.3, inplace=False)
    (3): Linear(in_features=128, out_features=50, bias=True)
  )
)
[2025-07-25 00:50:54,785] [INFO] Training...
[2025-07-25 00:50:59,016] [INFO] Epoch 1/5, ValAcc: 1.71%, TrainLoss: 3.9175, ValLoss: 3.9131, LR: 0.001
[2025-07-25 00:51:03,228] [INFO] Epoch 2/5, ValAcc: 1.90%, TrainLoss: 3.9136, ValLoss: 3.9563, LR: 0.001
[2025-07-25 00:51:08,129] [INFO] Epoch 3/5, ValAcc: 1.97%, TrainLoss: 3.9137, ValLoss: 3.9160, LR: 0.001
…
