…
 ['10.0.0.11' '10.0.0.11' '10.0.0.11' ... '157.240.215.23'
  '157.240.215.51' '10.0.0.11']
 ...
 ['10.0.0.17' '157.240.215.51' '157.240.215.51' ... '157.240.215.16'
  '157.240.215.16' '10.0.0.17']
 ['10.0.0.17' '10.0.0.17' '157.240.199.22' ... '157.240.215.16'
  '157.240.215.16' '157.240.215.16']
 ['31.13.82.36' '10.0.0.17' '31.13.82.1' ... '31.13.82.1' '31.13.82.1'
  '31.13.82.1']]
[2025-07-25 01:04:24,391] [INFO] Feature 0 normalized using token
[2025-07-25 01:04:24,391] [INFO] Train shape: (10659, 500), Val shape: (1523, 500), Test shape: (3046, 500)
[2025-07-25 01:04:24,424] [INFO] Classifier: VRScannerModel(
  (input_modules): ModuleList(
    (0): Embedding(58, 128)
  )
  (rnn_layers): ModuleList(
    (0): GRU(128, 128, num_layers=3, batch_first=True, dropout=0.3)
  )
  (attn_nets): ModuleList(
    (0): Sequential(
      (0): Linear(in_features=128, out_features=64, bias=True)
      (1): Tanh()
      (2): Linear(in_features=64, out_features=1, bias=True)
    )
  )
  (projection_layers): ModuleList(
    (0): Linear(in_features=128, out_features=128, bias=True)
  )
  (feature_attn_net): Sequential(
    (0): Linear(in_features=128, out_features=128, bias=True)
    (1): Tanh()
    (2): Linear(in_features=128, out_features=1, bias=True)
  )
  (fc): Sequential(
    (0): Linear(in_features=128, out_features=128, bias=True)
    (1): ReLU()
    (2): Dropout(p=0.3, inplace=False)
    (3): Linear(in_features=128, out_features=50, bias=True)
  )
)
[2025-07-25 01:04:24,424] [INFO] Training...
[2025-07-25 01:04:28,125] [INFO] Epoch 1/5, ValAcc: 9.72%, TrainLoss: 3.4991, ValLoss: 3.2195, LR: 0.001
[2025-07-25 01:04:31,330] [INFO] Epoch 2/5, ValAcc: 12.21%, TrainLoss: 3.2044, ValLoss: 3.1203, LR: 0.001
[2025-07-25 01:04:35,563] [INFO] Epoch 3/5, ValAcc: 16.15%, TrainLoss: 3.0995, ValLoss: 2.9889, LR: 0.001
…
_ip_dst.debug', leaderboard_path='output/vrchat-worlds/step2/step2_meta_ip_dst.csv', step1=False, step2=True, step3=False, train=False, longitudinal_evaluation=False, openworld_evaluation=False, device=device(type='cuda'), metadata='dst', name='ipdst_token_gru_500_32_5_0.001_128_128_3_0.3_128_128'),0.1720,0.1349,0.1834,0.1704
[2025-07-25 01:04:50,111] [INFO] Feature 0 normalized using token
[2025-07-25 01:04:50,111] [INFO] Train shape: (10659, 500), Val shape: (1523, 500), Test shape: (3046, 500)
[2025-07-25 01:04:50,123] [INFO] Classifier: VRScannerModel(
  (input_modules): ModuleList(
    (0): Embedding(58, 128)
  )
  (rnn_layers): ModuleList(
    (0): GRU(128, 128, num_layers=3, batch_first=True, dropout=0.3, bidirectional=True)
  )
  (attn_nets): ModuleList(
    (0): Sequential(
      (0): Linear(in_features=256, out_features=64, bias=True)
      (1): Tanh()
      (2): Linear(in_features=64, out_features=1, bias=True)
    )
  )
  (projection_layers): ModuleList(
    (0): Linear(in_features=256, out_features=128, bias=True)
  )
  (feature_attn_net): Sequential(
    (0): Linear(in_features=128, out_features=128, bias=True)
    (1): Tanh()
    (2): Linear(in_features=128, out_features=1, bias=True)
  )
  (fc): Sequential(
    (0): Linear(in_features=128, out_features=128, bias=True)
    (1): ReLU()
    (2): Dropout(p=0.3, inplace=False)
    (3): Linear(in_features=128, out_features=50, bias=True)
  )
)
[2025-07-25 01:04:50,123] [INFO] Training...
[2025-07-25 01:04:54,768] [INFO] Epoch 1/5, ValAcc: 9.52%, TrainLoss: 3.4640, ValLoss: 3.1861, LR: 0.001
[2025-07-25 01:05:00,011] [INFO] Epoch 2/5, ValAcc: 14.38%, TrainLoss: 3.1541, ValLoss: 3.0226, LR: 0.001
[2025-07-25 01:05:05,368] [INFO] Epoch 3/5, ValAcc: 17.07%, TrainLoss: 2.9888, ValLoss: 2.8471, LR: 0.001
…
