…
[2025-07-25 01:37:10,696] [INFO] [['443' '443' '56924' ... '80' '59764' '59764']
 ['48734' '80' '48734' ... '443' '53468' '43856']
 ['443' '443' '443' ... '41338' '53398' '443']
 ...
 ['443' '53606' '53606' ... '57818' '57818' '443']
 ['443' '443' '43834' ... '58682' '58682' '58682']
 ['34362' '443' '32856' ... '55162' '55162' '55162']]
[2025-07-25 01:37:19,072] [INFO] Feature 0 normalized using token
[2025-07-25 01:37:19,072] [INFO] Train shape: (10659, 500), Val shape: (1523, 500), Test shape: (3046, 500)
[2025-07-25 01:37:19,113] [INFO] Classifier: VRScannerModel(
  (input_modules): ModuleList(
    (0): Embedding(14069, 128)
  )
  (rnn_layers): ModuleList(
    (0): GRU(128, 128, num_layers=3, batch_first=True, dropout=0.3)
  )
  (attn_nets): ModuleList(
    (0): Sequential(
      (0): Linear(in_features=128, out_features=64, bias=True)
      (1): Tanh()
      (2): Linear(in_features=64, out_features=1, bias=True)
    )
  )
  (projection_layers): ModuleList(
    (0): Linear(in_features=128, out_features=128, bias=True)
  )
  (feature_attn_net): Sequential(
    (0): Linear(in_features=128, out_features=128, bias=True)
    (1): Tanh()
    (2): Linear(in_features=128, out_features=1, bias=True)
  )
  (fc): Sequential(
    (0): Linear(in_features=128, out_features=128, bias=True)
    (1): ReLU()
    (2): Dropout(p=0.3, inplace=False)
    (3): Linear(in_features=128, out_features=50, bias=True)
  )
)
[2025-07-25 01:37:19,113] [INFO] Training...
[2025-07-25 01:37:23,735] [INFO] Epoch 1/5, ValAcc: 43.01%, TrainLoss: 3.4093, ValLoss: 2.1697, LR: 0.001
[2025-07-25 01:37:27,553] [INFO] Epoch 2/5, ValAcc: 66.19%, TrainLoss: 1.6596, ValLoss: 1.1606, LR: 0.001
[2025-07-25 01:37:31,698] [INFO] Epoch 3/5, ValAcc: 71.70%, TrainLoss: 1.0259, ValLoss: 0.9184, LR: 0.001
…
debug', leaderboard_path='output/vrchat-worlds/step2/step2_meta_tcp_sport.csv', step1=False, step2=True, step3=False, train=False, longitudinal_evaluation=False, openworld_evaluation=False, device=device(type='cuda'), metadata='sport', name='tcpsport_token_gru_500_32_5_0.001_128_128_3_0.3_128_128'),0.7528,0.7506,0.7751,0.7524
[2025-07-25 01:37:48,715] [INFO] Feature 0 normalized using token
[2025-07-25 01:37:48,716] [INFO] Train shape: (10659, 500), Val shape: (1523, 500), Test shape: (3046, 500)
[2025-07-25 01:37:48,735] [INFO] Classifier: VRScannerModel(
  (input_modules): ModuleList(
    (0): Embedding(14069, 128)
  )
  (rnn_layers): ModuleList(
    (0): GRU(128, 128, num_layers=3, batch_first=True, dropout=0.3, bidirectional=True)
  )
  (attn_nets): ModuleList(
    (0): Sequential(
      (0): Linear(in_features=256, out_features=64, bias=True)
      (1): Tanh()
      (2): Linear(in_features=64, out_features=1, bias=True)
    )
  )
  (projection_layers): ModuleList(
    (0): Linear(in_features=256, out_features=128, bias=True)
  )
  (feature_attn_net): Sequential(
    (0): Linear(in_features=128, out_features=128, bias=True)
    (1): Tanh()
    (2): Linear(in_features=128, out_features=1, bias=True)
  )
  (fc): Sequential(
    (0): Linear(in_features=128, out_features=128, bias=True)
    (1): ReLU()
    (2): Dropout(p=0.3, inplace=False)
    (3): Linear(in_features=128, out_features=50, bias=True)
  )
)
[2025-07-25 01:37:48,735] [INFO] Training...
[2025-07-25 01:37:53,409] [INFO] Epoch 1/5, ValAcc: 53.58%, TrainLoss: 3.2029, ValLoss: 1.8811, LR: 0.001
[2025-07-25 01:37:58,376] [INFO] Epoch 2/5, ValAcc: 68.88%, TrainLoss: 1.4415, ValLoss: 1.1488, LR: 0.001
[2025-07-25 01:38:03,737] [INFO] Epoch 3/5, ValAcc: 73.08%, TrainLoss: 0.9379, ValLoss: 0.9617, LR: 0.001
…
