…
[2025-07-25 01:59:06,647] [INFO] Processed data from vrchat-worlds/meta-tcp_dataofs/meta-tcp_dataofs.csv:
[2025-07-25 01:59:06,647] [INFO] (15228, 500)
[2025-07-25 01:59:06,647] [INFO] [['8' '8' '8' ... '10' '8' '8']
 ['10' '10' '8' ... '8' '8' '8']
 ['8' '8' '8' ... '8' '8' '8']
 ...
 ['8' '8' '8' ... '8' '8' '8']
 ['8' '8' '8' ... '8' '8' '8']
 ['8' '8' '8' ... '8' '8' '8']]
[2025-07-25 01:59:09,776] [INFO] Feature 0 normalized using token
[2025-07-25 01:59:09,776] [INFO] Train shape: (10659, 500), Val shape: (1523, 500), Test shape: (3046, 500)
[2025-07-25 01:59:09,811] [INFO] Classifier: VRScannerModel(
  (input_modules): ModuleList(
    (0): Embedding(7, 128)
  )
  (rnn_layers): ModuleList(
    (0): GRU(128, 128, num_layers=3, batch_first=True, dropout=0.3)
  )
  (attn_nets): ModuleList(
    (0): Sequential(
      (0): Linear(in_features=128, out_features=64, bias=True)
      (1): Tanh()
      (2): Linear(in_features=64, out_features=1, bias=True)
    )
  )
  (projection_layers): ModuleList(
    (0): Linear(in_features=128, out_features=128, bias=True)
  )
  (feature_attn_net): Sequential(
    (0): Linear(in_features=128, out_features=128, bias=True)
    (1): Tanh()
    (2): Linear(in_features=128, out_features=1, bias=True)
  )
  (fc): Sequential(
    (0): Linear(in_features=128, out_features=128, bias=True)
    (1): ReLU()
    (2): Dropout(p=0.3, inplace=False)
    (3): Linear(in_features=128, out_features=50, bias=True)
  )
)
[2025-07-25 01:59:09,811] [INFO] Training...
[2025-07-25 01:59:14,506] [INFO] Epoch 1/5, ValAcc: 4.07%, TrainLoss: 3.9064, ValLoss: 3.8661, LR: 0.001
[2025-07-25 01:59:18,670] [INFO] Epoch 2/5, ValAcc: 4.53%, TrainLoss: 3.8372, ValLoss: 3.8003, LR: 0.001
[2025-07-25 01:59:22,660] [INFO] Epoch 3/5, ValAcc: 7.16%, TrainLoss: 3.7436, ValLoss: 3.7186, LR: 0.001
…
, leaderboard_path='output/vrchat-worlds/step2/step2_meta_tcp_dataofs.csv', step1=False, step2=True, step3=False, train=False, longitudinal_evaluation=False, openworld_evaluation=False, device=device(type='cuda'), metadata='dataofs', name='tcpdataofs_token_gru_500_32_5_0.001_128_128_3_0.3_128_128'),0.0952,0.0756,0.0924,0.0942
[2025-07-25 01:59:34,503] [INFO] Feature 0 normalized using token
[2025-07-25 01:59:34,503] [INFO] Train shape: (10659, 500), Val shape: (1523, 500), Test shape: (3046, 500)
[2025-07-25 01:59:34,515] [INFO] Classifier: VRScannerModel(
  (input_modules): ModuleList(
    (0): Embedding(7, 128)
  )
  (rnn_layers): ModuleList(
    (0): GRU(128, 128, num_layers=3, batch_first=True, dropout=0.3, bidirectional=True)
  )
  (attn_nets): ModuleList(
    (0): Sequential(
      (0): Linear(in_features=256, out_features=64, bias=True)
      (1): Tanh()
      (2): Linear(in_features=64, out_features=1, bias=True)
    )
  )
  (projection_layers): ModuleList(
    (0): Linear(in_features=256, out_features=128, bias=True)
  )
  (feature_attn_net): Sequential(
    (0): Linear(in_features=128, out_features=128, bias=True)
    (1): Tanh()
    (2): Linear(in_features=128, out_features=1, bias=True)
  )
  (fc): Sequential(
    (0): Linear(in_features=128, out_features=128, bias=True)
    (1): ReLU()
    (2): Dropout(p=0.3, inplace=False)
    (3): Linear(in_features=128, out_features=50, bias=True)
  )
)
[2025-07-25 01:59:34,515] [INFO] Training...
[2025-07-25 01:59:39,138] [INFO] Epoch 1/5, ValAcc: 4.20%, TrainLoss: 3.8971, ValLoss: 3.8603, LR: 0.001
[2025-07-25 01:59:43,920] [INFO] Epoch 2/5, ValAcc: 6.24%, TrainLoss: 3.8209, ValLoss: 3.7869, LR: 0.001
[2025-07-25 01:59:49,200] [INFO] Epoch 3/5, ValAcc: 7.09%, TrainLoss: 3.7552, ValLoss: 3.7014, LR: 0.001
…
