…
[2025-07-25 01:29:57,003] [INFO] (15228, 500)
[2025-07-25 01:29:57,003] [INFO] [['1281' '1281' '580' ... '65535' '256' '256']
 ['65535' '65535' '256' ... '2043' '774' '1540']
 ['2038' '2038' '2038' ... '418' '1046' '2038']
 ...
 ['265' '774' '774' ... '310' '310' '944']
 ['265' '265' '332' ... '300' '300' '300']
 ['343' '761' '300' ... '300' '300' '300']]
[2025-07-25 01:30:04,761] [INFO] Feature 0 normalized using token
[2025-07-25 01:30:04,761] [INFO] Train shape: (10659, 500), Val shape: (1523, 500), Test shape: (3046, 500)
[2025-07-25 01:30:04,802] [INFO] Classifier: VRScannerModel(
  (input_modules): ModuleList(
    (0): Embedding(4461, 128)
  )
  (rnn_layers): ModuleList(
    (0): GRU(128, 128, num_layers=3, batch_first=True, dropout=0.3)
  )
  (attn_nets): ModuleList(
    (0): Sequential(
      (0): Linear(in_features=128, out_features=64, bias=True)
      (1): Tanh()
      (2): Linear(in_features=64, out_features=1, bias=True)
    )
  )
  (projection_layers): ModuleList(
    (0): Linear(in_features=128, out_features=128, bias=True)
  )
  (feature_attn_net): Sequential(
    (0): Linear(in_features=128, out_features=128, bias=True)
    (1): Tanh()
    (2): Linear(in_features=128, out_features=1, bias=True)
  )
  (fc): Sequential(
    (0): Linear(in_features=128, out_features=128, bias=True)
    (1): ReLU()
    (2): Dropout(p=0.3, inplace=False)
    (3): Linear(in_features=128, out_features=50, bias=True)
  )
)
[2025-07-25 01:30:04,802] [INFO] Training...
[2025-07-25 01:30:08,370] [INFO] Epoch 1/5, ValAcc: 20.42%, TrainLoss: 3.4931, ValLoss: 2.9749, LR: 0.001
[2025-07-25 01:30:10,793] [INFO] Epoch 2/5, ValAcc: 39.07%, TrainLoss: 2.7468, ValLoss: 2.3180, LR: 0.001
[2025-07-25 01:30:13,222] [INFO] Epoch 3/5, ValAcc: 49.64%, TrainLoss: 2.1567, ValLoss: 1.8684, LR: 0.001
…
ug', leaderboard_path='output/vrchat-worlds/step2/step2_meta_tcp_window.csv', step1=False, step2=True, step3=False, train=False, longitudinal_evaluation=False, openworld_evaluation=False, device=device(type='cuda'), metadata='window', name='tcpwindow_token_gru_500_32_5_0.001_128_128_3_0.3_128_128'),0.5975,0.6013,0.6496,0.5979
[2025-07-25 01:30:26,569] [INFO] Feature 0 normalized using token
[2025-07-25 01:30:26,569] [INFO] Train shape: (10659, 500), Val shape: (1523, 500), Test shape: (3046, 500)
[2025-07-25 01:30:26,585] [INFO] Classifier: VRScannerModel(
  (input_modules): ModuleList(
    (0): Embedding(4461, 128)
  )
  (rnn_layers): ModuleList(
    (0): GRU(128, 128, num_layers=3, batch_first=True, dropout=0.3, bidirectional=True)
  )
  (attn_nets): ModuleList(
    (0): Sequential(
      (0): Linear(in_features=256, out_features=64, bias=True)
      (1): Tanh()
      (2): Linear(in_features=64, out_features=1, bias=True)
    )
  )
  (projection_layers): ModuleList(
    (0): Linear(in_features=256, out_features=128, bias=True)
  )
  (feature_attn_net): Sequential(
    (0): Linear(in_features=128, out_features=128, bias=True)
    (1): Tanh()
    (2): Linear(in_features=128, out_features=1, bias=True)
  )
  (fc): Sequential(
    (0): Linear(in_features=128, out_features=128, bias=True)
    (1): ReLU()
    (2): Dropout(p=0.3, inplace=False)
    (3): Linear(in_features=128, out_features=50, bias=True)
  )
)
[2025-07-25 01:30:26,585] [INFO] Training...
[2025-07-25 01:30:31,206] [INFO] Epoch 1/5, ValAcc: 31.71%, TrainLoss: 3.2743, ValLoss: 2.5066, LR: 0.001
[2025-07-25 01:30:35,816] [INFO] Epoch 2/5, ValAcc: 49.44%, TrainLoss: 2.2317, ValLoss: 1.8782, LR: 0.001
[2025-07-25 01:30:41,073] [INFO] Epoch 3/5, ValAcc: 60.67%, TrainLoss: 1.6646, ValLoss: 1.4860, LR: 0.001
…
