…
[2025-07-25 00:32:12,233] [INFO] (15228, 500)
[2025-07-25 00:32:12,233] [INFO] [['-244' '-141' '52' ... '-60' '52' '233']
 ['60' '-60' '52' ... '-94' '52' '52']
 ['-1432' '-1432' '-1432' ... '52' '770' '-94']
 ...
 ['-52' '1432' '1432' ... '76' '52' '-76']
 ['-1432' '-340' '52' ... '1432' '1432' '1432']
 ['52' '-52' '1432' ... '1432' '1432' '1432']]
[2025-07-25 00:32:18,899] [INFO] Feature 0 normalized using token
[2025-07-25 00:32:18,899] [INFO] Train shape: (10659, 500), Val shape: (1523, 500), Test shape: (3046, 500)
[2025-07-25 00:32:18,932] [INFO] Classifier: VRScannerModel(
  (input_modules): ModuleList(
    (0): Embedding(2752, 128)
  )
  (rnn_layers): ModuleList(
    (0): GRU(128, 128, num_layers=3, batch_first=True, dropout=0.3)
  )
  (attn_nets): ModuleList(
    (0): Sequential(
      (0): Linear(in_features=128, out_features=64, bias=True)
      (1): Tanh()
      (2): Linear(in_features=64, out_features=1, bias=True)
    )
  )
  (projection_layers): ModuleList(
    (0): Linear(in_features=128, out_features=128, bias=True)
  )
  (feature_attn_net): Sequential(
    (0): Linear(in_features=128, out_features=128, bias=True)
    (1): Tanh()
    (2): Linear(in_features=128, out_features=1, bias=True)
  )
  (fc): Sequential(
    (0): Linear(in_features=128, out_features=128, bias=True)
    (1): ReLU()
    (2): Dropout(p=0.3, inplace=False)
    (3): Linear(in_features=128, out_features=50, bias=True)
  )
)
[2025-07-25 00:32:18,932] [INFO] Training...
[2025-07-25 00:32:24,131] [INFO] Epoch 1/5, ValAcc: 7.49%, TrainLoss: 3.7335, ValLoss: 3.4346, LR: 0.001
[2025-07-25 00:32:26,711] [INFO] Epoch 2/5, ValAcc: 23.64%, TrainLoss: 3.1333, ValLoss: 2.6554, LR: 0.001
[2025-07-25 00:32:29,077] [INFO] Epoch 3/5, ValAcc: 38.41%, TrainLoss: 2.4771, ValLoss: 2.1089, LR: 0.001
…
ug', leaderboard_path='output/vrchat-worlds/step2/step2_meta_pkt_dirlen.csv', step1=False, step2=True, step3=False, train=False, longitudinal_evaluation=False, openworld_evaluation=False, device=device(type='cuda'), metadata='dirlen', name='pktdirlen_token_gru_500_32_5_0.001_128_128_3_0.3_128_128'),0.5693,0.5649,0.6146,0.5647
[2025-07-25 00:32:42,773] [INFO] Feature 0 normalized using token
[2025-07-25 00:32:42,773] [INFO] Train shape: (10659, 500), Val shape: (1523, 500), Test shape: (3046, 500)
[2025-07-25 00:32:42,786] [INFO] Classifier: VRScannerModel(
  (input_modules): ModuleList(
    (0): Embedding(2752, 128)
  )
  (rnn_layers): ModuleList(
    (0): GRU(128, 128, num_layers=3, batch_first=True, dropout=0.3, bidirectional=True)
  )
  (attn_nets): ModuleList(
    (0): Sequential(
      (0): Linear(in_features=256, out_features=64, bias=True)
      (1): Tanh()
      (2): Linear(in_features=64, out_features=1, bias=True)
    )
  )
  (projection_layers): ModuleList(
    (0): Linear(in_features=256, out_features=128, bias=True)
  )
  (feature_attn_net): Sequential(
    (0): Linear(in_features=128, out_features=128, bias=True)
    (1): Tanh()
    (2): Linear(in_features=128, out_features=1, bias=True)
  )
  (fc): Sequential(
    (0): Linear(in_features=128, out_features=128, bias=True)
    (1): ReLU()
    (2): Dropout(p=0.3, inplace=False)
    (3): Linear(in_features=128, out_features=50, bias=True)
  )
)
[2025-07-25 00:32:42,786] [INFO] Training...
[2025-07-25 00:32:47,402] [INFO] Epoch 1/5, ValAcc: 11.69%, TrainLoss: 3.7700, ValLoss: 3.3727, LR: 0.001
[2025-07-25 00:32:52,017] [INFO] Epoch 2/5, ValAcc: 25.67%, TrainLoss: 2.9936, ValLoss: 2.5123, LR: 0.001
[2025-07-25 00:32:57,356] [INFO] Epoch 3/5, ValAcc: 45.96%, TrainLoss: 2.2388, ValLoss: 1.7962, LR: 0.001
…
[2025-07-25 00:35:57,470] [INFO] Processed data from vrchat-worlds/meta-pkt_dir/meta-pkt_dir.csv:
[2025-07-25 00:35:57,471] [INFO] (15228, 500)
[2025-07-25 00:35:57,471] [INFO] [['-1' '-1' '1' ... '-1' '1' '1']
 ['1' '-1' '1' ... '-1' '1' '1']
 ['-1' '-1' '-1' ... '1' '1' '-1']
 ...
 ['-1' '1' '1' ... '1' '1' '-1']
 ['-1' '-1' '1' ... '1' '1' '1']
 ['1' '-1' '1' ... '1' '1' '1']]
[2025-07-25 00:36:01,138] [INFO] Feature 0 normalized using token
[2025-07-25 00:36:01,138] [INFO] Train shape: (10659, 500), Val shape: (1523, 500), Test shape: (3046, 500)
[2025-07-25 00:36:01,170] [INFO] Classifier: VRScannerModel(
  (input_modules): ModuleList(
    (0): Embedding(3, 128)
  )
  (rnn_layers): ModuleList(
    (0): GRU(128, 128, num_layers=3, batch_first=True, dropout=0.3)
  )
  (attn_nets): ModuleList(
    (0): Sequential(
      (0): Linear(in_features=128, out_features=64, bias=True)
      (1): Tanh()
      (2): Linear(in_features=64, out_features=1, bias=True)
    )
  )
  (projection_layers): ModuleList(
    (0): Linear(in_features=128, out_features=128, bias=True)
  )
  (feature_attn_net): Sequential(
    (0): Linear(in_features=128, out_features=128, bias=True)
    (1): Tanh()
    (2): Linear(in_features=128, out_features=1, bias=True)
  )
  (fc): Sequential(
    (0): Linear(in_features=128, out_features=128, bias=True)
    (1): ReLU()
    (2): Dropout(p=0.3, inplace=False)
    (3): Linear(in_features=128, out_features=50, bias=True)
  )
)
[2025-07-25 00:36:01,170] [INFO] Training...
[2025-07-25 00:36:06,404] [INFO] Epoch 1/5, ValAcc: 1.97%, TrainLoss: 3.8935, ValLoss: 3.8858, LR: 0.001
[2025-07-25 00:36:10,661] [INFO] Epoch 2/5, ValAcc: 2.17%, TrainLoss: 3.8626, ValLoss: 3.8459, LR: 0.001
[2025-07-25 00:36:14,874] [INFO] Epoch 3/5, ValAcc: 5.32%, TrainLoss: 3.8372, ValLoss: 3.7995, LR: 0.001
…
t_dir.debug', leaderboard_path='output/vrchat-worlds/step2/step2_meta_pkt_dir.csv', step1=False, step2=True, step3=False, train=False, longitudinal_evaluation=False, openworld_evaluation=False, device=device(type='cuda'), metadata='dir', name='pktdir_token_gru_500_32_5_0.001_128_128_3_0.3_128_128'),0.0772,0.0519,0.0813,0.0769
[2025-07-25 00:36:25,997] [INFO] Feature 0 normalized using token
[2025-07-25 00:36:25,997] [INFO] Train shape: (10659, 500), Val shape: (1523, 500), Test shape: (3046, 500)
[2025-07-25 00:36:26,012] [INFO] Classifier: VRScannerModel(
  (input_modules): ModuleList(
    (0): Embedding(3, 128)
  )
  (rnn_layers): ModuleList(
    (0): GRU(128, 128, num_layers=3, batch_first=True, dropout=0.3, bidirectional=True)
  )
  (attn_nets): ModuleList(
    (0): Sequential(
      (0): Linear(in_features=256, out_features=64, bias=True)
      (1): Tanh()
      (2): Linear(in_features=64, out_features=1, bias=True)
    )
  )
  (projection_layers): ModuleList(
    (0): Linear(in_features=256, out_features=128, bias=True)
  )
  (feature_attn_net): Sequential(
    (0): Linear(in_features=128, out_features=128, bias=True)
    (1): Tanh()
    (2): Linear(in_features=128, out_features=1, bias=True)
  )
  (fc): Sequential(
    (0): Linear(in_features=128, out_features=128, bias=True)
    (1): ReLU()
    (2): Dropout(p=0.3, inplace=False)
    (3): Linear(in_features=128, out_features=50, bias=True)
  )
)
[2025-07-25 00:36:26,012] [INFO] Training...
[2025-07-25 00:36:31,170] [INFO] Epoch 1/5, ValAcc: 3.22%, TrainLoss: 3.8914, ValLoss: 3.8752, LR: 0.001
[2025-07-25 00:36:36,473] [INFO] Epoch 2/5, ValAcc: 2.63%, TrainLoss: 3.8641, ValLoss: 3.8446, LR: 0.001
[2025-07-25 00:36:41,782] [INFO] Epoch 3/5, ValAcc: 5.25%, TrainLoss: 3.8366, ValLoss: 3.7741, LR: 0.001
…
  '17.126099']
 ['0.000000' '0.000068' '0.001835' ... '21.548401' '22.540459'
  '22.566527']
 ...
 ['0.000000' '0.369373' '0.369377' ... '22.237337' '22.241436'
  '22.242852']
 ['0.000000' '0.000034' '0.003725' ... '8.684832' '8.684836' '8.684837']
 ['0.000000' '0.001233' '0.001305' ... '13.870029' '13.871648'
  '13.871651']]
[2025-07-25 00:39:50,283] [INFO] Feature 0 normalized using power
[2025-07-25 00:39:50,283] [INFO] Train shape: (10659, 500), Val shape: (1523, 500), Test shape: (3046, 500)
[2025-07-25 00:39:50,318] [INFO] Classifier: VRScannerModel(
  (input_modules): ModuleList(
    (0): Linear(in_features=1, out_features=128, bias=True)
  )
  (rnn_layers): ModuleList(
    (0): GRU(128, 128, num_layers=3, batch_first=True, dropout=0.3)
  )
  (attn_nets): ModuleList(
    (0): Sequential(
      (0): Linear(in_features=128, out_features=64, bias=True)
      (1): Tanh()
      (2): Linear(in_features=64, out_features=1, bias=True)
    )
  )
  (projection_layers): ModuleList(
    (0): Linear(in_features=128, out_features=128, bias=True)
  )
  (feature_attn_net): Sequential(
    (0): Linear(in_features=128, out_features=128, bias=True)
    (1): Tanh()
    (2): Linear(in_features=128, out_features=1, bias=True)
  )
  (fc): Sequential(
    (0): Linear(in_features=128, out_features=128, bias=True)
    (1): ReLU()
    (2): Dropout(p=0.3, inplace=False)
    (3): Linear(in_features=128, out_features=50, bias=True)
  )
)
[2025-07-25 00:39:50,318] [INFO] Training...
[2025-07-25 00:39:55,345] [INFO] Epoch 1/5, ValAcc: 2.76%, TrainLoss: 3.8891, ValLoss: 3.8971, LR: 0.001
[2025-07-25 00:39:59,557] [INFO] Epoch 2/5, ValAcc: 4.86%, TrainLoss: 3.8420, ValLoss: 3.8160, LR: 0.001
[2025-07-25 00:40:03,770] [INFO] Epoch 3/5, ValAcc: 5.12%, TrainLoss: 3.7916, ValLoss: 3.7875, LR: 0.001
…
.debug', leaderboard_path='output/vrchat-worlds/step2/step2_meta_pkt_ts_rel.csv', step1=False, step2=True, step3=False, train=False, longitudinal_evaluation=False, openworld_evaluation=False, device=device(type='cuda'), metadata='rel', name='pkttsrel_power_gru_500_32_5_0.001_128_128_3_0.3_128_128'),0.0670,0.0323,0.0273,0.0699
[2025-07-25 00:40:14,381] [INFO] Feature 0 normalized using power
[2025-07-25 00:40:14,381] [INFO] Train shape: (10659, 500), Val shape: (1523, 500), Test shape: (3046, 500)
[2025-07-25 00:40:14,390] [INFO] Classifier: VRScannerModel(
  (input_modules): ModuleList(
    (0): Linear(in_features=1, out_features=128, bias=True)
  )
  (rnn_layers): ModuleList(
    (0): GRU(128, 128, num_layers=3, batch_first=True, dropout=0.3, bidirectional=True)
  )
  (attn_nets): ModuleList(
    (0): Sequential(
      (0): Linear(in_features=256, out_features=64, bias=True)
      (1): Tanh()
      (2): Linear(in_features=64, out_features=1, bias=True)
    )
  )
  (projection_layers): ModuleList(
    (0): Linear(in_features=256, out_features=128, bias=True)
  )
  (feature_attn_net): Sequential(
    (0): Linear(in_features=128, out_features=128, bias=True)
    (1): Tanh()
    (2): Linear(in_features=128, out_features=1, bias=True)
  )
  (fc): Sequential(
    (0): Linear(in_features=128, out_features=128, bias=True)
    (1): ReLU()
    (2): Dropout(p=0.3, inplace=False)
    (3): Linear(in_features=128, out_features=50, bias=True)
  )
)
[2025-07-25 00:40:14,391] [INFO] Training...
[2025-07-25 00:40:18,994] [INFO] Epoch 1/5, ValAcc: 4.73%, TrainLoss: 3.8950, ValLoss: 3.8623, LR: 0.001
[2025-07-25 00:40:23,805] [INFO] Epoch 2/5, ValAcc: 4.27%, TrainLoss: 3.8138, ValLoss: 3.7929, LR: 0.001
[2025-07-25 00:40:29,317] [INFO] Epoch 3/5, ValAcc: 5.91%, TrainLoss: 3.7781, ValLoss: 3.7633, LR: 0.001
…
 ['5' '5' '5' ... '5' '5' '5']
 ['5' '5' '5' ... '5' '5' '5']
 ...
 ['5' '5' '5' ... '5' '5' '5']
 ['5' '5' '5' ... '5' '5' '5']
 ['5' '5' '5' ... '5' '5' '5']]
[2025-07-25 00:50:34,247] [INFO] Feature 0 normalized using none
[2025-07-25 00:50:34,247] [INFO] Train shape: (10659, 500), Val shape: (1523, 500), Test shape: (3046, 500)
[2025-07-25 00:50:34,278] [INFO] Classifier: VRScannerModel(
  (input_modules): ModuleList(
    (0): Identity()
  )
  (rnn_layers): ModuleList(
    (0): GRU(1, 128, num_layers=3, batch_first=True, dropout=0.3)
  )
  (attn_nets): ModuleList(
    (0): Sequential(
      (0): Linear(in_features=128, out_features=64, bias=True)
      (1): Tanh()
      (2): Linear(in_features=64, out_features=1, bias=True)
    )
  )
  (projection_layers): ModuleList(
    (0): Linear(in_features=128, out_features=128, bias=True)
  )
  (feature_attn_net): Sequential(
    (0): Linear(in_features=128, out_features=128, bias=True)
    (1): Tanh()
    (2): Linear(in_features=128, out_features=1, bias=True)
  )
  (fc): Sequential(
    (0): Linear(in_features=128, out_features=128, bias=True)
    (1): ReLU()
    (2): Dropout(p=0.3, inplace=False)
    (3): Linear(in_features=128, out_features=50, bias=True)
  )
)
[2025-07-25 00:50:34,279] [INFO] Training...
[2025-07-25 00:50:37,590] [INFO] Epoch 1/5, ValAcc: 1.64%, TrainLoss: 3.9151, ValLoss: 3.9160, LR: 0.001
[2025-07-25 00:50:40,449] [INFO] Epoch 2/5, ValAcc: 1.71%, TrainLoss: 3.9138, ValLoss: 3.9155, LR: 0.001
[2025-07-25 00:50:44,091] [INFO] Epoch 3/5, ValAcc: 1.90%, TrainLoss: 3.9129, ValLoss: 3.9153, LR: 0.001
…
lse, device=device(type='cuda'), metadata='ihl', name='ipihl_none_gru_500_32_5_0.001_128_128_3_0.3_128_128'),0.0161,0.0006,0.0003,0.0200
[2025-07-25 00:50:54,776] [INFO] Feature 0 normalized using none
[2025-07-25 00:50:54,777] [INFO] Train shape: (10659, 500), Val shape: (1523, 500), Test shape: (3046, 500)
[2025-07-25 00:50:54,784] [INFO] Classifier: VRScannerModel(
  (input_modules): ModuleList(
    (0): Identity()
  )
  (rnn_layers): ModuleList(
    (0): GRU(1, 128, num_layers=3, batch_first=True, dropout=0.3, bidirectional=True)
  )
  (attn_nets): ModuleList(
    (0): Sequential(
      (0): Linear(in_features=256, out_features=64, bias=True)
      (1): Tanh()
      (2): Linear(in_features=64, out_features=1, bias=True)
    )
  )
  (projection_layers): ModuleList(
    (0): Linear(in_features=256, out_features=128, bias=True)
  )
  (feature_attn_net): Sequential(
    (0): Linear(in_features=128, out_features=128, bias=True)
    (1): Tanh()
    (2): Linear(in_features=128, out_features=1, bias=True)
  )
  (fc): Sequential(
    (0): Linear(in_features=128, out_features=128, bias=True)
    (1): ReLU()
    (2): Dropout(p=0.3, inplace=False)
    (3): Linear(in_features=128, out_features=50, bias=True)
  )
)
[2025-07-25 00:50:54,785] [INFO] Training...
[2025-07-25 00:50:59,016] [INFO] Epoch 1/5, ValAcc: 1.71%, TrainLoss: 3.9175, ValLoss: 3.9131, LR: 0.001
[2025-07-25 00:51:03,228] [INFO] Epoch 2/5, ValAcc: 1.90%, TrainLoss: 3.9136, ValLoss: 3.9563, LR: 0.001
[2025-07-25 00:51:08,129] [INFO] Epoch 3/5, ValAcc: 1.97%, TrainLoss: 3.9137, ValLoss: 3.9160, LR: 0.001
…
[2025-07-25 00:53:46,979] [INFO] Processed data from vrchat-worlds/meta-ip_ttl/meta-ip_ttl.csv:
[2025-07-25 00:53:46,979] [INFO] (15228, 500)
[2025-07-25 00:53:46,979] [INFO] [['50' '50' '64' ... '50' '64' '64']
 ['64' '50' '64' ... '50' '64' '64']
 ['50' '50' '50' ... '64' '64' '50']
 ...
 ['50' '64' '64' ... '64' '64' '50']
 ['50' '50' '64' ... '64' '64' '64']
 ['64' '50' '64' ... '64' '64' '64']]
[2025-07-25 00:53:51,233] [INFO] Feature 0 normalized using token
[2025-07-25 00:53:51,233] [INFO] Train shape: (10659, 500), Val shape: (1523, 500), Test shape: (3046, 500)
[2025-07-25 00:53:51,267] [INFO] Classifier: VRScannerModel(
  (input_modules): ModuleList(
    (0): Embedding(8, 128)
  )
  (rnn_layers): ModuleList(
    (0): GRU(128, 128, num_layers=3, batch_first=True, dropout=0.3)
  )
  (attn_nets): ModuleList(
    (0): Sequential(
      (0): Linear(in_features=128, out_features=64, bias=True)
      (1): Tanh()
      (2): Linear(in_features=64, out_features=1, bias=True)
    )
  )
  (projection_layers): ModuleList(
    (0): Linear(in_features=128, out_features=128, bias=True)
  )
  (feature_attn_net): Sequential(
    (0): Linear(in_features=128, out_features=128, bias=True)
    (1): Tanh()
    (2): Linear(in_features=128, out_features=1, bias=True)
  )
  (fc): Sequential(
    (0): Linear(in_features=128, out_features=128, bias=True)
    (1): ReLU()
    (2): Dropout(p=0.3, inplace=False)
    (3): Linear(in_features=128, out_features=50, bias=True)
  )
)
[2025-07-25 00:53:51,267] [INFO] Training...
[2025-07-25 00:53:55,412] [INFO] Epoch 1/5, ValAcc: 3.68%, TrainLoss: 3.8364, ValLoss: 3.7669, LR: 0.001
[2025-07-25 00:53:59,220] [INFO] Epoch 2/5, ValAcc: 4.07%, TrainLoss: 3.7608, ValLoss: 3.7303, LR: 0.001
[2025-07-25 00:54:03,551] [INFO] Epoch 3/5, ValAcc: 6.57%, TrainLoss: 3.7058, ValLoss: 3.6493, LR: 0.001
…
_ip_ttl.debug', leaderboard_path='output/vrchat-worlds/step2/step2_meta_ip_ttl.csv', step1=False, step2=True, step3=False, train=False, longitudinal_evaluation=False, openworld_evaluation=False, device=device(type='cuda'), metadata='ttl', name='ipttl_token_gru_500_32_5_0.001_128_128_3_0.3_128_128'),0.0919,0.0569,0.0676,0.0865
[2025-07-25 00:54:16,621] [INFO] Feature 0 normalized using token
[2025-07-25 00:54:16,621] [INFO] Train shape: (10659, 500), Val shape: (1523, 500), Test shape: (3046, 500)
[2025-07-25 00:54:16,633] [INFO] Classifier: VRScannerModel(
  (input_modules): ModuleList(
    (0): Embedding(8, 128)
  )
  (rnn_layers): ModuleList(
    (0): GRU(128, 128, num_layers=3, batch_first=True, dropout=0.3, bidirectional=True)
  )
  (attn_nets): ModuleList(
    (0): Sequential(
      (0): Linear(in_features=256, out_features=64, bias=True)
      (1): Tanh()
      (2): Linear(in_features=64, out_features=1, bias=True)
    )
  )
  (projection_layers): ModuleList(
    (0): Linear(in_features=256, out_features=128, bias=True)
  )
  (feature_attn_net): Sequential(
    (0): Linear(in_features=128, out_features=128, bias=True)
    (1): Tanh()
    (2): Linear(in_features=128, out_features=1, bias=True)
  )
  (fc): Sequential(
    (0): Linear(in_features=128, out_features=128, bias=True)
    (1): ReLU()
    (2): Dropout(p=0.3, inplace=False)
    (3): Linear(in_features=128, out_features=50, bias=True)
  )
)
[2025-07-25 00:54:16,633] [INFO] Training...
[2025-07-25 00:54:21,638] [INFO] Epoch 1/5, ValAcc: 3.35%, TrainLoss: 3.8187, ValLoss: 3.7793, LR: 0.001
[2025-07-25 00:54:26,302] [INFO] Epoch 2/5, ValAcc: 4.60%, TrainLoss: 3.7523, ValLoss: 3.7268, LR: 0.001
[2025-07-25 00:54:31,399] [INFO] Epoch 3/5, ValAcc: 5.32%, TrainLoss: 3.7278, ValLoss: 3.6946, LR: 0.001
…
 ['157.240.215.16' '157.240.215.16' '157.240.215.16' ... '10.0.0.11'
  '10.0.0.11' '157.240.215.51']
 ...
 ['157.240.199.22' '10.0.0.17' '10.0.0.17' ... '10.0.0.17' '10.0.0.17'
  '157.240.215.16']
 ['157.240.199.22' '157.240.199.22' '10.0.0.17' ... '10.0.0.17'
  '10.0.0.17' '10.0.0.17']
 ['10.0.0.17' '31.13.82.1' '10.0.0.17' ... '10.0.0.17' '10.0.0.17'
  '10.0.0.17']]
[2025-07-25 01:00:40,408] [INFO] Feature 0 normalized using token
[2025-07-25 01:00:40,408] [INFO] Train shape: (10659, 500), Val shape: (1523, 500), Test shape: (3046, 500)
[2025-07-25 01:00:40,441] [INFO] Classifier: VRScannerModel(
  (input_modules): ModuleList(
    (0): Embedding(58, 128)
  )
  (rnn_layers): ModuleList(
    (0): GRU(128, 128, num_layers=3, batch_first=True, dropout=0.3)
  )
  (attn_nets): ModuleList(
    (0): Sequential(
      (0): Linear(in_features=128, out_features=64, bias=True)
      (1): Tanh()
      (2): Linear(in_features=64, out_features=1, bias=True)
    )
  )
  (projection_layers): ModuleList(
    (0): Linear(in_features=128, out_features=128, bias=True)
  )
  (feature_attn_net): Sequential(
    (0): Linear(in_features=128, out_features=128, bias=True)
    (1): Tanh()
    (2): Linear(in_features=128, out_features=1, bias=True)
  )
  (fc): Sequential(
    (0): Linear(in_features=128, out_features=128, bias=True)
    (1): ReLU()
    (2): Dropout(p=0.3, inplace=False)
    (3): Linear(in_features=128, out_features=50, bias=True)
  )
)
[2025-07-25 01:00:40,441] [INFO] Training...
[2025-07-25 01:00:44,122] [INFO] Epoch 1/5, ValAcc: 11.10%, TrainLoss: 3.4660, ValLoss: 3.2018, LR: 0.001
[2025-07-25 01:00:48,168] [INFO] Epoch 2/5, ValAcc: 11.56%, TrainLoss: 3.2145, ValLoss: 3.0842, LR: 0.001
[2025-07-25 01:00:52,514] [INFO] Epoch 3/5, ValAcc: 17.60%, TrainLoss: 3.0888, ValLoss: 2.9670, LR: 0.001
…
_ip_src.debug', leaderboard_path='output/vrchat-worlds/step2/step2_meta_ip_src.csv', step1=False, step2=True, step3=False, train=False, longitudinal_evaluation=False, openworld_evaluation=False, device=device(type='cuda'), metadata='src', name='ipsrc_token_gru_500_32_5_0.001_128_128_3_0.3_128_128'),0.1871,0.1496,0.2259,0.1867
[2025-07-25 01:01:06,449] [INFO] Feature 0 normalized using token
[2025-07-25 01:01:06,450] [INFO] Train shape: (10659, 500), Val shape: (1523, 500), Test shape: (3046, 500)
[2025-07-25 01:01:06,460] [INFO] Classifier: VRScannerModel(
  (input_modules): ModuleList(
    (0): Embedding(58, 128)
  )
  (rnn_layers): ModuleList(
    (0): GRU(128, 128, num_layers=3, batch_first=True, dropout=0.3, bidirectional=True)
  )
  (attn_nets): ModuleList(
    (0): Sequential(
      (0): Linear(in_features=256, out_features=64, bias=True)
      (1): Tanh()
      (2): Linear(in_features=64, out_features=1, bias=True)
    )
  )
  (projection_layers): ModuleList(
    (0): Linear(in_features=256, out_features=128, bias=True)
  )
  (feature_attn_net): Sequential(
    (0): Linear(in_features=128, out_features=128, bias=True)
    (1): Tanh()
    (2): Linear(in_features=128, out_features=1, bias=True)
  )
  (fc): Sequential(
    (0): Linear(in_features=128, out_features=128, bias=True)
    (1): ReLU()
    (2): Dropout(p=0.3, inplace=False)
    (3): Linear(in_features=128, out_features=50, bias=True)
  )
)
[2025-07-25 01:01:06,460] [INFO] Training...
[2025-07-25 01:01:11,053] [INFO] Epoch 1/5, ValAcc: 12.54%, TrainLoss: 3.4550, ValLoss: 3.1493, LR: 0.001
[2025-07-25 01:01:15,650] [INFO] Epoch 2/5, ValAcc: 12.67%, TrainLoss: 3.1476, ValLoss: 3.0320, LR: 0.001
[2025-07-25 01:01:20,938] [INFO] Epoch 3/5, ValAcc: 17.47%, TrainLoss: 3.0133, ValLoss: 2.8890, LR: 0.001
…
[2025-07-25 01:11:28,665] [INFO] (15228, 500)
[2025-07-25 01:11:28,665] [INFO] [['244' '141' '52' ... '60' '52' '233']
 ['60' '60' '52' ... '94' '52' '52']
 ['1432' '1432' '1432' ... '52' '770' '94']
 ...
 ['52' '1432' '1432' ... '76' '52' '76']
 ['1432' '340' '52' ... '1432' '1432' '1432']
 ['52' '52' '1432' ... '1432' '1432' '1432']]
[2025-07-25 01:11:35,552] [INFO] Feature 0 normalized using token
[2025-07-25 01:11:35,552] [INFO] Train shape: (10659, 500), Val shape: (1523, 500), Test shape: (3046, 500)
[2025-07-25 01:11:35,589] [INFO] Classifier: VRScannerModel(
  (input_modules): ModuleList(
    (0): Embedding(1384, 128)
  )
  (rnn_layers): ModuleList(
    (0): GRU(128, 128, num_layers=3, batch_first=True, dropout=0.3)
  )
  (attn_nets): ModuleList(
    (0): Sequential(
      (0): Linear(in_features=128, out_features=64, bias=True)
      (1): Tanh()
      (2): Linear(in_features=64, out_features=1, bias=True)
    )
  )
  (projection_layers): ModuleList(
    (0): Linear(in_features=128, out_features=128, bias=True)
  )
  (feature_attn_net): Sequential(
    (0): Linear(in_features=128, out_features=128, bias=True)
    (1): Tanh()
    (2): Linear(in_features=128, out_features=1, bias=True)
  )
  (fc): Sequential(
    (0): Linear(in_features=128, out_features=128, bias=True)
    (1): ReLU()
    (2): Dropout(p=0.3, inplace=False)
    (3): Linear(in_features=128, out_features=50, bias=True)
  )
)
[2025-07-25 01:11:35,590] [INFO] Training...
[2025-07-25 01:11:40,389] [INFO] Epoch 1/5, ValAcc: 5.71%, TrainLoss: 3.7866, ValLoss: 3.5731, LR: 0.001
[2025-07-25 01:11:44,650] [INFO] Epoch 2/5, ValAcc: 21.67%, TrainLoss: 3.1485, ValLoss: 2.7106, LR: 0.001
[2025-07-25 01:11:48,894] [INFO] Epoch 3/5, ValAcc: 34.60%, TrainLoss: 2.4995, ValLoss: 2.2424, LR: 0.001
…
_ip_len.debug', leaderboard_path='output/vrchat-worlds/step2/step2_meta_ip_len.csv', step1=False, step2=True, step3=False, train=False, longitudinal_evaluation=False, openworld_evaluation=False, device=device(type='cuda'), metadata='len', name='iplen_token_gru_500_32_5_0.001_128_128_3_0.3_128_128'),0.5318,0.5217,0.5721,0.5266
[2025-07-25 01:12:04,108] [INFO] Feature 0 normalized using token
[2025-07-25 01:12:04,108] [INFO] Train shape: (10659, 500), Val shape: (1523, 500), Test shape: (3046, 500)
[2025-07-25 01:12:04,121] [INFO] Classifier: VRScannerModel(
  (input_modules): ModuleList(
    (0): Embedding(1384, 128)
  )
  (rnn_layers): ModuleList(
    (0): GRU(128, 128, num_layers=3, batch_first=True, dropout=0.3, bidirectional=True)
  )
  (attn_nets): ModuleList(
    (0): Sequential(
      (0): Linear(in_features=256, out_features=64, bias=True)
      (1): Tanh()
      (2): Linear(in_features=64, out_features=1, bias=True)
    )
  )
  (projection_layers): ModuleList(
    (0): Linear(in_features=256, out_features=128, bias=True)
  )
  (feature_attn_net): Sequential(
    (0): Linear(in_features=128, out_features=128, bias=True)
    (1): Tanh()
    (2): Linear(in_features=128, out_features=1, bias=True)
  )
  (fc): Sequential(
    (0): Linear(in_features=128, out_features=128, bias=True)
    (1): ReLU()
    (2): Dropout(p=0.3, inplace=False)
    (3): Linear(in_features=128, out_features=50, bias=True)
  )
)
[2025-07-25 01:12:04,121] [INFO] Training...
[2025-07-25 01:12:08,756] [INFO] Epoch 1/5, ValAcc: 12.54%, TrainLoss: 3.6857, ValLoss: 3.2102, LR: 0.001
[2025-07-25 01:12:13,573] [INFO] Epoch 2/5, ValAcc: 28.30%, TrainLoss: 2.8743, ValLoss: 2.4246, LR: 0.001
[2025-07-25 01:12:18,940] [INFO] Epoch 3/5, ValAcc: 46.95%, TrainLoss: 2.1263, ValLoss: 1.7656, LR: 0.001
…
[2025-07-25 01:22:03,909] [INFO] Processed data from vrchat-worlds/meta-ip_flags/meta-ip_flags.csv:
[2025-07-25 01:22:03,909] [INFO] (15228, 500)
[2025-07-25 01:22:03,909] [INFO] [['DF' 'DF' 'DF' ... 'DF' 'DF' 'DF']
 ['DF' 'DF' 'DF' ... 'DF' 'DF' 'DF']
 ['DF' 'DF' 'DF' ... 'DF' 'DF' 'DF']
 ...
 ['DF' 'DF' 'DF' ... 'DF' 'DF' 'DF']
 ['DF' 'DF' 'DF' ... 'DF' 'DF' 'DF']
 ['DF' 'DF' 'DF' ... 'DF' 'DF' 'DF']]
[2025-07-25 01:22:07,835] [INFO] Feature 0 normalized using token
[2025-07-25 01:22:07,835] [INFO] Train shape: (10659, 500), Val shape: (1523, 500), Test shape: (3046, 500)
[2025-07-25 01:22:07,875] [INFO] Classifier: VRScannerModel(
  (input_modules): ModuleList(
    (0): Embedding(2, 128)
  )
  (rnn_layers): ModuleList(
    (0): GRU(128, 128, num_layers=3, batch_first=True, dropout=0.3)
  )
  (attn_nets): ModuleList(
    (0): Sequential(
      (0): Linear(in_features=128, out_features=64, bias=True)
      (1): Tanh()
      (2): Linear(in_features=64, out_features=1, bias=True)
    )
  )
  (projection_layers): ModuleList(
    (0): Linear(in_features=128, out_features=128, bias=True)
  )
  (feature_attn_net): Sequential(
    (0): Linear(in_features=128, out_features=128, bias=True)
    (1): Tanh()
    (2): Linear(in_features=128, out_features=1, bias=True)
  )
  (fc): Sequential(
    (0): Linear(in_features=128, out_features=128, bias=True)
    (1): ReLU()
    (2): Dropout(p=0.3, inplace=False)
    (3): Linear(in_features=128, out_features=50, bias=True)
  )
)
[2025-07-25 01:22:07,875] [INFO] Training...
[2025-07-25 01:22:11,470] [INFO] Epoch 1/5, ValAcc: 1.97%, TrainLoss: 3.9166, ValLoss: 3.9129, LR: 0.001
[2025-07-25 01:22:14,521] [INFO] Epoch 2/5, ValAcc: 1.97%, TrainLoss: 3.9132, ValLoss: 3.9139, LR: 0.001
[2025-07-25 01:22:18,807] [INFO] Epoch 3/5, ValAcc: 1.97%, TrainLoss: 3.9124, ValLoss: 3.9150, LR: 0.001
…
s.debug', leaderboard_path='output/vrchat-worlds/step2/step2_meta_ip_flags.csv', step1=False, step2=True, step3=False, train=False, longitudinal_evaluation=False, openworld_evaluation=False, device=device(type='cuda'), metadata='flags', name='ipflags_token_gru_500_32_5_0.001_128_128_3_0.3_128_128'),0.0141,0.0006,0.0003,0.0200
[2025-07-25 01:22:30,360] [INFO] Feature 0 normalized using token
[2025-07-25 01:22:30,361] [INFO] Train shape: (10659, 500), Val shape: (1523, 500), Test shape: (3046, 500)
[2025-07-25 01:22:30,372] [INFO] Classifier: VRScannerModel(
  (input_modules): ModuleList(
    (0): Embedding(2, 128)
  )
  (rnn_layers): ModuleList(
    (0): GRU(128, 128, num_layers=3, batch_first=True, dropout=0.3, bidirectional=True)
  )
  (attn_nets): ModuleList(
    (0): Sequential(
      (0): Linear(in_features=256, out_features=64, bias=True)
      (1): Tanh()
      (2): Linear(in_features=64, out_features=1, bias=True)
    )
  )
  (projection_layers): ModuleList(
    (0): Linear(in_features=256, out_features=128, bias=True)
  )
  (feature_attn_net): Sequential(
    (0): Linear(in_features=128, out_features=128, bias=True)
    (1): Tanh()
    (2): Linear(in_features=128, out_features=1, bias=True)
  )
  (fc): Sequential(
    (0): Linear(in_features=128, out_features=128, bias=True)
    (1): ReLU()
    (2): Dropout(p=0.3, inplace=False)
    (3): Linear(in_features=128, out_features=50, bias=True)
  )
)
[2025-07-25 01:22:30,372] [INFO] Training...
[2025-07-25 01:22:35,190] [INFO] Epoch 1/5, ValAcc: 1.71%, TrainLoss: 3.9196, ValLoss: 3.9126, LR: 0.001
[2025-07-25 01:22:40,541] [INFO] Epoch 2/5, ValAcc: 1.71%, TrainLoss: 3.9129, ValLoss: 3.9131, LR: 0.001
[2025-07-25 01:22:45,881] [INFO] Epoch 3/5, ValAcc: 1.44%, TrainLoss: 3.9124, ValLoss: 3.9137, LR: 0.001
…
[2025-07-25 01:25:43,567] [INFO] [['61714' '61816' '29483' ... '51632' '11470' '11288']
 ['20568' '51632' '20575' ... '11013' '19906' '5121']
 ['24518' '24517' '24516' ... '49692' '51576' '32726']
 ...
 ['13216' '35238' '35237' ... '42287' '42310' '33568']
 ['52321' '53412' '44799' ... '59763' '59762' '59761']
 ['47514' '45635' '40750' ... '7241' '7240' '7239']]
[2025-07-25 01:25:53,320] [INFO] Feature 0 normalized using token
[2025-07-25 01:25:53,321] [INFO] Train shape: (10659, 500), Val shape: (1523, 500), Test shape: (3046, 500)
[2025-07-25 01:25:53,418] [INFO] Classifier: VRScannerModel(
  (input_modules): ModuleList(
    (0): Embedding(65536, 128)
  )
  (rnn_layers): ModuleList(
    (0): GRU(128, 128, num_layers=3, batch_first=True, dropout=0.3)
  )
  (attn_nets): ModuleList(
    (0): Sequential(
      (0): Linear(in_features=128, out_features=64, bias=True)
      (1): Tanh()
      (2): Linear(in_features=64, out_features=1, bias=True)
    )
  )
  (projection_layers): ModuleList(
    (0): Linear(in_features=128, out_features=128, bias=True)
  )
  (feature_attn_net): Sequential(
    (0): Linear(in_features=128, out_features=128, bias=True)
    (1): Tanh()
    (2): Linear(in_features=128, out_features=1, bias=True)
  )
  (fc): Sequential(
    (0): Linear(in_features=128, out_features=128, bias=True)
    (1): ReLU()
    (2): Dropout(p=0.3, inplace=False)
    (3): Linear(in_features=128, out_features=50, bias=True)
  )
)
[2025-07-25 01:25:53,418] [INFO] Training...
[2025-07-25 01:25:57,336] [INFO] Epoch 1/5, ValAcc: 4.60%, TrainLoss: 3.8332, ValLoss: 3.7278, LR: 0.001
[2025-07-25 01:26:00,056] [INFO] Epoch 2/5, ValAcc: 8.67%, TrainLoss: 3.6208, ValLoss: 3.5019, LR: 0.001
[2025-07-25 01:26:03,900] [INFO] Epoch 3/5, ValAcc: 8.40%, TrainLoss: 3.4091, ValLoss: 3.4110, LR: 0.001
…
ebug', leaderboard_path='output/vrchat-worlds/step2/step2_meta_ip_chksum.csv', step1=False, step2=True, step3=False, train=False, longitudinal_evaluation=False, openworld_evaluation=False, device=device(type='cuda'), metadata='chksum', name='ipchksum_token_gru_500_32_5_0.001_128_128_3_0.3_128_128'),0.0739,0.0581,0.0694,0.0724
[2025-07-25 01:26:22,460] [INFO] Feature 0 normalized using token
[2025-07-25 01:26:22,461] [INFO] Train shape: (10659, 500), Val shape: (1523, 500), Test shape: (3046, 500)
[2025-07-25 01:26:22,512] [INFO] Classifier: VRScannerModel(
  (input_modules): ModuleList(
    (0): Embedding(65536, 128)
  )
  (rnn_layers): ModuleList(
    (0): GRU(128, 128, num_layers=3, batch_first=True, dropout=0.3, bidirectional=True)
  )
  (attn_nets): ModuleList(
    (0): Sequential(
      (0): Linear(in_features=256, out_features=64, bias=True)
      (1): Tanh()
      (2): Linear(in_features=64, out_features=1, bias=True)
    )
  )
  (projection_layers): ModuleList(
    (0): Linear(in_features=256, out_features=128, bias=True)
  )
  (feature_attn_net): Sequential(
    (0): Linear(in_features=128, out_features=128, bias=True)
    (1): Tanh()
    (2): Linear(in_features=128, out_features=1, bias=True)
  )
  (fc): Sequential(
    (0): Linear(in_features=128, out_features=128, bias=True)
    (1): ReLU()
    (2): Dropout(p=0.3, inplace=False)
    (3): Linear(in_features=128, out_features=50, bias=True)
  )
)
[2025-07-25 01:26:22,512] [INFO] Training...
[2025-07-25 01:26:27,478] [INFO] Epoch 1/5, ValAcc: 5.84%, TrainLoss: 3.7920, ValLoss: 3.5715, LR: 0.001
[2025-07-25 01:26:32,451] [INFO] Epoch 2/5, ValAcc: 7.29%, TrainLoss: 3.5567, ValLoss: 3.5014, LR: 0.001
[2025-07-25 01:26:37,946] [INFO] Epoch 3/5, ValAcc: 8.27%, TrainLoss: 3.4375, ValLoss: 3.4661, LR: 0.001
…
[2025-07-25 01:29:57,003] [INFO] (15228, 500)
[2025-07-25 01:29:57,003] [INFO] [['1281' '1281' '580' ... '65535' '256' '256']
 ['65535' '65535' '256' ... '2043' '774' '1540']
 ['2038' '2038' '2038' ... '418' '1046' '2038']
 ...
 ['265' '774' '774' ... '310' '310' '944']
 ['265' '265' '332' ... '300' '300' '300']
 ['343' '761' '300' ... '300' '300' '300']]
[2025-07-25 01:30:04,761] [INFO] Feature 0 normalized using token
[2025-07-25 01:30:04,761] [INFO] Train shape: (10659, 500), Val shape: (1523, 500), Test shape: (3046, 500)
[2025-07-25 01:30:04,802] [INFO] Classifier: VRScannerModel(
  (input_modules): ModuleList(
    (0): Embedding(4461, 128)
  )
  (rnn_layers): ModuleList(
    (0): GRU(128, 128, num_layers=3, batch_first=True, dropout=0.3)
  )
  (attn_nets): ModuleList(
    (0): Sequential(
      (0): Linear(in_features=128, out_features=64, bias=True)
      (1): Tanh()
      (2): Linear(in_features=64, out_features=1, bias=True)
    )
  )
  (projection_layers): ModuleList(
    (0): Linear(in_features=128, out_features=128, bias=True)
  )
  (feature_attn_net): Sequential(
    (0): Linear(in_features=128, out_features=128, bias=True)
    (1): Tanh()
    (2): Linear(in_features=128, out_features=1, bias=True)
  )
  (fc): Sequential(
    (0): Linear(in_features=128, out_features=128, bias=True)
    (1): ReLU()
    (2): Dropout(p=0.3, inplace=False)
    (3): Linear(in_features=128, out_features=50, bias=True)
  )
)
[2025-07-25 01:30:04,802] [INFO] Training...
[2025-07-25 01:30:08,370] [INFO] Epoch 1/5, ValAcc: 20.42%, TrainLoss: 3.4931, ValLoss: 2.9749, LR: 0.001
[2025-07-25 01:30:10,793] [INFO] Epoch 2/5, ValAcc: 39.07%, TrainLoss: 2.7468, ValLoss: 2.3180, LR: 0.001
[2025-07-25 01:30:13,222] [INFO] Epoch 3/5, ValAcc: 49.64%, TrainLoss: 2.1567, ValLoss: 1.8684, LR: 0.001
…
ug', leaderboard_path='output/vrchat-worlds/step2/step2_meta_tcp_window.csv', step1=False, step2=True, step3=False, train=False, longitudinal_evaluation=False, openworld_evaluation=False, device=device(type='cuda'), metadata='window', name='tcpwindow_token_gru_500_32_5_0.001_128_128_3_0.3_128_128'),0.5975,0.6013,0.6496,0.5979
[2025-07-25 01:30:26,569] [INFO] Feature 0 normalized using token
[2025-07-25 01:30:26,569] [INFO] Train shape: (10659, 500), Val shape: (1523, 500), Test shape: (3046, 500)
[2025-07-25 01:30:26,585] [INFO] Classifier: VRScannerModel(
  (input_modules): ModuleList(
    (0): Embedding(4461, 128)
  )
  (rnn_layers): ModuleList(
    (0): GRU(128, 128, num_layers=3, batch_first=True, dropout=0.3, bidirectional=True)
  )
  (attn_nets): ModuleList(
    (0): Sequential(
      (0): Linear(in_features=256, out_features=64, bias=True)
      (1): Tanh()
      (2): Linear(in_features=64, out_features=1, bias=True)
    )
  )
  (projection_layers): ModuleList(
    (0): Linear(in_features=256, out_features=128, bias=True)
  )
  (feature_attn_net): Sequential(
    (0): Linear(in_features=128, out_features=128, bias=True)
    (1): Tanh()
    (2): Linear(in_features=128, out_features=1, bias=True)
  )
  (fc): Sequential(
    (0): Linear(in_features=128, out_features=128, bias=True)
    (1): ReLU()
    (2): Dropout(p=0.3, inplace=False)
    (3): Linear(in_features=128, out_features=50, bias=True)
  )
)
[2025-07-25 01:30:26,585] [INFO] Training...
[2025-07-25 01:30:31,206] [INFO] Epoch 1/5, ValAcc: 31.71%, TrainLoss: 3.2743, ValLoss: 2.5066, LR: 0.001
[2025-07-25 01:30:35,816] [INFO] Epoch 2/5, ValAcc: 49.44%, TrainLoss: 2.2317, ValLoss: 1.8782, LR: 0.001
[2025-07-25 01:30:41,073] [INFO] Epoch 3/5, ValAcc: 60.67%, TrainLoss: 1.6646, ValLoss: 1.4860, LR: 0.001
…
[2025-07-25 01:37:10,696] [INFO] [['443' '443' '56924' ... '80' '59764' '59764']
 ['48734' '80' '48734' ... '443' '53468' '43856']
 ['443' '443' '443' ... '41338' '53398' '443']
 ...
 ['443' '53606' '53606' ... '57818' '57818' '443']
 ['443' '443' '43834' ... '58682' '58682' '58682']
 ['34362' '443' '32856' ... '55162' '55162' '55162']]
[2025-07-25 01:37:19,072] [INFO] Feature 0 normalized using token
[2025-07-25 01:37:19,072] [INFO] Train shape: (10659, 500), Val shape: (1523, 500), Test shape: (3046, 500)
[2025-07-25 01:37:19,113] [INFO] Classifier: VRScannerModel(
  (input_modules): ModuleList(
    (0): Embedding(14069, 128)
  )
  (rnn_layers): ModuleList(
    (0): GRU(128, 128, num_layers=3, batch_first=True, dropout=0.3)
  )
  (attn_nets): ModuleList(
    (0): Sequential(
      (0): Linear(in_features=128, out_features=64, bias=True)
      (1): Tanh()
      (2): Linear(in_features=64, out_features=1, bias=True)
    )
  )
  (projection_layers): ModuleList(
    (0): Linear(in_features=128, out_features=128, bias=True)
  )
  (feature_attn_net): Sequential(
    (0): Linear(in_features=128, out_features=128, bias=True)
    (1): Tanh()
    (2): Linear(in_features=128, out_features=1, bias=True)
  )
  (fc): Sequential(
    (0): Linear(in_features=128, out_features=128, bias=True)
    (1): ReLU()
    (2): Dropout(p=0.3, inplace=False)
    (3): Linear(in_features=128, out_features=50, bias=True)
  )
)
[2025-07-25 01:37:19,113] [INFO] Training...
[2025-07-25 01:37:23,735] [INFO] Epoch 1/5, ValAcc: 43.01%, TrainLoss: 3.4093, ValLoss: 2.1697, LR: 0.001
[2025-07-25 01:37:27,553] [INFO] Epoch 2/5, ValAcc: 66.19%, TrainLoss: 1.6596, ValLoss: 1.1606, LR: 0.001
[2025-07-25 01:37:31,698] [INFO] Epoch 3/5, ValAcc: 71.70%, TrainLoss: 1.0259, ValLoss: 0.9184, LR: 0.001
…
debug', leaderboard_path='output/vrchat-worlds/step2/step2_meta_tcp_sport.csv', step1=False, step2=True, step3=False, train=False, longitudinal_evaluation=False, openworld_evaluation=False, device=device(type='cuda'), metadata='sport', name='tcpsport_token_gru_500_32_5_0.001_128_128_3_0.3_128_128'),0.7528,0.7506,0.7751,0.7524
[2025-07-25 01:37:48,715] [INFO] Feature 0 normalized using token
[2025-07-25 01:37:48,716] [INFO] Train shape: (10659, 500), Val shape: (1523, 500), Test shape: (3046, 500)
[2025-07-25 01:37:48,735] [INFO] Classifier: VRScannerModel(
  (input_modules): ModuleList(
    (0): Embedding(14069, 128)
  )
  (rnn_layers): ModuleList(
    (0): GRU(128, 128, num_layers=3, batch_first=True, dropout=0.3, bidirectional=True)
  )
  (attn_nets): ModuleList(
    (0): Sequential(
      (0): Linear(in_features=256, out_features=64, bias=True)
      (1): Tanh()
      (2): Linear(in_features=64, out_features=1, bias=True)
    )
  )
  (projection_layers): ModuleList(
    (0): Linear(in_features=256, out_features=128, bias=True)
  )
  (feature_attn_net): Sequential(
    (0): Linear(in_features=128, out_features=128, bias=True)
    (1): Tanh()
    (2): Linear(in_features=128, out_features=1, bias=True)
  )
  (fc): Sequential(
    (0): Linear(in_features=128, out_features=128, bias=True)
    (1): ReLU()
    (2): Dropout(p=0.3, inplace=False)
    (3): Linear(in_features=128, out_features=50, bias=True)
  )
)
[2025-07-25 01:37:48,735] [INFO] Training...
[2025-07-25 01:37:53,409] [INFO] Epoch 1/5, ValAcc: 53.58%, TrainLoss: 3.2029, ValLoss: 1.8811, LR: 0.001
[2025-07-25 01:37:58,376] [INFO] Epoch 2/5, ValAcc: 68.88%, TrainLoss: 1.4415, ValLoss: 1.1488, LR: 0.001
[2025-07-25 01:38:03,737] [INFO] Epoch 3/5, ValAcc: 73.08%, TrainLoss: 0.9379, ValLoss: 0.9617, LR: 0.001
…
[2025-07-25 01:41:07,368] [INFO] (15228, 500)
[2025-07-25 01:41:07,368] [INFO] [['56924' '56924' '443' ... '59764' '80' '80']
 ['80' '48734' '80' ... '43856' '443' '443']
 ['59958' '59958' '59958' ... '443' '443' '53398']
 ...
 ['58382' '443' '443' ... '443' '443' '57818']
 ['43834' '43834' '443' ... '443' '443' '443']
 ['443' '32856' '443' ... '443' '443' '443']]
[2025-07-25 01:41:14,355] [INFO] Feature 0 normalized using token
[2025-07-25 01:41:14,355] [INFO] Train shape: (10659, 500), Val shape: (1523, 500), Test shape: (3046, 500)
[2025-07-25 01:41:14,400] [INFO] Classifier: VRScannerModel(
  (input_modules): ModuleList(
    (0): Embedding(14071, 128)
  )
  (rnn_layers): ModuleList(
    (0): GRU(128, 128, num_layers=3, batch_first=True, dropout=0.3)
  )
  (attn_nets): ModuleList(
    (0): Sequential(
      (0): Linear(in_features=128, out_features=64, bias=True)
      (1): Tanh()
      (2): Linear(in_features=64, out_features=1, bias=True)
    )
  )
  (projection_layers): ModuleList(
    (0): Linear(in_features=128, out_features=128, bias=True)
  )
  (feature_attn_net): Sequential(
    (0): Linear(in_features=128, out_features=128, bias=True)
    (1): Tanh()
    (2): Linear(in_features=128, out_features=1, bias=True)
  )
  (fc): Sequential(
    (0): Linear(in_features=128, out_features=128, bias=True)
    (1): ReLU()
    (2): Dropout(p=0.3, inplace=False)
    (3): Linear(in_features=128, out_features=50, bias=True)
  )
)
[2025-07-25 01:41:14,400] [INFO] Training...
[2025-07-25 01:41:19,505] [INFO] Epoch 1/5, ValAcc: 33.95%, TrainLoss: 3.4916, ValLoss: 2.5884, LR: 0.001
[2025-07-25 01:41:23,761] [INFO] Epoch 2/5, ValAcc: 60.41%, TrainLoss: 1.9678, ValLoss: 1.4822, LR: 0.001
[2025-07-25 01:41:27,973] [INFO] Epoch 3/5, ValAcc: 69.60%, TrainLoss: 1.2025, ValLoss: 1.0191, LR: 0.001
…
debug', leaderboard_path='output/vrchat-worlds/step2/step2_meta_tcp_dport.csv', step1=False, step2=True, step3=False, train=False, longitudinal_evaluation=False, openworld_evaluation=False, device=device(type='cuda'), metadata='dport', name='tcpdport_token_gru_500_32_5_0.001_128_128_3_0.3_128_128'),0.7521,0.7482,0.7689,0.7520
[2025-07-25 01:41:43,949] [INFO] Feature 0 normalized using token
[2025-07-25 01:41:43,949] [INFO] Train shape: (10659, 500), Val shape: (1523, 500), Test shape: (3046, 500)
[2025-07-25 01:41:43,969] [INFO] Classifier: VRScannerModel(
  (input_modules): ModuleList(
    (0): Embedding(14071, 128)
  )
  (rnn_layers): ModuleList(
    (0): GRU(128, 128, num_layers=3, batch_first=True, dropout=0.3, bidirectional=True)
  )
  (attn_nets): ModuleList(
    (0): Sequential(
      (0): Linear(in_features=256, out_features=64, bias=True)
      (1): Tanh()
      (2): Linear(in_features=64, out_features=1, bias=True)
    )
  )
  (projection_layers): ModuleList(
    (0): Linear(in_features=256, out_features=128, bias=True)
  )
  (feature_attn_net): Sequential(
    (0): Linear(in_features=128, out_features=128, bias=True)
    (1): Tanh()
    (2): Linear(in_features=128, out_features=1, bias=True)
  )
  (fc): Sequential(
    (0): Linear(in_features=128, out_features=128, bias=True)
    (1): ReLU()
    (2): Dropout(p=0.3, inplace=False)
    (3): Linear(in_features=128, out_features=50, bias=True)
  )
)
[2025-07-25 01:41:43,969] [INFO] Training...
[2025-07-25 01:41:49,335] [INFO] Epoch 1/5, ValAcc: 41.56%, TrainLoss: 3.4200, ValLoss: 2.4011, LR: 0.001
[2025-07-25 01:41:54,711] [INFO] Epoch 2/5, ValAcc: 66.45%, TrainLoss: 1.8273, ValLoss: 1.1375, LR: 0.001
[2025-07-25 01:42:00,076] [INFO] Epoch 3/5, ValAcc: 72.36%, TrainLoss: 1.0341, ValLoss: 0.9299, LR: 0.001
…
[2025-07-25 01:55:40,129] [INFO] Processed data from vrchat-worlds/meta-tcp_flags/meta-tcp_flags.csv:
[2025-07-25 01:55:40,129] [INFO] (15228, 500)
[2025-07-25 01:55:40,129] [INFO] [['A' 'PA' 'A' ... 'SA' 'A' 'PA']
 ['S' 'SA' 'A' ... 'PA' 'A' 'A']
 ['A' 'PA' 'A' ... 'A' 'PA' 'PA']
 ...
 ['A' 'A' 'PA' ... 'PA' 'FA' 'PA']
 ['A' 'PA' 'A' ... 'A' 'A' 'PA']
 ['FA' 'A' 'A' ... 'PA' 'A' 'PA']]
[2025-07-25 01:55:43,711] [INFO] Feature 0 normalized using token
[2025-07-25 01:55:43,711] [INFO] Train shape: (10659, 500), Val shape: (1523, 500), Test shape: (3046, 500)
[2025-07-25 01:55:43,744] [INFO] Classifier: VRScannerModel(
  (input_modules): ModuleList(
    (0): Embedding(9, 128)
  )
  (rnn_layers): ModuleList(
    (0): GRU(128, 128, num_layers=3, batch_first=True, dropout=0.3)
  )
  (attn_nets): ModuleList(
    (0): Sequential(
      (0): Linear(in_features=128, out_features=64, bias=True)
      (1): Tanh()
      (2): Linear(in_features=64, out_features=1, bias=True)
    )
  )
  (projection_layers): ModuleList(
    (0): Linear(in_features=128, out_features=128, bias=True)
  )
  (feature_attn_net): Sequential(
    (0): Linear(in_features=128, out_features=128, bias=True)
    (1): Tanh()
    (2): Linear(in_features=128, out_features=1, bias=True)
  )
  (fc): Sequential(
    (0): Linear(in_features=128, out_features=128, bias=True)
    (1): ReLU()
    (2): Dropout(p=0.3, inplace=False)
    (3): Linear(in_features=128, out_features=50, bias=True)
  )
)
[2025-07-25 01:55:43,745] [INFO] Training...
[2025-07-25 01:55:49,021] [INFO] Epoch 1/5, ValAcc: 3.81%, TrainLoss: 3.8438, ValLoss: 3.7728, LR: 0.001
[2025-07-25 01:55:53,162] [INFO] Epoch 2/5, ValAcc: 4.73%, TrainLoss: 3.7678, ValLoss: 3.7438, LR: 0.001
[2025-07-25 01:55:57,260] [INFO] Epoch 3/5, ValAcc: 6.17%, TrainLoss: 3.7160, ValLoss: 3.6613, LR: 0.001
…
debug', leaderboard_path='output/vrchat-worlds/step2/step2_meta_tcp_flags.csv', step1=False, step2=True, step3=False, train=False, longitudinal_evaluation=False, openworld_evaluation=False, device=device(type='cuda'), metadata='flags', name='tcpflags_token_gru_500_32_5_0.001_128_128_3_0.3_128_128'),0.0919,0.0563,0.0606,0.0936
[2025-07-25 01:56:09,627] [INFO] Feature 0 normalized using token
[2025-07-25 01:56:09,627] [INFO] Train shape: (10659, 500), Val shape: (1523, 500), Test shape: (3046, 500)
[2025-07-25 01:56:09,639] [INFO] Classifier: VRScannerModel(
  (input_modules): ModuleList(
    (0): Embedding(9, 128)
  )
  (rnn_layers): ModuleList(
    (0): GRU(128, 128, num_layers=3, batch_first=True, dropout=0.3, bidirectional=True)
  )
  (attn_nets): ModuleList(
    (0): Sequential(
      (0): Linear(in_features=256, out_features=64, bias=True)
      (1): Tanh()
      (2): Linear(in_features=64, out_features=1, bias=True)
    )
  )
  (projection_layers): ModuleList(
    (0): Linear(in_features=256, out_features=128, bias=True)
  )
  (feature_attn_net): Sequential(
    (0): Linear(in_features=128, out_features=128, bias=True)
    (1): Tanh()
    (2): Linear(in_features=128, out_features=1, bias=True)
  )
  (fc): Sequential(
    (0): Linear(in_features=128, out_features=128, bias=True)
    (1): ReLU()
    (2): Dropout(p=0.3, inplace=False)
    (3): Linear(in_features=128, out_features=50, bias=True)
  )
)
[2025-07-25 01:56:09,639] [INFO] Training...
[2025-07-25 01:56:14,911] [INFO] Epoch 1/5, ValAcc: 4.86%, TrainLoss: 3.8733, ValLoss: 3.7879, LR: 0.001
[2025-07-25 01:56:20,217] [INFO] Epoch 2/5, ValAcc: 5.78%, TrainLoss: 3.7464, ValLoss: 3.7025, LR: 0.001
[2025-07-25 01:56:25,509] [INFO] Epoch 3/5, ValAcc: 10.31%, TrainLoss: 3.6518, ValLoss: 3.5326, LR: 0.001
…
[2025-07-25 01:59:06,647] [INFO] Processed data from vrchat-worlds/meta-tcp_dataofs/meta-tcp_dataofs.csv:
[2025-07-25 01:59:06,647] [INFO] (15228, 500)
[2025-07-25 01:59:06,647] [INFO] [['8' '8' '8' ... '10' '8' '8']
 ['10' '10' '8' ... '8' '8' '8']
 ['8' '8' '8' ... '8' '8' '8']
 ...
 ['8' '8' '8' ... '8' '8' '8']
 ['8' '8' '8' ... '8' '8' '8']
 ['8' '8' '8' ... '8' '8' '8']]
[2025-07-25 01:59:09,776] [INFO] Feature 0 normalized using token
[2025-07-25 01:59:09,776] [INFO] Train shape: (10659, 500), Val shape: (1523, 500), Test shape: (3046, 500)
[2025-07-25 01:59:09,811] [INFO] Classifier: VRScannerModel(
  (input_modules): ModuleList(
    (0): Embedding(7, 128)
  )
  (rnn_layers): ModuleList(
    (0): GRU(128, 128, num_layers=3, batch_first=True, dropout=0.3)
  )
  (attn_nets): ModuleList(
    (0): Sequential(
      (0): Linear(in_features=128, out_features=64, bias=True)
      (1): Tanh()
      (2): Linear(in_features=64, out_features=1, bias=True)
    )
  )
  (projection_layers): ModuleList(
    (0): Linear(in_features=128, out_features=128, bias=True)
  )
  (feature_attn_net): Sequential(
    (0): Linear(in_features=128, out_features=128, bias=True)
    (1): Tanh()
    (2): Linear(in_features=128, out_features=1, bias=True)
  )
  (fc): Sequential(
    (0): Linear(in_features=128, out_features=128, bias=True)
    (1): ReLU()
    (2): Dropout(p=0.3, inplace=False)
    (3): Linear(in_features=128, out_features=50, bias=True)
  )
)
[2025-07-25 01:59:09,811] [INFO] Training...
[2025-07-25 01:59:14,506] [INFO] Epoch 1/5, ValAcc: 4.07%, TrainLoss: 3.9064, ValLoss: 3.8661, LR: 0.001
[2025-07-25 01:59:18,670] [INFO] Epoch 2/5, ValAcc: 4.53%, TrainLoss: 3.8372, ValLoss: 3.8003, LR: 0.001
[2025-07-25 01:59:22,660] [INFO] Epoch 3/5, ValAcc: 7.16%, TrainLoss: 3.7436, ValLoss: 3.7186, LR: 0.001
…
, leaderboard_path='output/vrchat-worlds/step2/step2_meta_tcp_dataofs.csv', step1=False, step2=True, step3=False, train=False, longitudinal_evaluation=False, openworld_evaluation=False, device=device(type='cuda'), metadata='dataofs', name='tcpdataofs_token_gru_500_32_5_0.001_128_128_3_0.3_128_128'),0.0952,0.0756,0.0924,0.0942
[2025-07-25 01:59:34,503] [INFO] Feature 0 normalized using token
[2025-07-25 01:59:34,503] [INFO] Train shape: (10659, 500), Val shape: (1523, 500), Test shape: (3046, 500)
[2025-07-25 01:59:34,515] [INFO] Classifier: VRScannerModel(
  (input_modules): ModuleList(
    (0): Embedding(7, 128)
  )
  (rnn_layers): ModuleList(
    (0): GRU(128, 128, num_layers=3, batch_first=True, dropout=0.3, bidirectional=True)
  )
  (attn_nets): ModuleList(
    (0): Sequential(
      (0): Linear(in_features=256, out_features=64, bias=True)
      (1): Tanh()
      (2): Linear(in_features=64, out_features=1, bias=True)
    )
  )
  (projection_layers): ModuleList(
    (0): Linear(in_features=256, out_features=128, bias=True)
  )
  (feature_attn_net): Sequential(
    (0): Linear(in_features=128, out_features=128, bias=True)
    (1): Tanh()
    (2): Linear(in_features=128, out_features=1, bias=True)
  )
  (fc): Sequential(
    (0): Linear(in_features=128, out_features=128, bias=True)
    (1): ReLU()
    (2): Dropout(p=0.3, inplace=False)
    (3): Linear(in_features=128, out_features=50, bias=True)
  )
)
[2025-07-25 01:59:34,515] [INFO] Training...
[2025-07-25 01:59:39,138] [INFO] Epoch 1/5, ValAcc: 4.20%, TrainLoss: 3.8971, ValLoss: 3.8603, LR: 0.001
[2025-07-25 01:59:43,920] [INFO] Epoch 2/5, ValAcc: 6.24%, TrainLoss: 3.8209, ValLoss: 3.7869, LR: 0.001
[2025-07-25 01:59:49,200] [INFO] Epoch 3/5, ValAcc: 7.09%, TrainLoss: 3.7552, ValLoss: 3.7014, LR: 0.001
…
[2025-07-25 02:02:40,450] [INFO] [['26897' '15522' '35349' ... '5045' '16691' '47566']
 ['25847' '17705' '29351' ... '10418' '46741' '23388']
 ['13868' '3369' '32456' ... '57813' '53140' '42292']
 ...
 ['9948' '50969' '61161' ... '34160' '13518' '6632']
 ['34561' '37610' '25616' ... '10540' '9871' '18993']
 ['60554' '14529' '36822' ... '38065' '27' '45254']]
[2025-07-25 02:02:50,172] [INFO] Feature 0 normalized using token
[2025-07-25 02:02:50,172] [INFO] Train shape: (10659, 500), Val shape: (1523, 500), Test shape: (3046, 500)
[2025-07-25 02:02:50,241] [INFO] Classifier: VRScannerModel(
  (input_modules): ModuleList(
    (0): Embedding(65537, 128)
  )
  (rnn_layers): ModuleList(
    (0): GRU(128, 128, num_layers=3, batch_first=True, dropout=0.3)
  )
  (attn_nets): ModuleList(
    (0): Sequential(
      (0): Linear(in_features=128, out_features=64, bias=True)
      (1): Tanh()
      (2): Linear(in_features=64, out_features=1, bias=True)
    )
  )
  (projection_layers): ModuleList(
    (0): Linear(in_features=128, out_features=128, bias=True)
  )
  (feature_attn_net): Sequential(
    (0): Linear(in_features=128, out_features=128, bias=True)
    (1): Tanh()
    (2): Linear(in_features=128, out_features=1, bias=True)
  )
  (fc): Sequential(
    (0): Linear(in_features=128, out_features=128, bias=True)
    (1): ReLU()
    (2): Dropout(p=0.3, inplace=False)
    (3): Linear(in_features=128, out_features=50, bias=True)
  )
)
[2025-07-25 02:02:50,241] [INFO] Training...
[2025-07-25 02:02:54,121] [INFO] Epoch 1/5, ValAcc: 1.58%, TrainLoss: 3.9134, ValLoss: 3.9130, LR: 0.001
[2025-07-25 02:02:56,847] [INFO] Epoch 2/5, ValAcc: 2.69%, TrainLoss: 3.9032, ValLoss: 3.8960, LR: 0.001
[2025-07-25 02:02:59,573] [INFO] Epoch 3/5, ValAcc: 2.04%, TrainLoss: 3.8820, ValLoss: 3.9134, LR: 0.001
…
ug', leaderboard_path='output/vrchat-worlds/step2/step2_meta_tcp_chksum.csv', step1=False, step2=True, step3=False, train=False, longitudinal_evaluation=False, openworld_evaluation=False, device=device(type='cuda'), metadata='chksum', name='tcpchksum_token_gru_500_32_5_0.001_128_128_3_0.3_128_128'),0.0217,0.0077,0.0084,0.0220
[2025-07-25 02:03:18,042] [INFO] Feature 0 normalized using token
[2025-07-25 02:03:18,042] [INFO] Train shape: (10659, 500), Val shape: (1523, 500), Test shape: (3046, 500)
[2025-07-25 02:03:18,091] [INFO] Classifier: VRScannerModel(
  (input_modules): ModuleList(
    (0): Embedding(65537, 128)
  )
  (rnn_layers): ModuleList(
    (0): GRU(128, 128, num_layers=3, batch_first=True, dropout=0.3, bidirectional=True)
  )
  (attn_nets): ModuleList(
    (0): Sequential(
      (0): Linear(in_features=256, out_features=64, bias=True)
      (1): Tanh()
      (2): Linear(in_features=64, out_features=1, bias=True)
    )
  )
  (projection_layers): ModuleList(
    (0): Linear(in_features=256, out_features=128, bias=True)
  )
  (feature_attn_net): Sequential(
    (0): Linear(in_features=128, out_features=128, bias=True)
    (1): Tanh()
    (2): Linear(in_features=128, out_features=1, bias=True)
  )
  (fc): Sequential(
    (0): Linear(in_features=128, out_features=128, bias=True)
    (1): ReLU()
    (2): Dropout(p=0.3, inplace=False)
    (3): Linear(in_features=128, out_features=50, bias=True)
  )
)
[2025-07-25 02:03:18,091] [INFO] Training...
[2025-07-25 02:03:23,765] [INFO] Epoch 1/5, ValAcc: 2.17%, TrainLoss: 3.9076, ValLoss: 3.8982, LR: 0.001
[2025-07-25 02:03:29,443] [INFO] Epoch 2/5, ValAcc: 2.76%, TrainLoss: 3.8857, ValLoss: 3.9056, LR: 0.001
[2025-07-25 02:03:35,122] [INFO] Epoch 3/5, ValAcc: 2.36%, TrainLoss: 3.8414, ValLoss: 3.9229, LR: 0.001
…
