…
[2025-07-25 02:02:40,450] [INFO] [['26897' '15522' '35349' ... '5045' '16691' '47566']
 ['25847' '17705' '29351' ... '10418' '46741' '23388']
 ['13868' '3369' '32456' ... '57813' '53140' '42292']
 ...
 ['9948' '50969' '61161' ... '34160' '13518' '6632']
 ['34561' '37610' '25616' ... '10540' '9871' '18993']
 ['60554' '14529' '36822' ... '38065' '27' '45254']]
[2025-07-25 02:02:50,172] [INFO] Feature 0 normalized using token
[2025-07-25 02:02:50,172] [INFO] Train shape: (10659, 500), Val shape: (1523, 500), Test shape: (3046, 500)
[2025-07-25 02:02:50,241] [INFO] Classifier: VRScannerModel(
  (input_modules): ModuleList(
    (0): Embedding(65537, 128)
  )
  (rnn_layers): ModuleList(
    (0): GRU(128, 128, num_layers=3, batch_first=True, dropout=0.3)
  )
  (attn_nets): ModuleList(
    (0): Sequential(
      (0): Linear(in_features=128, out_features=64, bias=True)
      (1): Tanh()
      (2): Linear(in_features=64, out_features=1, bias=True)
    )
  )
  (projection_layers): ModuleList(
    (0): Linear(in_features=128, out_features=128, bias=True)
  )
  (feature_attn_net): Sequential(
    (0): Linear(in_features=128, out_features=128, bias=True)
    (1): Tanh()
    (2): Linear(in_features=128, out_features=1, bias=True)
  )
  (fc): Sequential(
    (0): Linear(in_features=128, out_features=128, bias=True)
    (1): ReLU()
    (2): Dropout(p=0.3, inplace=False)
    (3): Linear(in_features=128, out_features=50, bias=True)
  )
)
[2025-07-25 02:02:50,241] [INFO] Training...
[2025-07-25 02:02:54,121] [INFO] Epoch 1/5, ValAcc: 1.58%, TrainLoss: 3.9134, ValLoss: 3.9130, LR: 0.001
[2025-07-25 02:02:56,847] [INFO] Epoch 2/5, ValAcc: 2.69%, TrainLoss: 3.9032, ValLoss: 3.8960, LR: 0.001
[2025-07-25 02:02:59,573] [INFO] Epoch 3/5, ValAcc: 2.04%, TrainLoss: 3.8820, ValLoss: 3.9134, LR: 0.001
…
ug', leaderboard_path='output/vrchat-worlds/step2/step2_meta_tcp_chksum.csv', step1=False, step2=True, step3=False, train=False, longitudinal_evaluation=False, openworld_evaluation=False, device=device(type='cuda'), metadata='chksum', name='tcpchksum_token_gru_500_32_5_0.001_128_128_3_0.3_128_128'),0.0217,0.0077,0.0084,0.0220
[2025-07-25 02:03:18,042] [INFO] Feature 0 normalized using token
[2025-07-25 02:03:18,042] [INFO] Train shape: (10659, 500), Val shape: (1523, 500), Test shape: (3046, 500)
[2025-07-25 02:03:18,091] [INFO] Classifier: VRScannerModel(
  (input_modules): ModuleList(
    (0): Embedding(65537, 128)
  )
  (rnn_layers): ModuleList(
    (0): GRU(128, 128, num_layers=3, batch_first=True, dropout=0.3, bidirectional=True)
  )
  (attn_nets): ModuleList(
    (0): Sequential(
      (0): Linear(in_features=256, out_features=64, bias=True)
      (1): Tanh()
      (2): Linear(in_features=64, out_features=1, bias=True)
    )
  )
  (projection_layers): ModuleList(
    (0): Linear(in_features=256, out_features=128, bias=True)
  )
  (feature_attn_net): Sequential(
    (0): Linear(in_features=128, out_features=128, bias=True)
    (1): Tanh()
    (2): Linear(in_features=128, out_features=1, bias=True)
  )
  (fc): Sequential(
    (0): Linear(in_features=128, out_features=128, bias=True)
    (1): ReLU()
    (2): Dropout(p=0.3, inplace=False)
    (3): Linear(in_features=128, out_features=50, bias=True)
  )
)
[2025-07-25 02:03:18,091] [INFO] Training...
[2025-07-25 02:03:23,765] [INFO] Epoch 1/5, ValAcc: 2.17%, TrainLoss: 3.9076, ValLoss: 3.8982, LR: 0.001
[2025-07-25 02:03:29,443] [INFO] Epoch 2/5, ValAcc: 2.76%, TrainLoss: 3.8857, ValLoss: 3.9056, LR: 0.001
[2025-07-25 02:03:35,122] [INFO] Epoch 3/5, ValAcc: 2.36%, TrainLoss: 3.8414, ValLoss: 3.9229, LR: 0.001
…
