…
[2025-07-25 01:41:07,368] [INFO] (15228, 500)
[2025-07-25 01:41:07,368] [INFO] [['56924' '56924' '443' ... '59764' '80' '80']
 ['80' '48734' '80' ... '43856' '443' '443']
 ['59958' '59958' '59958' ... '443' '443' '53398']
 ...
 ['58382' '443' '443' ... '443' '443' '57818']
 ['43834' '43834' '443' ... '443' '443' '443']
 ['443' '32856' '443' ... '443' '443' '443']]
[2025-07-25 01:41:14,355] [INFO] Feature 0 normalized using token
[2025-07-25 01:41:14,355] [INFO] Train shape: (10659, 500), Val shape: (1523, 500), Test shape: (3046, 500)
[2025-07-25 01:41:14,400] [INFO] Classifier: VRScannerModel(
  (input_modules): ModuleList(
    (0): Embedding(14071, 128)
  )
  (rnn_layers): ModuleList(
    (0): GRU(128, 128, num_layers=3, batch_first=True, dropout=0.3)
  )
  (attn_nets): ModuleList(
    (0): Sequential(
      (0): Linear(in_features=128, out_features=64, bias=True)
      (1): Tanh()
      (2): Linear(in_features=64, out_features=1, bias=True)
    )
  )
  (projection_layers): ModuleList(
    (0): Linear(in_features=128, out_features=128, bias=True)
  )
  (feature_attn_net): Sequential(
    (0): Linear(in_features=128, out_features=128, bias=True)
    (1): Tanh()
    (2): Linear(in_features=128, out_features=1, bias=True)
  )
  (fc): Sequential(
    (0): Linear(in_features=128, out_features=128, bias=True)
    (1): ReLU()
    (2): Dropout(p=0.3, inplace=False)
    (3): Linear(in_features=128, out_features=50, bias=True)
  )
)
[2025-07-25 01:41:14,400] [INFO] Training...
[2025-07-25 01:41:19,505] [INFO] Epoch 1/5, ValAcc: 33.95%, TrainLoss: 3.4916, ValLoss: 2.5884, LR: 0.001
[2025-07-25 01:41:23,761] [INFO] Epoch 2/5, ValAcc: 60.41%, TrainLoss: 1.9678, ValLoss: 1.4822, LR: 0.001
[2025-07-25 01:41:27,973] [INFO] Epoch 3/5, ValAcc: 69.60%, TrainLoss: 1.2025, ValLoss: 1.0191, LR: 0.001
…
debug', leaderboard_path='output/vrchat-worlds/step2/step2_meta_tcp_dport.csv', step1=False, step2=True, step3=False, train=False, longitudinal_evaluation=False, openworld_evaluation=False, device=device(type='cuda'), metadata='dport', name='tcpdport_token_gru_500_32_5_0.001_128_128_3_0.3_128_128'),0.7521,0.7482,0.7689,0.7520
[2025-07-25 01:41:43,949] [INFO] Feature 0 normalized using token
[2025-07-25 01:41:43,949] [INFO] Train shape: (10659, 500), Val shape: (1523, 500), Test shape: (3046, 500)
[2025-07-25 01:41:43,969] [INFO] Classifier: VRScannerModel(
  (input_modules): ModuleList(
    (0): Embedding(14071, 128)
  )
  (rnn_layers): ModuleList(
    (0): GRU(128, 128, num_layers=3, batch_first=True, dropout=0.3, bidirectional=True)
  )
  (attn_nets): ModuleList(
    (0): Sequential(
      (0): Linear(in_features=256, out_features=64, bias=True)
      (1): Tanh()
      (2): Linear(in_features=64, out_features=1, bias=True)
    )
  )
  (projection_layers): ModuleList(
    (0): Linear(in_features=256, out_features=128, bias=True)
  )
  (feature_attn_net): Sequential(
    (0): Linear(in_features=128, out_features=128, bias=True)
    (1): Tanh()
    (2): Linear(in_features=128, out_features=1, bias=True)
  )
  (fc): Sequential(
    (0): Linear(in_features=128, out_features=128, bias=True)
    (1): ReLU()
    (2): Dropout(p=0.3, inplace=False)
    (3): Linear(in_features=128, out_features=50, bias=True)
  )
)
[2025-07-25 01:41:43,969] [INFO] Training...
[2025-07-25 01:41:49,335] [INFO] Epoch 1/5, ValAcc: 41.56%, TrainLoss: 3.4200, ValLoss: 2.4011, LR: 0.001
[2025-07-25 01:41:54,711] [INFO] Epoch 2/5, ValAcc: 66.45%, TrainLoss: 1.8273, ValLoss: 1.1375, LR: 0.001
[2025-07-25 01:42:00,076] [INFO] Epoch 3/5, ValAcc: 72.36%, TrainLoss: 1.0341, ValLoss: 0.9299, LR: 0.001
…
