…
[2025-07-25 01:18:45,554] [INFO] Processed data from vrchat-worlds/meta-ip_frag/meta-ip_frag.csv:
[2025-07-25 01:18:45,555] [INFO] (15228, 500)
[2025-07-25 01:18:45,555] [INFO] [['0' '0' '0' ... '0' '0' '0']
 ['0' '0' '0' ... '0' '0' '0']
 ['0' '0' '0' ... '0' '0' '0']
 ...
 ['0' '0' '0' ... '0' '0' '0']
 ['0' '0' '0' ... '0' '0' '0']
 ['0' '0' '0' ... '0' '0' '0']]
[2025-07-25 01:18:48,105] [INFO] Feature 0 normalized using maxabs
[2025-07-25 01:18:48,105] [INFO] Train shape: (10659, 500), Val shape: (1523, 500), Test shape: (3046, 500)
[2025-07-25 01:18:48,135] [INFO] Classifier: VRScannerModel(
  (input_modules): ModuleList(
    (0): Linear(in_features=1, out_features=128, bias=True)
  )
  (rnn_layers): ModuleList(
    (0): GRU(128, 128, num_layers=3, batch_first=True, dropout=0.3)
  )
  (attn_nets): ModuleList(
    (0): Sequential(
      (0): Linear(in_features=128, out_features=64, bias=True)
      (1): Tanh()
      (2): Linear(in_features=64, out_features=1, bias=True)
    )
  )
  (projection_layers): ModuleList(
    (0): Linear(in_features=128, out_features=128, bias=True)
  )
  (feature_attn_net): Sequential(
    (0): Linear(in_features=128, out_features=128, bias=True)
    (1): Tanh()
    (2): Linear(in_features=128, out_features=1, bias=True)
  )
  (fc): Sequential(
    (0): Linear(in_features=128, out_features=128, bias=True)
    (1): ReLU()
    (2): Dropout(p=0.3, inplace=False)
    (3): Linear(in_features=128, out_features=50, bias=True)
  )
)
[2025-07-25 01:18:48,135] [INFO] Training...
[2025-07-25 01:18:53,253] [INFO] Epoch 1/5, ValAcc: 2.43%, TrainLoss: 3.9176, ValLoss: 3.9123, LR: 0.001
[2025-07-25 01:18:57,510] [INFO] Epoch 2/5, ValAcc: 1.71%, TrainLoss: 3.9146, ValLoss: 3.9123, LR: 0.001
[2025-07-25 01:19:01,712] [INFO] Epoch 3/5, ValAcc: 1.71%, TrainLoss: 3.9141, ValLoss: 3.9135, LR: 0.001
…
ag.debug', leaderboard_path='output/vrchat-worlds/step2/step2_meta_ip_frag.csv', step1=False, step2=True, step3=False, train=False, longitudinal_evaluation=False, openworld_evaluation=False, device=device(type='cuda'), metadata='frag', name='ipfrag_maxabs_gru_500_32_5_0.001_128_128_3_0.3_128_128'),0.0158,0.0006,0.0003,0.0200
[2025-07-25 01:19:12,524] [INFO] Feature 0 normalized using maxabs
[2025-07-25 01:19:12,525] [INFO] Train shape: (10659, 500), Val shape: (1523, 500), Test shape: (3046, 500)
[2025-07-25 01:19:12,534] [INFO] Classifier: VRScannerModel(
  (input_modules): ModuleList(
    (0): Linear(in_features=1, out_features=128, bias=True)
  )
  (rnn_layers): ModuleList(
    (0): GRU(128, 128, num_layers=3, batch_first=True, dropout=0.3, bidirectional=True)
  )
  (attn_nets): ModuleList(
    (0): Sequential(
      (0): Linear(in_features=256, out_features=64, bias=True)
      (1): Tanh()
      (2): Linear(in_features=64, out_features=1, bias=True)
    )
  )
  (projection_layers): ModuleList(
    (0): Linear(in_features=256, out_features=128, bias=True)
  )
  (feature_attn_net): Sequential(
    (0): Linear(in_features=128, out_features=128, bias=True)
    (1): Tanh()
    (2): Linear(in_features=128, out_features=1, bias=True)
  )
  (fc): Sequential(
    (0): Linear(in_features=128, out_features=128, bias=True)
    (1): ReLU()
    (2): Dropout(p=0.3, inplace=False)
    (3): Linear(in_features=128, out_features=50, bias=True)
  )
)
[2025-07-25 01:19:12,534] [INFO] Training...
[2025-07-25 01:19:17,631] [INFO] Epoch 1/5, ValAcc: 1.71%, TrainLoss: 3.9226, ValLoss: 3.9172, LR: 0.001
[2025-07-25 01:19:22,969] [INFO] Epoch 2/5, ValAcc: 1.71%, TrainLoss: 3.9152, ValLoss: 3.9164, LR: 0.001
[2025-07-25 01:19:28,243] [INFO] Epoch 3/5, ValAcc: 1.44%, TrainLoss: 3.9126, ValLoss: 3.9151, LR: 0.001
…
