…
[2025-07-25 01:55:40,129] [INFO] Processed data from vrchat-worlds/meta-tcp_flags/meta-tcp_flags.csv:
[2025-07-25 01:55:40,129] [INFO] (15228, 500)
[2025-07-25 01:55:40,129] [INFO] [['A' 'PA' 'A' ... 'SA' 'A' 'PA']
 ['S' 'SA' 'A' ... 'PA' 'A' 'A']
 ['A' 'PA' 'A' ... 'A' 'PA' 'PA']
 ...
 ['A' 'A' 'PA' ... 'PA' 'FA' 'PA']
 ['A' 'PA' 'A' ... 'A' 'A' 'PA']
 ['FA' 'A' 'A' ... 'PA' 'A' 'PA']]
[2025-07-25 01:55:43,711] [INFO] Feature 0 normalized using token
[2025-07-25 01:55:43,711] [INFO] Train shape: (10659, 500), Val shape: (1523, 500), Test shape: (3046, 500)
[2025-07-25 01:55:43,744] [INFO] Classifier: VRScannerModel(
  (input_modules): ModuleList(
    (0): Embedding(9, 128)
  )
  (rnn_layers): ModuleList(
    (0): GRU(128, 128, num_layers=3, batch_first=True, dropout=0.3)
  )
  (attn_nets): ModuleList(
    (0): Sequential(
      (0): Linear(in_features=128, out_features=64, bias=True)
      (1): Tanh()
      (2): Linear(in_features=64, out_features=1, bias=True)
    )
  )
  (projection_layers): ModuleList(
    (0): Linear(in_features=128, out_features=128, bias=True)
  )
  (feature_attn_net): Sequential(
    (0): Linear(in_features=128, out_features=128, bias=True)
    (1): Tanh()
    (2): Linear(in_features=128, out_features=1, bias=True)
  )
  (fc): Sequential(
    (0): Linear(in_features=128, out_features=128, bias=True)
    (1): ReLU()
    (2): Dropout(p=0.3, inplace=False)
    (3): Linear(in_features=128, out_features=50, bias=True)
  )
)
[2025-07-25 01:55:43,745] [INFO] Training...
[2025-07-25 01:55:49,021] [INFO] Epoch 1/5, ValAcc: 3.81%, TrainLoss: 3.8438, ValLoss: 3.7728, LR: 0.001
[2025-07-25 01:55:53,162] [INFO] Epoch 2/5, ValAcc: 4.73%, TrainLoss: 3.7678, ValLoss: 3.7438, LR: 0.001
[2025-07-25 01:55:57,260] [INFO] Epoch 3/5, ValAcc: 6.17%, TrainLoss: 3.7160, ValLoss: 3.6613, LR: 0.001
…
debug', leaderboard_path='output/vrchat-worlds/step2/step2_meta_tcp_flags.csv', step1=False, step2=True, step3=False, train=False, longitudinal_evaluation=False, openworld_evaluation=False, device=device(type='cuda'), metadata='flags', name='tcpflags_token_gru_500_32_5_0.001_128_128_3_0.3_128_128'),0.0919,0.0563,0.0606,0.0936
[2025-07-25 01:56:09,627] [INFO] Feature 0 normalized using token
[2025-07-25 01:56:09,627] [INFO] Train shape: (10659, 500), Val shape: (1523, 500), Test shape: (3046, 500)
[2025-07-25 01:56:09,639] [INFO] Classifier: VRScannerModel(
  (input_modules): ModuleList(
    (0): Embedding(9, 128)
  )
  (rnn_layers): ModuleList(
    (0): GRU(128, 128, num_layers=3, batch_first=True, dropout=0.3, bidirectional=True)
  )
  (attn_nets): ModuleList(
    (0): Sequential(
      (0): Linear(in_features=256, out_features=64, bias=True)
      (1): Tanh()
      (2): Linear(in_features=64, out_features=1, bias=True)
    )
  )
  (projection_layers): ModuleList(
    (0): Linear(in_features=256, out_features=128, bias=True)
  )
  (feature_attn_net): Sequential(
    (0): Linear(in_features=128, out_features=128, bias=True)
    (1): Tanh()
    (2): Linear(in_features=128, out_features=1, bias=True)
  )
  (fc): Sequential(
    (0): Linear(in_features=128, out_features=128, bias=True)
    (1): ReLU()
    (2): Dropout(p=0.3, inplace=False)
    (3): Linear(in_features=128, out_features=50, bias=True)
  )
)
[2025-07-25 01:56:09,639] [INFO] Training...
[2025-07-25 01:56:14,911] [INFO] Epoch 1/5, ValAcc: 4.86%, TrainLoss: 3.8733, ValLoss: 3.7879, LR: 0.001
[2025-07-25 01:56:20,217] [INFO] Epoch 2/5, ValAcc: 5.78%, TrainLoss: 3.7464, ValLoss: 3.7025, LR: 0.001
[2025-07-25 01:56:25,509] [INFO] Epoch 3/5, ValAcc: 10.31%, TrainLoss: 3.6518, ValLoss: 3.5326, LR: 0.001
…
