…
[2025-07-25 00:47:07,550] [INFO] Processed data from vrchat-worlds/meta-ip_version/meta-ip_version.csv:
[2025-07-25 00:47:07,550] [INFO] (15228, 500)
[2025-07-25 00:47:07,550] [INFO] [['4' '4' '4' ... '4' '4' '4']
 ['4' '4' '4' ... '4' '4' '4']
 ['4' '4' '4' ... '4' '4' '4']
 ...
 ['4' '4' '4' ... '4' '4' '4']
 ['4' '4' '4' ... '4' '4' '4']
 ['4' '4' '4' ... '4' '4' '4']]
[2025-07-25 00:47:10,207] [INFO] Feature 0 normalized using robust
[2025-07-25 00:47:10,208] [INFO] Train shape: (10659, 500), Val shape: (1523, 500), Test shape: (3046, 500)
[2025-07-25 00:47:10,238] [INFO] Classifier: VRScannerModel(
  (input_modules): ModuleList(
    (0): Linear(in_features=1, out_features=128, bias=True)
  )
  (rnn_layers): ModuleList(
    (0): GRU(128, 128, num_layers=3, batch_first=True, dropout=0.3)
  )
  (attn_nets): ModuleList(
    (0): Sequential(
      (0): Linear(in_features=128, out_features=64, bias=True)
      (1): Tanh()
      (2): Linear(in_features=64, out_features=1, bias=True)
    )
  )
  (projection_layers): ModuleList(
    (0): Linear(in_features=128, out_features=128, bias=True)
  )
  (feature_attn_net): Sequential(
    (0): Linear(in_features=128, out_features=128, bias=True)
    (1): Tanh()
    (2): Linear(in_features=128, out_features=1, bias=True)
  )
  (fc): Sequential(
    (0): Linear(in_features=128, out_features=128, bias=True)
    (1): ReLU()
    (2): Dropout(p=0.3, inplace=False)
    (3): Linear(in_features=128, out_features=50, bias=True)
  )
)
[2025-07-25 00:47:10,238] [INFO] Training...
[2025-07-25 00:47:14,642] [INFO] Epoch 1/5, ValAcc: 1.90%, TrainLoss: 3.9165, ValLoss: 3.9122, LR: 0.001
[2025-07-25 00:47:18,331] [INFO] Epoch 2/5, ValAcc: 1.97%, TrainLoss: 3.9139, ValLoss: 3.9133, LR: 0.001
[2025-07-25 00:47:22,204] [INFO] Epoch 3/5, ValAcc: 1.97%, TrainLoss: 3.9128, ValLoss: 3.9132, LR: 0.001
…
, leaderboard_path='output/vrchat-worlds/step2/step2_meta_ip_version.csv', step1=False, step2=True, step3=False, train=False, longitudinal_evaluation=False, openworld_evaluation=False, device=device(type='cuda'), metadata='version', name='ipversion_robust_gru_500_32_5_0.001_128_128_3_0.3_128_128'),0.0141,0.0006,0.0003,0.0200
[2025-07-25 00:47:33,590] [INFO] Feature 0 normalized using robust
[2025-07-25 00:47:33,590] [INFO] Train shape: (10659, 500), Val shape: (1523, 500), Test shape: (3046, 500)
[2025-07-25 00:47:33,600] [INFO] Classifier: VRScannerModel(
  (input_modules): ModuleList(
    (0): Linear(in_features=1, out_features=128, bias=True)
  )
  (rnn_layers): ModuleList(
    (0): GRU(128, 128, num_layers=3, batch_first=True, dropout=0.3, bidirectional=True)
  )
  (attn_nets): ModuleList(
    (0): Sequential(
      (0): Linear(in_features=256, out_features=64, bias=True)
      (1): Tanh()
      (2): Linear(in_features=64, out_features=1, bias=True)
    )
  )
  (projection_layers): ModuleList(
    (0): Linear(in_features=256, out_features=128, bias=True)
  )
  (feature_attn_net): Sequential(
    (0): Linear(in_features=128, out_features=128, bias=True)
    (1): Tanh()
    (2): Linear(in_features=128, out_features=1, bias=True)
  )
  (fc): Sequential(
    (0): Linear(in_features=128, out_features=128, bias=True)
    (1): ReLU()
    (2): Dropout(p=0.3, inplace=False)
    (3): Linear(in_features=128, out_features=50, bias=True)
  )
)
[2025-07-25 00:47:33,600] [INFO] Training...
[2025-07-25 00:47:38,980] [INFO] Epoch 1/5, ValAcc: 2.04%, TrainLoss: 3.9211, ValLoss: 3.9155, LR: 0.001
[2025-07-25 00:47:44,238] [INFO] Epoch 2/5, ValAcc: 2.23%, TrainLoss: 3.9152, ValLoss: 3.9144, LR: 0.001
[2025-07-25 00:47:49,496] [INFO] Epoch 3/5, ValAcc: 2.23%, TrainLoss: 3.9122, ValLoss: 3.9147, LR: 0.001
…
