…
[2025-07-25 00:53:46,979] [INFO] Processed data from vrchat-worlds/meta-ip_ttl/meta-ip_ttl.csv:
[2025-07-25 00:53:46,979] [INFO] (15228, 500)
[2025-07-25 00:53:46,979] [INFO] [['50' '50' '64' ... '50' '64' '64']
 ['64' '50' '64' ... '50' '64' '64']
 ['50' '50' '50' ... '64' '64' '50']
 ...
 ['50' '64' '64' ... '64' '64' '50']
 ['50' '50' '64' ... '64' '64' '64']
 ['64' '50' '64' ... '64' '64' '64']]
[2025-07-25 00:53:51,233] [INFO] Feature 0 normalized using token
[2025-07-25 00:53:51,233] [INFO] Train shape: (10659, 500), Val shape: (1523, 500), Test shape: (3046, 500)
[2025-07-25 00:53:51,267] [INFO] Classifier: VRScannerModel(
  (input_modules): ModuleList(
    (0): Embedding(8, 128)
  )
  (rnn_layers): ModuleList(
    (0): GRU(128, 128, num_layers=3, batch_first=True, dropout=0.3)
  )
  (attn_nets): ModuleList(
    (0): Sequential(
      (0): Linear(in_features=128, out_features=64, bias=True)
      (1): Tanh()
      (2): Linear(in_features=64, out_features=1, bias=True)
    )
  )
  (projection_layers): ModuleList(
    (0): Linear(in_features=128, out_features=128, bias=True)
  )
  (feature_attn_net): Sequential(
    (0): Linear(in_features=128, out_features=128, bias=True)
    (1): Tanh()
    (2): Linear(in_features=128, out_features=1, bias=True)
  )
  (fc): Sequential(
    (0): Linear(in_features=128, out_features=128, bias=True)
    (1): ReLU()
    (2): Dropout(p=0.3, inplace=False)
    (3): Linear(in_features=128, out_features=50, bias=True)
  )
)
[2025-07-25 00:53:51,267] [INFO] Training...
[2025-07-25 00:53:55,412] [INFO] Epoch 1/5, ValAcc: 3.68%, TrainLoss: 3.8364, ValLoss: 3.7669, LR: 0.001
[2025-07-25 00:53:59,220] [INFO] Epoch 2/5, ValAcc: 4.07%, TrainLoss: 3.7608, ValLoss: 3.7303, LR: 0.001
[2025-07-25 00:54:03,551] [INFO] Epoch 3/5, ValAcc: 6.57%, TrainLoss: 3.7058, ValLoss: 3.6493, LR: 0.001
…
_ip_ttl.debug', leaderboard_path='output/vrchat-worlds/step2/step2_meta_ip_ttl.csv', step1=False, step2=True, step3=False, train=False, longitudinal_evaluation=False, openworld_evaluation=False, device=device(type='cuda'), metadata='ttl', name='ipttl_token_gru_500_32_5_0.001_128_128_3_0.3_128_128'),0.0919,0.0569,0.0676,0.0865
[2025-07-25 00:54:16,621] [INFO] Feature 0 normalized using token
[2025-07-25 00:54:16,621] [INFO] Train shape: (10659, 500), Val shape: (1523, 500), Test shape: (3046, 500)
[2025-07-25 00:54:16,633] [INFO] Classifier: VRScannerModel(
  (input_modules): ModuleList(
    (0): Embedding(8, 128)
  )
  (rnn_layers): ModuleList(
    (0): GRU(128, 128, num_layers=3, batch_first=True, dropout=0.3, bidirectional=True)
  )
  (attn_nets): ModuleList(
    (0): Sequential(
      (0): Linear(in_features=256, out_features=64, bias=True)
      (1): Tanh()
      (2): Linear(in_features=64, out_features=1, bias=True)
    )
  )
  (projection_layers): ModuleList(
    (0): Linear(in_features=256, out_features=128, bias=True)
  )
  (feature_attn_net): Sequential(
    (0): Linear(in_features=128, out_features=128, bias=True)
    (1): Tanh()
    (2): Linear(in_features=128, out_features=1, bias=True)
  )
  (fc): Sequential(
    (0): Linear(in_features=128, out_features=128, bias=True)
    (1): ReLU()
    (2): Dropout(p=0.3, inplace=False)
    (3): Linear(in_features=128, out_features=50, bias=True)
  )
)
[2025-07-25 00:54:16,633] [INFO] Training...
[2025-07-25 00:54:21,638] [INFO] Epoch 1/5, ValAcc: 3.35%, TrainLoss: 3.8187, ValLoss: 3.7793, LR: 0.001
[2025-07-25 00:54:26,302] [INFO] Epoch 2/5, ValAcc: 4.60%, TrainLoss: 3.7523, ValLoss: 3.7268, LR: 0.001
[2025-07-25 00:54:31,399] [INFO] Epoch 3/5, ValAcc: 5.32%, TrainLoss: 3.7278, ValLoss: 3.6946, LR: 0.001
…
