…
  '17.126099']
 ['0.000000' '0.000068' '0.001835' ... '21.548401' '22.540459'
  '22.566527']
 ...
 ['0.000000' '0.369373' '0.369377' ... '22.237337' '22.241436'
  '22.242852']
 ['0.000000' '0.000034' '0.003725' ... '8.684832' '8.684836' '8.684837']
 ['0.000000' '0.001233' '0.001305' ... '13.870029' '13.871648'
  '13.871651']]
[2025-07-25 00:39:50,283] [INFO] Feature 0 normalized using power
[2025-07-25 00:39:50,283] [INFO] Train shape: (10659, 500), Val shape: (1523, 500), Test shape: (3046, 500)
[2025-07-25 00:39:50,318] [INFO] Classifier: VRScannerModel(
  (input_modules): ModuleList(
    (0): Linear(in_features=1, out_features=128, bias=True)
  )
  (rnn_layers): ModuleList(
    (0): GRU(128, 128, num_layers=3, batch_first=True, dropout=0.3)
  )
  (attn_nets): ModuleList(
    (0): Sequential(
      (0): Linear(in_features=128, out_features=64, bias=True)
      (1): Tanh()
      (2): Linear(in_features=64, out_features=1, bias=True)
    )
  )
  (projection_layers): ModuleList(
    (0): Linear(in_features=128, out_features=128, bias=True)
  )
  (feature_attn_net): Sequential(
    (0): Linear(in_features=128, out_features=128, bias=True)
    (1): Tanh()
    (2): Linear(in_features=128, out_features=1, bias=True)
  )
  (fc): Sequential(
    (0): Linear(in_features=128, out_features=128, bias=True)
    (1): ReLU()
    (2): Dropout(p=0.3, inplace=False)
    (3): Linear(in_features=128, out_features=50, bias=True)
  )
)
[2025-07-25 00:39:50,318] [INFO] Training...
[2025-07-25 00:39:55,345] [INFO] Epoch 1/5, ValAcc: 2.76%, TrainLoss: 3.8891, ValLoss: 3.8971, LR: 0.001
[2025-07-25 00:39:59,557] [INFO] Epoch 2/5, ValAcc: 4.86%, TrainLoss: 3.8420, ValLoss: 3.8160, LR: 0.001
[2025-07-25 00:40:03,770] [INFO] Epoch 3/5, ValAcc: 5.12%, TrainLoss: 3.7916, ValLoss: 3.7875, LR: 0.001
…
.debug', leaderboard_path='output/vrchat-worlds/step2/step2_meta_pkt_ts_rel.csv', step1=False, step2=True, step3=False, train=False, longitudinal_evaluation=False, openworld_evaluation=False, device=device(type='cuda'), metadata='rel', name='pkttsrel_power_gru_500_32_5_0.001_128_128_3_0.3_128_128'),0.0670,0.0323,0.0273,0.0699
[2025-07-25 00:40:14,381] [INFO] Feature 0 normalized using power
[2025-07-25 00:40:14,381] [INFO] Train shape: (10659, 500), Val shape: (1523, 500), Test shape: (3046, 500)
[2025-07-25 00:40:14,390] [INFO] Classifier: VRScannerModel(
  (input_modules): ModuleList(
    (0): Linear(in_features=1, out_features=128, bias=True)
  )
  (rnn_layers): ModuleList(
    (0): GRU(128, 128, num_layers=3, batch_first=True, dropout=0.3, bidirectional=True)
  )
  (attn_nets): ModuleList(
    (0): Sequential(
      (0): Linear(in_features=256, out_features=64, bias=True)
      (1): Tanh()
      (2): Linear(in_features=64, out_features=1, bias=True)
    )
  )
  (projection_layers): ModuleList(
    (0): Linear(in_features=256, out_features=128, bias=True)
  )
  (feature_attn_net): Sequential(
    (0): Linear(in_features=128, out_features=128, bias=True)
    (1): Tanh()
    (2): Linear(in_features=128, out_features=1, bias=True)
  )
  (fc): Sequential(
    (0): Linear(in_features=128, out_features=128, bias=True)
    (1): ReLU()
    (2): Dropout(p=0.3, inplace=False)
    (3): Linear(in_features=128, out_features=50, bias=True)
  )
)
[2025-07-25 00:40:14,391] [INFO] Training...
[2025-07-25 00:40:18,994] [INFO] Epoch 1/5, ValAcc: 4.73%, TrainLoss: 3.8950, ValLoss: 3.8623, LR: 0.001
[2025-07-25 00:40:23,805] [INFO] Epoch 2/5, ValAcc: 4.27%, TrainLoss: 3.8138, ValLoss: 3.7929, LR: 0.001
[2025-07-25 00:40:29,317] [INFO] Epoch 3/5, ValAcc: 5.91%, TrainLoss: 3.7781, ValLoss: 3.7633, LR: 0.001
…
