…
 ['0.000000' '0.006939' '0.002780' ... '0.000236' '0.000845' '0.002676']
 ['0.000000' '0.000068' '0.001767' ... '0.007247' '0.992058' '0.026068']
 ...
 ['0.000000' '0.369373' '0.000004' ... '0.005634' '0.004099' '0.001416']
 ['0.000000' '0.000034' '0.003691' ... '0.000447' '0.000004' '0.000001']
 ['0.000000' '0.001233' '0.000072' ... '0.000004' '0.001619' '0.000003']]
[2025-07-25 00:43:36,112] [INFO] Feature 0 normalized using power
[2025-07-25 00:43:36,112] [INFO] Train shape: (10659, 500), Val shape: (1523, 500), Test shape: (3046, 500)
[2025-07-25 00:43:36,146] [INFO] Classifier: VRScannerModel(
  (input_modules): ModuleList(
    (0): Linear(in_features=1, out_features=128, bias=True)
  )
  (rnn_layers): ModuleList(
    (0): GRU(128, 128, num_layers=3, batch_first=True, dropout=0.3)
  )
  (attn_nets): ModuleList(
    (0): Sequential(
      (0): Linear(in_features=128, out_features=64, bias=True)
      (1): Tanh()
      (2): Linear(in_features=64, out_features=1, bias=True)
    )
  )
  (projection_layers): ModuleList(
    (0): Linear(in_features=128, out_features=128, bias=True)
  )
  (feature_attn_net): Sequential(
    (0): Linear(in_features=128, out_features=128, bias=True)
    (1): Tanh()
    (2): Linear(in_features=128, out_features=1, bias=True)
  )
  (fc): Sequential(
    (0): Linear(in_features=128, out_features=128, bias=True)
    (1): ReLU()
    (2): Dropout(p=0.3, inplace=False)
    (3): Linear(in_features=128, out_features=50, bias=True)
  )
)
[2025-07-25 00:43:36,146] [INFO] Training...
[2025-07-25 00:43:41,328] [INFO] Epoch 1/5, ValAcc: 3.02%, TrainLoss: 3.8866, ValLoss: 3.8763, LR: 0.001
[2025-07-25 00:43:45,621] [INFO] Epoch 2/5, ValAcc: 4.33%, TrainLoss: 3.8387, ValLoss: 3.8141, LR: 0.001
[2025-07-25 00:43:49,877] [INFO] Epoch 3/5, ValAcc: 6.04%, TrainLoss: 3.7673, ValLoss: 3.7110, LR: 0.001
…
bug', leaderboard_path='output/vrchat-worlds/step2/step2_meta_pkt_ts_diff.csv', step1=False, step2=True, step3=False, train=False, longitudinal_evaluation=False, openworld_evaluation=False, device=device(type='cuda'), metadata='diff', name='pkttsdiff_power_gru_500_32_5_0.001_128_128_3_0.3_128_128'),0.1129,0.0984,0.1370,0.1148
[2025-07-25 00:44:03,480] [INFO] Feature 0 normalized using power
[2025-07-25 00:44:03,480] [INFO] Train shape: (10659, 500), Val shape: (1523, 500), Test shape: (3046, 500)
[2025-07-25 00:44:03,490] [INFO] Classifier: VRScannerModel(
  (input_modules): ModuleList(
    (0): Linear(in_features=1, out_features=128, bias=True)
  )
  (rnn_layers): ModuleList(
    (0): GRU(128, 128, num_layers=3, batch_first=True, dropout=0.3, bidirectional=True)
  )
  (attn_nets): ModuleList(
    (0): Sequential(
      (0): Linear(in_features=256, out_features=64, bias=True)
      (1): Tanh()
      (2): Linear(in_features=64, out_features=1, bias=True)
    )
  )
  (projection_layers): ModuleList(
    (0): Linear(in_features=256, out_features=128, bias=True)
  )
  (feature_attn_net): Sequential(
    (0): Linear(in_features=128, out_features=128, bias=True)
    (1): Tanh()
    (2): Linear(in_features=128, out_features=1, bias=True)
  )
  (fc): Sequential(
    (0): Linear(in_features=128, out_features=128, bias=True)
    (1): ReLU()
    (2): Dropout(p=0.3, inplace=False)
    (3): Linear(in_features=128, out_features=50, bias=True)
  )
)
[2025-07-25 00:44:03,490] [INFO] Training...
[2025-07-25 00:44:08,333] [INFO] Epoch 1/5, ValAcc: 2.63%, TrainLoss: 3.8762, ValLoss: 3.8692, LR: 0.001
[2025-07-25 00:44:13,325] [INFO] Epoch 2/5, ValAcc: 3.87%, TrainLoss: 3.8139, ValLoss: 3.7989, LR: 0.001
[2025-07-25 00:44:18,525] [INFO] Epoch 3/5, ValAcc: 5.25%, TrainLoss: 3.7813, ValLoss: 3.7944, LR: 0.001
…
