…
[2025-07-25 01:52:10,931] [INFO] Processed data from vrchat-worlds/meta-tcp_reserved/meta-tcp_reserved.csv:
[2025-07-25 01:52:10,931] [INFO] (15228, 500)
[2025-07-25 01:52:10,931] [INFO] [['0' '0' '0' ... '0' '0' '0']
 ['0' '0' '0' ... '0' '0' '0']
 ['0' '0' '0' ... '0' '0' '0']
 ...
 ['0' '0' '0' ... '0' '0' '0']
 ['0' '0' '0' ... '0' '0' '0']
 ['0' '0' '0' ... '0' '0' '0']]
[2025-07-25 01:52:13,918] [INFO] Feature 0 normalized using token
[2025-07-25 01:52:13,919] [INFO] Train shape: (10659, 500), Val shape: (1523, 500), Test shape: (3046, 500)
[2025-07-25 01:52:13,950] [INFO] Classifier: VRScannerModel(
  (input_modules): ModuleList(
    (0): Embedding(2, 128)
  )
  (rnn_layers): ModuleList(
    (0): GRU(128, 128, num_layers=3, batch_first=True, dropout=0.3)
  )
  (attn_nets): ModuleList(
    (0): Sequential(
      (0): Linear(in_features=128, out_features=64, bias=True)
      (1): Tanh()
      (2): Linear(in_features=64, out_features=1, bias=True)
    )
  )
  (projection_layers): ModuleList(
    (0): Linear(in_features=128, out_features=128, bias=True)
  )
  (feature_attn_net): Sequential(
    (0): Linear(in_features=128, out_features=128, bias=True)
    (1): Tanh()
    (2): Linear(in_features=128, out_features=1, bias=True)
  )
  (fc): Sequential(
    (0): Linear(in_features=128, out_features=128, bias=True)
    (1): ReLU()
    (2): Dropout(p=0.3, inplace=False)
    (3): Linear(in_features=128, out_features=50, bias=True)
  )
)
[2025-07-25 01:52:13,951] [INFO] Training...
[2025-07-25 01:52:17,611] [INFO] Epoch 1/5, ValAcc: 3.22%, TrainLoss: 3.9049, ValLoss: 3.8982, LR: 0.001
[2025-07-25 01:52:21,807] [INFO] Epoch 2/5, ValAcc: 3.22%, TrainLoss: 3.8867, ValLoss: 3.8944, LR: 0.001
[2025-07-25 01:52:26,019] [INFO] Epoch 3/5, ValAcc: 2.50%, TrainLoss: 3.8832, ValLoss: 3.8948, LR: 0.001
…
eaderboard_path='output/vrchat-worlds/step2/step2_meta_tcp_reserved.csv', step1=False, step2=True, step3=False, train=False, longitudinal_evaluation=False, openworld_evaluation=False, device=device(type='cuda'), metadata='reserved', name='tcpreserved_token_gru_500_32_5_0.001_128_128_3_0.3_128_128'),0.0286,0.0026,0.0014,0.0298
[2025-07-25 01:52:37,747] [INFO] Feature 0 normalized using token
[2025-07-25 01:52:37,747] [INFO] Train shape: (10659, 500), Val shape: (1523, 500), Test shape: (3046, 500)
[2025-07-25 01:52:37,757] [INFO] Classifier: VRScannerModel(
  (input_modules): ModuleList(
    (0): Embedding(2, 128)
  )
  (rnn_layers): ModuleList(
    (0): GRU(128, 128, num_layers=3, batch_first=True, dropout=0.3, bidirectional=True)
  )
  (attn_nets): ModuleList(
    (0): Sequential(
      (0): Linear(in_features=256, out_features=64, bias=True)
      (1): Tanh()
      (2): Linear(in_features=64, out_features=1, bias=True)
    )
  )
  (projection_layers): ModuleList(
    (0): Linear(in_features=256, out_features=128, bias=True)
  )
  (feature_attn_net): Sequential(
    (0): Linear(in_features=128, out_features=128, bias=True)
    (1): Tanh()
    (2): Linear(in_features=128, out_features=1, bias=True)
  )
  (fc): Sequential(
    (0): Linear(in_features=128, out_features=128, bias=True)
    (1): ReLU()
    (2): Dropout(p=0.3, inplace=False)
    (3): Linear(in_features=128, out_features=50, bias=True)
  )
)
[2025-07-25 01:52:37,758] [INFO] Training...
[2025-07-25 01:52:43,032] [INFO] Epoch 1/5, ValAcc: 3.09%, TrainLoss: 3.9130, ValLoss: 3.9018, LR: 0.001
[2025-07-25 01:52:48,323] [INFO] Epoch 2/5, ValAcc: 1.90%, TrainLoss: 3.9123, ValLoss: 3.9143, LR: 0.001
[2025-07-25 01:52:53,617] [INFO] Epoch 3/5, ValAcc: 1.97%, TrainLoss: 3.9124, ValLoss: 3.9146, LR: 0.001
…
