…
[2025-07-25 00:32:12,233] [INFO] (15228, 500)
[2025-07-25 00:32:12,233] [INFO] [['-244' '-141' '52' ... '-60' '52' '233']
 ['60' '-60' '52' ... '-94' '52' '52']
 ['-1432' '-1432' '-1432' ... '52' '770' '-94']
 ...
 ['-52' '1432' '1432' ... '76' '52' '-76']
 ['-1432' '-340' '52' ... '1432' '1432' '1432']
 ['52' '-52' '1432' ... '1432' '1432' '1432']]
[2025-07-25 00:32:18,899] [INFO] Feature 0 normalized using token
[2025-07-25 00:32:18,899] [INFO] Train shape: (10659, 500), Val shape: (1523, 500), Test shape: (3046, 500)
[2025-07-25 00:32:18,932] [INFO] Classifier: VRScannerModel(
  (input_modules): ModuleList(
    (0): Embedding(2752, 128)
  )
  (rnn_layers): ModuleList(
    (0): GRU(128, 128, num_layers=3, batch_first=True, dropout=0.3)
  )
  (attn_nets): ModuleList(
    (0): Sequential(
      (0): Linear(in_features=128, out_features=64, bias=True)
      (1): Tanh()
      (2): Linear(in_features=64, out_features=1, bias=True)
    )
  )
  (projection_layers): ModuleList(
    (0): Linear(in_features=128, out_features=128, bias=True)
  )
  (feature_attn_net): Sequential(
    (0): Linear(in_features=128, out_features=128, bias=True)
    (1): Tanh()
    (2): Linear(in_features=128, out_features=1, bias=True)
  )
  (fc): Sequential(
    (0): Linear(in_features=128, out_features=128, bias=True)
    (1): ReLU()
    (2): Dropout(p=0.3, inplace=False)
    (3): Linear(in_features=128, out_features=50, bias=True)
  )
)
[2025-07-25 00:32:18,932] [INFO] Training...
[2025-07-25 00:32:24,131] [INFO] Epoch 1/5, ValAcc: 7.49%, TrainLoss: 3.7335, ValLoss: 3.4346, LR: 0.001
[2025-07-25 00:32:26,711] [INFO] Epoch 2/5, ValAcc: 23.64%, TrainLoss: 3.1333, ValLoss: 2.6554, LR: 0.001
[2025-07-25 00:32:29,077] [INFO] Epoch 3/5, ValAcc: 38.41%, TrainLoss: 2.4771, ValLoss: 2.1089, LR: 0.001
…
ug', leaderboard_path='output/vrchat-worlds/step2/step2_meta_pkt_dirlen.csv', step1=False, step2=True, step3=False, train=False, longitudinal_evaluation=False, openworld_evaluation=False, device=device(type='cuda'), metadata='dirlen', name='pktdirlen_token_gru_500_32_5_0.001_128_128_3_0.3_128_128'),0.5693,0.5649,0.6146,0.5647
[2025-07-25 00:32:42,773] [INFO] Feature 0 normalized using token
[2025-07-25 00:32:42,773] [INFO] Train shape: (10659, 500), Val shape: (1523, 500), Test shape: (3046, 500)
[2025-07-25 00:32:42,786] [INFO] Classifier: VRScannerModel(
  (input_modules): ModuleList(
    (0): Embedding(2752, 128)
  )
  (rnn_layers): ModuleList(
    (0): GRU(128, 128, num_layers=3, batch_first=True, dropout=0.3, bidirectional=True)
  )
  (attn_nets): ModuleList(
    (0): Sequential(
      (0): Linear(in_features=256, out_features=64, bias=True)
      (1): Tanh()
      (2): Linear(in_features=64, out_features=1, bias=True)
    )
  )
  (projection_layers): ModuleList(
    (0): Linear(in_features=256, out_features=128, bias=True)
  )
  (feature_attn_net): Sequential(
    (0): Linear(in_features=128, out_features=128, bias=True)
    (1): Tanh()
    (2): Linear(in_features=128, out_features=1, bias=True)
  )
  (fc): Sequential(
    (0): Linear(in_features=128, out_features=128, bias=True)
    (1): ReLU()
    (2): Dropout(p=0.3, inplace=False)
    (3): Linear(in_features=128, out_features=50, bias=True)
  )
)
[2025-07-25 00:32:42,786] [INFO] Training...
[2025-07-25 00:32:47,402] [INFO] Epoch 1/5, ValAcc: 11.69%, TrainLoss: 3.7700, ValLoss: 3.3727, LR: 0.001
[2025-07-25 00:32:52,017] [INFO] Epoch 2/5, ValAcc: 25.67%, TrainLoss: 2.9936, ValLoss: 2.5123, LR: 0.001
[2025-07-25 00:32:57,356] [INFO] Epoch 3/5, ValAcc: 45.96%, TrainLoss: 2.2388, ValLoss: 1.7962, LR: 0.001
…
