…
 ['10' '10' '8' ... '8' '8' '8']
 ['8' '8' '8' ... '8' '8' '8']
 ...
 ['8' '8' '8' ... '8' '8' '8']
 ['8' '8' '8' ... '8' '8' '8']
 ['8' '8' '8' ... '8' '8' '8']]
[2025-07-24 15:02:21,665] [INFO] Feature 0 normalized using none
[2025-07-24 15:02:21,665] [INFO] Train shape: (10659, 500), Val shape: (1523, 500), Test shape: (3046, 500)
[2025-07-24 15:02:21,703] [INFO] Classifier: VRScannerModel(
  (input_modules): ModuleList(
    (0): Identity()
  )
  (rnn_layers): ModuleList(
    (0): GRU(1, 128, num_layers=3, batch_first=True, dropout=0.3)
  )
  (attn_nets): ModuleList(
    (0): Sequential(
      (0): Linear(in_features=128, out_features=64, bias=True)
      (1): Tanh()
      (2): Linear(in_features=64, out_features=1, bias=True)
    )
  )
  (projection_layers): ModuleList(
    (0): Linear(in_features=128, out_features=128, bias=True)
  )
  (feature_attn_net): Sequential(
    (0): Linear(in_features=128, out_features=128, bias=True)
    (1): Tanh()
    (2): Linear(in_features=128, out_features=1, bias=True)
  )
  (fc): Sequential(
    (0): Linear(in_features=128, out_features=128, bias=True)
    (1): ReLU()
    (2): Dropout(p=0.3, inplace=False)
    (3): Linear(in_features=128, out_features=50, bias=True)
  )
)
[2025-07-24 15:02:21,703] [INFO] Training...
[2025-07-24 15:02:26,076] [INFO] Epoch 1/5, ValAcc: 1.58%, TrainLoss: 3.9164, ValLoss: 3.9138, LR: 0.001
[2025-07-24 15:02:29,961] [INFO] Epoch 2/5, ValAcc: 1.58%, TrainLoss: 3.9135, ValLoss: 3.9147, LR: 0.001
[2025-07-24 15:02:33,977] [INFO] Epoch 3/5, ValAcc: 1.58%, TrainLoss: 3.9127, ValLoss: 3.9149, LR: 0.001
…
, leaderboard_path='output/vrchat-worlds/step1/step1_meta_tcp_dataofs.csv', step1=True, step2=False, step3=False, train=False, longitudinal_evaluation=False, openworld_evaluation=False, device=device(type='cuda'), metadata='dataofs', name='tcpdataofs_none_gru_500_32_5_0.001_128_128_3_0.3_128_128'),0.0194,0.0008,0.0004,0.0200
[2025-07-24 15:02:45,039] [INFO] Feature 0 normalized using minmax
[2025-07-24 15:02:45,039] [INFO] Train shape: (10659, 500), Val shape: (1523, 500), Test shape: (3046, 500)
[2025-07-24 15:02:45,053] [INFO] Classifier: VRScannerModel(
  (input_modules): ModuleList(
    (0): Linear(in_features=1, out_features=128, bias=True)
  )
  (rnn_layers): ModuleList(
    (0): GRU(128, 128, num_layers=3, batch_first=True, dropout=0.3)
  )
  (attn_nets): ModuleList(
    (0): Sequential(
      (0): Linear(in_features=128, out_features=64, bias=True)
      (1): Tanh()
      (2): Linear(in_features=64, out_features=1, bias=True)
    )
  )
  (projection_layers): ModuleList(
    (0): Linear(in_features=128, out_features=128, bias=True)
  )
  (feature_attn_net): Sequential(
    (0): Linear(in_features=128, out_features=128, bias=True)
    (1): Tanh()
    (2): Linear(in_features=128, out_features=1, bias=True)
  )
  (fc): Sequential(
    (0): Linear(in_features=128, out_features=128, bias=True)
    (1): ReLU()
    (2): Dropout(p=0.3, inplace=False)
    (3): Linear(in_features=128, out_features=50, bias=True)
  )
)
[2025-07-24 15:02:45,053] [INFO] Training...
[2025-07-24 15:02:47,486] [INFO] Epoch 1/5, ValAcc: 2.50%, TrainLoss: 3.9168, ValLoss: 3.9128, LR: 0.001
[2025-07-24 15:02:49,908] [INFO] Epoch 2/5, ValAcc: 2.17%, TrainLoss: 3.9129, ValLoss: 3.9142, LR: 0.001
[2025-07-24 15:02:54,064] [INFO] Epoch 3/5, ValAcc: 2.23%, TrainLoss: 3.9126, ValLoss: 3.9137, LR: 0.001
…
 leaderboard_path='output/vrchat-worlds/step1/step1_meta_tcp_dataofs.csv', step1=True, step2=False, step3=False, train=False, longitudinal_evaluation=False, openworld_evaluation=False, device=device(type='cuda'), metadata='dataofs', name='tcpdataofs_zscore_gru_500_32_5_0.001_128_128_3_0.3_128_128'),0.0660,0.0487,0.0591,0.0682
[2025-07-24 15:03:25,202] [INFO] Feature 0 normalized using token
[2025-07-24 15:03:25,202] [INFO] Train shape: (10659, 500), Val shape: (1523, 500), Test shape: (3046, 500)
[2025-07-24 15:03:25,210] [INFO] Classifier: VRScannerModel(
  (input_modules): ModuleList(
    (0): Embedding(7, 128)
  )
  (rnn_layers): ModuleList(
    (0): GRU(128, 128, num_layers=3, batch_first=True, dropout=0.3)
  )
  (attn_nets): ModuleList(
    (0): Sequential(
      (0): Linear(in_features=128, out_features=64, bias=True)
      (1): Tanh()
      (2): Linear(in_features=64, out_features=1, bias=True)
    )
  )
  (projection_layers): ModuleList(
    (0): Linear(in_features=128, out_features=128, bias=True)
  )
  (feature_attn_net): Sequential(
    (0): Linear(in_features=128, out_features=128, bias=True)
    (1): Tanh()
    (2): Linear(in_features=128, out_features=1, bias=True)
  )
  (fc): Sequential(
    (0): Linear(in_features=128, out_features=128, bias=True)
    (1): ReLU()
    (2): Dropout(p=0.3, inplace=False)
    (3): Linear(in_features=128, out_features=50, bias=True)
  )
)
[2025-07-24 15:03:25,210] [INFO] Training...
[2025-07-24 15:03:28,988] [INFO] Epoch 1/5, ValAcc: 3.81%, TrainLoss: 3.9047, ValLoss: 3.8644, LR: 0.001
[2025-07-24 15:03:33,194] [INFO] Epoch 2/5, ValAcc: 4.79%, TrainLoss: 3.8399, ValLoss: 3.8188, LR: 0.001
[2025-07-24 15:03:37,422] [INFO] Epoch 3/5, ValAcc: 7.75%, TrainLoss: 3.7327, ValLoss: 3.6674, LR: 0.001
…
