…
 ['0' '0' '0' ... '0' '0' '0']
 ['0' '0' '0' ... '0' '0' '0']
 ...
 ['0' '0' '0' ... '0' '0' '0']
 ['0' '0' '0' ... '0' '0' '0']
 ['0' '0' '0' ... '0' '0' '0']]
[2025-07-24 13:50:06,136] [INFO] Feature 0 normalized using none
[2025-07-24 13:50:06,137] [INFO] Train shape: (10659, 500), Val shape: (1523, 500), Test shape: (3046, 500)
[2025-07-24 13:50:06,187] [INFO] Classifier: VRScannerModel(
  (input_modules): ModuleList(
    (0): Identity()
  )
  (rnn_layers): ModuleList(
    (0): GRU(1, 128, num_layers=3, batch_first=True, dropout=0.3)
  )
  (attn_nets): ModuleList(
    (0): Sequential(
      (0): Linear(in_features=128, out_features=64, bias=True)
      (1): Tanh()
      (2): Linear(in_features=64, out_features=1, bias=True)
    )
  )
  (projection_layers): ModuleList(
    (0): Linear(in_features=128, out_features=128, bias=True)
  )
  (feature_attn_net): Sequential(
    (0): Linear(in_features=128, out_features=128, bias=True)
    (1): Tanh()
    (2): Linear(in_features=128, out_features=1, bias=True)
  )
  (fc): Sequential(
    (0): Linear(in_features=128, out_features=128, bias=True)
    (1): ReLU()
    (2): Dropout(p=0.3, inplace=False)
    (3): Linear(in_features=128, out_features=50, bias=True)
  )
)
[2025-07-24 13:50:06,187] [INFO] Training...
[2025-07-24 13:50:09,625] [INFO] Epoch 1/5, ValAcc: 1.77%, TrainLoss: 3.9148, ValLoss: 3.9148, LR: 0.001
[2025-07-24 13:50:11,941] [INFO] Epoch 2/5, ValAcc: 1.90%, TrainLoss: 3.9133, ValLoss: 3.9202, LR: 0.001
[2025-07-24 13:50:14,315] [INFO] Epoch 3/5, ValAcc: 1.97%, TrainLoss: 3.9131, ValLoss: 3.9151, LR: 0.001
…
_ip_tos.debug', leaderboard_path='output/vrchat-worlds/step1/step1_meta_ip_tos.csv', step1=True, step2=False, step3=False, train=False, longitudinal_evaluation=False, openworld_evaluation=False, device=device(type='cuda'), metadata='tos', name='iptos_none_gru_500_32_5_0.001_128_128_3_0.3_128_128'),0.0141,0.0006,0.0003,0.0200
[2025-07-24 13:50:24,442] [INFO] Feature 0 normalized using minmax
[2025-07-24 13:50:24,442] [INFO] Train shape: (10659, 500), Val shape: (1523, 500), Test shape: (3046, 500)
[2025-07-24 13:50:24,482] [INFO] Classifier: VRScannerModel(
  (input_modules): ModuleList(
    (0): Linear(in_features=1, out_features=128, bias=True)
  )
  (rnn_layers): ModuleList(
    (0): GRU(128, 128, num_layers=3, batch_first=True, dropout=0.3)
  )
  (attn_nets): ModuleList(
    (0): Sequential(
      (0): Linear(in_features=128, out_features=64, bias=True)
      (1): Tanh()
      (2): Linear(in_features=64, out_features=1, bias=True)
    )
  )
  (projection_layers): ModuleList(
    (0): Linear(in_features=128, out_features=128, bias=True)
  )
  (feature_attn_net): Sequential(
    (0): Linear(in_features=128, out_features=128, bias=True)
    (1): Tanh()
    (2): Linear(in_features=128, out_features=1, bias=True)
  )
  (fc): Sequential(
    (0): Linear(in_features=128, out_features=128, bias=True)
    (1): ReLU()
    (2): Dropout(p=0.3, inplace=False)
    (3): Linear(in_features=128, out_features=50, bias=True)
  )
)
[2025-07-24 13:50:24,482] [INFO] Training...
[2025-07-24 13:50:26,979] [INFO] Epoch 1/5, ValAcc: 1.64%, TrainLoss: 3.9171, ValLoss: 3.9134, LR: 0.001
[2025-07-24 13:50:29,416] [INFO] Epoch 2/5, ValAcc: 1.90%, TrainLoss: 3.9135, ValLoss: 3.9142, LR: 0.001
[2025-07-24 13:50:31,847] [INFO] Epoch 3/5, ValAcc: 1.64%, TrainLoss: 3.9128, ValLoss: 3.9135, LR: 0.001
…
ip_tos.debug', leaderboard_path='output/vrchat-worlds/step1/step1_meta_ip_tos.csv', step1=True, step2=False, step3=False, train=False, longitudinal_evaluation=False, openworld_evaluation=False, device=device(type='cuda'), metadata='tos', name='iptos_zscore_gru_500_32_5_0.001_128_128_3_0.3_128_128'),0.0141,0.0006,0.0003,0.0200
[2025-07-24 13:51:02,604] [INFO] Feature 0 normalized using token
[2025-07-24 13:51:02,605] [INFO] Train shape: (10659, 500), Val shape: (1523, 500), Test shape: (3046, 500)
[2025-07-24 13:51:02,689] [INFO] Classifier: VRScannerModel(
  (input_modules): ModuleList(
    (0): Embedding(3, 128)
  )
  (rnn_layers): ModuleList(
    (0): GRU(128, 128, num_layers=3, batch_first=True, dropout=0.3)
  )
  (attn_nets): ModuleList(
    (0): Sequential(
      (0): Linear(in_features=128, out_features=64, bias=True)
      (1): Tanh()
      (2): Linear(in_features=64, out_features=1, bias=True)
    )
  )
  (projection_layers): ModuleList(
    (0): Linear(in_features=128, out_features=128, bias=True)
  )
  (feature_attn_net): Sequential(
    (0): Linear(in_features=128, out_features=128, bias=True)
    (1): Tanh()
    (2): Linear(in_features=128, out_features=1, bias=True)
  )
  (fc): Sequential(
    (0): Linear(in_features=128, out_features=128, bias=True)
    (1): ReLU()
    (2): Dropout(p=0.3, inplace=False)
    (3): Linear(in_features=128, out_features=50, bias=True)
  )
)
[2025-07-24 13:51:02,689] [INFO] Training...
[2025-07-24 13:51:05,287] [INFO] Epoch 1/5, ValAcc: 1.77%, TrainLoss: 3.9171, ValLoss: 3.9136, LR: 0.001
[2025-07-24 13:51:07,982] [INFO] Epoch 2/5, ValAcc: 1.77%, TrainLoss: 3.9134, ValLoss: 3.9133, LR: 0.001
[2025-07-24 13:51:10,732] [INFO] Epoch 3/5, ValAcc: 1.44%, TrainLoss: 3.9130, ValLoss: 3.9141, LR: 0.001
…
