…
 ['0' '0' '0' ... '0' '0' '0']
 ['0' '0' '0' ... '0' '0' '0']
 ...
 ['0' '0' '0' ... '0' '0' '0']
 ['0' '0' '0' ... '0' '0' '0']
 ['0' '0' '0' ... '0' '0' '0']]
[2025-07-24 14:13:12,995] [INFO] Feature 0 normalized using none
[2025-07-24 14:13:12,996] [INFO] Train shape: (10659, 500), Val shape: (1523, 500), Test shape: (3046, 500)
[2025-07-24 14:13:13,056] [INFO] Classifier: VRScannerModel(
  (input_modules): ModuleList(
    (0): Identity()
  )
  (rnn_layers): ModuleList(
    (0): GRU(1, 128, num_layers=3, batch_first=True, dropout=0.3)
  )
  (attn_nets): ModuleList(
    (0): Sequential(
      (0): Linear(in_features=128, out_features=64, bias=True)
      (1): Tanh()
      (2): Linear(in_features=64, out_features=1, bias=True)
    )
  )
  (projection_layers): ModuleList(
    (0): Linear(in_features=128, out_features=128, bias=True)
  )
  (feature_attn_net): Sequential(
    (0): Linear(in_features=128, out_features=128, bias=True)
    (1): Tanh()
    (2): Linear(in_features=128, out_features=1, bias=True)
  )
  (fc): Sequential(
    (0): Linear(in_features=128, out_features=128, bias=True)
    (1): ReLU()
    (2): Dropout(p=0.3, inplace=False)
    (3): Linear(in_features=128, out_features=50, bias=True)
  )
)
[2025-07-24 14:13:13,056] [INFO] Training...
[2025-07-24 14:13:16,463] [INFO] Epoch 1/5, ValAcc: 1.90%, TrainLoss: 3.9150, ValLoss: 3.9136, LR: 0.001
[2025-07-24 14:13:19,019] [INFO] Epoch 2/5, ValAcc: 1.97%, TrainLoss: 3.9135, ValLoss: 3.9143, LR: 0.001
[2025-07-24 14:13:21,226] [INFO] Epoch 3/5, ValAcc: 1.97%, TrainLoss: 3.9131, ValLoss: 3.9140, LR: 0.001
…
frag.debug', leaderboard_path='output/vrchat-worlds/step1/step1_meta_ip_frag.csv', step1=True, step2=False, step3=False, train=False, longitudinal_evaluation=False, openworld_evaluation=False, device=device(type='cuda'), metadata='frag', name='ipfrag_none_gru_500_32_5_0.001_128_128_3_0.3_128_128'),0.0141,0.0006,0.0003,0.0200
[2025-07-24 14:13:30,037] [INFO] Feature 0 normalized using minmax
[2025-07-24 14:13:30,037] [INFO] Train shape: (10659, 500), Val shape: (1523, 500), Test shape: (3046, 500)
[2025-07-24 14:13:30,076] [INFO] Classifier: VRScannerModel(
  (input_modules): ModuleList(
    (0): Linear(in_features=1, out_features=128, bias=True)
  )
  (rnn_layers): ModuleList(
    (0): GRU(128, 128, num_layers=3, batch_first=True, dropout=0.3)
  )
  (attn_nets): ModuleList(
    (0): Sequential(
      (0): Linear(in_features=128, out_features=64, bias=True)
      (1): Tanh()
      (2): Linear(in_features=64, out_features=1, bias=True)
    )
  )
  (projection_layers): ModuleList(
    (0): Linear(in_features=128, out_features=128, bias=True)
  )
  (feature_attn_net): Sequential(
    (0): Linear(in_features=128, out_features=128, bias=True)
    (1): Tanh()
    (2): Linear(in_features=128, out_features=1, bias=True)
  )
  (fc): Sequential(
    (0): Linear(in_features=128, out_features=128, bias=True)
    (1): ReLU()
    (2): Dropout(p=0.3, inplace=False)
    (3): Linear(in_features=128, out_features=50, bias=True)
  )
)
[2025-07-24 14:13:30,076] [INFO] Training...
[2025-07-24 14:13:32,655] [INFO] Epoch 1/5, ValAcc: 1.71%, TrainLoss: 3.9174, ValLoss: 3.9144, LR: 0.001
[2025-07-24 14:13:35,261] [INFO] Epoch 2/5, ValAcc: 1.58%, TrainLoss: 3.9131, ValLoss: 3.9148, LR: 0.001
[2025-07-24 14:13:37,699] [INFO] Epoch 3/5, ValAcc: 1.44%, TrainLoss: 3.9124, ValLoss: 3.9152, LR: 0.001
…
rag.debug', leaderboard_path='output/vrchat-worlds/step1/step1_meta_ip_frag.csv', step1=True, step2=False, step3=False, train=False, longitudinal_evaluation=False, openworld_evaluation=False, device=device(type='cuda'), metadata='frag', name='ipfrag_zscore_gru_500_32_5_0.001_128_128_3_0.3_128_128'),0.0158,0.0006,0.0003,0.0200
[2025-07-24 14:14:10,041] [INFO] Feature 0 normalized using token
[2025-07-24 14:14:10,041] [INFO] Train shape: (10659, 500), Val shape: (1523, 500), Test shape: (3046, 500)
[2025-07-24 14:14:10,146] [INFO] Classifier: VRScannerModel(
  (input_modules): ModuleList(
    (0): Embedding(2, 128)
  )
  (rnn_layers): ModuleList(
    (0): GRU(128, 128, num_layers=3, batch_first=True, dropout=0.3)
  )
  (attn_nets): ModuleList(
    (0): Sequential(
      (0): Linear(in_features=128, out_features=64, bias=True)
      (1): Tanh()
      (2): Linear(in_features=64, out_features=1, bias=True)
    )
  )
  (projection_layers): ModuleList(
    (0): Linear(in_features=128, out_features=128, bias=True)
  )
  (feature_attn_net): Sequential(
    (0): Linear(in_features=128, out_features=128, bias=True)
    (1): Tanh()
    (2): Linear(in_features=128, out_features=1, bias=True)
  )
  (fc): Sequential(
    (0): Linear(in_features=128, out_features=128, bias=True)
    (1): ReLU()
    (2): Dropout(p=0.3, inplace=False)
    (3): Linear(in_features=128, out_features=50, bias=True)
  )
)
[2025-07-24 14:14:10,146] [INFO] Training...
[2025-07-24 14:14:13,083] [INFO] Epoch 1/5, ValAcc: 1.71%, TrainLoss: 3.9174, ValLoss: 3.9141, LR: 0.001
[2025-07-24 14:14:15,869] [INFO] Epoch 2/5, ValAcc: 1.77%, TrainLoss: 3.9136, ValLoss: 3.9145, LR: 0.001
[2025-07-24 14:14:18,444] [INFO] Epoch 3/5, ValAcc: 1.44%, TrainLoss: 3.9127, ValLoss: 3.9145, LR: 0.001
…
