…
 ['0' '0' '0' ... '0' '0' '0']
 ['0' '0' '0' ... '0' '0' '0']
 ...
 ['0' '0' '0' ... '0' '0' '0']
 ['0' '0' '0' ... '0' '0' '0']
 ['0' '0' '0' ... '0' '0' '0']]
[2025-07-24 14:56:52,732] [INFO] Feature 0 normalized using none
[2025-07-24 14:56:52,733] [INFO] Train shape: (10659, 500), Val shape: (1523, 500), Test shape: (3046, 500)
[2025-07-24 14:56:52,767] [INFO] Classifier: VRScannerModel(
  (input_modules): ModuleList(
    (0): Identity()
  )
  (rnn_layers): ModuleList(
    (0): GRU(1, 128, num_layers=3, batch_first=True, dropout=0.3)
  )
  (attn_nets): ModuleList(
    (0): Sequential(
      (0): Linear(in_features=128, out_features=64, bias=True)
      (1): Tanh()
      (2): Linear(in_features=64, out_features=1, bias=True)
    )
  )
  (projection_layers): ModuleList(
    (0): Linear(in_features=128, out_features=128, bias=True)
  )
  (feature_attn_net): Sequential(
    (0): Linear(in_features=128, out_features=128, bias=True)
    (1): Tanh()
    (2): Linear(in_features=128, out_features=1, bias=True)
  )
  (fc): Sequential(
    (0): Linear(in_features=128, out_features=128, bias=True)
    (1): ReLU()
    (2): Dropout(p=0.3, inplace=False)
    (3): Linear(in_features=128, out_features=50, bias=True)
  )
)
[2025-07-24 14:56:52,767] [INFO] Training...
[2025-07-24 14:56:57,246] [INFO] Epoch 1/5, ValAcc: 1.97%, TrainLoss: 3.9147, ValLoss: 3.9152, LR: 0.001
[2025-07-24 14:57:01,231] [INFO] Epoch 2/5, ValAcc: 1.97%, TrainLoss: 3.9132, ValLoss: 3.9144, LR: 0.001
[2025-07-24 14:57:05,229] [INFO] Epoch 3/5, ValAcc: 1.97%, TrainLoss: 3.9124, ValLoss: 3.9160, LR: 0.001
…
eaderboard_path='output/vrchat-worlds/step1/step1_meta_tcp_reserved.csv', step1=True, step2=False, step3=False, train=False, longitudinal_evaluation=False, openworld_evaluation=False, device=device(type='cuda'), metadata='reserved', name='tcpreserved_none_gru_500_32_5_0.001_128_128_3_0.3_128_128'),0.0141,0.0006,0.0003,0.0200
[2025-07-24 14:57:16,798] [INFO] Feature 0 normalized using minmax
[2025-07-24 14:57:16,798] [INFO] Train shape: (10659, 500), Val shape: (1523, 500), Test shape: (3046, 500)
[2025-07-24 14:57:16,804] [INFO] Classifier: VRScannerModel(
  (input_modules): ModuleList(
    (0): Linear(in_features=1, out_features=128, bias=True)
  )
  (rnn_layers): ModuleList(
    (0): GRU(128, 128, num_layers=3, batch_first=True, dropout=0.3)
  )
  (attn_nets): ModuleList(
    (0): Sequential(
      (0): Linear(in_features=128, out_features=64, bias=True)
      (1): Tanh()
      (2): Linear(in_features=64, out_features=1, bias=True)
    )
  )
  (projection_layers): ModuleList(
    (0): Linear(in_features=128, out_features=128, bias=True)
  )
  (feature_attn_net): Sequential(
    (0): Linear(in_features=128, out_features=128, bias=True)
    (1): Tanh()
    (2): Linear(in_features=128, out_features=1, bias=True)
  )
  (fc): Sequential(
    (0): Linear(in_features=128, out_features=128, bias=True)
    (1): ReLU()
    (2): Dropout(p=0.3, inplace=False)
    (3): Linear(in_features=128, out_features=50, bias=True)
  )
)
[2025-07-24 14:57:16,805] [INFO] Training...
[2025-07-24 14:57:19,354] [INFO] Epoch 1/5, ValAcc: 2.50%, TrainLoss: 3.9176, ValLoss: 3.9139, LR: 0.001
[2025-07-24 14:57:22,015] [INFO] Epoch 2/5, ValAcc: 1.64%, TrainLoss: 3.9144, ValLoss: 3.9149, LR: 0.001
[2025-07-24 14:57:24,633] [INFO] Epoch 3/5, ValAcc: 1.64%, TrainLoss: 3.9135, ValLoss: 3.9140, LR: 0.001
…
aderboard_path='output/vrchat-worlds/step1/step1_meta_tcp_reserved.csv', step1=True, step2=False, step3=False, train=False, longitudinal_evaluation=False, openworld_evaluation=False, device=device(type='cuda'), metadata='reserved', name='tcpreserved_zscore_gru_500_32_5_0.001_128_128_3_0.3_128_128'),0.0141,0.0006,0.0003,0.0200
[2025-07-24 14:57:51,509] [INFO] Feature 0 normalized using token
[2025-07-24 14:57:51,509] [INFO] Train shape: (10659, 500), Val shape: (1523, 500), Test shape: (3046, 500)
[2025-07-24 14:57:51,517] [INFO] Classifier: VRScannerModel(
  (input_modules): ModuleList(
    (0): Embedding(2, 128)
  )
  (rnn_layers): ModuleList(
    (0): GRU(128, 128, num_layers=3, batch_first=True, dropout=0.3)
  )
  (attn_nets): ModuleList(
    (0): Sequential(
      (0): Linear(in_features=128, out_features=64, bias=True)
      (1): Tanh()
      (2): Linear(in_features=64, out_features=1, bias=True)
    )
  )
  (projection_layers): ModuleList(
    (0): Linear(in_features=128, out_features=128, bias=True)
  )
  (feature_attn_net): Sequential(
    (0): Linear(in_features=128, out_features=128, bias=True)
    (1): Tanh()
    (2): Linear(in_features=128, out_features=1, bias=True)
  )
  (fc): Sequential(
    (0): Linear(in_features=128, out_features=128, bias=True)
    (1): ReLU()
    (2): Dropout(p=0.3, inplace=False)
    (3): Linear(in_features=128, out_features=50, bias=True)
  )
)
[2025-07-24 14:57:51,517] [INFO] Training...
[2025-07-24 14:57:55,054] [INFO] Epoch 1/5, ValAcc: 2.95%, TrainLoss: 3.9051, ValLoss: 3.8980, LR: 0.001
[2025-07-24 14:57:59,257] [INFO] Epoch 2/5, ValAcc: 2.36%, TrainLoss: 3.8884, ValLoss: 3.8950, LR: 0.001
[2025-07-24 14:58:03,461] [INFO] Epoch 3/5, ValAcc: 2.30%, TrainLoss: 3.8848, ValLoss: 3.8927, LR: 0.001
…
