…
 ['4' '4' '4' ... '4' '4' '4']
 ['4' '4' '4' ... '4' '4' '4']
 ...
 ['4' '4' '4' ... '4' '4' '4']
 ['4' '4' '4' ... '4' '4' '4']
 ['4' '4' '4' ... '4' '4' '4']]
[2025-07-24 13:35:37,817] [INFO] Feature 0 normalized using none
[2025-07-24 13:35:37,817] [INFO] Train shape: (10659, 500), Val shape: (1523, 500), Test shape: (3046, 500)
[2025-07-24 13:35:37,934] [INFO] Classifier: VRScannerModel(
  (input_modules): ModuleList(
    (0): Identity()
  )
  (rnn_layers): ModuleList(
    (0): GRU(1, 128, num_layers=3, batch_first=True, dropout=0.3)
  )
  (attn_nets): ModuleList(
    (0): Sequential(
      (0): Linear(in_features=128, out_features=64, bias=True)
      (1): Tanh()
      (2): Linear(in_features=64, out_features=1, bias=True)
    )
  )
  (projection_layers): ModuleList(
    (0): Linear(in_features=128, out_features=128, bias=True)
  )
  (feature_attn_net): Sequential(
    (0): Linear(in_features=128, out_features=128, bias=True)
    (1): Tanh()
    (2): Linear(in_features=128, out_features=1, bias=True)
  )
  (fc): Sequential(
    (0): Linear(in_features=128, out_features=128, bias=True)
    (1): ReLU()
    (2): Dropout(p=0.3, inplace=False)
    (3): Linear(in_features=128, out_features=50, bias=True)
  )
)
[2025-07-24 13:35:37,934] [INFO] Training...
[2025-07-24 13:35:42,317] [INFO] Epoch 1/5, ValAcc: 1.97%, TrainLoss: 3.9152, ValLoss: 3.9126, LR: 0.001
[2025-07-24 13:35:44,767] [INFO] Epoch 2/5, ValAcc: 1.44%, TrainLoss: 3.9137, ValLoss: 3.9150, LR: 0.001
[2025-07-24 13:35:47,198] [INFO] Epoch 3/5, ValAcc: 1.97%, TrainLoss: 3.9130, ValLoss: 3.9148, LR: 0.001
…
g', leaderboard_path='output/vrchat-worlds/step1/step1_meta_ip_version.csv', step1=True, step2=False, step3=False, train=False, longitudinal_evaluation=False, openworld_evaluation=False, device=device(type='cuda'), metadata='version', name='ipversion_none_gru_500_32_5_0.001_128_128_3_0.3_128_128'),0.0141,0.0006,0.0003,0.0200
[2025-07-24 13:35:59,217] [INFO] Feature 0 normalized using minmax
[2025-07-24 13:35:59,217] [INFO] Train shape: (10659, 500), Val shape: (1523, 500), Test shape: (3046, 500)
[2025-07-24 13:35:59,275] [INFO] Classifier: VRScannerModel(
  (input_modules): ModuleList(
    (0): Linear(in_features=1, out_features=128, bias=True)
  )
  (rnn_layers): ModuleList(
    (0): GRU(128, 128, num_layers=3, batch_first=True, dropout=0.3)
  )
  (attn_nets): ModuleList(
    (0): Sequential(
      (0): Linear(in_features=128, out_features=64, bias=True)
      (1): Tanh()
      (2): Linear(in_features=64, out_features=1, bias=True)
    )
  )
  (projection_layers): ModuleList(
    (0): Linear(in_features=128, out_features=128, bias=True)
  )
  (feature_attn_net): Sequential(
    (0): Linear(in_features=128, out_features=128, bias=True)
    (1): Tanh()
    (2): Linear(in_features=128, out_features=1, bias=True)
  )
  (fc): Sequential(
    (0): Linear(in_features=128, out_features=128, bias=True)
    (1): ReLU()
    (2): Dropout(p=0.3, inplace=False)
    (3): Linear(in_features=128, out_features=50, bias=True)
  )
)
[2025-07-24 13:35:59,276] [INFO] Training...
[2025-07-24 13:36:01,986] [INFO] Epoch 1/5, ValAcc: 1.44%, TrainLoss: 3.9168, ValLoss: 3.9141, LR: 0.001
[2025-07-24 13:36:04,545] [INFO] Epoch 2/5, ValAcc: 1.44%, TrainLoss: 3.9130, ValLoss: 3.9147, LR: 0.001
[2025-07-24 13:36:07,159] [INFO] Epoch 3/5, ValAcc: 1.44%, TrainLoss: 3.9128, ValLoss: 3.9151, LR: 0.001
…
', leaderboard_path='output/vrchat-worlds/step1/step1_meta_ip_version.csv', step1=True, step2=False, step3=False, train=False, longitudinal_evaluation=False, openworld_evaluation=False, device=device(type='cuda'), metadata='version', name='ipversion_zscore_gru_500_32_5_0.001_128_128_3_0.3_128_128'),0.0141,0.0006,0.0003,0.0200
[2025-07-24 13:36:39,038] [INFO] Feature 0 normalized using token
[2025-07-24 13:36:39,038] [INFO] Train shape: (10659, 500), Val shape: (1523, 500), Test shape: (3046, 500)
[2025-07-24 13:36:39,132] [INFO] Classifier: VRScannerModel(
  (input_modules): ModuleList(
    (0): Embedding(2, 128)
  )
  (rnn_layers): ModuleList(
    (0): GRU(128, 128, num_layers=3, batch_first=True, dropout=0.3)
  )
  (attn_nets): ModuleList(
    (0): Sequential(
      (0): Linear(in_features=128, out_features=64, bias=True)
      (1): Tanh()
      (2): Linear(in_features=64, out_features=1, bias=True)
    )
  )
  (projection_layers): ModuleList(
    (0): Linear(in_features=128, out_features=128, bias=True)
  )
  (feature_attn_net): Sequential(
    (0): Linear(in_features=128, out_features=128, bias=True)
    (1): Tanh()
    (2): Linear(in_features=128, out_features=1, bias=True)
  )
  (fc): Sequential(
    (0): Linear(in_features=128, out_features=128, bias=True)
    (1): ReLU()
    (2): Dropout(p=0.3, inplace=False)
    (3): Linear(in_features=128, out_features=50, bias=True)
  )
)
[2025-07-24 13:36:39,137] [INFO] Training...
[2025-07-24 13:36:41,889] [INFO] Epoch 1/5, ValAcc: 1.71%, TrainLoss: 3.9174, ValLoss: 3.9127, LR: 0.001
[2025-07-24 13:36:44,537] [INFO] Epoch 2/5, ValAcc: 1.97%, TrainLoss: 3.9133, ValLoss: 3.9139, LR: 0.001
[2025-07-24 13:36:47,245] [INFO] Epoch 3/5, ValAcc: 1.97%, TrainLoss: 3.9128, ValLoss: 3.9139, LR: 0.001
…
