…
 ['-1432' '-1432' '-1432' ... '52' '770' '-94']
 ...
 ['-52' '1432' '1432' ... '76' '52' '-76']
 ['-1432' '-340' '52' ... '1432' '1432' '1432']
 ['52' '-52' '1432' ... '1432' '1432' '1432']]
[2025-07-24 13:12:07,847] [INFO] Feature 0 normalized using none
[2025-07-24 13:12:07,847] [INFO] Train shape: (10659, 500), Val shape: (1523, 500), Test shape: (3046, 500)
[2025-07-24 13:12:07,882] [INFO] Classifier: VRScannerModel(
  (input_modules): ModuleList(
    (0): Identity()
  )
  (rnn_layers): ModuleList(
    (0): GRU(1, 128, num_layers=3, batch_first=True, dropout=0.3)
  )
  (attn_nets): ModuleList(
    (0): Sequential(
      (0): Linear(in_features=128, out_features=64, bias=True)
      (1): Tanh()
      (2): Linear(in_features=64, out_features=1, bias=True)
    )
  )
  (projection_layers): ModuleList(
    (0): Linear(in_features=128, out_features=128, bias=True)
  )
  (feature_attn_net): Sequential(
    (0): Linear(in_features=128, out_features=128, bias=True)
    (1): Tanh()
    (2): Linear(in_features=128, out_features=1, bias=True)
  )
  (fc): Sequential(
    (0): Linear(in_features=128, out_features=128, bias=True)
    (1): ReLU()
    (2): Dropout(p=0.3, inplace=False)
    (3): Linear(in_features=128, out_features=50, bias=True)
  )
)
[2025-07-24 13:12:07,882] [INFO] Training...
[2025-07-24 13:12:11,637] [INFO] Epoch 1/5, ValAcc: 2.04%, TrainLoss: 3.8996, ValLoss: 3.8488, LR: 0.001
[2025-07-24 13:12:14,008] [INFO] Epoch 2/5, ValAcc: 3.94%, TrainLoss: 3.7881, ValLoss: 3.7806, LR: 0.001
[2025-07-24 13:12:16,422] [INFO] Epoch 3/5, ValAcc: 7.16%, TrainLoss: 3.6951, ValLoss: 3.6502, LR: 0.001
…
ug', leaderboard_path='output/vrchat-worlds/step1/step1_meta_pkt_dirlen.csv', step1=True, step2=False, step3=False, train=False, longitudinal_evaluation=False, openworld_evaluation=False, device=device(type='cuda'), metadata='dirlen', name='pktdirlen_none_gru_500_32_5_0.001_128_128_3_0.3_128_128'),0.0991,0.0665,0.0722,0.0979
[2025-07-24 13:12:28,565] [INFO] Feature 0 normalized using minmax
[2025-07-24 13:12:28,565] [INFO] Train shape: (10659, 500), Val shape: (1523, 500), Test shape: (3046, 500)
[2025-07-24 13:12:28,623] [INFO] Classifier: VRScannerModel(
  (input_modules): ModuleList(
    (0): Linear(in_features=1, out_features=128, bias=True)
  )
  (rnn_layers): ModuleList(
    (0): GRU(128, 128, num_layers=3, batch_first=True, dropout=0.3)
  )
  (attn_nets): ModuleList(
    (0): Sequential(
      (0): Linear(in_features=128, out_features=64, bias=True)
      (1): Tanh()
      (2): Linear(in_features=64, out_features=1, bias=True)
    )
  )
  (projection_layers): ModuleList(
    (0): Linear(in_features=128, out_features=128, bias=True)
  )
  (feature_attn_net): Sequential(
    (0): Linear(in_features=128, out_features=128, bias=True)
    (1): Tanh()
    (2): Linear(in_features=128, out_features=1, bias=True)
  )
  (fc): Sequential(
    (0): Linear(in_features=128, out_features=128, bias=True)
    (1): ReLU()
    (2): Dropout(p=0.3, inplace=False)
    (3): Linear(in_features=128, out_features=50, bias=True)
  )
)
[2025-07-24 13:12:28,623] [INFO] Training...
[2025-07-24 13:12:31,075] [INFO] Epoch 1/5, ValAcc: 3.68%, TrainLoss: 3.8930, ValLoss: 3.8416, LR: 0.001
[2025-07-24 13:12:33,577] [INFO] Epoch 2/5, ValAcc: 3.61%, TrainLoss: 3.8541, ValLoss: 3.8449, LR: 0.001
[2025-07-24 13:12:36,142] [INFO] Epoch 3/5, ValAcc: 3.81%, TrainLoss: 3.8248, ValLoss: 3.8077, LR: 0.001
…
g', leaderboard_path='output/vrchat-worlds/step1/step1_meta_pkt_dirlen.csv', step1=True, step2=False, step3=False, train=False, longitudinal_evaluation=False, openworld_evaluation=False, device=device(type='cuda'), metadata='dirlen', name='pktdirlen_zscore_gru_500_32_5_0.001_128_128_3_0.3_128_128'),0.1280,0.0950,0.1223,0.1257
[2025-07-24 13:13:11,659] [INFO] Feature 0 normalized using token
[2025-07-24 13:13:11,659] [INFO] Train shape: (10659, 500), Val shape: (1523, 500), Test shape: (3046, 500)
[2025-07-24 13:13:11,669] [INFO] Classifier: VRScannerModel(
  (input_modules): ModuleList(
    (0): Embedding(2752, 128)
  )
  (rnn_layers): ModuleList(
    (0): GRU(128, 128, num_layers=3, batch_first=True, dropout=0.3)
  )
  (attn_nets): ModuleList(
    (0): Sequential(
      (0): Linear(in_features=128, out_features=64, bias=True)
      (1): Tanh()
      (2): Linear(in_features=64, out_features=1, bias=True)
    )
  )
  (projection_layers): ModuleList(
    (0): Linear(in_features=128, out_features=128, bias=True)
  )
  (feature_attn_net): Sequential(
    (0): Linear(in_features=128, out_features=128, bias=True)
    (1): Tanh()
    (2): Linear(in_features=128, out_features=1, bias=True)
  )
  (fc): Sequential(
    (0): Linear(in_features=128, out_features=128, bias=True)
    (1): ReLU()
    (2): Dropout(p=0.3, inplace=False)
    (3): Linear(in_features=128, out_features=50, bias=True)
  )
)
[2025-07-24 13:13:11,670] [INFO] Training...
[2025-07-24 13:13:14,634] [INFO] Epoch 1/5, ValAcc: 9.39%, TrainLoss: 3.7853, ValLoss: 3.4436, LR: 0.001
[2025-07-24 13:13:17,186] [INFO] Epoch 2/5, ValAcc: 17.99%, TrainLoss: 3.1632, ValLoss: 2.8534, LR: 0.001
[2025-07-24 13:13:19,645] [INFO] Epoch 3/5, ValAcc: 32.50%, TrainLoss: 2.5630, ValLoss: 2.3170, LR: 0.001
…
