…
  '22.242852']
 ['0.000000' '0.000034' '0.003725' ... '8.684832' '8.684836' '8.684837']
 ['0.000000' '0.001233' '0.001305' ... '13.870029' '13.871648'
  '13.871651']]
[2025-07-24 13:22:26,323] [INFO] Feature 0 normalized using none
[2025-07-24 13:22:26,324] [INFO] Train shape: (10659, 500), Val shape: (1523, 500), Test shape: (3046, 500)
[2025-07-24 13:22:26,375] [INFO] Classifier: VRScannerModel(
  (input_modules): ModuleList(
    (0): Identity()
  )
  (rnn_layers): ModuleList(
    (0): GRU(1, 128, num_layers=3, batch_first=True, dropout=0.3)
  )
  (attn_nets): ModuleList(
    (0): Sequential(
      (0): Linear(in_features=128, out_features=64, bias=True)
      (1): Tanh()
      (2): Linear(in_features=64, out_features=1, bias=True)
    )
  )
  (projection_layers): ModuleList(
    (0): Linear(in_features=128, out_features=128, bias=True)
  )
  (feature_attn_net): Sequential(
    (0): Linear(in_features=128, out_features=128, bias=True)
    (1): Tanh()
    (2): Linear(in_features=128, out_features=1, bias=True)
  )
  (fc): Sequential(
    (0): Linear(in_features=128, out_features=128, bias=True)
    (1): ReLU()
    (2): Dropout(p=0.3, inplace=False)
    (3): Linear(in_features=128, out_features=50, bias=True)
  )
)
[2025-07-24 13:22:26,376] [INFO] Training...
[2025-07-24 13:22:29,898] [INFO] Epoch 1/5, ValAcc: 2.89%, TrainLoss: 3.8958, ValLoss: 3.8887, LR: 0.001
[2025-07-24 13:22:32,188] [INFO] Epoch 2/5, ValAcc: 3.74%, TrainLoss: 3.8455, ValLoss: 3.8634, LR: 0.001
[2025-07-24 13:22:34,493] [INFO] Epoch 3/5, ValAcc: 3.87%, TrainLoss: 3.8052, ValLoss: 3.8256, LR: 0.001
…
.debug', leaderboard_path='output/vrchat-worlds/step1/step1_meta_pkt_ts_rel.csv', step1=True, step2=False, step3=False, train=False, longitudinal_evaluation=False, openworld_evaluation=False, device=device(type='cuda'), metadata='rel', name='pkttsrel_none_gru_500_32_5_0.001_128_128_3_0.3_128_128'),0.0689,0.0309,0.0374,0.0672
[2025-07-24 13:22:45,630] [INFO] Feature 0 normalized using minmax
[2025-07-24 13:22:45,631] [INFO] Train shape: (10659, 500), Val shape: (1523, 500), Test shape: (3046, 500)
[2025-07-24 13:22:45,727] [INFO] Classifier: VRScannerModel(
  (input_modules): ModuleList(
    (0): Linear(in_features=1, out_features=128, bias=True)
  )
  (rnn_layers): ModuleList(
    (0): GRU(128, 128, num_layers=3, batch_first=True, dropout=0.3)
  )
  (attn_nets): ModuleList(
    (0): Sequential(
      (0): Linear(in_features=128, out_features=64, bias=True)
      (1): Tanh()
      (2): Linear(in_features=64, out_features=1, bias=True)
    )
  )
  (projection_layers): ModuleList(
    (0): Linear(in_features=128, out_features=128, bias=True)
  )
  (feature_attn_net): Sequential(
    (0): Linear(in_features=128, out_features=128, bias=True)
    (1): Tanh()
    (2): Linear(in_features=128, out_features=1, bias=True)
  )
  (fc): Sequential(
    (0): Linear(in_features=128, out_features=128, bias=True)
    (1): ReLU()
    (2): Dropout(p=0.3, inplace=False)
    (3): Linear(in_features=128, out_features=50, bias=True)
  )
)
[2025-07-24 13:22:45,727] [INFO] Training...
[2025-07-24 13:22:48,245] [INFO] Epoch 1/5, ValAcc: 2.17%, TrainLoss: 3.8999, ValLoss: 3.8832, LR: 0.001
[2025-07-24 13:22:50,754] [INFO] Epoch 2/5, ValAcc: 2.69%, TrainLoss: 3.8755, ValLoss: 3.8915, LR: 0.001
[2025-07-24 13:22:53,235] [INFO] Epoch 3/5, ValAcc: 2.76%, TrainLoss: 3.8645, ValLoss: 3.8697, LR: 0.001
…
debug', leaderboard_path='output/vrchat-worlds/step1/step1_meta_pkt_ts_rel.csv', step1=True, step2=False, step3=False, train=False, longitudinal_evaluation=False, openworld_evaluation=False, device=device(type='cuda'), metadata='rel', name='pkttsrel_zscore_gru_500_32_5_0.001_128_128_3_0.3_128_128'),0.0604,0.0349,0.0624,0.0587
[2025-07-24 13:23:42,517] [INFO] Feature 0 normalized using token
[2025-07-24 13:23:42,518] [INFO] Train shape: (10659, 500), Val shape: (1523, 500), Test shape: (3046, 500)
[2025-07-24 13:23:49,685] [INFO] Classifier: VRScannerModel(
  (input_modules): ModuleList(
    (0): Embedding(4337990, 128)
  )
  (rnn_layers): ModuleList(
    (0): GRU(128, 128, num_layers=3, batch_first=True, dropout=0.3)
  )
  (attn_nets): ModuleList(
    (0): Sequential(
      (0): Linear(in_features=128, out_features=64, bias=True)
      (1): Tanh()
      (2): Linear(in_features=64, out_features=1, bias=True)
    )
  )
  (projection_layers): ModuleList(
    (0): Linear(in_features=128, out_features=128, bias=True)
  )
  (feature_attn_net): Sequential(
    (0): Linear(in_features=128, out_features=128, bias=True)
    (1): Tanh()
    (2): Linear(in_features=128, out_features=1, bias=True)
  )
  (fc): Sequential(
    (0): Linear(in_features=128, out_features=128, bias=True)
    (1): ReLU()
    (2): Dropout(p=0.3, inplace=False)
    (3): Linear(in_features=128, out_features=50, bias=True)
  )
)
[2025-07-24 13:23:49,686] [INFO] Training...
[2025-07-24 13:24:18,913] [INFO] Epoch 1/5, ValAcc: 1.64%, TrainLoss: 3.9148, ValLoss: 3.9151, LR: 0.001
[2025-07-24 13:24:47,171] [INFO] Epoch 2/5, ValAcc: 2.23%, TrainLoss: 3.9070, ValLoss: 4.4099, LR: 0.001
[2025-07-24 13:25:15,336] [INFO] Epoch 3/5, ValAcc: 2.04%, TrainLoss: 3.6047, ValLoss: 9.4000, LR: 0.001
…
