…
 ['0' '0' '0' ... '0' '0' '0']
 ['0' '0' '0' ... '0' '0' '0']
 ...
 ['0' '0' '0' ... '0' '0' '0']
 ['0' '0' '0' ... '0' '0' '0']
 ['0' '0' '0' ... '0' '0' '0']]
[2025-07-24 14:29:14,266] [INFO] Feature 0 normalized using none
[2025-07-24 14:29:14,266] [INFO] Train shape: (10659, 500), Val shape: (1523, 500), Test shape: (3046, 500)
[2025-07-24 14:29:14,306] [INFO] Classifier: VRScannerModel(
  (input_modules): ModuleList(
    (0): Identity()
  )
  (rnn_layers): ModuleList(
    (0): GRU(1, 128, num_layers=3, batch_first=True, dropout=0.3)
  )
  (attn_nets): ModuleList(
    (0): Sequential(
      (0): Linear(in_features=128, out_features=64, bias=True)
      (1): Tanh()
      (2): Linear(in_features=64, out_features=1, bias=True)
    )
  )
  (projection_layers): ModuleList(
    (0): Linear(in_features=128, out_features=128, bias=True)
  )
  (feature_attn_net): Sequential(
    (0): Linear(in_features=128, out_features=128, bias=True)
    (1): Tanh()
    (2): Linear(in_features=128, out_features=1, bias=True)
  )
  (fc): Sequential(
    (0): Linear(in_features=128, out_features=128, bias=True)
    (1): ReLU()
    (2): Dropout(p=0.3, inplace=False)
    (3): Linear(in_features=128, out_features=50, bias=True)
  )
)
[2025-07-24 14:29:14,306] [INFO] Training...
[2025-07-24 14:29:17,870] [INFO] Epoch 1/5, ValAcc: 1.77%, TrainLoss: 3.9141, ValLoss: 3.9159, LR: 0.001
[2025-07-24 14:29:20,358] [INFO] Epoch 2/5, ValAcc: 1.64%, TrainLoss: 3.9133, ValLoss: 3.9159, LR: 0.001
[2025-07-24 14:29:22,762] [INFO] Epoch 3/5, ValAcc: 1.64%, TrainLoss: 3.9128, ValLoss: 3.9147, LR: 0.001
…
ug', leaderboard_path='output/vrchat-worlds/step1/step1_meta_tcp_urgptr.csv', step1=True, step2=False, step3=False, train=False, longitudinal_evaluation=False, openworld_evaluation=False, device=device(type='cuda'), metadata='urgptr', name='tcpurgptr_none_gru_500_32_5_0.001_128_128_3_0.3_128_128'),0.0158,0.0006,0.0003,0.0200
[2025-07-24 14:29:34,711] [INFO] Feature 0 normalized using minmax
[2025-07-24 14:29:34,711] [INFO] Train shape: (10659, 500), Val shape: (1523, 500), Test shape: (3046, 500)
[2025-07-24 14:29:34,776] [INFO] Classifier: VRScannerModel(
  (input_modules): ModuleList(
    (0): Linear(in_features=1, out_features=128, bias=True)
  )
  (rnn_layers): ModuleList(
    (0): GRU(128, 128, num_layers=3, batch_first=True, dropout=0.3)
  )
  (attn_nets): ModuleList(
    (0): Sequential(
      (0): Linear(in_features=128, out_features=64, bias=True)
      (1): Tanh()
      (2): Linear(in_features=64, out_features=1, bias=True)
    )
  )
  (projection_layers): ModuleList(
    (0): Linear(in_features=128, out_features=128, bias=True)
  )
  (feature_attn_net): Sequential(
    (0): Linear(in_features=128, out_features=128, bias=True)
    (1): Tanh()
    (2): Linear(in_features=128, out_features=1, bias=True)
  )
  (fc): Sequential(
    (0): Linear(in_features=128, out_features=128, bias=True)
    (1): ReLU()
    (2): Dropout(p=0.3, inplace=False)
    (3): Linear(in_features=128, out_features=50, bias=True)
  )
)
[2025-07-24 14:29:34,776] [INFO] Training...
[2025-07-24 14:29:37,265] [INFO] Epoch 1/5, ValAcc: 2.30%, TrainLoss: 3.9170, ValLoss: 3.9154, LR: 0.001
[2025-07-24 14:29:39,754] [INFO] Epoch 2/5, ValAcc: 1.44%, TrainLoss: 3.9136, ValLoss: 3.9143, LR: 0.001
[2025-07-24 14:29:42,237] [INFO] Epoch 3/5, ValAcc: 1.44%, TrainLoss: 3.9130, ValLoss: 3.9141, LR: 0.001
…
g', leaderboard_path='output/vrchat-worlds/step1/step1_meta_tcp_urgptr.csv', step1=True, step2=False, step3=False, train=False, longitudinal_evaluation=False, openworld_evaluation=False, device=device(type='cuda'), metadata='urgptr', name='tcpurgptr_zscore_gru_500_32_5_0.001_128_128_3_0.3_128_128'),0.0141,0.0006,0.0003,0.0200
[2025-07-24 14:30:10,140] [INFO] Feature 0 normalized using token
[2025-07-24 14:30:10,141] [INFO] Train shape: (10659, 500), Val shape: (1523, 500), Test shape: (3046, 500)
[2025-07-24 14:30:10,151] [INFO] Classifier: VRScannerModel(
  (input_modules): ModuleList(
    (0): Embedding(2, 128)
  )
  (rnn_layers): ModuleList(
    (0): GRU(128, 128, num_layers=3, batch_first=True, dropout=0.3)
  )
  (attn_nets): ModuleList(
    (0): Sequential(
      (0): Linear(in_features=128, out_features=64, bias=True)
      (1): Tanh()
      (2): Linear(in_features=64, out_features=1, bias=True)
    )
  )
  (projection_layers): ModuleList(
    (0): Linear(in_features=128, out_features=128, bias=True)
  )
  (feature_attn_net): Sequential(
    (0): Linear(in_features=128, out_features=128, bias=True)
    (1): Tanh()
    (2): Linear(in_features=128, out_features=1, bias=True)
  )
  (fc): Sequential(
    (0): Linear(in_features=128, out_features=128, bias=True)
    (1): ReLU()
    (2): Dropout(p=0.3, inplace=False)
    (3): Linear(in_features=128, out_features=50, bias=True)
  )
)
[2025-07-24 14:30:10,151] [INFO] Training...
[2025-07-24 14:30:12,716] [INFO] Epoch 1/5, ValAcc: 2.30%, TrainLoss: 3.9053, ValLoss: 3.8976, LR: 0.001
[2025-07-24 14:30:15,391] [INFO] Epoch 2/5, ValAcc: 2.36%, TrainLoss: 3.8883, ValLoss: 3.8944, LR: 0.001
[2025-07-24 14:30:18,004] [INFO] Epoch 3/5, ValAcc: 3.22%, TrainLoss: 3.8856, ValLoss: 3.8990, LR: 0.001
…
