…
 ['6' '6' '6' ... '6' '6' '6']
 ['6' '6' '6' ... '6' '6' '6']
 ...
 ['6' '6' '6' ... '6' '6' '6']
 ['6' '6' '6' ... '6' '6' '6']
 ['6' '6' '6' ... '6' '6' '6']]
[2025-07-24 13:58:12,640] [INFO] Feature 0 normalized using none
[2025-07-24 13:58:12,640] [INFO] Train shape: (10659, 500), Val shape: (1523, 500), Test shape: (3046, 500)
[2025-07-24 13:58:12,764] [INFO] Classifier: VRScannerModel(
  (input_modules): ModuleList(
    (0): Identity()
  )
  (rnn_layers): ModuleList(
    (0): GRU(1, 128, num_layers=3, batch_first=True, dropout=0.3)
  )
  (attn_nets): ModuleList(
    (0): Sequential(
      (0): Linear(in_features=128, out_features=64, bias=True)
      (1): Tanh()
      (2): Linear(in_features=64, out_features=1, bias=True)
    )
  )
  (projection_layers): ModuleList(
    (0): Linear(in_features=128, out_features=128, bias=True)
  )
  (feature_attn_net): Sequential(
    (0): Linear(in_features=128, out_features=128, bias=True)
    (1): Tanh()
    (2): Linear(in_features=128, out_features=1, bias=True)
  )
  (fc): Sequential(
    (0): Linear(in_features=128, out_features=128, bias=True)
    (1): ReLU()
    (2): Dropout(p=0.3, inplace=False)
    (3): Linear(in_features=128, out_features=50, bias=True)
  )
)
[2025-07-24 13:58:12,764] [INFO] Training...
[2025-07-24 13:58:17,809] [INFO] Epoch 1/5, ValAcc: 1.64%, TrainLoss: 3.9156, ValLoss: 3.9140, LR: 0.001
[2025-07-24 13:58:20,279] [INFO] Epoch 2/5, ValAcc: 1.71%, TrainLoss: 3.9135, ValLoss: 3.9166, LR: 0.001
[2025-07-24 13:58:23,069] [INFO] Epoch 3/5, ValAcc: 1.64%, TrainLoss: 3.9133, ValLoss: 3.9155, LR: 0.001
…
o.debug', leaderboard_path='output/vrchat-worlds/step1/step1_meta_ip_proto.csv', step1=True, step2=False, step3=False, train=False, longitudinal_evaluation=False, openworld_evaluation=False, device=device(type='cuda'), metadata='proto', name='ipproto_none_gru_500_32_5_0.001_128_128_3_0.3_128_128'),0.0164,0.0006,0.0003,0.0200
[2025-07-24 13:58:34,017] [INFO] Feature 0 normalized using minmax
[2025-07-24 13:58:34,018] [INFO] Train shape: (10659, 500), Val shape: (1523, 500), Test shape: (3046, 500)
[2025-07-24 13:58:34,103] [INFO] Classifier: VRScannerModel(
  (input_modules): ModuleList(
    (0): Linear(in_features=1, out_features=128, bias=True)
  )
  (rnn_layers): ModuleList(
    (0): GRU(128, 128, num_layers=3, batch_first=True, dropout=0.3)
  )
  (attn_nets): ModuleList(
    (0): Sequential(
      (0): Linear(in_features=128, out_features=64, bias=True)
      (1): Tanh()
      (2): Linear(in_features=64, out_features=1, bias=True)
    )
  )
  (projection_layers): ModuleList(
    (0): Linear(in_features=128, out_features=128, bias=True)
  )
  (feature_attn_net): Sequential(
    (0): Linear(in_features=128, out_features=128, bias=True)
    (1): Tanh()
    (2): Linear(in_features=128, out_features=1, bias=True)
  )
  (fc): Sequential(
    (0): Linear(in_features=128, out_features=128, bias=True)
    (1): ReLU()
    (2): Dropout(p=0.3, inplace=False)
    (3): Linear(in_features=128, out_features=50, bias=True)
  )
)
[2025-07-24 13:58:34,116] [INFO] Training...
[2025-07-24 13:58:36,862] [INFO] Epoch 1/5, ValAcc: 2.30%, TrainLoss: 3.9181, ValLoss: 3.9136, LR: 0.001
[2025-07-24 13:58:39,405] [INFO] Epoch 2/5, ValAcc: 1.97%, TrainLoss: 3.9137, ValLoss: 3.9142, LR: 0.001
[2025-07-24 13:58:41,934] [INFO] Epoch 3/5, ValAcc: 1.64%, TrainLoss: 3.9127, ValLoss: 3.9149, LR: 0.001
…
.debug', leaderboard_path='output/vrchat-worlds/step1/step1_meta_ip_proto.csv', step1=True, step2=False, step3=False, train=False, longitudinal_evaluation=False, openworld_evaluation=False, device=device(type='cuda'), metadata='proto', name='ipproto_zscore_gru_500_32_5_0.001_128_128_3_0.3_128_128'),0.0243,0.0031,0.0020,0.0271
[2025-07-24 13:59:07,611] [INFO] Feature 0 normalized using token
[2025-07-24 13:59:07,611] [INFO] Train shape: (10659, 500), Val shape: (1523, 500), Test shape: (3046, 500)
[2025-07-24 13:59:07,622] [INFO] Classifier: VRScannerModel(
  (input_modules): ModuleList(
    (0): Embedding(4, 128)
  )
  (rnn_layers): ModuleList(
    (0): GRU(128, 128, num_layers=3, batch_first=True, dropout=0.3)
  )
  (attn_nets): ModuleList(
    (0): Sequential(
      (0): Linear(in_features=128, out_features=64, bias=True)
      (1): Tanh()
      (2): Linear(in_features=64, out_features=1, bias=True)
    )
  )
  (projection_layers): ModuleList(
    (0): Linear(in_features=128, out_features=128, bias=True)
  )
  (feature_attn_net): Sequential(
    (0): Linear(in_features=128, out_features=128, bias=True)
    (1): Tanh()
    (2): Linear(in_features=128, out_features=1, bias=True)
  )
  (fc): Sequential(
    (0): Linear(in_features=128, out_features=128, bias=True)
    (1): ReLU()
    (2): Dropout(p=0.3, inplace=False)
    (3): Linear(in_features=128, out_features=50, bias=True)
  )
)
[2025-07-24 13:59:07,622] [INFO] Training...
[2025-07-24 13:59:10,235] [INFO] Epoch 1/5, ValAcc: 2.82%, TrainLoss: 3.9082, ValLoss: 3.8997, LR: 0.001
[2025-07-24 13:59:12,848] [INFO] Epoch 2/5, ValAcc: 2.30%, TrainLoss: 3.8886, ValLoss: 3.8987, LR: 0.001
[2025-07-24 13:59:15,384] [INFO] Epoch 3/5, ValAcc: 2.30%, TrainLoss: 3.8855, ValLoss: 3.8913, LR: 0.001
…
