…
 ['0.000000' '0.369373' '0.000004' ... '0.005634' '0.004099' '0.001416']
 ['0.000000' '0.000034' '0.003691' ... '0.000447' '0.000004' '0.000001']
 ['0.000000' '0.001233' '0.000072' ... '0.000004' '0.001619' '0.000003']]
[2025-07-24 13:30:35,975] [INFO] Feature 0 normalized using none
[2025-07-24 13:30:35,976] [INFO] Train shape: (10659, 500), Val shape: (1523, 500), Test shape: (3046, 500)
[2025-07-24 13:30:36,098] [INFO] Classifier: VRScannerModel(
  (input_modules): ModuleList(
    (0): Identity()
  )
  (rnn_layers): ModuleList(
    (0): GRU(1, 128, num_layers=3, batch_first=True, dropout=0.3)
  )
  (attn_nets): ModuleList(
    (0): Sequential(
      (0): Linear(in_features=128, out_features=64, bias=True)
      (1): Tanh()
      (2): Linear(in_features=64, out_features=1, bias=True)
    )
  )
  (projection_layers): ModuleList(
    (0): Linear(in_features=128, out_features=128, bias=True)
  )
  (feature_attn_net): Sequential(
    (0): Linear(in_features=128, out_features=128, bias=True)
    (1): Tanh()
    (2): Linear(in_features=128, out_features=1, bias=True)
  )
  (fc): Sequential(
    (0): Linear(in_features=128, out_features=128, bias=True)
    (1): ReLU()
    (2): Dropout(p=0.3, inplace=False)
    (3): Linear(in_features=128, out_features=50, bias=True)
  )
)
[2025-07-24 13:30:36,098] [INFO] Training...
[2025-07-24 13:30:40,748] [INFO] Epoch 1/5, ValAcc: 2.23%, TrainLoss: 3.9148, ValLoss: 3.9138, LR: 0.001
[2025-07-24 13:30:43,222] [INFO] Epoch 2/5, ValAcc: 1.44%, TrainLoss: 3.9132, ValLoss: 3.9148, LR: 0.001
[2025-07-24 13:30:45,794] [INFO] Epoch 3/5, ValAcc: 1.44%, TrainLoss: 3.9124, ValLoss: 3.9151, LR: 0.001
…
bug', leaderboard_path='output/vrchat-worlds/step1/step1_meta_pkt_ts_diff.csv', step1=True, step2=False, step3=False, train=False, longitudinal_evaluation=False, openworld_evaluation=False, device=device(type='cuda'), metadata='diff', name='pkttsdiff_none_gru_500_32_5_0.001_128_128_3_0.3_128_128'),0.0158,0.0006,0.0003,0.0200
[2025-07-24 13:30:57,268] [INFO] Feature 0 normalized using minmax
[2025-07-24 13:30:57,269] [INFO] Train shape: (10659, 500), Val shape: (1523, 500), Test shape: (3046, 500)
[2025-07-24 13:30:57,356] [INFO] Classifier: VRScannerModel(
  (input_modules): ModuleList(
    (0): Linear(in_features=1, out_features=128, bias=True)
  )
  (rnn_layers): ModuleList(
    (0): GRU(128, 128, num_layers=3, batch_first=True, dropout=0.3)
  )
  (attn_nets): ModuleList(
    (0): Sequential(
      (0): Linear(in_features=128, out_features=64, bias=True)
      (1): Tanh()
      (2): Linear(in_features=64, out_features=1, bias=True)
    )
  )
  (projection_layers): ModuleList(
    (0): Linear(in_features=128, out_features=128, bias=True)
  )
  (feature_attn_net): Sequential(
    (0): Linear(in_features=128, out_features=128, bias=True)
    (1): Tanh()
    (2): Linear(in_features=128, out_features=1, bias=True)
  )
  (fc): Sequential(
    (0): Linear(in_features=128, out_features=128, bias=True)
    (1): ReLU()
    (2): Dropout(p=0.3, inplace=False)
    (3): Linear(in_features=128, out_features=50, bias=True)
  )
)
[2025-07-24 13:30:57,356] [INFO] Training...
[2025-07-24 13:30:59,989] [INFO] Epoch 1/5, ValAcc: 1.97%, TrainLoss: 3.9168, ValLoss: 3.9177, LR: 0.001
[2025-07-24 13:31:02,780] [INFO] Epoch 2/5, ValAcc: 1.44%, TrainLoss: 3.9139, ValLoss: 3.9167, LR: 0.001
[2025-07-24 13:31:05,503] [INFO] Epoch 3/5, ValAcc: 1.97%, TrainLoss: 3.9132, ValLoss: 3.9135, LR: 0.001
…
ug', leaderboard_path='output/vrchat-worlds/step1/step1_meta_pkt_ts_diff.csv', step1=True, step2=False, step3=False, train=False, longitudinal_evaluation=False, openworld_evaluation=False, device=device(type='cuda'), metadata='diff', name='pkttsdiff_zscore_gru_500_32_5_0.001_128_128_3_0.3_128_128'),0.0532,0.0255,0.0211,0.0551
[2025-07-24 13:31:45,669] [INFO] Feature 0 normalized using token
[2025-07-24 13:31:45,670] [INFO] Train shape: (10659, 500), Val shape: (1523, 500), Test shape: (3046, 500)
[2025-07-24 13:31:45,907] [INFO] Classifier: VRScannerModel(
  (input_modules): ModuleList(
    (0): Embedding(332548, 128)
  )
  (rnn_layers): ModuleList(
    (0): GRU(128, 128, num_layers=3, batch_first=True, dropout=0.3)
  )
  (attn_nets): ModuleList(
    (0): Sequential(
      (0): Linear(in_features=128, out_features=64, bias=True)
      (1): Tanh()
      (2): Linear(in_features=64, out_features=1, bias=True)
    )
  )
  (projection_layers): ModuleList(
    (0): Linear(in_features=128, out_features=128, bias=True)
  )
  (feature_attn_net): Sequential(
    (0): Linear(in_features=128, out_features=128, bias=True)
    (1): Tanh()
    (2): Linear(in_features=128, out_features=1, bias=True)
  )
  (fc): Sequential(
    (0): Linear(in_features=128, out_features=128, bias=True)
    (1): ReLU()
    (2): Dropout(p=0.3, inplace=False)
    (3): Linear(in_features=128, out_features=50, bias=True)
  )
)
[2025-07-24 13:31:45,907] [INFO] Training...
[2025-07-24 13:31:51,601] [INFO] Epoch 1/5, ValAcc: 5.25%, TrainLoss: 3.8458, ValLoss: 3.7618, LR: 0.001
[2025-07-24 13:31:57,217] [INFO] Epoch 2/5, ValAcc: 9.39%, TrainLoss: 3.6709, ValLoss: 3.6335, LR: 0.001
[2025-07-24 13:32:02,750] [INFO] Epoch 3/5, ValAcc: 7.81%, TrainLoss: 3.4320, ValLoss: 3.8630, LR: 0.001
…
