…
 ['1' '-1' '1' ... '-1' '1' '1']
 ['-1' '-1' '-1' ... '1' '1' '-1']
 ...
 ['-1' '1' '1' ... '1' '1' '-1']
 ['-1' '-1' '1' ... '1' '1' '1']
 ['1' '-1' '1' ... '1' '1' '1']]
[2025-07-24 13:17:08,398] [INFO] Feature 0 normalized using none
[2025-07-24 13:17:08,398] [INFO] Train shape: (10659, 500), Val shape: (1523, 500), Test shape: (3046, 500)
[2025-07-24 13:17:08,532] [INFO] Classifier: VRScannerModel(
  (input_modules): ModuleList(
    (0): Identity()
  )
  (rnn_layers): ModuleList(
    (0): GRU(1, 128, num_layers=3, batch_first=True, dropout=0.3)
  )
  (attn_nets): ModuleList(
    (0): Sequential(
      (0): Linear(in_features=128, out_features=64, bias=True)
      (1): Tanh()
      (2): Linear(in_features=64, out_features=1, bias=True)
    )
  )
  (projection_layers): ModuleList(
    (0): Linear(in_features=128, out_features=128, bias=True)
  )
  (feature_attn_net): Sequential(
    (0): Linear(in_features=128, out_features=128, bias=True)
    (1): Tanh()
    (2): Linear(in_features=128, out_features=1, bias=True)
  )
  (fc): Sequential(
    (0): Linear(in_features=128, out_features=128, bias=True)
    (1): ReLU()
    (2): Dropout(p=0.3, inplace=False)
    (3): Linear(in_features=128, out_features=50, bias=True)
  )
)
[2025-07-24 13:17:08,532] [INFO] Training...
[2025-07-24 13:17:12,628] [INFO] Epoch 1/5, ValAcc: 1.44%, TrainLoss: 3.8990, ValLoss: 3.8564, LR: 0.001
[2025-07-24 13:17:15,038] [INFO] Epoch 2/5, ValAcc: 2.95%, TrainLoss: 3.8485, ValLoss: 3.8345, LR: 0.001
[2025-07-24 13:17:17,539] [INFO] Epoch 3/5, ValAcc: 3.61%, TrainLoss: 3.8310, ValLoss: 3.8049, LR: 0.001
…
t_dir.debug', leaderboard_path='output/vrchat-worlds/step1/step1_meta_pkt_dir.csv', step1=True, step2=False, step3=False, train=False, longitudinal_evaluation=False, openworld_evaluation=False, device=device(type='cuda'), metadata='dir', name='pktdir_none_gru_500_32_5_0.001_128_128_3_0.3_128_128'),0.0729,0.0455,0.0843,0.0732
[2025-07-24 13:17:29,176] [INFO] Feature 0 normalized using minmax
[2025-07-24 13:17:29,177] [INFO] Train shape: (10659, 500), Val shape: (1523, 500), Test shape: (3046, 500)
[2025-07-24 13:17:29,276] [INFO] Classifier: VRScannerModel(
  (input_modules): ModuleList(
    (0): Linear(in_features=1, out_features=128, bias=True)
  )
  (rnn_layers): ModuleList(
    (0): GRU(128, 128, num_layers=3, batch_first=True, dropout=0.3)
  )
  (attn_nets): ModuleList(
    (0): Sequential(
      (0): Linear(in_features=128, out_features=64, bias=True)
      (1): Tanh()
      (2): Linear(in_features=64, out_features=1, bias=True)
    )
  )
  (projection_layers): ModuleList(
    (0): Linear(in_features=128, out_features=128, bias=True)
  )
  (feature_attn_net): Sequential(
    (0): Linear(in_features=128, out_features=128, bias=True)
    (1): Tanh()
    (2): Linear(in_features=128, out_features=1, bias=True)
  )
  (fc): Sequential(
    (0): Linear(in_features=128, out_features=128, bias=True)
    (1): ReLU()
    (2): Dropout(p=0.3, inplace=False)
    (3): Linear(in_features=128, out_features=50, bias=True)
  )
)
[2025-07-24 13:17:29,276] [INFO] Training...
[2025-07-24 13:17:32,080] [INFO] Epoch 1/5, ValAcc: 3.02%, TrainLoss: 3.9155, ValLoss: 3.8853, LR: 0.001
[2025-07-24 13:17:35,069] [INFO] Epoch 2/5, ValAcc: 2.89%, TrainLoss: 3.8748, ValLoss: 3.8526, LR: 0.001
[2025-07-24 13:17:37,927] [INFO] Epoch 3/5, ValAcc: 4.92%, TrainLoss: 3.8516, ValLoss: 3.8154, LR: 0.001
…
_dir.debug', leaderboard_path='output/vrchat-worlds/step1/step1_meta_pkt_dir.csv', step1=True, step2=False, step3=False, train=False, longitudinal_evaluation=False, openworld_evaluation=False, device=device(type='cuda'), metadata='dir', name='pktdir_zscore_gru_500_32_5_0.001_128_128_3_0.3_128_128'),0.0722,0.0389,0.0442,0.0715
[2025-07-24 13:18:12,019] [INFO] Feature 0 normalized using token
[2025-07-24 13:18:12,019] [INFO] Train shape: (10659, 500), Val shape: (1523, 500), Test shape: (3046, 500)
[2025-07-24 13:18:12,157] [INFO] Classifier: VRScannerModel(
  (input_modules): ModuleList(
    (0): Embedding(3, 128)
  )
  (rnn_layers): ModuleList(
    (0): GRU(128, 128, num_layers=3, batch_first=True, dropout=0.3)
  )
  (attn_nets): ModuleList(
    (0): Sequential(
      (0): Linear(in_features=128, out_features=64, bias=True)
      (1): Tanh()
      (2): Linear(in_features=64, out_features=1, bias=True)
    )
  )
  (projection_layers): ModuleList(
    (0): Linear(in_features=128, out_features=128, bias=True)
  )
  (feature_attn_net): Sequential(
    (0): Linear(in_features=128, out_features=128, bias=True)
    (1): Tanh()
    (2): Linear(in_features=128, out_features=1, bias=True)
  )
  (fc): Sequential(
    (0): Linear(in_features=128, out_features=128, bias=True)
    (1): ReLU()
    (2): Dropout(p=0.3, inplace=False)
    (3): Linear(in_features=128, out_features=50, bias=True)
  )
)
[2025-07-24 13:18:12,157] [INFO] Training...
[2025-07-24 13:18:14,886] [INFO] Epoch 1/5, ValAcc: 2.56%, TrainLoss: 3.8922, ValLoss: 3.8644, LR: 0.001
[2025-07-24 13:18:17,521] [INFO] Epoch 2/5, ValAcc: 3.22%, TrainLoss: 3.8499, ValLoss: 3.8224, LR: 0.001
[2025-07-24 13:18:20,257] [INFO] Epoch 3/5, ValAcc: 4.92%, TrainLoss: 3.8049, ValLoss: 3.7696, LR: 0.001
…
