…
 ['13216' '35238' '35237' ... '42287' '42310' '33568']
 ['52321' '53412' '44799' ... '59763' '59762' '59761']
 ['47514' '45635' '40750' ... '7241' '7240' '7239']]
[2025-07-24 14:19:22,414] [INFO] Feature 0 normalized using none
[2025-07-24 14:19:22,414] [INFO] Train shape: (10659, 500), Val shape: (1523, 500), Test shape: (3046, 500)
[2025-07-24 14:19:22,455] [INFO] Classifier: VRScannerModel(
  (input_modules): ModuleList(
    (0): Identity()
  )
  (rnn_layers): ModuleList(
    (0): GRU(1, 128, num_layers=3, batch_first=True, dropout=0.3)
  )
  (attn_nets): ModuleList(
    (0): Sequential(
      (0): Linear(in_features=128, out_features=64, bias=True)
      (1): Tanh()
      (2): Linear(in_features=64, out_features=1, bias=True)
    )
  )
  (projection_layers): ModuleList(
    (0): Linear(in_features=128, out_features=128, bias=True)
  )
  (feature_attn_net): Sequential(
    (0): Linear(in_features=128, out_features=128, bias=True)
    (1): Tanh()
    (2): Linear(in_features=128, out_features=1, bias=True)
  )
  (fc): Sequential(
    (0): Linear(in_features=128, out_features=128, bias=True)
    (1): ReLU()
    (2): Dropout(p=0.3, inplace=False)
    (3): Linear(in_features=128, out_features=50, bias=True)
  )
)
[2025-07-24 14:19:22,455] [INFO] Training...
[2025-07-24 14:19:26,187] [INFO] Epoch 1/5, ValAcc: 1.84%, TrainLoss: 3.9166, ValLoss: 3.9160, LR: 0.001
[2025-07-24 14:19:28,473] [INFO] Epoch 2/5, ValAcc: 1.44%, TrainLoss: 3.9148, ValLoss: 3.9146, LR: 0.001
[2025-07-24 14:19:30,949] [INFO] Epoch 3/5, ValAcc: 1.44%, TrainLoss: 3.9126, ValLoss: 3.9147, LR: 0.001
…
ebug', leaderboard_path='output/vrchat-worlds/step1/step1_meta_ip_chksum.csv', step1=True, step2=False, step3=False, train=False, longitudinal_evaluation=False, openworld_evaluation=False, device=device(type='cuda'), metadata='chksum', name='ipchksum_none_gru_500_32_5_0.001_128_128_3_0.3_128_128'),0.0158,0.0006,0.0003,0.0200
[2025-07-24 14:19:39,887] [INFO] Feature 0 normalized using minmax
[2025-07-24 14:19:39,887] [INFO] Train shape: (10659, 500), Val shape: (1523, 500), Test shape: (3046, 500)
[2025-07-24 14:19:39,897] [INFO] Classifier: VRScannerModel(
  (input_modules): ModuleList(
    (0): Linear(in_features=1, out_features=128, bias=True)
  )
  (rnn_layers): ModuleList(
    (0): GRU(128, 128, num_layers=3, batch_first=True, dropout=0.3)
  )
  (attn_nets): ModuleList(
    (0): Sequential(
      (0): Linear(in_features=128, out_features=64, bias=True)
      (1): Tanh()
      (2): Linear(in_features=64, out_features=1, bias=True)
    )
  )
  (projection_layers): ModuleList(
    (0): Linear(in_features=128, out_features=128, bias=True)
  )
  (feature_attn_net): Sequential(
    (0): Linear(in_features=128, out_features=128, bias=True)
    (1): Tanh()
    (2): Linear(in_features=128, out_features=1, bias=True)
  )
  (fc): Sequential(
    (0): Linear(in_features=128, out_features=128, bias=True)
    (1): ReLU()
    (2): Dropout(p=0.3, inplace=False)
    (3): Linear(in_features=128, out_features=50, bias=True)
  )
)
[2025-07-24 14:19:39,898] [INFO] Training...
[2025-07-24 14:19:42,227] [INFO] Epoch 1/5, ValAcc: 2.23%, TrainLoss: 3.9167, ValLoss: 3.9135, LR: 0.001
[2025-07-24 14:19:44,617] [INFO] Epoch 2/5, ValAcc: 2.04%, TrainLoss: 3.9155, ValLoss: 3.9111, LR: 0.001
[2025-07-24 14:19:47,437] [INFO] Epoch 3/5, ValAcc: 2.43%, TrainLoss: 3.9133, ValLoss: 3.9137, LR: 0.001
…
bug', leaderboard_path='output/vrchat-worlds/step1/step1_meta_ip_chksum.csv', step1=True, step2=False, step3=False, train=False, longitudinal_evaluation=False, openworld_evaluation=False, device=device(type='cuda'), metadata='chksum', name='ipchksum_zscore_gru_500_32_5_0.001_128_128_3_0.3_128_128'),0.0575,0.0330,0.0429,0.0580
[2025-07-24 14:20:35,726] [INFO] Feature 0 normalized using token
[2025-07-24 14:20:35,727] [INFO] Train shape: (10659, 500), Val shape: (1523, 500), Test shape: (3046, 500)
[2025-07-24 14:20:35,926] [INFO] Classifier: VRScannerModel(
  (input_modules): ModuleList(
    (0): Embedding(65536, 128)
  )
  (rnn_layers): ModuleList(
    (0): GRU(128, 128, num_layers=3, batch_first=True, dropout=0.3)
  )
  (attn_nets): ModuleList(
    (0): Sequential(
      (0): Linear(in_features=128, out_features=64, bias=True)
      (1): Tanh()
      (2): Linear(in_features=64, out_features=1, bias=True)
    )
  )
  (projection_layers): ModuleList(
    (0): Linear(in_features=128, out_features=128, bias=True)
  )
  (feature_attn_net): Sequential(
    (0): Linear(in_features=128, out_features=128, bias=True)
    (1): Tanh()
    (2): Linear(in_features=128, out_features=1, bias=True)
  )
  (fc): Sequential(
    (0): Linear(in_features=128, out_features=128, bias=True)
    (1): ReLU()
    (2): Dropout(p=0.3, inplace=False)
    (3): Linear(in_features=128, out_features=50, bias=True)
  )
)
[2025-07-24 14:20:35,927] [INFO] Training...
[2025-07-24 14:20:39,120] [INFO] Epoch 1/5, ValAcc: 6.11%, TrainLoss: 3.8484, ValLoss: 3.6264, LR: 0.001
[2025-07-24 14:20:42,294] [INFO] Epoch 2/5, ValAcc: 7.81%, TrainLoss: 3.6095, ValLoss: 3.4968, LR: 0.001
[2025-07-24 14:20:45,369] [INFO] Epoch 3/5, ValAcc: 9.39%, TrainLoss: 3.4723, ValLoss: 3.4575, LR: 0.001
…
