…
 ['64' '50' '64' ... '50' '64' '64']
 ['50' '50' '50' ... '64' '64' '50']
 ...
 ['50' '64' '64' ... '64' '64' '50']
 ['50' '50' '64' ... '64' '64' '64']
 ['64' '50' '64' ... '64' '64' '64']]
[2025-07-24 13:45:12,528] [INFO] Feature 0 normalized using none
[2025-07-24 13:45:12,528] [INFO] Train shape: (10659, 500), Val shape: (1523, 500), Test shape: (3046, 500)
[2025-07-24 13:45:12,591] [INFO] Classifier: VRScannerModel(
  (input_modules): ModuleList(
    (0): Identity()
  )
  (rnn_layers): ModuleList(
    (0): GRU(1, 128, num_layers=3, batch_first=True, dropout=0.3)
  )
  (attn_nets): ModuleList(
    (0): Sequential(
      (0): Linear(in_features=128, out_features=64, bias=True)
      (1): Tanh()
      (2): Linear(in_features=64, out_features=1, bias=True)
    )
  )
  (projection_layers): ModuleList(
    (0): Linear(in_features=128, out_features=128, bias=True)
  )
  (feature_attn_net): Sequential(
    (0): Linear(in_features=128, out_features=128, bias=True)
    (1): Tanh()
    (2): Linear(in_features=128, out_features=1, bias=True)
  )
  (fc): Sequential(
    (0): Linear(in_features=128, out_features=128, bias=True)
    (1): ReLU()
    (2): Dropout(p=0.3, inplace=False)
    (3): Linear(in_features=128, out_features=50, bias=True)
  )
)
[2025-07-24 13:45:12,591] [INFO] Training...
[2025-07-24 13:45:16,467] [INFO] Epoch 1/5, ValAcc: 1.84%, TrainLoss: 3.9171, ValLoss: 3.9144, LR: 0.001
[2025-07-24 13:45:18,872] [INFO] Epoch 2/5, ValAcc: 1.90%, TrainLoss: 3.9131, ValLoss: 3.9152, LR: 0.001
[2025-07-24 13:45:21,540] [INFO] Epoch 3/5, ValAcc: 1.71%, TrainLoss: 3.9126, ValLoss: 3.9147, LR: 0.001
…
_ip_ttl.debug', leaderboard_path='output/vrchat-worlds/step1/step1_meta_ip_ttl.csv', step1=True, step2=False, step3=False, train=False, longitudinal_evaluation=False, openworld_evaluation=False, device=device(type='cuda'), metadata='ttl', name='ipttl_none_gru_500_32_5_0.001_128_128_3_0.3_128_128'),0.0158,0.0006,0.0003,0.0200
[2025-07-24 13:45:35,155] [INFO] Feature 0 normalized using minmax
[2025-07-24 13:45:35,155] [INFO] Train shape: (10659, 500), Val shape: (1523, 500), Test shape: (3046, 500)
[2025-07-24 13:45:35,244] [INFO] Classifier: VRScannerModel(
  (input_modules): ModuleList(
    (0): Linear(in_features=1, out_features=128, bias=True)
  )
  (rnn_layers): ModuleList(
    (0): GRU(128, 128, num_layers=3, batch_first=True, dropout=0.3)
  )
  (attn_nets): ModuleList(
    (0): Sequential(
      (0): Linear(in_features=128, out_features=64, bias=True)
      (1): Tanh()
      (2): Linear(in_features=64, out_features=1, bias=True)
    )
  )
  (projection_layers): ModuleList(
    (0): Linear(in_features=128, out_features=128, bias=True)
  )
  (feature_attn_net): Sequential(
    (0): Linear(in_features=128, out_features=128, bias=True)
    (1): Tanh()
    (2): Linear(in_features=128, out_features=1, bias=True)
  )
  (fc): Sequential(
    (0): Linear(in_features=128, out_features=128, bias=True)
    (1): ReLU()
    (2): Dropout(p=0.3, inplace=False)
    (3): Linear(in_features=128, out_features=50, bias=True)
  )
)
[2025-07-24 13:45:35,244] [INFO] Training...
[2025-07-24 13:45:37,820] [INFO] Epoch 1/5, ValAcc: 1.71%, TrainLoss: 3.9182, ValLoss: 3.9138, LR: 0.001
[2025-07-24 13:45:40,386] [INFO] Epoch 2/5, ValAcc: 3.41%, TrainLoss: 3.8575, ValLoss: 3.8332, LR: 0.001
[2025-07-24 13:45:42,888] [INFO] Epoch 3/5, ValAcc: 3.09%, TrainLoss: 3.8253, ValLoss: 3.8196, LR: 0.001
…
ip_ttl.debug', leaderboard_path='output/vrchat-worlds/step1/step1_meta_ip_ttl.csv', step1=True, step2=False, step3=False, train=False, longitudinal_evaluation=False, openworld_evaluation=False, device=device(type='cuda'), metadata='ttl', name='ipttl_zscore_gru_500_32_5_0.001_128_128_3_0.3_128_128'),0.0703,0.0312,0.0323,0.0671
[2025-07-24 13:46:18,296] [INFO] Feature 0 normalized using token
[2025-07-24 13:46:18,297] [INFO] Train shape: (10659, 500), Val shape: (1523, 500), Test shape: (3046, 500)
[2025-07-24 13:46:18,414] [INFO] Classifier: VRScannerModel(
  (input_modules): ModuleList(
    (0): Embedding(8, 128)
  )
  (rnn_layers): ModuleList(
    (0): GRU(128, 128, num_layers=3, batch_first=True, dropout=0.3)
  )
  (attn_nets): ModuleList(
    (0): Sequential(
      (0): Linear(in_features=128, out_features=64, bias=True)
      (1): Tanh()
      (2): Linear(in_features=64, out_features=1, bias=True)
    )
  )
  (projection_layers): ModuleList(
    (0): Linear(in_features=128, out_features=128, bias=True)
  )
  (feature_attn_net): Sequential(
    (0): Linear(in_features=128, out_features=128, bias=True)
    (1): Tanh()
    (2): Linear(in_features=128, out_features=1, bias=True)
  )
  (fc): Sequential(
    (0): Linear(in_features=128, out_features=128, bias=True)
    (1): ReLU()
    (2): Dropout(p=0.3, inplace=False)
    (3): Linear(in_features=128, out_features=50, bias=True)
  )
)
[2025-07-24 13:46:18,414] [INFO] Training...
[2025-07-24 13:46:21,326] [INFO] Epoch 1/5, ValAcc: 4.01%, TrainLoss: 3.8317, ValLoss: 3.7540, LR: 0.001
[2025-07-24 13:46:23,901] [INFO] Epoch 2/5, ValAcc: 3.68%, TrainLoss: 3.7641, ValLoss: 3.7358, LR: 0.001
[2025-07-24 13:46:26,491] [INFO] Epoch 3/5, ValAcc: 6.57%, TrainLoss: 3.7177, ValLoss: 3.6517, LR: 0.001
…
