…
 ['9948' '50969' '61161' ... '34160' '13518' '6632']
 ['34561' '37610' '25616' ... '10540' '9871' '18993']
 ['60554' '14529' '36822' ... '38065' '27' '45254']]
[2025-07-24 15:06:44,877] [INFO] Feature 0 normalized using none
[2025-07-24 15:06:44,877] [INFO] Train shape: (10659, 500), Val shape: (1523, 500), Test shape: (3046, 500)
[2025-07-24 15:06:44,907] [INFO] Classifier: VRScannerModel(
  (input_modules): ModuleList(
    (0): Identity()
  )
  (rnn_layers): ModuleList(
    (0): GRU(1, 128, num_layers=3, batch_first=True, dropout=0.3)
  )
  (attn_nets): ModuleList(
    (0): Sequential(
      (0): Linear(in_features=128, out_features=64, bias=True)
      (1): Tanh()
      (2): Linear(in_features=64, out_features=1, bias=True)
    )
  )
  (projection_layers): ModuleList(
    (0): Linear(in_features=128, out_features=128, bias=True)
  )
  (feature_attn_net): Sequential(
    (0): Linear(in_features=128, out_features=128, bias=True)
    (1): Tanh()
    (2): Linear(in_features=128, out_features=1, bias=True)
  )
  (fc): Sequential(
    (0): Linear(in_features=128, out_features=128, bias=True)
    (1): ReLU()
    (2): Dropout(p=0.3, inplace=False)
    (3): Linear(in_features=128, out_features=50, bias=True)
  )
)
[2025-07-24 15:06:44,907] [INFO] Training...
[2025-07-24 15:06:49,821] [INFO] Epoch 1/5, ValAcc: 2.36%, TrainLoss: 3.9112, ValLoss: 3.9020, LR: 0.001
[2025-07-24 15:06:53,843] [INFO] Epoch 2/5, ValAcc: 2.56%, TrainLoss: 3.8894, ValLoss: 3.9048, LR: 0.001
[2025-07-24 15:06:56,437] [INFO] Epoch 3/5, ValAcc: 2.30%, TrainLoss: 3.8848, ValLoss: 3.9045, LR: 0.001
…
ug', leaderboard_path='output/vrchat-worlds/step1/step1_meta_tcp_chksum.csv', step1=True, step2=False, step3=False, train=False, longitudinal_evaluation=False, openworld_evaluation=False, device=device(type='cuda'), metadata='chksum', name='tcpchksum_none_gru_500_32_5_0.001_128_128_3_0.3_128_128'),0.0286,0.0026,0.0014,0.0298
[2025-07-24 15:07:05,267] [INFO] Feature 0 normalized using minmax
[2025-07-24 15:07:05,267] [INFO] Train shape: (10659, 500), Val shape: (1523, 500), Test shape: (3046, 500)
[2025-07-24 15:07:05,277] [INFO] Classifier: VRScannerModel(
  (input_modules): ModuleList(
    (0): Linear(in_features=1, out_features=128, bias=True)
  )
  (rnn_layers): ModuleList(
    (0): GRU(128, 128, num_layers=3, batch_first=True, dropout=0.3)
  )
  (attn_nets): ModuleList(
    (0): Sequential(
      (0): Linear(in_features=128, out_features=64, bias=True)
      (1): Tanh()
      (2): Linear(in_features=64, out_features=1, bias=True)
    )
  )
  (projection_layers): ModuleList(
    (0): Linear(in_features=128, out_features=128, bias=True)
  )
  (feature_attn_net): Sequential(
    (0): Linear(in_features=128, out_features=128, bias=True)
    (1): Tanh()
    (2): Linear(in_features=128, out_features=1, bias=True)
  )
  (fc): Sequential(
    (0): Linear(in_features=128, out_features=128, bias=True)
    (1): ReLU()
    (2): Dropout(p=0.3, inplace=False)
    (3): Linear(in_features=128, out_features=50, bias=True)
  )
)
[2025-07-24 15:07:05,277] [INFO] Training...
[2025-07-24 15:07:07,881] [INFO] Epoch 1/5, ValAcc: 1.58%, TrainLoss: 3.9177, ValLoss: 3.9213, LR: 0.001
[2025-07-24 15:07:10,599] [INFO] Epoch 2/5, ValAcc: 2.50%, TrainLoss: 3.9145, ValLoss: 3.9134, LR: 0.001
[2025-07-24 15:07:13,481] [INFO] Epoch 3/5, ValAcc: 1.97%, TrainLoss: 3.9133, ValLoss: 3.9156, LR: 0.001
…
g', leaderboard_path='output/vrchat-worlds/step1/step1_meta_tcp_chksum.csv', step1=True, step2=False, step3=False, train=False, longitudinal_evaluation=False, openworld_evaluation=False, device=device(type='cuda'), metadata='chksum', name='tcpchksum_zscore_gru_500_32_5_0.001_128_128_3_0.3_128_128'),0.0138,0.0006,0.0003,0.0195
[2025-07-24 15:07:56,427] [INFO] Feature 0 normalized using token
[2025-07-24 15:07:56,428] [INFO] Train shape: (10659, 500), Val shape: (1523, 500), Test shape: (3046, 500)
[2025-07-24 15:07:56,480] [INFO] Classifier: VRScannerModel(
  (input_modules): ModuleList(
    (0): Embedding(65537, 128)
  )
  (rnn_layers): ModuleList(
    (0): GRU(128, 128, num_layers=3, batch_first=True, dropout=0.3)
  )
  (attn_nets): ModuleList(
    (0): Sequential(
      (0): Linear(in_features=128, out_features=64, bias=True)
      (1): Tanh()
      (2): Linear(in_features=64, out_features=1, bias=True)
    )
  )
  (projection_layers): ModuleList(
    (0): Linear(in_features=128, out_features=128, bias=True)
  )
  (feature_attn_net): Sequential(
    (0): Linear(in_features=128, out_features=128, bias=True)
    (1): Tanh()
    (2): Linear(in_features=128, out_features=1, bias=True)
  )
  (fc): Sequential(
    (0): Linear(in_features=128, out_features=128, bias=True)
    (1): ReLU()
    (2): Dropout(p=0.3, inplace=False)
    (3): Linear(in_features=128, out_features=50, bias=True)
  )
)
[2025-07-24 15:07:56,480] [INFO] Training...
[2025-07-24 15:08:00,765] [INFO] Epoch 1/5, ValAcc: 1.84%, TrainLoss: 3.9060, ValLoss: 3.8969, LR: 0.001
[2025-07-24 15:08:05,141] [INFO] Epoch 2/5, ValAcc: 2.63%, TrainLoss: 3.8882, ValLoss: 3.8971, LR: 0.001
[2025-07-24 15:08:09,524] [INFO] Epoch 3/5, ValAcc: 1.97%, TrainLoss: 3.8580, ValLoss: 3.9541, LR: 0.001
…
