…
 ['42508' '11397' '11398' ... '5739' '5740' '18042']
 ['2023' '2024' '7341' ... '52442' '52443' '52444']
 ['1512' '7010' '6931' ... '40440' '40441' '40442']]
[2025-07-24 14:08:33,336] [INFO] Feature 0 normalized using none
[2025-07-24 14:08:33,336] [INFO] Train shape: (10659, 500), Val shape: (1523, 500), Test shape: (3046, 500)
[2025-07-24 14:08:33,373] [INFO] Classifier: VRScannerModel(
  (input_modules): ModuleList(
    (0): Identity()
  )
  (rnn_layers): ModuleList(
    (0): GRU(1, 128, num_layers=3, batch_first=True, dropout=0.3)
  )
  (attn_nets): ModuleList(
    (0): Sequential(
      (0): Linear(in_features=128, out_features=64, bias=True)
      (1): Tanh()
      (2): Linear(in_features=64, out_features=1, bias=True)
    )
  )
  (projection_layers): ModuleList(
    (0): Linear(in_features=128, out_features=128, bias=True)
  )
  (feature_attn_net): Sequential(
    (0): Linear(in_features=128, out_features=128, bias=True)
    (1): Tanh()
    (2): Linear(in_features=128, out_features=1, bias=True)
  )
  (fc): Sequential(
    (0): Linear(in_features=128, out_features=128, bias=True)
    (1): ReLU()
    (2): Dropout(p=0.3, inplace=False)
    (3): Linear(in_features=128, out_features=50, bias=True)
  )
)
[2025-07-24 14:08:33,373] [INFO] Training...
[2025-07-24 14:08:37,496] [INFO] Epoch 1/5, ValAcc: 3.28%, TrainLoss: 3.9144, ValLoss: 3.8954, LR: 0.001
[2025-07-24 14:08:41,559] [INFO] Epoch 2/5, ValAcc: 3.41%, TrainLoss: 3.8832, ValLoss: 3.8551, LR: 0.001
[2025-07-24 14:08:44,657] [INFO] Epoch 3/5, ValAcc: 5.45%, TrainLoss: 3.8292, ValLoss: 3.8219, LR: 0.001
…
meta_ip_id.debug', leaderboard_path='output/vrchat-worlds/step1/step1_meta_ip_id.csv', step1=True, step2=False, step3=False, train=False, longitudinal_evaluation=False, openworld_evaluation=False, device=device(type='cuda'), metadata='id', name='ipid_none_gru_500_32_5_0.001_128_128_3_0.3_128_128'),0.0798,0.0592,0.0918,0.0798
[2025-07-24 14:08:54,566] [INFO] Feature 0 normalized using minmax
[2025-07-24 14:08:54,566] [INFO] Train shape: (10659, 500), Val shape: (1523, 500), Test shape: (3046, 500)
[2025-07-24 14:08:54,578] [INFO] Classifier: VRScannerModel(
  (input_modules): ModuleList(
    (0): Linear(in_features=1, out_features=128, bias=True)
  )
  (rnn_layers): ModuleList(
    (0): GRU(128, 128, num_layers=3, batch_first=True, dropout=0.3)
  )
  (attn_nets): ModuleList(
    (0): Sequential(
      (0): Linear(in_features=128, out_features=64, bias=True)
      (1): Tanh()
      (2): Linear(in_features=64, out_features=1, bias=True)
    )
  )
  (projection_layers): ModuleList(
    (0): Linear(in_features=128, out_features=128, bias=True)
  )
  (feature_attn_net): Sequential(
    (0): Linear(in_features=128, out_features=128, bias=True)
    (1): Tanh()
    (2): Linear(in_features=128, out_features=1, bias=True)
  )
  (fc): Sequential(
    (0): Linear(in_features=128, out_features=128, bias=True)
    (1): ReLU()
    (2): Dropout(p=0.3, inplace=False)
    (3): Linear(in_features=128, out_features=50, bias=True)
  )
)
[2025-07-24 14:08:54,578] [INFO] Training...
[2025-07-24 14:08:57,447] [INFO] Epoch 1/5, ValAcc: 1.90%, TrainLoss: 3.9185, ValLoss: 3.9133, LR: 0.001
[2025-07-24 14:09:00,508] [INFO] Epoch 2/5, ValAcc: 2.23%, TrainLoss: 3.9135, ValLoss: 3.9136, LR: 0.001
[2025-07-24 14:09:02,998] [INFO] Epoch 3/5, ValAcc: 2.43%, TrainLoss: 3.9126, ValLoss: 3.9127, LR: 0.001
…
eta_ip_id.debug', leaderboard_path='output/vrchat-worlds/step1/step1_meta_ip_id.csv', step1=True, step2=False, step3=False, train=False, longitudinal_evaluation=False, openworld_evaluation=False, device=device(type='cuda'), metadata='id', name='ipid_zscore_gru_500_32_5_0.001_128_128_3_0.3_128_128'),0.0489,0.0322,0.0360,0.0498
[2025-07-24 14:09:45,048] [INFO] Feature 0 normalized using token
[2025-07-24 14:09:45,049] [INFO] Train shape: (10659, 500), Val shape: (1523, 500), Test shape: (3046, 500)
[2025-07-24 14:09:45,255] [INFO] Classifier: VRScannerModel(
  (input_modules): ModuleList(
    (0): Embedding(65537, 128)
  )
  (rnn_layers): ModuleList(
    (0): GRU(128, 128, num_layers=3, batch_first=True, dropout=0.3)
  )
  (attn_nets): ModuleList(
    (0): Sequential(
      (0): Linear(in_features=128, out_features=64, bias=True)
      (1): Tanh()
      (2): Linear(in_features=64, out_features=1, bias=True)
    )
  )
  (projection_layers): ModuleList(
    (0): Linear(in_features=128, out_features=128, bias=True)
  )
  (feature_attn_net): Sequential(
    (0): Linear(in_features=128, out_features=128, bias=True)
    (1): Tanh()
    (2): Linear(in_features=128, out_features=1, bias=True)
  )
  (fc): Sequential(
    (0): Linear(in_features=128, out_features=128, bias=True)
    (1): ReLU()
    (2): Dropout(p=0.3, inplace=False)
    (3): Linear(in_features=128, out_features=50, bias=True)
  )
)
[2025-07-24 14:09:45,256] [INFO] Training...
[2025-07-24 14:09:48,529] [INFO] Epoch 1/5, ValAcc: 2.30%, TrainLoss: 3.9144, ValLoss: 3.9122, LR: 0.001
[2025-07-24 14:09:51,588] [INFO] Epoch 2/5, ValAcc: 2.43%, TrainLoss: 3.8926, ValLoss: 3.8724, LR: 0.001
[2025-07-24 14:09:54,697] [INFO] Epoch 3/5, ValAcc: 3.41%, TrainLoss: 3.8363, ValLoss: 3.8795, LR: 0.001
…
