…
 ['59958' '59958' '59958' ... '443' '443' '53398']
 ...
 ['58382' '443' '443' ... '443' '443' '57818']
 ['43834' '43834' '443' ... '443' '443' '443']
 ['443' '32856' '443' ... '443' '443' '443']]
[2025-07-24 14:39:28,016] [INFO] Feature 0 normalized using none
[2025-07-24 14:39:28,026] [INFO] Train shape: (10659, 500), Val shape: (1523, 500), Test shape: (3046, 500)
[2025-07-24 14:39:28,139] [INFO] Classifier: VRScannerModel(
  (input_modules): ModuleList(
    (0): Identity()
  )
  (rnn_layers): ModuleList(
    (0): GRU(1, 128, num_layers=3, batch_first=True, dropout=0.3)
  )
  (attn_nets): ModuleList(
    (0): Sequential(
      (0): Linear(in_features=128, out_features=64, bias=True)
      (1): Tanh()
      (2): Linear(in_features=64, out_features=1, bias=True)
    )
  )
  (projection_layers): ModuleList(
    (0): Linear(in_features=128, out_features=128, bias=True)
  )
  (feature_attn_net): Sequential(
    (0): Linear(in_features=128, out_features=128, bias=True)
    (1): Tanh()
    (2): Linear(in_features=128, out_features=1, bias=True)
  )
  (fc): Sequential(
    (0): Linear(in_features=128, out_features=128, bias=True)
    (1): ReLU()
    (2): Dropout(p=0.3, inplace=False)
    (3): Linear(in_features=128, out_features=50, bias=True)
  )
)
[2025-07-24 14:39:28,139] [INFO] Training...
[2025-07-24 14:39:32,554] [INFO] Epoch 1/5, ValAcc: 3.68%, TrainLoss: 3.8861, ValLoss: 3.8512, LR: 0.001
[2025-07-24 14:39:35,016] [INFO] Epoch 2/5, ValAcc: 4.14%, TrainLoss: 3.8303, ValLoss: 3.8440, LR: 0.001
[2025-07-24 14:39:38,916] [INFO] Epoch 3/5, ValAcc: 4.14%, TrainLoss: 3.7924, ValLoss: 3.7926, LR: 0.001
…
debug', leaderboard_path='output/vrchat-worlds/step1/step1_meta_tcp_dport.csv', step1=True, step2=False, step3=False, train=False, longitudinal_evaluation=False, openworld_evaluation=False, device=device(type='cuda'), metadata='dport', name='tcpdport_none_gru_500_32_5_0.001_128_128_3_0.3_128_128'),0.0499,0.0248,0.0240,0.0522
[2025-07-24 14:39:51,432] [INFO] Feature 0 normalized using minmax
[2025-07-24 14:39:51,432] [INFO] Train shape: (10659, 500), Val shape: (1523, 500), Test shape: (3046, 500)
[2025-07-24 14:39:51,443] [INFO] Classifier: VRScannerModel(
  (input_modules): ModuleList(
    (0): Linear(in_features=1, out_features=128, bias=True)
  )
  (rnn_layers): ModuleList(
    (0): GRU(128, 128, num_layers=3, batch_first=True, dropout=0.3)
  )
  (attn_nets): ModuleList(
    (0): Sequential(
      (0): Linear(in_features=128, out_features=64, bias=True)
      (1): Tanh()
      (2): Linear(in_features=64, out_features=1, bias=True)
    )
  )
  (projection_layers): ModuleList(
    (0): Linear(in_features=128, out_features=128, bias=True)
  )
  (feature_attn_net): Sequential(
    (0): Linear(in_features=128, out_features=128, bias=True)
    (1): Tanh()
    (2): Linear(in_features=128, out_features=1, bias=True)
  )
  (fc): Sequential(
    (0): Linear(in_features=128, out_features=128, bias=True)
    (1): ReLU()
    (2): Dropout(p=0.3, inplace=False)
    (3): Linear(in_features=128, out_features=50, bias=True)
  )
)
[2025-07-24 14:39:51,443] [INFO] Training...
[2025-07-24 14:39:54,712] [INFO] Epoch 1/5, ValAcc: 3.28%, TrainLoss: 3.9147, ValLoss: 3.8922, LR: 0.001
[2025-07-24 14:39:57,995] [INFO] Epoch 2/5, ValAcc: 4.07%, TrainLoss: 3.8781, ValLoss: 3.8629, LR: 0.001
[2025-07-24 14:40:01,618] [INFO] Epoch 3/5, ValAcc: 4.86%, TrainLoss: 3.8504, ValLoss: 3.8160, LR: 0.001
…
ebug', leaderboard_path='output/vrchat-worlds/step1/step1_meta_tcp_dport.csv', step1=True, step2=False, step3=False, train=False, longitudinal_evaluation=False, openworld_evaluation=False, device=device(type='cuda'), metadata='dport', name='tcpdport_zscore_gru_500_32_5_0.001_128_128_3_0.3_128_128'),0.1215,0.0984,0.1116,0.1204
[2025-07-24 14:40:32,737] [INFO] Feature 0 normalized using token
[2025-07-24 14:40:32,737] [INFO] Train shape: (10659, 500), Val shape: (1523, 500), Test shape: (3046, 500)
[2025-07-24 14:40:32,926] [INFO] Classifier: VRScannerModel(
  (input_modules): ModuleList(
    (0): Embedding(14071, 128)
  )
  (rnn_layers): ModuleList(
    (0): GRU(128, 128, num_layers=3, batch_first=True, dropout=0.3)
  )
  (attn_nets): ModuleList(
    (0): Sequential(
      (0): Linear(in_features=128, out_features=64, bias=True)
      (1): Tanh()
      (2): Linear(in_features=64, out_features=1, bias=True)
    )
  )
  (projection_layers): ModuleList(
    (0): Linear(in_features=128, out_features=128, bias=True)
  )
  (feature_attn_net): Sequential(
    (0): Linear(in_features=128, out_features=128, bias=True)
    (1): Tanh()
    (2): Linear(in_features=128, out_features=1, bias=True)
  )
  (fc): Sequential(
    (0): Linear(in_features=128, out_features=128, bias=True)
    (1): ReLU()
    (2): Dropout(p=0.3, inplace=False)
    (3): Linear(in_features=128, out_features=50, bias=True)
  )
)
[2025-07-24 14:40:32,926] [INFO] Training...
[2025-07-24 14:40:36,067] [INFO] Epoch 1/5, ValAcc: 38.15%, TrainLoss: 3.3823, ValLoss: 2.4136, LR: 0.001
[2025-07-24 14:40:38,502] [INFO] Epoch 2/5, ValAcc: 65.59%, TrainLoss: 1.7942, ValLoss: 1.3472, LR: 0.001
[2025-07-24 14:40:41,471] [INFO] Epoch 3/5, ValAcc: 70.65%, TrainLoss: 1.1270, ValLoss: 1.0386, LR: 0.001
…
