…
 ['-1432' '-1432' '-1432' ... '52' '770' '-94']
 ...
 ['-52' '1432' '1432' ... '76' '52' '-76']
 ['-1432' '-340' '52' ... '1432' '1432' '1432']
 ['52' '-52' '1432' ... '1432' '1432' '1432']]
[2025-07-24 13:12:07,847] [INFO] Feature 0 normalized using none
[2025-07-24 13:12:07,847] [INFO] Train shape: (10659, 500), Val shape: (1523, 500), Test shape: (3046, 500)
[2025-07-24 13:12:07,882] [INFO] Classifier: VRScannerModel(
  (input_modules): ModuleList(
    (0): Identity()
  )
  (rnn_layers): ModuleList(
    (0): GRU(1, 128, num_layers=3, batch_first=True, dropout=0.3)
  )
  (attn_nets): ModuleList(
    (0): Sequential(
      (0): Linear(in_features=128, out_features=64, bias=True)
      (1): Tanh()
      (2): Linear(in_features=64, out_features=1, bias=True)
    )
  )
  (projection_layers): ModuleList(
    (0): Linear(in_features=128, out_features=128, bias=True)
  )
  (feature_attn_net): Sequential(
    (0): Linear(in_features=128, out_features=128, bias=True)
    (1): Tanh()
    (2): Linear(in_features=128, out_features=1, bias=True)
  )
  (fc): Sequential(
    (0): Linear(in_features=128, out_features=128, bias=True)
    (1): ReLU()
    (2): Dropout(p=0.3, inplace=False)
    (3): Linear(in_features=128, out_features=50, bias=True)
  )
)
[2025-07-24 13:12:07,882] [INFO] Training...
[2025-07-24 13:12:11,637] [INFO] Epoch 1/5, ValAcc: 2.04%, TrainLoss: 3.8996, ValLoss: 3.8488, LR: 0.001
[2025-07-24 13:12:14,008] [INFO] Epoch 2/5, ValAcc: 3.94%, TrainLoss: 3.7881, ValLoss: 3.7806, LR: 0.001
[2025-07-24 13:12:16,422] [INFO] Epoch 3/5, ValAcc: 7.16%, TrainLoss: 3.6951, ValLoss: 3.6502, LR: 0.001
…
ug', leaderboard_path='output/vrchat-worlds/step1/step1_meta_pkt_dirlen.csv', step1=True, step2=False, step3=False, train=False, longitudinal_evaluation=False, openworld_evaluation=False, device=device(type='cuda'), metadata='dirlen', name='pktdirlen_none_gru_500_32_5_0.001_128_128_3_0.3_128_128'),0.0991,0.0665,0.0722,0.0979
[2025-07-24 13:12:28,565] [INFO] Feature 0 normalized using minmax
[2025-07-24 13:12:28,565] [INFO] Train shape: (10659, 500), Val shape: (1523, 500), Test shape: (3046, 500)
[2025-07-24 13:12:28,623] [INFO] Classifier: VRScannerModel(
  (input_modules): ModuleList(
    (0): Linear(in_features=1, out_features=128, bias=True)
  )
  (rnn_layers): ModuleList(
    (0): GRU(128, 128, num_layers=3, batch_first=True, dropout=0.3)
  )
  (attn_nets): ModuleList(
    (0): Sequential(
      (0): Linear(in_features=128, out_features=64, bias=True)
      (1): Tanh()
      (2): Linear(in_features=64, out_features=1, bias=True)
    )
  )
  (projection_layers): ModuleList(
    (0): Linear(in_features=128, out_features=128, bias=True)
  )
  (feature_attn_net): Sequential(
    (0): Linear(in_features=128, out_features=128, bias=True)
    (1): Tanh()
    (2): Linear(in_features=128, out_features=1, bias=True)
  )
  (fc): Sequential(
    (0): Linear(in_features=128, out_features=128, bias=True)
    (1): ReLU()
    (2): Dropout(p=0.3, inplace=False)
    (3): Linear(in_features=128, out_features=50, bias=True)
  )
)
[2025-07-24 13:12:28,623] [INFO] Training...
[2025-07-24 13:12:31,075] [INFO] Epoch 1/5, ValAcc: 3.68%, TrainLoss: 3.8930, ValLoss: 3.8416, LR: 0.001
[2025-07-24 13:12:33,577] [INFO] Epoch 2/5, ValAcc: 3.61%, TrainLoss: 3.8541, ValLoss: 3.8449, LR: 0.001
[2025-07-24 13:12:36,142] [INFO] Epoch 3/5, ValAcc: 3.81%, TrainLoss: 3.8248, ValLoss: 3.8077, LR: 0.001
…
g', leaderboard_path='output/vrchat-worlds/step1/step1_meta_pkt_dirlen.csv', step1=True, step2=False, step3=False, train=False, longitudinal_evaluation=False, openworld_evaluation=False, device=device(type='cuda'), metadata='dirlen', name='pktdirlen_zscore_gru_500_32_5_0.001_128_128_3_0.3_128_128'),0.1280,0.0950,0.1223,0.1257
[2025-07-24 13:13:11,659] [INFO] Feature 0 normalized using token
[2025-07-24 13:13:11,659] [INFO] Train shape: (10659, 500), Val shape: (1523, 500), Test shape: (3046, 500)
[2025-07-24 13:13:11,669] [INFO] Classifier: VRScannerModel(
  (input_modules): ModuleList(
    (0): Embedding(2752, 128)
  )
  (rnn_layers): ModuleList(
    (0): GRU(128, 128, num_layers=3, batch_first=True, dropout=0.3)
  )
  (attn_nets): ModuleList(
    (0): Sequential(
      (0): Linear(in_features=128, out_features=64, bias=True)
      (1): Tanh()
      (2): Linear(in_features=64, out_features=1, bias=True)
    )
  )
  (projection_layers): ModuleList(
    (0): Linear(in_features=128, out_features=128, bias=True)
  )
  (feature_attn_net): Sequential(
    (0): Linear(in_features=128, out_features=128, bias=True)
    (1): Tanh()
    (2): Linear(in_features=128, out_features=1, bias=True)
  )
  (fc): Sequential(
    (0): Linear(in_features=128, out_features=128, bias=True)
    (1): ReLU()
    (2): Dropout(p=0.3, inplace=False)
    (3): Linear(in_features=128, out_features=50, bias=True)
  )
)
[2025-07-24 13:13:11,670] [INFO] Training...
[2025-07-24 13:13:14,634] [INFO] Epoch 1/5, ValAcc: 9.39%, TrainLoss: 3.7853, ValLoss: 3.4436, LR: 0.001
[2025-07-24 13:13:17,186] [INFO] Epoch 2/5, ValAcc: 17.99%, TrainLoss: 3.1632, ValLoss: 2.8534, LR: 0.001
[2025-07-24 13:13:19,645] [INFO] Epoch 3/5, ValAcc: 32.50%, TrainLoss: 2.5630, ValLoss: 2.3170, LR: 0.001
…
_dir.debug', leaderboard_path='output/vrchat-worlds/step1/step1_meta_pkt_dir.csv', step1=True, step2=False, step3=False, train=False, longitudinal_evaluation=False, openworld_evaluation=False, device=device(type='cuda'), metadata='dir', name='pktdir_zscore_gru_500_32_5_0.001_128_128_3_0.3_128_128'),0.0722,0.0389,0.0442,0.0715
[2025-07-24 13:18:12,019] [INFO] Feature 0 normalized using token
[2025-07-24 13:18:12,019] [INFO] Train shape: (10659, 500), Val shape: (1523, 500), Test shape: (3046, 500)
[2025-07-24 13:18:12,157] [INFO] Classifier: VRScannerModel(
  (input_modules): ModuleList(
    (0): Embedding(3, 128)
  )
  (rnn_layers): ModuleList(
    (0): GRU(128, 128, num_layers=3, batch_first=True, dropout=0.3)
  )
  (attn_nets): ModuleList(
    (0): Sequential(
      (0): Linear(in_features=128, out_features=64, bias=True)
      (1): Tanh()
      (2): Linear(in_features=64, out_features=1, bias=True)
    )
  )
  (projection_layers): ModuleList(
    (0): Linear(in_features=128, out_features=128, bias=True)
  )
  (feature_attn_net): Sequential(
    (0): Linear(in_features=128, out_features=128, bias=True)
    (1): Tanh()
    (2): Linear(in_features=128, out_features=1, bias=True)
  )
  (fc): Sequential(
    (0): Linear(in_features=128, out_features=128, bias=True)
    (1): ReLU()
    (2): Dropout(p=0.3, inplace=False)
    (3): Linear(in_features=128, out_features=50, bias=True)
  )
)
[2025-07-24 13:18:12,157] [INFO] Training...
[2025-07-24 13:18:14,886] [INFO] Epoch 1/5, ValAcc: 2.56%, TrainLoss: 3.8922, ValLoss: 3.8644, LR: 0.001
[2025-07-24 13:18:17,521] [INFO] Epoch 2/5, ValAcc: 3.22%, TrainLoss: 3.8499, ValLoss: 3.8224, LR: 0.001
[2025-07-24 13:18:20,257] [INFO] Epoch 3/5, ValAcc: 4.92%, TrainLoss: 3.8049, ValLoss: 3.7696, LR: 0.001
…
debug', leaderboard_path='output/vrchat-worlds/step1/step1_meta_pkt_ts_rel.csv', step1=True, step2=False, step3=False, train=False, longitudinal_evaluation=False, openworld_evaluation=False, device=device(type='cuda'), metadata='rel', name='pkttsrel_zscore_gru_500_32_5_0.001_128_128_3_0.3_128_128'),0.0604,0.0349,0.0624,0.0587
[2025-07-24 13:23:42,517] [INFO] Feature 0 normalized using token
[2025-07-24 13:23:42,518] [INFO] Train shape: (10659, 500), Val shape: (1523, 500), Test shape: (3046, 500)
[2025-07-24 13:23:49,685] [INFO] Classifier: VRScannerModel(
  (input_modules): ModuleList(
    (0): Embedding(4337990, 128)
  )
  (rnn_layers): ModuleList(
    (0): GRU(128, 128, num_layers=3, batch_first=True, dropout=0.3)
  )
  (attn_nets): ModuleList(
    (0): Sequential(
      (0): Linear(in_features=128, out_features=64, bias=True)
      (1): Tanh()
      (2): Linear(in_features=64, out_features=1, bias=True)
    )
  )
  (projection_layers): ModuleList(
    (0): Linear(in_features=128, out_features=128, bias=True)
  )
  (feature_attn_net): Sequential(
    (0): Linear(in_features=128, out_features=128, bias=True)
    (1): Tanh()
    (2): Linear(in_features=128, out_features=1, bias=True)
  )
  (fc): Sequential(
    (0): Linear(in_features=128, out_features=128, bias=True)
    (1): ReLU()
    (2): Dropout(p=0.3, inplace=False)
    (3): Linear(in_features=128, out_features=50, bias=True)
  )
)
[2025-07-24 13:23:49,686] [INFO] Training...
[2025-07-24 13:24:18,913] [INFO] Epoch 1/5, ValAcc: 1.64%, TrainLoss: 3.9148, ValLoss: 3.9151, LR: 0.001
[2025-07-24 13:24:47,171] [INFO] Epoch 2/5, ValAcc: 2.23%, TrainLoss: 3.9070, ValLoss: 4.4099, LR: 0.001
[2025-07-24 13:25:15,336] [INFO] Epoch 3/5, ValAcc: 2.04%, TrainLoss: 3.6047, ValLoss: 9.4000, LR: 0.001
…
ug', leaderboard_path='output/vrchat-worlds/step1/step1_meta_pkt_ts_diff.csv', step1=True, step2=False, step3=False, train=False, longitudinal_evaluation=False, openworld_evaluation=False, device=device(type='cuda'), metadata='diff', name='pkttsdiff_zscore_gru_500_32_5_0.001_128_128_3_0.3_128_128'),0.0532,0.0255,0.0211,0.0551
[2025-07-24 13:31:45,669] [INFO] Feature 0 normalized using token
[2025-07-24 13:31:45,670] [INFO] Train shape: (10659, 500), Val shape: (1523, 500), Test shape: (3046, 500)
[2025-07-24 13:31:45,907] [INFO] Classifier: VRScannerModel(
  (input_modules): ModuleList(
    (0): Embedding(332548, 128)
  )
  (rnn_layers): ModuleList(
    (0): GRU(128, 128, num_layers=3, batch_first=True, dropout=0.3)
  )
  (attn_nets): ModuleList(
    (0): Sequential(
      (0): Linear(in_features=128, out_features=64, bias=True)
      (1): Tanh()
      (2): Linear(in_features=64, out_features=1, bias=True)
    )
  )
  (projection_layers): ModuleList(
    (0): Linear(in_features=128, out_features=128, bias=True)
  )
  (feature_attn_net): Sequential(
    (0): Linear(in_features=128, out_features=128, bias=True)
    (1): Tanh()
    (2): Linear(in_features=128, out_features=1, bias=True)
  )
  (fc): Sequential(
    (0): Linear(in_features=128, out_features=128, bias=True)
    (1): ReLU()
    (2): Dropout(p=0.3, inplace=False)
    (3): Linear(in_features=128, out_features=50, bias=True)
  )
)
[2025-07-24 13:31:45,907] [INFO] Training...
[2025-07-24 13:31:51,601] [INFO] Epoch 1/5, ValAcc: 5.25%, TrainLoss: 3.8458, ValLoss: 3.7618, LR: 0.001
[2025-07-24 13:31:57,217] [INFO] Epoch 2/5, ValAcc: 9.39%, TrainLoss: 3.6709, ValLoss: 3.6335, LR: 0.001
[2025-07-24 13:32:02,750] [INFO] Epoch 3/5, ValAcc: 7.81%, TrainLoss: 3.4320, ValLoss: 3.8630, LR: 0.001
…
', leaderboard_path='output/vrchat-worlds/step1/step1_meta_ip_version.csv', step1=True, step2=False, step3=False, train=False, longitudinal_evaluation=False, openworld_evaluation=False, device=device(type='cuda'), metadata='version', name='ipversion_zscore_gru_500_32_5_0.001_128_128_3_0.3_128_128'),0.0141,0.0006,0.0003,0.0200
[2025-07-24 13:36:39,038] [INFO] Feature 0 normalized using token
[2025-07-24 13:36:39,038] [INFO] Train shape: (10659, 500), Val shape: (1523, 500), Test shape: (3046, 500)
[2025-07-24 13:36:39,132] [INFO] Classifier: VRScannerModel(
  (input_modules): ModuleList(
    (0): Embedding(2, 128)
  )
  (rnn_layers): ModuleList(
    (0): GRU(128, 128, num_layers=3, batch_first=True, dropout=0.3)
  )
  (attn_nets): ModuleList(
    (0): Sequential(
      (0): Linear(in_features=128, out_features=64, bias=True)
      (1): Tanh()
      (2): Linear(in_features=64, out_features=1, bias=True)
    )
  )
  (projection_layers): ModuleList(
    (0): Linear(in_features=128, out_features=128, bias=True)
  )
  (feature_attn_net): Sequential(
    (0): Linear(in_features=128, out_features=128, bias=True)
    (1): Tanh()
    (2): Linear(in_features=128, out_features=1, bias=True)
  )
  (fc): Sequential(
    (0): Linear(in_features=128, out_features=128, bias=True)
    (1): ReLU()
    (2): Dropout(p=0.3, inplace=False)
    (3): Linear(in_features=128, out_features=50, bias=True)
  )
)
[2025-07-24 13:36:39,137] [INFO] Training...
[2025-07-24 13:36:41,889] [INFO] Epoch 1/5, ValAcc: 1.71%, TrainLoss: 3.9174, ValLoss: 3.9127, LR: 0.001
[2025-07-24 13:36:44,537] [INFO] Epoch 2/5, ValAcc: 1.97%, TrainLoss: 3.9133, ValLoss: 3.9139, LR: 0.001
[2025-07-24 13:36:47,245] [INFO] Epoch 3/5, ValAcc: 1.97%, TrainLoss: 3.9128, ValLoss: 3.9139, LR: 0.001
…
ip_ttl.debug', leaderboard_path='output/vrchat-worlds/step1/step1_meta_ip_ttl.csv', step1=True, step2=False, step3=False, train=False, longitudinal_evaluation=False, openworld_evaluation=False, device=device(type='cuda'), metadata='ttl', name='ipttl_zscore_gru_500_32_5_0.001_128_128_3_0.3_128_128'),0.0703,0.0312,0.0323,0.0671
[2025-07-24 13:46:18,296] [INFO] Feature 0 normalized using token
[2025-07-24 13:46:18,297] [INFO] Train shape: (10659, 500), Val shape: (1523, 500), Test shape: (3046, 500)
[2025-07-24 13:46:18,414] [INFO] Classifier: VRScannerModel(
  (input_modules): ModuleList(
    (0): Embedding(8, 128)
  )
  (rnn_layers): ModuleList(
    (0): GRU(128, 128, num_layers=3, batch_first=True, dropout=0.3)
  )
  (attn_nets): ModuleList(
    (0): Sequential(
      (0): Linear(in_features=128, out_features=64, bias=True)
      (1): Tanh()
      (2): Linear(in_features=64, out_features=1, bias=True)
    )
  )
  (projection_layers): ModuleList(
    (0): Linear(in_features=128, out_features=128, bias=True)
  )
  (feature_attn_net): Sequential(
    (0): Linear(in_features=128, out_features=128, bias=True)
    (1): Tanh()
    (2): Linear(in_features=128, out_features=1, bias=True)
  )
  (fc): Sequential(
    (0): Linear(in_features=128, out_features=128, bias=True)
    (1): ReLU()
    (2): Dropout(p=0.3, inplace=False)
    (3): Linear(in_features=128, out_features=50, bias=True)
  )
)
[2025-07-24 13:46:18,414] [INFO] Training...
[2025-07-24 13:46:21,326] [INFO] Epoch 1/5, ValAcc: 4.01%, TrainLoss: 3.8317, ValLoss: 3.7540, LR: 0.001
[2025-07-24 13:46:23,901] [INFO] Epoch 2/5, ValAcc: 3.68%, TrainLoss: 3.7641, ValLoss: 3.7358, LR: 0.001
[2025-07-24 13:46:26,491] [INFO] Epoch 3/5, ValAcc: 6.57%, TrainLoss: 3.7177, ValLoss: 3.6517, LR: 0.001
…
 ['157.240.215.16' '157.240.215.16' '157.240.215.16' ... '10.0.0.11'
  '10.0.0.11' '157.240.215.51']
 ...
 ['157.240.199.22' '10.0.0.17' '10.0.0.17' ... '10.0.0.17' '10.0.0.17'
  '157.240.215.16']
 ['157.240.199.22' '157.240.199.22' '10.0.0.17' ... '10.0.0.17'
  '10.0.0.17' '10.0.0.17']
 ['10.0.0.17' '31.13.82.1' '10.0.0.17' ... '10.0.0.17' '10.0.0.17'
  '10.0.0.17']]
[2025-07-24 13:54:59,045] [INFO] Feature 0 normalized using token
[2025-07-24 13:54:59,046] [INFO] Train shape: (10659, 500), Val shape: (1523, 500), Test shape: (3046, 500)
[2025-07-24 13:54:59,199] [INFO] Classifier: VRScannerModel(
  (input_modules): ModuleList(
    (0): Embedding(58, 128)
  )
  (rnn_layers): ModuleList(
    (0): GRU(128, 128, num_layers=3, batch_first=True, dropout=0.3)
  )
  (attn_nets): ModuleList(
    (0): Sequential(
      (0): Linear(in_features=128, out_features=64, bias=True)
      (1): Tanh()
      (2): Linear(in_features=64, out_features=1, bias=True)
    )
  )
  (projection_layers): ModuleList(
    (0): Linear(in_features=128, out_features=128, bias=True)
  )
  (feature_attn_net): Sequential(
    (0): Linear(in_features=128, out_features=128, bias=True)
    (1): Tanh()
    (2): Linear(in_features=128, out_features=1, bias=True)
  )
  (fc): Sequential(
    (0): Linear(in_features=128, out_features=128, bias=True)
    (1): ReLU()
    (2): Dropout(p=0.3, inplace=False)
    (3): Linear(in_features=128, out_features=50, bias=True)
  )
)
[2025-07-24 13:54:59,199] [INFO] Training...
[2025-07-24 13:55:04,387] [INFO] Epoch 1/5, ValAcc: 10.11%, TrainLoss: 3.4962, ValLoss: 3.2169, LR: 0.001
[2025-07-24 13:55:07,050] [INFO] Epoch 2/5, ValAcc: 12.67%, TrainLoss: 3.2230, ValLoss: 3.1056, LR: 0.001
[2025-07-24 13:55:09,697] [INFO] Epoch 3/5, ValAcc: 13.20%, TrainLoss: 3.0936, ValLoss: 3.0217, LR: 0.001
…
.debug', leaderboard_path='output/vrchat-worlds/step1/step1_meta_ip_proto.csv', step1=True, step2=False, step3=False, train=False, longitudinal_evaluation=False, openworld_evaluation=False, device=device(type='cuda'), metadata='proto', name='ipproto_zscore_gru_500_32_5_0.001_128_128_3_0.3_128_128'),0.0243,0.0031,0.0020,0.0271
[2025-07-24 13:59:07,611] [INFO] Feature 0 normalized using token
[2025-07-24 13:59:07,611] [INFO] Train shape: (10659, 500), Val shape: (1523, 500), Test shape: (3046, 500)
[2025-07-24 13:59:07,622] [INFO] Classifier: VRScannerModel(
  (input_modules): ModuleList(
    (0): Embedding(4, 128)
  )
  (rnn_layers): ModuleList(
    (0): GRU(128, 128, num_layers=3, batch_first=True, dropout=0.3)
  )
  (attn_nets): ModuleList(
    (0): Sequential(
      (0): Linear(in_features=128, out_features=64, bias=True)
      (1): Tanh()
      (2): Linear(in_features=64, out_features=1, bias=True)
    )
  )
  (projection_layers): ModuleList(
    (0): Linear(in_features=128, out_features=128, bias=True)
  )
  (feature_attn_net): Sequential(
    (0): Linear(in_features=128, out_features=128, bias=True)
    (1): Tanh()
    (2): Linear(in_features=128, out_features=1, bias=True)
  )
  (fc): Sequential(
    (0): Linear(in_features=128, out_features=128, bias=True)
    (1): ReLU()
    (2): Dropout(p=0.3, inplace=False)
    (3): Linear(in_features=128, out_features=50, bias=True)
  )
)
[2025-07-24 13:59:07,622] [INFO] Training...
[2025-07-24 13:59:10,235] [INFO] Epoch 1/5, ValAcc: 2.82%, TrainLoss: 3.9082, ValLoss: 3.8997, LR: 0.001
[2025-07-24 13:59:12,848] [INFO] Epoch 2/5, ValAcc: 2.30%, TrainLoss: 3.8886, ValLoss: 3.8987, LR: 0.001
[2025-07-24 13:59:15,384] [INFO] Epoch 3/5, ValAcc: 2.30%, TrainLoss: 3.8855, ValLoss: 3.8913, LR: 0.001
…
ip_len.debug', leaderboard_path='output/vrchat-worlds/step1/step1_meta_ip_len.csv', step1=True, step2=False, step3=False, train=False, longitudinal_evaluation=False, openworld_evaluation=False, device=device(type='cuda'), metadata='len', name='iplen_zscore_gru_500_32_5_0.001_128_128_3_0.3_128_128'),0.0883,0.0575,0.0801,0.0891
[2025-07-24 14:04:09,802] [INFO] Feature 0 normalized using token
[2025-07-24 14:04:09,802] [INFO] Train shape: (10659, 500), Val shape: (1523, 500), Test shape: (3046, 500)
[2025-07-24 14:04:09,893] [INFO] Classifier: VRScannerModel(
  (input_modules): ModuleList(
    (0): Embedding(1384, 128)
  )
  (rnn_layers): ModuleList(
    (0): GRU(128, 128, num_layers=3, batch_first=True, dropout=0.3)
  )
  (attn_nets): ModuleList(
    (0): Sequential(
      (0): Linear(in_features=128, out_features=64, bias=True)
      (1): Tanh()
      (2): Linear(in_features=64, out_features=1, bias=True)
    )
  )
  (projection_layers): ModuleList(
    (0): Linear(in_features=128, out_features=128, bias=True)
  )
  (feature_attn_net): Sequential(
    (0): Linear(in_features=128, out_features=128, bias=True)
    (1): Tanh()
    (2): Linear(in_features=128, out_features=1, bias=True)
  )
  (fc): Sequential(
    (0): Linear(in_features=128, out_features=128, bias=True)
    (1): ReLU()
    (2): Dropout(p=0.3, inplace=False)
    (3): Linear(in_features=128, out_features=50, bias=True)
  )
)
[2025-07-24 14:04:09,894] [INFO] Training...
[2025-07-24 14:04:12,936] [INFO] Epoch 1/5, ValAcc: 9.06%, TrainLoss: 3.7454, ValLoss: 3.3596, LR: 0.001
[2025-07-24 14:04:15,696] [INFO] Epoch 2/5, ValAcc: 23.97%, TrainLoss: 3.0598, ValLoss: 2.5883, LR: 0.001
[2025-07-24 14:04:18,438] [INFO] Epoch 3/5, ValAcc: 38.94%, TrainLoss: 2.4425, ValLoss: 2.1145, LR: 0.001
…
eta_ip_id.debug', leaderboard_path='output/vrchat-worlds/step1/step1_meta_ip_id.csv', step1=True, step2=False, step3=False, train=False, longitudinal_evaluation=False, openworld_evaluation=False, device=device(type='cuda'), metadata='id', name='ipid_zscore_gru_500_32_5_0.001_128_128_3_0.3_128_128'),0.0489,0.0322,0.0360,0.0498
[2025-07-24 14:09:45,048] [INFO] Feature 0 normalized using token
[2025-07-24 14:09:45,049] [INFO] Train shape: (10659, 500), Val shape: (1523, 500), Test shape: (3046, 500)
[2025-07-24 14:09:45,255] [INFO] Classifier: VRScannerModel(
  (input_modules): ModuleList(
    (0): Embedding(65537, 128)
  )
  (rnn_layers): ModuleList(
    (0): GRU(128, 128, num_layers=3, batch_first=True, dropout=0.3)
  )
  (attn_nets): ModuleList(
    (0): Sequential(
      (0): Linear(in_features=128, out_features=64, bias=True)
      (1): Tanh()
      (2): Linear(in_features=64, out_features=1, bias=True)
    )
  )
  (projection_layers): ModuleList(
    (0): Linear(in_features=128, out_features=128, bias=True)
  )
  (feature_attn_net): Sequential(
    (0): Linear(in_features=128, out_features=128, bias=True)
    (1): Tanh()
    (2): Linear(in_features=128, out_features=1, bias=True)
  )
  (fc): Sequential(
    (0): Linear(in_features=128, out_features=128, bias=True)
    (1): ReLU()
    (2): Dropout(p=0.3, inplace=False)
    (3): Linear(in_features=128, out_features=50, bias=True)
  )
)
[2025-07-24 14:09:45,256] [INFO] Training...
[2025-07-24 14:09:48,529] [INFO] Epoch 1/5, ValAcc: 2.30%, TrainLoss: 3.9144, ValLoss: 3.9122, LR: 0.001
[2025-07-24 14:09:51,588] [INFO] Epoch 2/5, ValAcc: 2.43%, TrainLoss: 3.8926, ValLoss: 3.8724, LR: 0.001
[2025-07-24 14:09:54,697] [INFO] Epoch 3/5, ValAcc: 3.41%, TrainLoss: 3.8363, ValLoss: 3.8795, LR: 0.001
…
bug', leaderboard_path='output/vrchat-worlds/step1/step1_meta_ip_chksum.csv', step1=True, step2=False, step3=False, train=False, longitudinal_evaluation=False, openworld_evaluation=False, device=device(type='cuda'), metadata='chksum', name='ipchksum_zscore_gru_500_32_5_0.001_128_128_3_0.3_128_128'),0.0575,0.0330,0.0429,0.0580
[2025-07-24 14:20:35,726] [INFO] Feature 0 normalized using token
[2025-07-24 14:20:35,727] [INFO] Train shape: (10659, 500), Val shape: (1523, 500), Test shape: (3046, 500)
[2025-07-24 14:20:35,926] [INFO] Classifier: VRScannerModel(
  (input_modules): ModuleList(
    (0): Embedding(65536, 128)
  )
  (rnn_layers): ModuleList(
    (0): GRU(128, 128, num_layers=3, batch_first=True, dropout=0.3)
  )
  (attn_nets): ModuleList(
    (0): Sequential(
      (0): Linear(in_features=128, out_features=64, bias=True)
      (1): Tanh()
      (2): Linear(in_features=64, out_features=1, bias=True)
    )
  )
  (projection_layers): ModuleList(
    (0): Linear(in_features=128, out_features=128, bias=True)
  )
  (feature_attn_net): Sequential(
    (0): Linear(in_features=128, out_features=128, bias=True)
    (1): Tanh()
    (2): Linear(in_features=128, out_features=1, bias=True)
  )
  (fc): Sequential(
    (0): Linear(in_features=128, out_features=128, bias=True)
    (1): ReLU()
    (2): Dropout(p=0.3, inplace=False)
    (3): Linear(in_features=128, out_features=50, bias=True)
  )
)
[2025-07-24 14:20:35,927] [INFO] Training...
[2025-07-24 14:20:39,120] [INFO] Epoch 1/5, ValAcc: 6.11%, TrainLoss: 3.8484, ValLoss: 3.6264, LR: 0.001
[2025-07-24 14:20:42,294] [INFO] Epoch 2/5, ValAcc: 7.81%, TrainLoss: 3.6095, ValLoss: 3.4968, LR: 0.001
[2025-07-24 14:20:45,369] [INFO] Epoch 3/5, ValAcc: 9.39%, TrainLoss: 3.4723, ValLoss: 3.4575, LR: 0.001
…
g', leaderboard_path='output/vrchat-worlds/step1/step1_meta_tcp_window.csv', step1=True, step2=False, step3=False, train=False, longitudinal_evaluation=False, openworld_evaluation=False, device=device(type='cuda'), metadata='window', name='tcpwindow_zscore_gru_500_32_5_0.001_128_128_3_0.3_128_128'),0.1763,0.1414,0.1645,0.1769
[2025-07-24 14:25:24,226] [INFO] Feature 0 normalized using token
[2025-07-24 14:25:24,226] [INFO] Train shape: (10659, 500), Val shape: (1523, 500), Test shape: (3046, 500)
[2025-07-24 14:25:24,282] [INFO] Classifier: VRScannerModel(
  (input_modules): ModuleList(
    (0): Embedding(4461, 128)
  )
  (rnn_layers): ModuleList(
    (0): GRU(128, 128, num_layers=3, batch_first=True, dropout=0.3)
  )
  (attn_nets): ModuleList(
    (0): Sequential(
      (0): Linear(in_features=128, out_features=64, bias=True)
      (1): Tanh()
      (2): Linear(in_features=64, out_features=1, bias=True)
    )
  )
  (projection_layers): ModuleList(
    (0): Linear(in_features=128, out_features=128, bias=True)
  )
  (feature_attn_net): Sequential(
    (0): Linear(in_features=128, out_features=128, bias=True)
    (1): Tanh()
    (2): Linear(in_features=128, out_features=1, bias=True)
  )
  (fc): Sequential(
    (0): Linear(in_features=128, out_features=128, bias=True)
    (1): ReLU()
    (2): Dropout(p=0.3, inplace=False)
    (3): Linear(in_features=128, out_features=50, bias=True)
  )
)
[2025-07-24 14:25:24,282] [INFO] Training...
[2025-07-24 14:25:27,100] [INFO] Epoch 1/5, ValAcc: 23.70%, TrainLoss: 3.4652, ValLoss: 2.8985, LR: 0.001
[2025-07-24 14:25:30,083] [INFO] Epoch 2/5, ValAcc: 40.64%, TrainLoss: 2.5429, ValLoss: 2.1938, LR: 0.001
[2025-07-24 14:25:32,542] [INFO] Epoch 3/5, ValAcc: 51.67%, TrainLoss: 1.9721, ValLoss: 1.7850, LR: 0.001
…
ebug', leaderboard_path='output/vrchat-worlds/step1/step1_meta_tcp_sport.csv', step1=True, step2=False, step3=False, train=False, longitudinal_evaluation=False, openworld_evaluation=False, device=device(type='cuda'), metadata='sport', name='tcpsport_zscore_gru_500_32_5_0.001_128_128_3_0.3_128_128'),0.1392,0.1102,0.1707,0.1375
[2025-07-24 14:34:47,337] [INFO] Feature 0 normalized using token
[2025-07-24 14:34:47,338] [INFO] Train shape: (10659, 500), Val shape: (1523, 500), Test shape: (3046, 500)
[2025-07-24 14:34:47,454] [INFO] Classifier: VRScannerModel(
  (input_modules): ModuleList(
    (0): Embedding(14069, 128)
  )
  (rnn_layers): ModuleList(
    (0): GRU(128, 128, num_layers=3, batch_first=True, dropout=0.3)
  )
  (attn_nets): ModuleList(
    (0): Sequential(
      (0): Linear(in_features=128, out_features=64, bias=True)
      (1): Tanh()
      (2): Linear(in_features=64, out_features=1, bias=True)
    )
  )
  (projection_layers): ModuleList(
    (0): Linear(in_features=128, out_features=128, bias=True)
  )
  (feature_attn_net): Sequential(
    (0): Linear(in_features=128, out_features=128, bias=True)
    (1): Tanh()
    (2): Linear(in_features=128, out_features=1, bias=True)
  )
  (fc): Sequential(
    (0): Linear(in_features=128, out_features=128, bias=True)
    (1): ReLU()
    (2): Dropout(p=0.3, inplace=False)
    (3): Linear(in_features=128, out_features=50, bias=True)
  )
)
[2025-07-24 14:34:47,454] [INFO] Training...
[2025-07-24 14:34:50,244] [INFO] Epoch 1/5, ValAcc: 43.07%, TrainLoss: 3.4692, ValLoss: 2.3012, LR: 0.001
[2025-07-24 14:34:52,978] [INFO] Epoch 2/5, ValAcc: 68.88%, TrainLoss: 1.6798, ValLoss: 1.1494, LR: 0.001
[2025-07-24 14:34:55,632] [INFO] Epoch 3/5, ValAcc: 71.18%, TrainLoss: 1.0158, ValLoss: 0.9792, LR: 0.001
…
ebug', leaderboard_path='output/vrchat-worlds/step1/step1_meta_tcp_dport.csv', step1=True, step2=False, step3=False, train=False, longitudinal_evaluation=False, openworld_evaluation=False, device=device(type='cuda'), metadata='dport', name='tcpdport_zscore_gru_500_32_5_0.001_128_128_3_0.3_128_128'),0.1215,0.0984,0.1116,0.1204
[2025-07-24 14:40:32,737] [INFO] Feature 0 normalized using token
[2025-07-24 14:40:32,737] [INFO] Train shape: (10659, 500), Val shape: (1523, 500), Test shape: (3046, 500)
[2025-07-24 14:40:32,926] [INFO] Classifier: VRScannerModel(
  (input_modules): ModuleList(
    (0): Embedding(14071, 128)
  )
  (rnn_layers): ModuleList(
    (0): GRU(128, 128, num_layers=3, batch_first=True, dropout=0.3)
  )
  (attn_nets): ModuleList(
    (0): Sequential(
      (0): Linear(in_features=128, out_features=64, bias=True)
      (1): Tanh()
      (2): Linear(in_features=64, out_features=1, bias=True)
    )
  )
  (projection_layers): ModuleList(
    (0): Linear(in_features=128, out_features=128, bias=True)
  )
  (feature_attn_net): Sequential(
    (0): Linear(in_features=128, out_features=128, bias=True)
    (1): Tanh()
    (2): Linear(in_features=128, out_features=1, bias=True)
  )
  (fc): Sequential(
    (0): Linear(in_features=128, out_features=128, bias=True)
    (1): ReLU()
    (2): Dropout(p=0.3, inplace=False)
    (3): Linear(in_features=128, out_features=50, bias=True)
  )
)
[2025-07-24 14:40:32,926] [INFO] Training...
[2025-07-24 14:40:36,067] [INFO] Epoch 1/5, ValAcc: 38.15%, TrainLoss: 3.3823, ValLoss: 2.4136, LR: 0.001
[2025-07-24 14:40:38,502] [INFO] Epoch 2/5, ValAcc: 65.59%, TrainLoss: 1.7942, ValLoss: 1.3472, LR: 0.001
[2025-07-24 14:40:41,471] [INFO] Epoch 3/5, ValAcc: 70.65%, TrainLoss: 1.1270, ValLoss: 1.0386, LR: 0.001
…
_seq.debug', leaderboard_path='output/vrchat-worlds/step1/step1_meta_tcp_seq.csv', step1=True, step2=False, step3=False, train=False, longitudinal_evaluation=False, openworld_evaluation=False, device=device(type='cuda'), metadata='seq', name='tcpseq_zscore_gru_500_32_5_0.001_128_128_3_0.3_128_128'),0.2272,0.2158,0.2615,0.2248
[2025-07-24 14:46:03,475] [INFO] Feature 0 normalized using token
[2025-07-24 14:46:03,475] [INFO] Train shape: (10659, 500), Val shape: (1523, 500), Test shape: (3046, 500)
[2025-07-24 14:46:06,059] [INFO] Classifier: VRScannerModel(
  (input_modules): ModuleList(
    (0): Embedding(3491812, 128)
  )
  (rnn_layers): ModuleList(
    (0): GRU(128, 128, num_layers=3, batch_first=True, dropout=0.3)
  )
  (attn_nets): ModuleList(
    (0): Sequential(
      (0): Linear(in_features=128, out_features=64, bias=True)
      (1): Tanh()
      (2): Linear(in_features=64, out_features=1, bias=True)
    )
  )
  (projection_layers): ModuleList(
    (0): Linear(in_features=128, out_features=128, bias=True)
  )
  (feature_attn_net): Sequential(
    (0): Linear(in_features=128, out_features=128, bias=True)
    (1): Tanh()
    (2): Linear(in_features=128, out_features=1, bias=True)
  )
  (fc): Sequential(
    (0): Linear(in_features=128, out_features=128, bias=True)
    (1): ReLU()
    (2): Dropout(p=0.3, inplace=False)
    (3): Linear(in_features=128, out_features=50, bias=True)
  )
)
[2025-07-24 14:46:06,059] [INFO] Training...
[2025-07-24 14:46:29,698] [INFO] Epoch 1/5, ValAcc: 1.44%, TrainLoss: 3.9145, ValLoss: 4.2653, LR: 0.001
[2025-07-24 14:46:52,970] [INFO] Epoch 2/5, ValAcc: 2.10%, TrainLoss: 3.8926, ValLoss: 5.3762, LR: 0.001
[2025-07-24 14:47:16,240] [INFO] Epoch 3/5, ValAcc: 2.04%, TrainLoss: 3.7546, ValLoss: 7.6443, LR: 0.001
…
_ack.debug', leaderboard_path='output/vrchat-worlds/step1/step1_meta_tcp_ack.csv', step1=True, step2=False, step3=False, train=False, longitudinal_evaluation=False, openworld_evaluation=False, device=device(type='cuda'), metadata='ack', name='tcpack_zscore_gru_500_32_5_0.001_128_128_3_0.3_128_128'),0.2367,0.2282,0.2980,0.2356
[2025-07-24 14:52:18,170] [INFO] Feature 0 normalized using token
[2025-07-24 14:52:18,171] [INFO] Train shape: (10659, 500), Val shape: (1523, 500), Test shape: (3046, 500)
[2025-07-24 14:52:19,768] [INFO] Classifier: VRScannerModel(
  (input_modules): ModuleList(
    (0): Embedding(2171119, 128)
  )
  (rnn_layers): ModuleList(
    (0): GRU(128, 128, num_layers=3, batch_first=True, dropout=0.3)
  )
  (attn_nets): ModuleList(
    (0): Sequential(
      (0): Linear(in_features=128, out_features=64, bias=True)
      (1): Tanh()
      (2): Linear(in_features=64, out_features=1, bias=True)
    )
  )
  (projection_layers): ModuleList(
    (0): Linear(in_features=128, out_features=128, bias=True)
  )
  (feature_attn_net): Sequential(
    (0): Linear(in_features=128, out_features=128, bias=True)
    (1): Tanh()
    (2): Linear(in_features=128, out_features=1, bias=True)
  )
  (fc): Sequential(
    (0): Linear(in_features=128, out_features=128, bias=True)
    (1): ReLU()
    (2): Dropout(p=0.3, inplace=False)
    (3): Linear(in_features=128, out_features=50, bias=True)
  )
)
[2025-07-24 14:52:19,768] [INFO] Training...
[2025-07-24 14:52:35,739] [INFO] Epoch 1/5, ValAcc: 2.23%, TrainLoss: 3.9150, ValLoss: 4.0025, LR: 0.001
[2025-07-24 14:52:51,517] [INFO] Epoch 2/5, ValAcc: 2.23%, TrainLoss: 3.9002, ValLoss: 4.5310, LR: 0.001
[2025-07-24 14:53:07,274] [INFO] Epoch 3/5, ValAcc: 2.10%, TrainLoss: 3.7966, ValLoss: 5.8806, LR: 0.001
…
[2025-07-24 15:01:15,617] [INFO] Processed data from vrchat-worlds/meta-tcp_flags/meta-tcp_flags.csv:
[2025-07-24 15:01:15,618] [INFO] (15228, 500)
[2025-07-24 15:01:15,618] [INFO] [['A' 'PA' 'A' ... 'SA' 'A' 'PA']
 ['S' 'SA' 'A' ... 'PA' 'A' 'A']
 ['A' 'PA' 'A' ... 'A' 'PA' 'PA']
 ...
 ['A' 'A' 'PA' ... 'PA' 'FA' 'PA']
 ['A' 'PA' 'A' ... 'A' 'A' 'PA']
 ['FA' 'A' 'A' ... 'PA' 'A' 'PA']]
[2025-07-24 15:01:19,248] [INFO] Feature 0 normalized using token
[2025-07-24 15:01:19,248] [INFO] Train shape: (10659, 500), Val shape: (1523, 500), Test shape: (3046, 500)
[2025-07-24 15:01:19,298] [INFO] Classifier: VRScannerModel(
  (input_modules): ModuleList(
    (0): Embedding(9, 128)
  )
  (rnn_layers): ModuleList(
    (0): GRU(128, 128, num_layers=3, batch_first=True, dropout=0.3)
  )
  (attn_nets): ModuleList(
    (0): Sequential(
      (0): Linear(in_features=128, out_features=64, bias=True)
      (1): Tanh()
      (2): Linear(in_features=64, out_features=1, bias=True)
    )
  )
  (projection_layers): ModuleList(
    (0): Linear(in_features=128, out_features=128, bias=True)
  )
  (feature_attn_net): Sequential(
    (0): Linear(in_features=128, out_features=128, bias=True)
    (1): Tanh()
    (2): Linear(in_features=128, out_features=1, bias=True)
  )
  (fc): Sequential(
    (0): Linear(in_features=128, out_features=128, bias=True)
    (1): ReLU()
    (2): Dropout(p=0.3, inplace=False)
    (3): Linear(in_features=128, out_features=50, bias=True)
  )
)
[2025-07-24 15:01:19,298] [INFO] Training...
[2025-07-24 15:01:23,434] [INFO] Epoch 1/5, ValAcc: 4.20%, TrainLoss: 3.8582, ValLoss: 3.7945, LR: 0.001
[2025-07-24 15:01:26,962] [INFO] Epoch 2/5, ValAcc: 5.52%, TrainLoss: 3.7767, ValLoss: 3.7728, LR: 0.001
[2025-07-24 15:01:31,183] [INFO] Epoch 3/5, ValAcc: 7.49%, TrainLoss: 3.7043, ValLoss: 3.6568, LR: 0.001
…
 leaderboard_path='output/vrchat-worlds/step1/step1_meta_tcp_dataofs.csv', step1=True, step2=False, step3=False, train=False, longitudinal_evaluation=False, openworld_evaluation=False, device=device(type='cuda'), metadata='dataofs', name='tcpdataofs_zscore_gru_500_32_5_0.001_128_128_3_0.3_128_128'),0.0660,0.0487,0.0591,0.0682
[2025-07-24 15:03:25,202] [INFO] Feature 0 normalized using token
[2025-07-24 15:03:25,202] [INFO] Train shape: (10659, 500), Val shape: (1523, 500), Test shape: (3046, 500)
[2025-07-24 15:03:25,210] [INFO] Classifier: VRScannerModel(
  (input_modules): ModuleList(
    (0): Embedding(7, 128)
  )
  (rnn_layers): ModuleList(
    (0): GRU(128, 128, num_layers=3, batch_first=True, dropout=0.3)
  )
  (attn_nets): ModuleList(
    (0): Sequential(
      (0): Linear(in_features=128, out_features=64, bias=True)
      (1): Tanh()
      (2): Linear(in_features=64, out_features=1, bias=True)
    )
  )
  (projection_layers): ModuleList(
    (0): Linear(in_features=128, out_features=128, bias=True)
  )
  (feature_attn_net): Sequential(
    (0): Linear(in_features=128, out_features=128, bias=True)
    (1): Tanh()
    (2): Linear(in_features=128, out_features=1, bias=True)
  )
  (fc): Sequential(
    (0): Linear(in_features=128, out_features=128, bias=True)
    (1): ReLU()
    (2): Dropout(p=0.3, inplace=False)
    (3): Linear(in_features=128, out_features=50, bias=True)
  )
)
[2025-07-24 15:03:25,210] [INFO] Training...
[2025-07-24 15:03:28,988] [INFO] Epoch 1/5, ValAcc: 3.81%, TrainLoss: 3.9047, ValLoss: 3.8644, LR: 0.001
[2025-07-24 15:03:33,194] [INFO] Epoch 2/5, ValAcc: 4.79%, TrainLoss: 3.8399, ValLoss: 3.8188, LR: 0.001
[2025-07-24 15:03:37,422] [INFO] Epoch 3/5, ValAcc: 7.75%, TrainLoss: 3.7327, ValLoss: 3.6674, LR: 0.001
…
