…
 ['1432' '1432' '1432' ... '52' '770' '94']
 ...
 ['52' '1432' '1432' ... '76' '52' '76']
 ['1432' '340' '52' ... '1432' '1432' '1432']
 ['52' '52' '1432' ... '1432' '1432' '1432']]
[2025-07-24 14:02:55,436] [INFO] Feature 0 normalized using none
[2025-07-24 14:02:55,437] [INFO] Train shape: (10659, 500), Val shape: (1523, 500), Test shape: (3046, 500)
[2025-07-24 14:02:55,576] [INFO] Classifier: VRScannerModel(
  (input_modules): ModuleList(
    (0): Identity()
  )
  (rnn_layers): ModuleList(
    (0): GRU(1, 128, num_layers=3, batch_first=True, dropout=0.3)
  )
  (attn_nets): ModuleList(
    (0): Sequential(
      (0): Linear(in_features=128, out_features=64, bias=True)
      (1): Tanh()
      (2): Linear(in_features=64, out_features=1, bias=True)
    )
  )
  (projection_layers): ModuleList(
    (0): Linear(in_features=128, out_features=128, bias=True)
  )
  (feature_attn_net): Sequential(
    (0): Linear(in_features=128, out_features=128, bias=True)
    (1): Tanh()
    (2): Linear(in_features=128, out_features=1, bias=True)
  )
  (fc): Sequential(
    (0): Linear(in_features=128, out_features=128, bias=True)
    (1): ReLU()
    (2): Dropout(p=0.3, inplace=False)
    (3): Linear(in_features=128, out_features=50, bias=True)
  )
)
[2025-07-24 14:02:55,576] [INFO] Training...
[2025-07-24 14:03:00,816] [INFO] Epoch 1/5, ValAcc: 1.97%, TrainLoss: 3.9167, ValLoss: 3.9170, LR: 0.001
[2025-07-24 14:03:03,368] [INFO] Epoch 2/5, ValAcc: 1.97%, TrainLoss: 3.9137, ValLoss: 3.9147, LR: 0.001
[2025-07-24 14:03:05,841] [INFO] Epoch 3/5, ValAcc: 1.44%, TrainLoss: 3.9131, ValLoss: 3.9151, LR: 0.001
…
_ip_len.debug', leaderboard_path='output/vrchat-worlds/step1/step1_meta_ip_len.csv', step1=True, step2=False, step3=False, train=False, longitudinal_evaluation=False, openworld_evaluation=False, device=device(type='cuda'), metadata='len', name='iplen_none_gru_500_32_5_0.001_128_128_3_0.3_128_128'),0.0141,0.0006,0.0003,0.0200
[2025-07-24 14:03:18,977] [INFO] Feature 0 normalized using minmax
[2025-07-24 14:03:18,977] [INFO] Train shape: (10659, 500), Val shape: (1523, 500), Test shape: (3046, 500)
[2025-07-24 14:03:19,075] [INFO] Classifier: VRScannerModel(
  (input_modules): ModuleList(
    (0): Linear(in_features=1, out_features=128, bias=True)
  )
  (rnn_layers): ModuleList(
    (0): GRU(128, 128, num_layers=3, batch_first=True, dropout=0.3)
  )
  (attn_nets): ModuleList(
    (0): Sequential(
      (0): Linear(in_features=128, out_features=64, bias=True)
      (1): Tanh()
      (2): Linear(in_features=64, out_features=1, bias=True)
    )
  )
  (projection_layers): ModuleList(
    (0): Linear(in_features=128, out_features=128, bias=True)
  )
  (feature_attn_net): Sequential(
    (0): Linear(in_features=128, out_features=128, bias=True)
    (1): Tanh()
    (2): Linear(in_features=128, out_features=1, bias=True)
  )
  (fc): Sequential(
    (0): Linear(in_features=128, out_features=128, bias=True)
    (1): ReLU()
    (2): Dropout(p=0.3, inplace=False)
    (3): Linear(in_features=128, out_features=50, bias=True)
  )
)
[2025-07-24 14:03:19,075] [INFO] Training...
[2025-07-24 14:03:21,765] [INFO] Epoch 1/5, ValAcc: 2.63%, TrainLoss: 3.8945, ValLoss: 3.8921, LR: 0.001
[2025-07-24 14:03:24,412] [INFO] Epoch 2/5, ValAcc: 3.28%, TrainLoss: 3.8522, ValLoss: 3.8566, LR: 0.001
[2025-07-24 14:03:27,027] [INFO] Epoch 3/5, ValAcc: 3.55%, TrainLoss: 3.8346, ValLoss: 3.8391, LR: 0.001
…
ip_len.debug', leaderboard_path='output/vrchat-worlds/step1/step1_meta_ip_len.csv', step1=True, step2=False, step3=False, train=False, longitudinal_evaluation=False, openworld_evaluation=False, device=device(type='cuda'), metadata='len', name='iplen_zscore_gru_500_32_5_0.001_128_128_3_0.3_128_128'),0.0883,0.0575,0.0801,0.0891
[2025-07-24 14:04:09,802] [INFO] Feature 0 normalized using token
[2025-07-24 14:04:09,802] [INFO] Train shape: (10659, 500), Val shape: (1523, 500), Test shape: (3046, 500)
[2025-07-24 14:04:09,893] [INFO] Classifier: VRScannerModel(
  (input_modules): ModuleList(
    (0): Embedding(1384, 128)
  )
  (rnn_layers): ModuleList(
    (0): GRU(128, 128, num_layers=3, batch_first=True, dropout=0.3)
  )
  (attn_nets): ModuleList(
    (0): Sequential(
      (0): Linear(in_features=128, out_features=64, bias=True)
      (1): Tanh()
      (2): Linear(in_features=64, out_features=1, bias=True)
    )
  )
  (projection_layers): ModuleList(
    (0): Linear(in_features=128, out_features=128, bias=True)
  )
  (feature_attn_net): Sequential(
    (0): Linear(in_features=128, out_features=128, bias=True)
    (1): Tanh()
    (2): Linear(in_features=128, out_features=1, bias=True)
  )
  (fc): Sequential(
    (0): Linear(in_features=128, out_features=128, bias=True)
    (1): ReLU()
    (2): Dropout(p=0.3, inplace=False)
    (3): Linear(in_features=128, out_features=50, bias=True)
  )
)
[2025-07-24 14:04:09,894] [INFO] Training...
[2025-07-24 14:04:12,936] [INFO] Epoch 1/5, ValAcc: 9.06%, TrainLoss: 3.7454, ValLoss: 3.3596, LR: 0.001
[2025-07-24 14:04:15,696] [INFO] Epoch 2/5, ValAcc: 23.97%, TrainLoss: 3.0598, ValLoss: 2.5883, LR: 0.001
[2025-07-24 14:04:18,438] [INFO] Epoch 3/5, ValAcc: 38.94%, TrainLoss: 2.4425, ValLoss: 2.1145, LR: 0.001
…
