…
 ['4135558596' '4135559976' '4255824745' ... '3919525443' '3919526823'
  '3919528203']
 ['3844023282' '2033179499' '977779011' ... '2343468812' '2343470192'
  '2343471572']]
[2025-07-24 14:44:49,593] [INFO] Feature 0 normalized using none
[2025-07-24 14:44:49,593] [INFO] Train shape: (10659, 500), Val shape: (1523, 500), Test shape: (3046, 500)
[2025-07-24 14:44:49,621] [INFO] Classifier: VRScannerModel(
  (input_modules): ModuleList(
    (0): Identity()
  )
  (rnn_layers): ModuleList(
    (0): GRU(1, 128, num_layers=3, batch_first=True, dropout=0.3)
  )
  (attn_nets): ModuleList(
    (0): Sequential(
      (0): Linear(in_features=128, out_features=64, bias=True)
      (1): Tanh()
      (2): Linear(in_features=64, out_features=1, bias=True)
    )
  )
  (projection_layers): ModuleList(
    (0): Linear(in_features=128, out_features=128, bias=True)
  )
  (feature_attn_net): Sequential(
    (0): Linear(in_features=128, out_features=128, bias=True)
    (1): Tanh()
    (2): Linear(in_features=128, out_features=1, bias=True)
  )
  (fc): Sequential(
    (0): Linear(in_features=128, out_features=128, bias=True)
    (1): ReLU()
    (2): Dropout(p=0.3, inplace=False)
    (3): Linear(in_features=128, out_features=50, bias=True)
  )
)
[2025-07-24 14:44:49,621] [INFO] Training...
[2025-07-24 14:44:54,597] [INFO] Epoch 1/5, ValAcc: 2.30%, TrainLoss: 3.9108, ValLoss: 3.9071, LR: 0.001
[2025-07-24 14:44:58,621] [INFO] Epoch 2/5, ValAcc: 2.30%, TrainLoss: 3.8909, ValLoss: 3.8992, LR: 0.001
[2025-07-24 14:45:02,629] [INFO] Epoch 3/5, ValAcc: 3.09%, TrainLoss: 3.8847, ValLoss: 3.8985, LR: 0.001
…
p_seq.debug', leaderboard_path='output/vrchat-worlds/step1/step1_meta_tcp_seq.csv', step1=True, step2=False, step3=False, train=False, longitudinal_evaluation=False, openworld_evaluation=False, device=device(type='cuda'), metadata='seq', name='tcpseq_none_gru_500_32_5_0.001_128_128_3_0.3_128_128'),0.0286,0.0027,0.0014,0.0298
[2025-07-24 14:45:15,111] [INFO] Feature 0 normalized using minmax
[2025-07-24 14:45:15,111] [INFO] Train shape: (10659, 500), Val shape: (1523, 500), Test shape: (3046, 500)
[2025-07-24 14:45:15,116] [INFO] Classifier: VRScannerModel(
  (input_modules): ModuleList(
    (0): Linear(in_features=1, out_features=128, bias=True)
  )
  (rnn_layers): ModuleList(
    (0): GRU(128, 128, num_layers=3, batch_first=True, dropout=0.3)
  )
  (attn_nets): ModuleList(
    (0): Sequential(
      (0): Linear(in_features=128, out_features=64, bias=True)
      (1): Tanh()
      (2): Linear(in_features=64, out_features=1, bias=True)
    )
  )
  (projection_layers): ModuleList(
    (0): Linear(in_features=128, out_features=128, bias=True)
  )
  (feature_attn_net): Sequential(
    (0): Linear(in_features=128, out_features=128, bias=True)
    (1): Tanh()
    (2): Linear(in_features=128, out_features=1, bias=True)
  )
  (fc): Sequential(
    (0): Linear(in_features=128, out_features=128, bias=True)
    (1): ReLU()
    (2): Dropout(p=0.3, inplace=False)
    (3): Linear(in_features=128, out_features=50, bias=True)
  )
)
[2025-07-24 14:45:15,116] [INFO] Training...
[2025-07-24 14:45:19,178] [INFO] Epoch 1/5, ValAcc: 2.63%, TrainLoss: 3.9166, ValLoss: 3.9180, LR: 0.001
[2025-07-24 14:45:23,360] [INFO] Epoch 2/5, ValAcc: 2.30%, TrainLoss: 3.9144, ValLoss: 3.9099, LR: 0.001
[2025-07-24 14:45:27,544] [INFO] Epoch 3/5, ValAcc: 2.76%, TrainLoss: 3.9066, ValLoss: 3.9067, LR: 0.001
…
_seq.debug', leaderboard_path='output/vrchat-worlds/step1/step1_meta_tcp_seq.csv', step1=True, step2=False, step3=False, train=False, longitudinal_evaluation=False, openworld_evaluation=False, device=device(type='cuda'), metadata='seq', name='tcpseq_zscore_gru_500_32_5_0.001_128_128_3_0.3_128_128'),0.2272,0.2158,0.2615,0.2248
[2025-07-24 14:46:03,475] [INFO] Feature 0 normalized using token
[2025-07-24 14:46:03,475] [INFO] Train shape: (10659, 500), Val shape: (1523, 500), Test shape: (3046, 500)
[2025-07-24 14:46:06,059] [INFO] Classifier: VRScannerModel(
  (input_modules): ModuleList(
    (0): Embedding(3491812, 128)
  )
  (rnn_layers): ModuleList(
    (0): GRU(128, 128, num_layers=3, batch_first=True, dropout=0.3)
  )
  (attn_nets): ModuleList(
    (0): Sequential(
      (0): Linear(in_features=128, out_features=64, bias=True)
      (1): Tanh()
      (2): Linear(in_features=64, out_features=1, bias=True)
    )
  )
  (projection_layers): ModuleList(
    (0): Linear(in_features=128, out_features=128, bias=True)
  )
  (feature_attn_net): Sequential(
    (0): Linear(in_features=128, out_features=128, bias=True)
    (1): Tanh()
    (2): Linear(in_features=128, out_features=1, bias=True)
  )
  (fc): Sequential(
    (0): Linear(in_features=128, out_features=128, bias=True)
    (1): ReLU()
    (2): Dropout(p=0.3, inplace=False)
    (3): Linear(in_features=128, out_features=50, bias=True)
  )
)
[2025-07-24 14:46:06,059] [INFO] Training...
[2025-07-24 14:46:29,698] [INFO] Epoch 1/5, ValAcc: 1.44%, TrainLoss: 3.9145, ValLoss: 4.2653, LR: 0.001
[2025-07-24 14:46:52,970] [INFO] Epoch 2/5, ValAcc: 2.10%, TrainLoss: 3.8926, ValLoss: 5.3762, LR: 0.001
[2025-07-24 14:47:16,240] [INFO] Epoch 3/5, ValAcc: 2.04%, TrainLoss: 3.7546, ValLoss: 7.6443, LR: 0.001
…
