…
 ...
 ['443' '53606' '53606' ... '57818' '57818' '443']
 ['443' '443' '43834' ... '58682' '58682' '58682']
 ['34362' '443' '32856' ... '55162' '55162' '55162']]
[2025-07-24 14:33:34,452] [INFO] Feature 0 normalized using none
[2025-07-24 14:33:34,453] [INFO] Train shape: (10659, 500), Val shape: (1523, 500), Test shape: (3046, 500)
[2025-07-24 14:33:34,547] [INFO] Classifier: VRScannerModel(
  (input_modules): ModuleList(
    (0): Identity()
  )
  (rnn_layers): ModuleList(
    (0): GRU(1, 128, num_layers=3, batch_first=True, dropout=0.3)
  )
  (attn_nets): ModuleList(
    (0): Sequential(
      (0): Linear(in_features=128, out_features=64, bias=True)
      (1): Tanh()
      (2): Linear(in_features=64, out_features=1, bias=True)
    )
  )
  (projection_layers): ModuleList(
    (0): Linear(in_features=128, out_features=128, bias=True)
  )
  (feature_attn_net): Sequential(
    (0): Linear(in_features=128, out_features=128, bias=True)
    (1): Tanh()
    (2): Linear(in_features=128, out_features=1, bias=True)
  )
  (fc): Sequential(
    (0): Linear(in_features=128, out_features=128, bias=True)
    (1): ReLU()
    (2): Dropout(p=0.3, inplace=False)
    (3): Linear(in_features=128, out_features=50, bias=True)
  )
)
[2025-07-24 14:33:34,548] [INFO] Training...
[2025-07-24 14:33:38,531] [INFO] Epoch 1/5, ValAcc: 4.07%, TrainLoss: 3.8733, ValLoss: 3.8578, LR: 0.001
[2025-07-24 14:33:41,051] [INFO] Epoch 2/5, ValAcc: 4.14%, TrainLoss: 3.8338, ValLoss: 3.8392, LR: 0.001
[2025-07-24 14:33:43,597] [INFO] Epoch 3/5, ValAcc: 4.60%, TrainLoss: 3.8110, ValLoss: 3.7997, LR: 0.001
…
debug', leaderboard_path='output/vrchat-worlds/step1/step1_meta_tcp_sport.csv', step1=True, step2=False, step3=False, train=False, longitudinal_evaluation=False, openworld_evaluation=False, device=device(type='cuda'), metadata='sport', name='tcpsport_none_gru_500_32_5_0.001_128_128_3_0.3_128_128'),0.0512,0.0144,0.0110,0.0511
[2025-07-24 14:33:56,839] [INFO] Feature 0 normalized using minmax
[2025-07-24 14:33:56,839] [INFO] Train shape: (10659, 500), Val shape: (1523, 500), Test shape: (3046, 500)
[2025-07-24 14:33:56,925] [INFO] Classifier: VRScannerModel(
  (input_modules): ModuleList(
    (0): Linear(in_features=1, out_features=128, bias=True)
  )
  (rnn_layers): ModuleList(
    (0): GRU(128, 128, num_layers=3, batch_first=True, dropout=0.3)
  )
  (attn_nets): ModuleList(
    (0): Sequential(
      (0): Linear(in_features=128, out_features=64, bias=True)
      (1): Tanh()
      (2): Linear(in_features=64, out_features=1, bias=True)
    )
  )
  (projection_layers): ModuleList(
    (0): Linear(in_features=128, out_features=128, bias=True)
  )
  (feature_attn_net): Sequential(
    (0): Linear(in_features=128, out_features=128, bias=True)
    (1): Tanh()
    (2): Linear(in_features=128, out_features=1, bias=True)
  )
  (fc): Sequential(
    (0): Linear(in_features=128, out_features=128, bias=True)
    (1): ReLU()
    (2): Dropout(p=0.3, inplace=False)
    (3): Linear(in_features=128, out_features=50, bias=True)
  )
)
[2025-07-24 14:33:56,926] [INFO] Training...
[2025-07-24 14:33:59,602] [INFO] Epoch 1/5, ValAcc: 1.84%, TrainLoss: 3.9089, ValLoss: 3.8951, LR: 0.001
[2025-07-24 14:34:02,226] [INFO] Epoch 2/5, ValAcc: 4.07%, TrainLoss: 3.8744, ValLoss: 3.8417, LR: 0.001
[2025-07-24 14:34:04,861] [INFO] Epoch 3/5, ValAcc: 3.28%, TrainLoss: 3.8478, ValLoss: 3.8351, LR: 0.001
…
ebug', leaderboard_path='output/vrchat-worlds/step1/step1_meta_tcp_sport.csv', step1=True, step2=False, step3=False, train=False, longitudinal_evaluation=False, openworld_evaluation=False, device=device(type='cuda'), metadata='sport', name='tcpsport_zscore_gru_500_32_5_0.001_128_128_3_0.3_128_128'),0.1392,0.1102,0.1707,0.1375
[2025-07-24 14:34:47,337] [INFO] Feature 0 normalized using token
[2025-07-24 14:34:47,338] [INFO] Train shape: (10659, 500), Val shape: (1523, 500), Test shape: (3046, 500)
[2025-07-24 14:34:47,454] [INFO] Classifier: VRScannerModel(
  (input_modules): ModuleList(
    (0): Embedding(14069, 128)
  )
  (rnn_layers): ModuleList(
    (0): GRU(128, 128, num_layers=3, batch_first=True, dropout=0.3)
  )
  (attn_nets): ModuleList(
    (0): Sequential(
      (0): Linear(in_features=128, out_features=64, bias=True)
      (1): Tanh()
      (2): Linear(in_features=64, out_features=1, bias=True)
    )
  )
  (projection_layers): ModuleList(
    (0): Linear(in_features=128, out_features=128, bias=True)
  )
  (feature_attn_net): Sequential(
    (0): Linear(in_features=128, out_features=128, bias=True)
    (1): Tanh()
    (2): Linear(in_features=128, out_features=1, bias=True)
  )
  (fc): Sequential(
    (0): Linear(in_features=128, out_features=128, bias=True)
    (1): ReLU()
    (2): Dropout(p=0.3, inplace=False)
    (3): Linear(in_features=128, out_features=50, bias=True)
  )
)
[2025-07-24 14:34:47,454] [INFO] Training...
[2025-07-24 14:34:50,244] [INFO] Epoch 1/5, ValAcc: 43.07%, TrainLoss: 3.4692, ValLoss: 2.3012, LR: 0.001
[2025-07-24 14:34:52,978] [INFO] Epoch 2/5, ValAcc: 68.88%, TrainLoss: 1.6798, ValLoss: 1.1494, LR: 0.001
[2025-07-24 14:34:55,632] [INFO] Epoch 3/5, ValAcc: 71.18%, TrainLoss: 1.0158, ValLoss: 0.9792, LR: 0.001
…
