…
 ['2038' '2038' '2038' ... '418' '1046' '2038']
 ...
 ['265' '774' '774' ... '310' '310' '944']
 ['265' '265' '332' ... '300' '300' '300']
 ['343' '761' '300' ... '300' '300' '300']]
[2025-07-24 14:24:19,235] [INFO] Feature 0 normalized using none
[2025-07-24 14:24:19,235] [INFO] Train shape: (10659, 500), Val shape: (1523, 500), Test shape: (3046, 500)
[2025-07-24 14:24:19,300] [INFO] Classifier: VRScannerModel(
  (input_modules): ModuleList(
    (0): Identity()
  )
  (rnn_layers): ModuleList(
    (0): GRU(1, 128, num_layers=3, batch_first=True, dropout=0.3)
  )
  (attn_nets): ModuleList(
    (0): Sequential(
      (0): Linear(in_features=128, out_features=64, bias=True)
      (1): Tanh()
      (2): Linear(in_features=64, out_features=1, bias=True)
    )
  )
  (projection_layers): ModuleList(
    (0): Linear(in_features=128, out_features=128, bias=True)
  )
  (feature_attn_net): Sequential(
    (0): Linear(in_features=128, out_features=128, bias=True)
    (1): Tanh()
    (2): Linear(in_features=128, out_features=1, bias=True)
  )
  (fc): Sequential(
    (0): Linear(in_features=128, out_features=128, bias=True)
    (1): ReLU()
    (2): Dropout(p=0.3, inplace=False)
    (3): Linear(in_features=128, out_features=50, bias=True)
  )
)
[2025-07-24 14:24:19,300] [INFO] Training...
[2025-07-24 14:24:22,845] [INFO] Epoch 1/5, ValAcc: 2.95%, TrainLoss: 3.9110, ValLoss: 3.8944, LR: 0.001
[2025-07-24 14:24:25,757] [INFO] Epoch 2/5, ValAcc: 3.48%, TrainLoss: 3.8664, ValLoss: 3.8753, LR: 0.001
[2025-07-24 14:24:28,454] [INFO] Epoch 3/5, ValAcc: 3.74%, TrainLoss: 3.8464, ValLoss: 3.8674, LR: 0.001
…
ug', leaderboard_path='output/vrchat-worlds/step1/step1_meta_tcp_window.csv', step1=True, step2=False, step3=False, train=False, longitudinal_evaluation=False, openworld_evaluation=False, device=device(type='cuda'), metadata='window', name='tcpwindow_none_gru_500_32_5_0.001_128_128_3_0.3_128_128'),0.0486,0.0242,0.0244,0.0492
[2025-07-24 14:24:39,611] [INFO] Feature 0 normalized using minmax
[2025-07-24 14:24:39,611] [INFO] Train shape: (10659, 500), Val shape: (1523, 500), Test shape: (3046, 500)
[2025-07-24 14:24:39,680] [INFO] Classifier: VRScannerModel(
  (input_modules): ModuleList(
    (0): Linear(in_features=1, out_features=128, bias=True)
  )
  (rnn_layers): ModuleList(
    (0): GRU(128, 128, num_layers=3, batch_first=True, dropout=0.3)
  )
  (attn_nets): ModuleList(
    (0): Sequential(
      (0): Linear(in_features=128, out_features=64, bias=True)
      (1): Tanh()
      (2): Linear(in_features=64, out_features=1, bias=True)
    )
  )
  (projection_layers): ModuleList(
    (0): Linear(in_features=128, out_features=128, bias=True)
  )
  (feature_attn_net): Sequential(
    (0): Linear(in_features=128, out_features=128, bias=True)
    (1): Tanh()
    (2): Linear(in_features=128, out_features=1, bias=True)
  )
  (fc): Sequential(
    (0): Linear(in_features=128, out_features=128, bias=True)
    (1): ReLU()
    (2): Dropout(p=0.3, inplace=False)
    (3): Linear(in_features=128, out_features=50, bias=True)
  )
)
[2025-07-24 14:24:39,681] [INFO] Training...
[2025-07-24 14:24:42,242] [INFO] Epoch 1/5, ValAcc: 2.50%, TrainLoss: 3.9169, ValLoss: 3.9156, LR: 0.001
[2025-07-24 14:24:44,736] [INFO] Epoch 2/5, ValAcc: 1.44%, TrainLoss: 3.9150, ValLoss: 3.9142, LR: 0.001
[2025-07-24 14:24:47,270] [INFO] Epoch 3/5, ValAcc: 2.50%, TrainLoss: 3.9043, ValLoss: 3.8866, LR: 0.001
…
g', leaderboard_path='output/vrchat-worlds/step1/step1_meta_tcp_window.csv', step1=True, step2=False, step3=False, train=False, longitudinal_evaluation=False, openworld_evaluation=False, device=device(type='cuda'), metadata='window', name='tcpwindow_zscore_gru_500_32_5_0.001_128_128_3_0.3_128_128'),0.1763,0.1414,0.1645,0.1769
[2025-07-24 14:25:24,226] [INFO] Feature 0 normalized using token
[2025-07-24 14:25:24,226] [INFO] Train shape: (10659, 500), Val shape: (1523, 500), Test shape: (3046, 500)
[2025-07-24 14:25:24,282] [INFO] Classifier: VRScannerModel(
  (input_modules): ModuleList(
    (0): Embedding(4461, 128)
  )
  (rnn_layers): ModuleList(
    (0): GRU(128, 128, num_layers=3, batch_first=True, dropout=0.3)
  )
  (attn_nets): ModuleList(
    (0): Sequential(
      (0): Linear(in_features=128, out_features=64, bias=True)
      (1): Tanh()
      (2): Linear(in_features=64, out_features=1, bias=True)
    )
  )
  (projection_layers): ModuleList(
    (0): Linear(in_features=128, out_features=128, bias=True)
  )
  (feature_attn_net): Sequential(
    (0): Linear(in_features=128, out_features=128, bias=True)
    (1): Tanh()
    (2): Linear(in_features=128, out_features=1, bias=True)
  )
  (fc): Sequential(
    (0): Linear(in_features=128, out_features=128, bias=True)
    (1): ReLU()
    (2): Dropout(p=0.3, inplace=False)
    (3): Linear(in_features=128, out_features=50, bias=True)
  )
)
[2025-07-24 14:25:24,282] [INFO] Training...
[2025-07-24 14:25:27,100] [INFO] Epoch 1/5, ValAcc: 23.70%, TrainLoss: 3.4652, ValLoss: 2.8985, LR: 0.001
[2025-07-24 14:25:30,083] [INFO] Epoch 2/5, ValAcc: 40.64%, TrainLoss: 2.5429, ValLoss: 2.1938, LR: 0.001
[2025-07-24 14:25:32,542] [INFO] Epoch 3/5, ValAcc: 51.67%, TrainLoss: 1.9721, ValLoss: 1.7850, LR: 0.001
…
