…
 ['5' '5' '5' ... '5' '5' '5']
 ['5' '5' '5' ... '5' '5' '5']
 ...
 ['5' '5' '5' ... '5' '5' '5']
 ['5' '5' '5' ... '5' '5' '5']
 ['5' '5' '5' ... '5' '5' '5']]
[2025-07-24 13:40:40,491] [INFO] Feature 0 normalized using none
[2025-07-24 13:40:40,491] [INFO] Train shape: (10659, 500), Val shape: (1523, 500), Test shape: (3046, 500)
[2025-07-24 13:40:40,602] [INFO] Classifier: VRScannerModel(
  (input_modules): ModuleList(
    (0): Identity()
  )
  (rnn_layers): ModuleList(
    (0): GRU(1, 128, num_layers=3, batch_first=True, dropout=0.3)
  )
  (attn_nets): ModuleList(
    (0): Sequential(
      (0): Linear(in_features=128, out_features=64, bias=True)
      (1): Tanh()
      (2): Linear(in_features=64, out_features=1, bias=True)
    )
  )
  (projection_layers): ModuleList(
    (0): Linear(in_features=128, out_features=128, bias=True)
  )
  (feature_attn_net): Sequential(
    (0): Linear(in_features=128, out_features=128, bias=True)
    (1): Tanh()
    (2): Linear(in_features=128, out_features=1, bias=True)
  )
  (fc): Sequential(
    (0): Linear(in_features=128, out_features=128, bias=True)
    (1): ReLU()
    (2): Dropout(p=0.3, inplace=False)
    (3): Linear(in_features=128, out_features=50, bias=True)
  )
)
[2025-07-24 13:40:40,602] [INFO] Training...
[2025-07-24 13:40:44,990] [INFO] Epoch 1/5, ValAcc: 2.10%, TrainLoss: 3.9158, ValLoss: 3.9138, LR: 0.001
[2025-07-24 13:40:47,335] [INFO] Epoch 2/5, ValAcc: 1.97%, TrainLoss: 3.9137, ValLoss: 3.9142, LR: 0.001
[2025-07-24 13:40:49,828] [INFO] Epoch 3/5, ValAcc: 1.90%, TrainLoss: 3.9131, ValLoss: 3.9155, LR: 0.001
…
_ip_ihl.debug', leaderboard_path='output/vrchat-worlds/step1/step1_meta_ip_ihl.csv', step1=True, step2=False, step3=False, train=False, longitudinal_evaluation=False, openworld_evaluation=False, device=device(type='cuda'), metadata='ihl', name='ipihl_none_gru_500_32_5_0.001_128_128_3_0.3_128_128'),0.0158,0.0006,0.0003,0.0200
[2025-07-24 13:41:01,307] [INFO] Feature 0 normalized using minmax
[2025-07-24 13:41:01,307] [INFO] Train shape: (10659, 500), Val shape: (1523, 500), Test shape: (3046, 500)
[2025-07-24 13:41:01,375] [INFO] Classifier: VRScannerModel(
  (input_modules): ModuleList(
    (0): Linear(in_features=1, out_features=128, bias=True)
  )
  (rnn_layers): ModuleList(
    (0): GRU(128, 128, num_layers=3, batch_first=True, dropout=0.3)
  )
  (attn_nets): ModuleList(
    (0): Sequential(
      (0): Linear(in_features=128, out_features=64, bias=True)
      (1): Tanh()
      (2): Linear(in_features=64, out_features=1, bias=True)
    )
  )
  (projection_layers): ModuleList(
    (0): Linear(in_features=128, out_features=128, bias=True)
  )
  (feature_attn_net): Sequential(
    (0): Linear(in_features=128, out_features=128, bias=True)
    (1): Tanh()
    (2): Linear(in_features=128, out_features=1, bias=True)
  )
  (fc): Sequential(
    (0): Linear(in_features=128, out_features=128, bias=True)
    (1): ReLU()
    (2): Dropout(p=0.3, inplace=False)
    (3): Linear(in_features=128, out_features=50, bias=True)
  )
)
[2025-07-24 13:41:01,375] [INFO] Training...
[2025-07-24 13:41:04,020] [INFO] Epoch 1/5, ValAcc: 1.77%, TrainLoss: 3.9166, ValLoss: 3.9131, LR: 0.001
[2025-07-24 13:41:06,550] [INFO] Epoch 2/5, ValAcc: 1.44%, TrainLoss: 3.9131, ValLoss: 3.9145, LR: 0.001
[2025-07-24 13:41:09,256] [INFO] Epoch 3/5, ValAcc: 1.90%, TrainLoss: 3.9128, ValLoss: 3.9152, LR: 0.001
…
ip_ihl.debug', leaderboard_path='output/vrchat-worlds/step1/step1_meta_ip_ihl.csv', step1=True, step2=False, step3=False, train=False, longitudinal_evaluation=False, openworld_evaluation=False, device=device(type='cuda'), metadata='ihl', name='ipihl_zscore_gru_500_32_5_0.001_128_128_3_0.3_128_128'),0.0141,0.0006,0.0003,0.0200
[2025-07-24 13:41:40,550] [INFO] Feature 0 normalized using token
[2025-07-24 13:41:40,551] [INFO] Train shape: (10659, 500), Val shape: (1523, 500), Test shape: (3046, 500)
[2025-07-24 13:41:40,647] [INFO] Classifier: VRScannerModel(
  (input_modules): ModuleList(
    (0): Embedding(2, 128)
  )
  (rnn_layers): ModuleList(
    (0): GRU(128, 128, num_layers=3, batch_first=True, dropout=0.3)
  )
  (attn_nets): ModuleList(
    (0): Sequential(
      (0): Linear(in_features=128, out_features=64, bias=True)
      (1): Tanh()
      (2): Linear(in_features=64, out_features=1, bias=True)
    )
  )
  (projection_layers): ModuleList(
    (0): Linear(in_features=128, out_features=128, bias=True)
  )
  (feature_attn_net): Sequential(
    (0): Linear(in_features=128, out_features=128, bias=True)
    (1): Tanh()
    (2): Linear(in_features=128, out_features=1, bias=True)
  )
  (fc): Sequential(
    (0): Linear(in_features=128, out_features=128, bias=True)
    (1): ReLU()
    (2): Dropout(p=0.3, inplace=False)
    (3): Linear(in_features=128, out_features=50, bias=True)
  )
)
[2025-07-24 13:41:40,647] [INFO] Training...
[2025-07-24 13:41:43,348] [INFO] Epoch 1/5, ValAcc: 2.23%, TrainLoss: 3.9170, ValLoss: 3.9140, LR: 0.001
[2025-07-24 13:41:46,028] [INFO] Epoch 2/5, ValAcc: 1.71%, TrainLoss: 3.9128, ValLoss: 3.9149, LR: 0.001
[2025-07-24 13:41:48,719] [INFO] Epoch 3/5, ValAcc: 2.30%, TrainLoss: 3.9128, ValLoss: 3.9149, LR: 0.001
…
