…
 ['4255824745' '4255824745' '4135560264' ... '2535508924' '2535508924'
  '2535508924']
 ['3212272523' '977748651' '2033179499' ... '1533325913' '1533325913'
  '1533325913']]
[2025-07-24 14:50:57,601] [INFO] Feature 0 normalized using none
[2025-07-24 14:50:57,602] [INFO] Train shape: (10659, 500), Val shape: (1523, 500), Test shape: (3046, 500)
[2025-07-24 14:50:57,653] [INFO] Classifier: VRScannerModel(
  (input_modules): ModuleList(
    (0): Identity()
  )
  (rnn_layers): ModuleList(
    (0): GRU(1, 128, num_layers=3, batch_first=True, dropout=0.3)
  )
  (attn_nets): ModuleList(
    (0): Sequential(
      (0): Linear(in_features=128, out_features=64, bias=True)
      (1): Tanh()
      (2): Linear(in_features=64, out_features=1, bias=True)
    )
  )
  (projection_layers): ModuleList(
    (0): Linear(in_features=128, out_features=128, bias=True)
  )
  (feature_attn_net): Sequential(
    (0): Linear(in_features=128, out_features=128, bias=True)
    (1): Tanh()
    (2): Linear(in_features=128, out_features=1, bias=True)
  )
  (fc): Sequential(
    (0): Linear(in_features=128, out_features=128, bias=True)
    (1): ReLU()
    (2): Dropout(p=0.3, inplace=False)
    (3): Linear(in_features=128, out_features=50, bias=True)
  )
)
[2025-07-24 14:50:57,653] [INFO] Training...
[2025-07-24 14:51:01,313] [INFO] Epoch 1/5, ValAcc: 2.30%, TrainLoss: 3.9161, ValLoss: 3.9122, LR: 0.001
[2025-07-24 14:51:04,838] [INFO] Epoch 2/5, ValAcc: 3.35%, TrainLoss: 3.8965, ValLoss: 3.9005, LR: 0.001
[2025-07-24 14:51:08,896] [INFO] Epoch 3/5, ValAcc: 3.15%, TrainLoss: 3.8877, ValLoss: 3.8958, LR: 0.001
…
p_ack.debug', leaderboard_path='output/vrchat-worlds/step1/step1_meta_tcp_ack.csv', step1=True, step2=False, step3=False, train=False, longitudinal_evaluation=False, openworld_evaluation=False, device=device(type='cuda'), metadata='ack', name='tcpack_none_gru_500_32_5_0.001_128_128_3_0.3_128_128'),0.0279,0.0031,0.0017,0.0265
[2025-07-24 14:51:21,510] [INFO] Feature 0 normalized using minmax
[2025-07-24 14:51:21,510] [INFO] Train shape: (10659, 500), Val shape: (1523, 500), Test shape: (3046, 500)
[2025-07-24 14:51:21,516] [INFO] Classifier: VRScannerModel(
  (input_modules): ModuleList(
    (0): Linear(in_features=1, out_features=128, bias=True)
  )
  (rnn_layers): ModuleList(
    (0): GRU(128, 128, num_layers=3, batch_first=True, dropout=0.3)
  )
  (attn_nets): ModuleList(
    (0): Sequential(
      (0): Linear(in_features=128, out_features=64, bias=True)
      (1): Tanh()
      (2): Linear(in_features=64, out_features=1, bias=True)
    )
  )
  (projection_layers): ModuleList(
    (0): Linear(in_features=128, out_features=128, bias=True)
  )
  (feature_attn_net): Sequential(
    (0): Linear(in_features=128, out_features=128, bias=True)
    (1): Tanh()
    (2): Linear(in_features=128, out_features=1, bias=True)
  )
  (fc): Sequential(
    (0): Linear(in_features=128, out_features=128, bias=True)
    (1): ReLU()
    (2): Dropout(p=0.3, inplace=False)
    (3): Linear(in_features=128, out_features=50, bias=True)
  )
)
[2025-07-24 14:51:21,516] [INFO] Training...
[2025-07-24 14:51:25,569] [INFO] Epoch 1/5, ValAcc: 2.50%, TrainLoss: 3.9176, ValLoss: 3.9153, LR: 0.001
[2025-07-24 14:51:29,794] [INFO] Epoch 2/5, ValAcc: 2.17%, TrainLoss: 3.9141, ValLoss: 3.9114, LR: 0.001
[2025-07-24 14:51:34,027] [INFO] Epoch 3/5, ValAcc: 2.04%, TrainLoss: 3.9077, ValLoss: 3.8835, LR: 0.001
…
_ack.debug', leaderboard_path='output/vrchat-worlds/step1/step1_meta_tcp_ack.csv', step1=True, step2=False, step3=False, train=False, longitudinal_evaluation=False, openworld_evaluation=False, device=device(type='cuda'), metadata='ack', name='tcpack_zscore_gru_500_32_5_0.001_128_128_3_0.3_128_128'),0.2367,0.2282,0.2980,0.2356
[2025-07-24 14:52:18,170] [INFO] Feature 0 normalized using token
[2025-07-24 14:52:18,171] [INFO] Train shape: (10659, 500), Val shape: (1523, 500), Test shape: (3046, 500)
[2025-07-24 14:52:19,768] [INFO] Classifier: VRScannerModel(
  (input_modules): ModuleList(
    (0): Embedding(2171119, 128)
  )
  (rnn_layers): ModuleList(
    (0): GRU(128, 128, num_layers=3, batch_first=True, dropout=0.3)
  )
  (attn_nets): ModuleList(
    (0): Sequential(
      (0): Linear(in_features=128, out_features=64, bias=True)
      (1): Tanh()
      (2): Linear(in_features=64, out_features=1, bias=True)
    )
  )
  (projection_layers): ModuleList(
    (0): Linear(in_features=128, out_features=128, bias=True)
  )
  (feature_attn_net): Sequential(
    (0): Linear(in_features=128, out_features=128, bias=True)
    (1): Tanh()
    (2): Linear(in_features=128, out_features=1, bias=True)
  )
  (fc): Sequential(
    (0): Linear(in_features=128, out_features=128, bias=True)
    (1): ReLU()
    (2): Dropout(p=0.3, inplace=False)
    (3): Linear(in_features=128, out_features=50, bias=True)
  )
)
[2025-07-24 14:52:19,768] [INFO] Training...
[2025-07-24 14:52:35,739] [INFO] Epoch 1/5, ValAcc: 2.23%, TrainLoss: 3.9150, ValLoss: 4.0025, LR: 0.001
[2025-07-24 14:52:51,517] [INFO] Epoch 2/5, ValAcc: 2.23%, TrainLoss: 3.9002, ValLoss: 4.5310, LR: 0.001
[2025-07-24 14:53:07,274] [INFO] Epoch 3/5, ValAcc: 2.10%, TrainLoss: 3.7966, ValLoss: 5.8806, LR: 0.001
…
