…
[2025-07-24 15:37:54,573] [INFO] Processed data from meta-free-apps/meta-pkt_dir/meta-pkt_dir.csv:
[2025-07-24 15:37:54,573] [INFO] (84492, 500)
[2025-07-24 15:37:54,573] [INFO] [['1' '-1' '1' ... '1' '1' '1']
 ['1' '-1' '1' ... '1' '-1' '-1']
 ['1' '-1' '1' ... '1' '-1' '-1']
 ...
 ['1' '-1' '1' ... '1' '1' '1']
 ['1' '-1' '1' ... '1' '1' '-1']
 ['1' '1' '1' ... '1' '1' '-1']]
[2025-07-24 15:38:10,974] [INFO] Feature 0 normalized using robust
[2025-07-24 15:38:10,974] [INFO] Train shape: (59143, 500), Val shape: (8450, 500), Test shape: (16899, 500)
[2025-07-24 15:38:11,012] [INFO] Classifier: VRScannerModel(
  (input_modules): ModuleList(
    (0): Linear(in_features=1, out_features=128, bias=True)
  )
  (rnn_layers): ModuleList(
    (0): GRU(128, 128, num_layers=3, batch_first=True, dropout=0.3)
  )
  (attn_nets): ModuleList(
    (0): Sequential(
      (0): Linear(in_features=128, out_features=64, bias=True)
      (1): Tanh()
      (2): Linear(in_features=64, out_features=1, bias=True)
    )
  )
  (projection_layers): ModuleList(
    (0): Linear(in_features=128, out_features=128, bias=True)
  )
  (feature_attn_net): Sequential(
    (0): Linear(in_features=128, out_features=128, bias=True)
    (1): Tanh()
    (2): Linear(in_features=128, out_features=1, bias=True)
  )
  (fc): Sequential(
    (0): Linear(in_features=128, out_features=128, bias=True)
    (1): ReLU()
    (2): Dropout(p=0.3, inplace=False)
    (3): Linear(in_features=128, out_features=91, bias=True)
  )
)
[2025-07-24 15:38:11,012] [INFO] Training...
[2025-07-24 15:38:32,491] [INFO] Epoch 1/5, ValAcc: 10.66%, TrainLoss: 3.9960, ValLoss: 3.3746, LR: 0.001
[2025-07-24 15:38:53,339] [INFO] Epoch 2/5, ValAcc: 17.31%, TrainLoss: 3.2514, ValLoss: 2.9888, LR: 0.001
[2025-07-24 15:39:17,182] [INFO] Epoch 3/5, ValAcc: 22.84%, TrainLoss: 2.9722, ValLoss: 2.7758, LR: 0.001
…
r.debug', leaderboard_path='output/meta-free-apps/step2/step2_meta_pkt_dir.csv', step1=False, step2=True, step3=False, train=False, longitudinal_evaluation=False, openworld_evaluation=False, device=device(type='cuda'), metadata='dir', name='pktdir_robust_gru_500_32_5_0.001_128_128_3_0.3_128_128'),0.3486,0.3324,0.3931,0.3498
[2025-07-24 15:40:22,144] [INFO] Feature 0 normalized using robust
[2025-07-24 15:40:22,144] [INFO] Train shape: (59143, 500), Val shape: (8450, 500), Test shape: (16899, 500)
[2025-07-24 15:40:22,160] [INFO] Classifier: VRScannerModel(
  (input_modules): ModuleList(
    (0): Linear(in_features=1, out_features=128, bias=True)
  )
  (rnn_layers): ModuleList(
    (0): GRU(128, 128, num_layers=3, batch_first=True, dropout=0.3, bidirectional=True)
  )
  (attn_nets): ModuleList(
    (0): Sequential(
      (0): Linear(in_features=256, out_features=64, bias=True)
      (1): Tanh()
      (2): Linear(in_features=64, out_features=1, bias=True)
    )
  )
  (projection_layers): ModuleList(
    (0): Linear(in_features=256, out_features=128, bias=True)
  )
  (feature_attn_net): Sequential(
    (0): Linear(in_features=128, out_features=128, bias=True)
    (1): Tanh()
    (2): Linear(in_features=128, out_features=1, bias=True)
  )
  (fc): Sequential(
    (0): Linear(in_features=128, out_features=128, bias=True)
    (1): ReLU()
    (2): Dropout(p=0.3, inplace=False)
    (3): Linear(in_features=128, out_features=91, bias=True)
  )
)
[2025-07-24 15:40:22,160] [INFO] Training...
[2025-07-24 15:40:51,612] [INFO] Epoch 1/5, ValAcc: 0.91%, TrainLoss: 4.5129, ValLoss: 4.5117, LR: 0.001
[2025-07-24 15:41:21,272] [INFO] Epoch 2/5, ValAcc: 1.04%, TrainLoss: 4.5111, ValLoss: 4.5123, LR: 0.001
[2025-07-24 15:41:50,746] [INFO] Epoch 3/5, ValAcc: 0.98%, TrainLoss: 4.5111, ValLoss: 4.5124, LR: 0.001
…
