…
[2025-07-24 23:17:25,950] [INFO] Processed data from meta-free-apps/meta-tcp_flags/meta-tcp_flags.csv:
[2025-07-24 23:17:25,950] [INFO] (84492, 500)
[2025-07-24 23:17:25,950] [INFO] [['PA' 'PA' 'A' ... 'A' 'A' 'A']
 ['PA' 'PA' 'A' ... 'A' 'A' 'PA']
 ['PA' 'PA' 'A' ... 'FA' 'R' 'R']
 ...
 ['PA' 'PA' 'A' ... 'A' 'A' 'A']
 ['S' 'SA' 'A' ... 'A' 'A' 'A']
 ['A' 'A' 'A' ... 'A' 'PA' 'PA']]
[2025-07-24 23:17:49,570] [INFO] Feature 0 normalized using token
[2025-07-24 23:17:49,570] [INFO] Train shape: (59143, 500), Val shape: (8450, 500), Test shape: (16899, 500)
[2025-07-24 23:17:49,608] [INFO] Classifier: VRScannerModel(
  (input_modules): ModuleList(
    (0): Embedding(9, 128)
  )
  (rnn_layers): ModuleList(
    (0): GRU(128, 128, num_layers=3, batch_first=True, dropout=0.3)
  )
  (attn_nets): ModuleList(
    (0): Sequential(
      (0): Linear(in_features=128, out_features=64, bias=True)
      (1): Tanh()
      (2): Linear(in_features=64, out_features=1, bias=True)
    )
  )
  (projection_layers): ModuleList(
    (0): Linear(in_features=128, out_features=128, bias=True)
  )
  (feature_attn_net): Sequential(
    (0): Linear(in_features=128, out_features=128, bias=True)
    (1): Tanh()
    (2): Linear(in_features=128, out_features=1, bias=True)
  )
  (fc): Sequential(
    (0): Linear(in_features=128, out_features=128, bias=True)
    (1): ReLU()
    (2): Dropout(p=0.3, inplace=False)
    (3): Linear(in_features=128, out_features=91, bias=True)
  )
)
[2025-07-24 23:17:49,608] [INFO] Training...
[2025-07-24 23:18:13,843] [INFO] Epoch 1/5, ValAcc: 17.47%, TrainLoss: 4.0182, ValLoss: 3.2690, LR: 0.001
[2025-07-24 23:18:29,756] [INFO] Epoch 2/5, ValAcc: 33.04%, TrainLoss: 2.9450, ValLoss: 2.5209, LR: 0.001
[2025-07-24 23:18:42,899] [INFO] Epoch 3/5, ValAcc: 38.56%, TrainLoss: 2.4800, ValLoss: 2.2653, LR: 0.001
…
bug', leaderboard_path='output/meta-free-apps/step2/step2_meta_tcp_flags.csv', step1=False, step2=True, step3=False, train=False, longitudinal_evaluation=False, openworld_evaluation=False, device=device(type='cuda'), metadata='flags', name='tcpflags_token_gru_500_32_5_0.001_128_128_3_0.3_128_128'),0.3803,0.3709,0.4249,0.3811
[2025-07-24 23:19:34,464] [INFO] Feature 0 normalized using token
[2025-07-24 23:19:34,464] [INFO] Train shape: (59143, 500), Val shape: (8450, 500), Test shape: (16899, 500)
[2025-07-24 23:19:34,494] [INFO] Classifier: VRScannerModel(
  (input_modules): ModuleList(
    (0): Embedding(9, 128)
  )
  (rnn_layers): ModuleList(
    (0): GRU(128, 128, num_layers=3, batch_first=True, dropout=0.3, bidirectional=True)
  )
  (attn_nets): ModuleList(
    (0): Sequential(
      (0): Linear(in_features=256, out_features=64, bias=True)
      (1): Tanh()
      (2): Linear(in_features=64, out_features=1, bias=True)
    )
  )
  (projection_layers): ModuleList(
    (0): Linear(in_features=256, out_features=128, bias=True)
  )
  (feature_attn_net): Sequential(
    (0): Linear(in_features=128, out_features=128, bias=True)
    (1): Tanh()
    (2): Linear(in_features=128, out_features=1, bias=True)
  )
  (fc): Sequential(
    (0): Linear(in_features=128, out_features=128, bias=True)
    (1): ReLU()
    (2): Dropout(p=0.3, inplace=False)
    (3): Linear(in_features=128, out_features=91, bias=True)
  )
)
[2025-07-24 23:19:34,494] [INFO] Training...
[2025-07-24 23:20:03,574] [INFO] Epoch 1/5, ValAcc: 17.21%, TrainLoss: 4.0334, ValLoss: 3.3120, LR: 0.001
[2025-07-24 23:20:29,105] [INFO] Epoch 2/5, ValAcc: 33.28%, TrainLoss: 2.9274, ValLoss: 2.5302, LR: 0.001
[2025-07-24 23:20:54,703] [INFO] Epoch 3/5, ValAcc: 38.89%, TrainLoss: 2.4222, ValLoss: 2.2264, LR: 0.001
…
