…
 ['0.000000' '0.004434' '0.003413' ... '0.002515' '0.198601' '0.000183']
 ['0.000000' '0.004176' '0.002762' ... '0.001243' '0.003217' '0.001111']
 ...
 ['0.000000' '0.005527' '0.034811' ... '0.000004' '0.000001' '0.000001']
 ['0.000000' '0.004883' '0.005023' ... '0.000003' '0.000002' '0.000362']
 ['0.000000' '0.000003' '0.002247' ... '0.002964' '0.047872' '0.005306']]
[2025-07-24 16:19:30,360] [INFO] Feature 0 normalized using power
[2025-07-24 16:19:30,361] [INFO] Train shape: (59143, 500), Val shape: (8450, 500), Test shape: (16899, 500)
[2025-07-24 16:19:30,401] [INFO] Classifier: VRScannerModel(
  (input_modules): ModuleList(
    (0): Linear(in_features=1, out_features=128, bias=True)
  )
  (rnn_layers): ModuleList(
    (0): GRU(128, 128, num_layers=3, batch_first=True, dropout=0.3)
  )
  (attn_nets): ModuleList(
    (0): Sequential(
      (0): Linear(in_features=128, out_features=64, bias=True)
      (1): Tanh()
      (2): Linear(in_features=64, out_features=1, bias=True)
    )
  )
  (projection_layers): ModuleList(
    (0): Linear(in_features=128, out_features=128, bias=True)
  )
  (feature_attn_net): Sequential(
    (0): Linear(in_features=128, out_features=128, bias=True)
    (1): Tanh()
    (2): Linear(in_features=128, out_features=1, bias=True)
  )
  (fc): Sequential(
    (0): Linear(in_features=128, out_features=128, bias=True)
    (1): ReLU()
    (2): Dropout(p=0.3, inplace=False)
    (3): Linear(in_features=128, out_features=91, bias=True)
  )
)
[2025-07-24 16:19:30,402] [INFO] Training...
[2025-07-24 16:19:53,405] [INFO] Epoch 1/5, ValAcc: 9.16%, TrainLoss: 4.3315, ValLoss: 3.7079, LR: 0.001
[2025-07-24 16:20:16,583] [INFO] Epoch 2/5, ValAcc: 32.30%, TrainLoss: 3.0524, ValLoss: 2.5142, LR: 0.001
[2025-07-24 16:20:29,834] [INFO] Epoch 3/5, ValAcc: 40.24%, TrainLoss: 2.4004, ValLoss: 2.1141, LR: 0.001
…
g', leaderboard_path='output/meta-free-apps/step2/step2_meta_pkt_ts_diff.csv', step1=False, step2=True, step3=False, train=False, longitudinal_evaluation=False, openworld_evaluation=False, device=device(type='cuda'), metadata='diff', name='pkttsdiff_power_gru_500_32_5_0.001_128_128_3_0.3_128_128'),0.4716,0.4705,0.5393,0.4731
[2025-07-24 16:21:40,172] [INFO] Feature 0 normalized using power
[2025-07-24 16:21:40,172] [INFO] Train shape: (59143, 500), Val shape: (8450, 500), Test shape: (16899, 500)
[2025-07-24 16:21:40,201] [INFO] Classifier: VRScannerModel(
  (input_modules): ModuleList(
    (0): Linear(in_features=1, out_features=128, bias=True)
  )
  (rnn_layers): ModuleList(
    (0): GRU(128, 128, num_layers=3, batch_first=True, dropout=0.3, bidirectional=True)
  )
  (attn_nets): ModuleList(
    (0): Sequential(
      (0): Linear(in_features=256, out_features=64, bias=True)
      (1): Tanh()
      (2): Linear(in_features=64, out_features=1, bias=True)
    )
  )
  (projection_layers): ModuleList(
    (0): Linear(in_features=256, out_features=128, bias=True)
  )
  (feature_attn_net): Sequential(
    (0): Linear(in_features=128, out_features=128, bias=True)
    (1): Tanh()
    (2): Linear(in_features=128, out_features=1, bias=True)
  )
  (fc): Sequential(
    (0): Linear(in_features=128, out_features=128, bias=True)
    (1): ReLU()
    (2): Dropout(p=0.3, inplace=False)
    (3): Linear(in_features=128, out_features=91, bias=True)
  )
)
[2025-07-24 16:21:40,202] [INFO] Training...
[2025-07-24 16:22:09,764] [INFO] Epoch 1/5, ValAcc: 5.70%, TrainLoss: 4.4246, ValLoss: 3.9602, LR: 0.001
[2025-07-24 16:22:38,412] [INFO] Epoch 2/5, ValAcc: 33.91%, TrainLoss: 3.2145, ValLoss: 2.5069, LR: 0.001
[2025-07-24 16:23:06,149] [INFO] Epoch 3/5, ValAcc: 43.46%, TrainLoss: 2.4068, ValLoss: 2.0455, LR: 0.001
…
