…
 ['1950926062' '921263049' '1950926063' ... '4018860604' '4018861984'
  '1045777300']
 ['2408022165' '2408022165' '2408022165' ... '3791291834' '3271260733'
  '2310297835']]
[2025-07-24 22:14:53,673] [INFO] Feature 0 normalized using none
[2025-07-24 22:14:53,673] [INFO] Train shape: (59143, 500), Val shape: (8450, 500), Test shape: (16899, 500)
[2025-07-24 22:14:53,710] [INFO] Classifier: VRScannerModel(
  (input_modules): ModuleList(
    (0): Identity()
  )
  (rnn_layers): ModuleList(
    (0): GRU(1, 128, num_layers=3, batch_first=True, dropout=0.3)
  )
  (attn_nets): ModuleList(
    (0): Sequential(
      (0): Linear(in_features=128, out_features=64, bias=True)
      (1): Tanh()
      (2): Linear(in_features=64, out_features=1, bias=True)
    )
  )
  (projection_layers): ModuleList(
    (0): Linear(in_features=128, out_features=128, bias=True)
  )
  (feature_attn_net): Sequential(
    (0): Linear(in_features=128, out_features=128, bias=True)
    (1): Tanh()
    (2): Linear(in_features=128, out_features=1, bias=True)
  )
  (fc): Sequential(
    (0): Linear(in_features=128, out_features=128, bias=True)
    (1): ReLU()
    (2): Dropout(p=0.3, inplace=False)
    (3): Linear(in_features=128, out_features=91, bias=True)
  )
)
[2025-07-24 22:14:53,710] [INFO] Training...
[2025-07-24 22:15:16,632] [INFO] Epoch 1/5, ValAcc: 1.68%, TrainLoss: 4.5010, ValLoss: 4.4882, LR: 0.001
[2025-07-24 22:15:39,385] [INFO] Epoch 2/5, ValAcc: 1.88%, TrainLoss: 4.4935, ValLoss: 4.4810, LR: 0.001
[2025-07-24 22:16:02,328] [INFO] Epoch 3/5, ValAcc: 1.68%, TrainLoss: 4.4938, ValLoss: 4.4861, LR: 0.001
…
e, device=device(type='cuda'), metadata='seq', name='tcpseq_none_gru_500_32_5_0.001_128_128_3_0.3_128_128'),0.0190,0.0023,0.0016,0.0189
[2025-07-24 22:17:12,172] [INFO] Feature 0 normalized using none
[2025-07-24 22:17:12,172] [INFO] Train shape: (59143, 500), Val shape: (8450, 500), Test shape: (16899, 500)
[2025-07-24 22:17:12,198] [INFO] Classifier: VRScannerModel(
  (input_modules): ModuleList(
    (0): Identity()
  )
  (rnn_layers): ModuleList(
    (0): GRU(1, 128, num_layers=3, batch_first=True, dropout=0.3, bidirectional=True)
  )
  (attn_nets): ModuleList(
    (0): Sequential(
      (0): Linear(in_features=256, out_features=64, bias=True)
      (1): Tanh()
      (2): Linear(in_features=64, out_features=1, bias=True)
    )
  )
  (projection_layers): ModuleList(
    (0): Linear(in_features=256, out_features=128, bias=True)
  )
  (feature_attn_net): Sequential(
    (0): Linear(in_features=128, out_features=128, bias=True)
    (1): Tanh()
    (2): Linear(in_features=128, out_features=1, bias=True)
  )
  (fc): Sequential(
    (0): Linear(in_features=128, out_features=128, bias=True)
    (1): ReLU()
    (2): Dropout(p=0.3, inplace=False)
    (3): Linear(in_features=128, out_features=91, bias=True)
  )
)
[2025-07-24 22:17:12,198] [INFO] Training...
[2025-07-24 22:17:36,206] [INFO] Epoch 1/5, ValAcc: 1.98%, TrainLoss: 4.5034, ValLoss: 4.4886, LR: 0.001
[2025-07-24 22:18:00,625] [INFO] Epoch 2/5, ValAcc: 2.01%, TrainLoss: 4.4938, ValLoss: 4.4859, LR: 0.001
[2025-07-24 22:18:28,897] [INFO] Epoch 3/5, ValAcc: 1.99%, TrainLoss: 4.4877, ValLoss: 4.4860, LR: 0.001
…
