…
 ['4' '4' '4' ... '4' '4' '4']
 ['4' '4' '4' ... '4' '4' '4']
 ...
 ['4' '4' '4' ... '4' '4' '4']
 ['4' '4' '4' ... '4' '4' '4']
 ['4' '4' '4' ... '4' '4' '4']]
[2025-07-24 16:39:12,614] [INFO] Feature 0 normalized using none
[2025-07-24 16:39:12,614] [INFO] Train shape: (59143, 500), Val shape: (8450, 500), Test shape: (16899, 500)
[2025-07-24 16:39:12,649] [INFO] Classifier: VRScannerModel(
  (input_modules): ModuleList(
    (0): Identity()
  )
  (rnn_layers): ModuleList(
    (0): GRU(1, 128, num_layers=3, batch_first=True, dropout=0.3)
  )
  (attn_nets): ModuleList(
    (0): Sequential(
      (0): Linear(in_features=128, out_features=64, bias=True)
      (1): Tanh()
      (2): Linear(in_features=64, out_features=1, bias=True)
    )
  )
  (projection_layers): ModuleList(
    (0): Linear(in_features=128, out_features=128, bias=True)
  )
  (feature_attn_net): Sequential(
    (0): Linear(in_features=128, out_features=128, bias=True)
    (1): Tanh()
    (2): Linear(in_features=128, out_features=1, bias=True)
  )
  (fc): Sequential(
    (0): Linear(in_features=128, out_features=128, bias=True)
    (1): ReLU()
    (2): Dropout(p=0.3, inplace=False)
    (3): Linear(in_features=128, out_features=91, bias=True)
  )
)
[2025-07-24 16:39:12,649] [INFO] Training...
[2025-07-24 16:39:35,415] [INFO] Epoch 1/5, ValAcc: 0.91%, TrainLoss: 4.5126, ValLoss: 4.5119, LR: 0.001
[2025-07-24 16:39:57,103] [INFO] Epoch 2/5, ValAcc: 0.91%, TrainLoss: 4.5113, ValLoss: 4.5121, LR: 0.001
[2025-07-24 16:40:15,866] [INFO] Epoch 3/5, ValAcc: 1.04%, TrainLoss: 4.5111, ValLoss: 4.5125, LR: 0.001
…
ce=device(type='cuda'), metadata='version', name='ipversion_none_gru_500_32_5_0.001_128_128_3_0.3_128_128'),0.0102,0.0002,0.0001,0.0110
[2025-07-24 16:41:21,158] [INFO] Feature 0 normalized using none
[2025-07-24 16:41:21,158] [INFO] Train shape: (59143, 500), Val shape: (8450, 500), Test shape: (16899, 500)
[2025-07-24 16:41:21,176] [INFO] Classifier: VRScannerModel(
  (input_modules): ModuleList(
    (0): Identity()
  )
  (rnn_layers): ModuleList(
    (0): GRU(1, 128, num_layers=3, batch_first=True, dropout=0.3, bidirectional=True)
  )
  (attn_nets): ModuleList(
    (0): Sequential(
      (0): Linear(in_features=256, out_features=64, bias=True)
      (1): Tanh()
      (2): Linear(in_features=64, out_features=1, bias=True)
    )
  )
  (projection_layers): ModuleList(
    (0): Linear(in_features=256, out_features=128, bias=True)
  )
  (feature_attn_net): Sequential(
    (0): Linear(in_features=128, out_features=128, bias=True)
    (1): Tanh()
    (2): Linear(in_features=128, out_features=1, bias=True)
  )
  (fc): Sequential(
    (0): Linear(in_features=128, out_features=128, bias=True)
    (1): ReLU()
    (2): Dropout(p=0.3, inplace=False)
    (3): Linear(in_features=128, out_features=91, bias=True)
  )
)
[2025-07-24 16:41:21,176] [INFO] Training...
[2025-07-24 16:41:49,116] [INFO] Epoch 1/5, ValAcc: 0.96%, TrainLoss: 4.5127, ValLoss: 4.5127, LR: 0.001
[2025-07-24 16:42:17,194] [INFO] Epoch 2/5, ValAcc: 0.98%, TrainLoss: 4.5114, ValLoss: 4.5124, LR: 0.001
[2025-07-24 16:42:45,637] [INFO] Epoch 3/5, ValAcc: 0.98%, TrainLoss: 4.5111, ValLoss: 4.5124, LR: 0.001
…
