…
[2025-07-24 19:25:09,111] [INFO] [['10160' '13005' '10161' ... '51552' '51553' '51554']
 ['26258' '53706' '26259' ... '46841' '17747' '17748']
 ['2466' '1471' '2467' ... '26232' '0' '0']
 ...
 ['8991' '56715' '8992' ... '11761' '11762' '11763']
 ['9357' '0' '9358' ... '25008' '25009' '44536']
 ['32464' '32465' '32466' ... '31279' '47584' '14019']]
[2025-07-24 19:25:31,658] [INFO] Feature 0 normalized using robust
[2025-07-24 19:25:31,658] [INFO] Train shape: (59143, 500), Val shape: (8450, 500), Test shape: (16899, 500)
[2025-07-24 19:25:31,695] [INFO] Classifier: VRScannerModel(
  (input_modules): ModuleList(
    (0): Linear(in_features=1, out_features=128, bias=True)
  )
  (rnn_layers): ModuleList(
    (0): GRU(128, 128, num_layers=3, batch_first=True, dropout=0.3)
  )
  (attn_nets): ModuleList(
    (0): Sequential(
      (0): Linear(in_features=128, out_features=64, bias=True)
      (1): Tanh()
      (2): Linear(in_features=64, out_features=1, bias=True)
    )
  )
  (projection_layers): ModuleList(
    (0): Linear(in_features=128, out_features=128, bias=True)
  )
  (feature_attn_net): Sequential(
    (0): Linear(in_features=128, out_features=128, bias=True)
    (1): Tanh()
    (2): Linear(in_features=128, out_features=1, bias=True)
  )
  (fc): Sequential(
    (0): Linear(in_features=128, out_features=128, bias=True)
    (1): ReLU()
    (2): Dropout(p=0.3, inplace=False)
    (3): Linear(in_features=128, out_features=91, bias=True)
  )
)
[2025-07-24 19:25:31,695] [INFO] Training...
[2025-07-24 19:25:53,988] [INFO] Epoch 1/5, ValAcc: 1.07%, TrainLoss: 4.5133, ValLoss: 4.5121, LR: 0.001
[2025-07-24 19:26:14,605] [INFO] Epoch 2/5, ValAcc: 0.98%, TrainLoss: 4.5113, ValLoss: 4.5120, LR: 0.001
[2025-07-24 19:26:37,799] [INFO] Epoch 3/5, ValAcc: 0.98%, TrainLoss: 4.5111, ValLoss: 4.5124, LR: 0.001
…
_ip_id.debug', leaderboard_path='output/meta-free-apps/step2/step2_meta_ip_id.csv', step1=False, step2=True, step3=False, train=False, longitudinal_evaluation=False, openworld_evaluation=False, device=device(type='cuda'), metadata='id', name='ipid_robust_gru_500_32_5_0.001_128_128_3_0.3_128_128'),0.0102,0.0002,0.0001,0.0110
[2025-07-24 19:27:42,365] [INFO] Feature 0 normalized using robust
[2025-07-24 19:27:42,365] [INFO] Train shape: (59143, 500), Val shape: (8450, 500), Test shape: (16899, 500)
[2025-07-24 19:27:42,382] [INFO] Classifier: VRScannerModel(
  (input_modules): ModuleList(
    (0): Linear(in_features=1, out_features=128, bias=True)
  )
  (rnn_layers): ModuleList(
    (0): GRU(128, 128, num_layers=3, batch_first=True, dropout=0.3, bidirectional=True)
  )
  (attn_nets): ModuleList(
    (0): Sequential(
      (0): Linear(in_features=256, out_features=64, bias=True)
      (1): Tanh()
      (2): Linear(in_features=64, out_features=1, bias=True)
    )
  )
  (projection_layers): ModuleList(
    (0): Linear(in_features=256, out_features=128, bias=True)
  )
  (feature_attn_net): Sequential(
    (0): Linear(in_features=128, out_features=128, bias=True)
    (1): Tanh()
    (2): Linear(in_features=128, out_features=1, bias=True)
  )
  (fc): Sequential(
    (0): Linear(in_features=128, out_features=128, bias=True)
    (1): ReLU()
    (2): Dropout(p=0.3, inplace=False)
    (3): Linear(in_features=128, out_features=91, bias=True)
  )
)
[2025-07-24 19:27:42,382] [INFO] Training...
[2025-07-24 19:28:12,040] [INFO] Epoch 1/5, ValAcc: 0.98%, TrainLoss: 4.5132, ValLoss: 4.5119, LR: 0.001
[2025-07-24 19:28:41,446] [INFO] Epoch 2/5, ValAcc: 0.98%, TrainLoss: 4.5111, ValLoss: 4.5122, LR: 0.001
[2025-07-24 19:29:11,016] [INFO] Epoch 3/5, ValAcc: 0.98%, TrainLoss: 4.5111, ValLoss: 4.5123, LR: 0.001
…
