…
[2025-07-24 20:50:18,642] [INFO] (84492, 500)
[2025-07-24 20:50:18,642] [INFO] [['2747' '2038' '2747' ... '289' '289' '289']
 ['307' '307' '307' ... '645' '1121' '1121']
 ['307' '307' '307' ... '310' '0' '0']
 ...
 ['774' '1301' '774' ... '300' '300' '300']
 ['65535' '65535' '256' ... '300' '300' '1030']
 ['267' '278' '289' ... '1119' '1539' '2631']]
[2025-07-24 20:51:13,330] [INFO] Feature 0 normalized using token
[2025-07-24 20:51:13,331] [INFO] Train shape: (59143, 500), Val shape: (8450, 500), Test shape: (16899, 500)
[2025-07-24 20:51:13,380] [INFO] Classifier: VRScannerModel(
  (input_modules): ModuleList(
    (0): Embedding(5813, 128)
  )
  (rnn_layers): ModuleList(
    (0): GRU(128, 128, num_layers=3, batch_first=True, dropout=0.3)
  )
  (attn_nets): ModuleList(
    (0): Sequential(
      (0): Linear(in_features=128, out_features=64, bias=True)
      (1): Tanh()
      (2): Linear(in_features=64, out_features=1, bias=True)
    )
  )
  (projection_layers): ModuleList(
    (0): Linear(in_features=128, out_features=128, bias=True)
  )
  (feature_attn_net): Sequential(
    (0): Linear(in_features=128, out_features=128, bias=True)
    (1): Tanh()
    (2): Linear(in_features=128, out_features=1, bias=True)
  )
  (fc): Sequential(
    (0): Linear(in_features=128, out_features=128, bias=True)
    (1): ReLU()
    (2): Dropout(p=0.3, inplace=False)
    (3): Linear(in_features=128, out_features=91, bias=True)
  )
)
[2025-07-24 20:51:13,381] [INFO] Training...
[2025-07-24 20:51:33,343] [INFO] Epoch 1/5, ValAcc: 36.07%, TrainLoss: 3.3672, ValLoss: 2.3571, LR: 0.001
[2025-07-24 20:51:53,631] [INFO] Epoch 2/5, ValAcc: 51.79%, TrainLoss: 2.0729, ValLoss: 1.7098, LR: 0.001
[2025-07-24 20:52:16,687] [INFO] Epoch 3/5, ValAcc: 56.88%, TrainLoss: 1.6379, ValLoss: 1.4840, LR: 0.001
…
', leaderboard_path='output/meta-free-apps/step2/step2_meta_tcp_window.csv', step1=False, step2=True, step3=False, train=False, longitudinal_evaluation=False, openworld_evaluation=False, device=device(type='cuda'), metadata='window', name='tcpwindow_token_gru_500_32_5_0.001_128_128_3_0.3_128_128'),0.6470,0.6446,0.6851,0.6469
[2025-07-24 20:53:59,392] [INFO] Feature 0 normalized using token
[2025-07-24 20:53:59,392] [INFO] Train shape: (59143, 500), Val shape: (8450, 500), Test shape: (16899, 500)
[2025-07-24 20:53:59,426] [INFO] Classifier: VRScannerModel(
  (input_modules): ModuleList(
    (0): Embedding(5813, 128)
  )
  (rnn_layers): ModuleList(
    (0): GRU(128, 128, num_layers=3, batch_first=True, dropout=0.3, bidirectional=True)
  )
  (attn_nets): ModuleList(
    (0): Sequential(
      (0): Linear(in_features=256, out_features=64, bias=True)
      (1): Tanh()
      (2): Linear(in_features=64, out_features=1, bias=True)
    )
  )
  (projection_layers): ModuleList(
    (0): Linear(in_features=256, out_features=128, bias=True)
  )
  (feature_attn_net): Sequential(
    (0): Linear(in_features=128, out_features=128, bias=True)
    (1): Tanh()
    (2): Linear(in_features=128, out_features=1, bias=True)
  )
  (fc): Sequential(
    (0): Linear(in_features=128, out_features=128, bias=True)
    (1): ReLU()
    (2): Dropout(p=0.3, inplace=False)
    (3): Linear(in_features=128, out_features=91, bias=True)
  )
)
[2025-07-24 20:53:59,426] [INFO] Training...
[2025-07-24 20:54:28,140] [INFO] Epoch 1/5, ValAcc: 49.01%, TrainLoss: 3.0064, ValLoss: 1.8825, LR: 0.001
[2025-07-24 20:54:57,687] [INFO] Epoch 2/5, ValAcc: 58.47%, TrainLoss: 1.7221, ValLoss: 1.4240, LR: 0.001
[2025-07-24 20:55:27,531] [INFO] Epoch 3/5, ValAcc: 63.01%, TrainLoss: 1.3996, ValLoss: 1.2878, LR: 0.001
…
