…
 ['10.0.0.4' '157.240.215.51' '10.0.0.4' ... '10.0.0.4' '157.240.215.51'
  '157.240.215.51']
 ...
 ['10.0.1.8' '157.240.215.51' '10.0.1.8' ... '10.0.1.8' '10.0.1.8'
  '10.0.1.8']
 ['10.0.1.8' '157.240.215.51' '10.0.1.8' ... '10.0.1.8' '10.0.1.8'
  '157.240.215.16']
 ['10.0.1.8' '10.0.1.8' '10.0.1.8' ... '10.0.1.8' '10.0.1.8'
  '157.240.215.51']]
[2025-07-24 17:56:43,504] [INFO] Feature 0 normalized using token
[2025-07-24 17:56:43,504] [INFO] Train shape: (59143, 500), Val shape: (8450, 500), Test shape: (16899, 500)
[2025-07-24 17:56:43,550] [INFO] Classifier: VRScannerModel(
  (input_modules): ModuleList(
    (0): Embedding(102, 128)
  )
  (rnn_layers): ModuleList(
    (0): GRU(128, 128, num_layers=3, batch_first=True, dropout=0.3)
  )
  (attn_nets): ModuleList(
    (0): Sequential(
      (0): Linear(in_features=128, out_features=64, bias=True)
      (1): Tanh()
      (2): Linear(in_features=64, out_features=1, bias=True)
    )
  )
  (projection_layers): ModuleList(
    (0): Linear(in_features=128, out_features=128, bias=True)
  )
  (feature_attn_net): Sequential(
    (0): Linear(in_features=128, out_features=128, bias=True)
    (1): Tanh()
    (2): Linear(in_features=128, out_features=1, bias=True)
  )
  (fc): Sequential(
    (0): Linear(in_features=128, out_features=128, bias=True)
    (1): ReLU()
    (2): Dropout(p=0.3, inplace=False)
    (3): Linear(in_features=128, out_features=91, bias=True)
  )
)
[2025-07-24 17:56:43,550] [INFO] Training...
[2025-07-24 17:57:04,903] [INFO] Epoch 1/5, ValAcc: 26.34%, TrainLoss: 3.5846, ValLoss: 2.6954, LR: 0.001
[2025-07-24 17:57:26,497] [INFO] Epoch 2/5, ValAcc: 39.93%, TrainLoss: 2.4986, ValLoss: 2.0785, LR: 0.001
[2025-07-24 17:57:50,098] [INFO] Epoch 3/5, ValAcc: 45.04%, TrainLoss: 2.0397, ValLoss: 1.8175, LR: 0.001
…
p_src.debug', leaderboard_path='output/meta-free-apps/step2/step2_meta_ip_src.csv', step1=False, step2=True, step3=False, train=False, longitudinal_evaluation=False, openworld_evaluation=False, device=device(type='cuda'), metadata='src', name='ipsrc_token_gru_500_32_5_0.001_128_128_3_0.3_128_128'),0.5163,0.5113,0.5575,0.5167
[2025-07-24 17:59:18,113] [INFO] Feature 0 normalized using token
[2025-07-24 17:59:18,114] [INFO] Train shape: (59143, 500), Val shape: (8450, 500), Test shape: (16899, 500)
[2025-07-24 17:59:18,148] [INFO] Classifier: VRScannerModel(
  (input_modules): ModuleList(
    (0): Embedding(102, 128)
  )
  (rnn_layers): ModuleList(
    (0): GRU(128, 128, num_layers=3, batch_first=True, dropout=0.3, bidirectional=True)
  )
  (attn_nets): ModuleList(
    (0): Sequential(
      (0): Linear(in_features=256, out_features=64, bias=True)
      (1): Tanh()
      (2): Linear(in_features=64, out_features=1, bias=True)
    )
  )
  (projection_layers): ModuleList(
    (0): Linear(in_features=256, out_features=128, bias=True)
  )
  (feature_attn_net): Sequential(
    (0): Linear(in_features=128, out_features=128, bias=True)
    (1): Tanh()
    (2): Linear(in_features=128, out_features=1, bias=True)
  )
  (fc): Sequential(
    (0): Linear(in_features=128, out_features=128, bias=True)
    (1): ReLU()
    (2): Dropout(p=0.3, inplace=False)
    (3): Linear(in_features=128, out_features=91, bias=True)
  )
)
[2025-07-24 17:59:18,148] [INFO] Training...
[2025-07-24 17:59:47,274] [INFO] Epoch 1/5, ValAcc: 27.57%, TrainLoss: 3.4752, ValLoss: 2.5441, LR: 0.001
[2025-07-24 18:00:16,285] [INFO] Epoch 2/5, ValAcc: 41.61%, TrainLoss: 2.2571, ValLoss: 1.9557, LR: 0.001
[2025-07-24 18:00:45,612] [INFO] Epoch 3/5, ValAcc: 46.96%, TrainLoss: 1.9278, ValLoss: 1.7609, LR: 0.001
…
