…
[2025-07-24 23:59:04,841] [INFO] [['2068' '41411' '18148' ... '37587' '1701' '34460']
 ['25780' '15074' '4277' ... '33082' '51130' '61461']
 ['57731' '61081' '55057' ... '61252' '14160' '14160']
 ...
 ['19379' '32169' '5845' ... '55570' '63296' '13801']
 ['49176' '41396' '53038' ... '5044' '53168' '61622']
 ['41597' '62950' '62451' ... '57283' '29685' '32759']]
[2025-07-25 00:00:08,882] [INFO] Feature 0 normalized using token
[2025-07-25 00:00:08,883] [INFO] Train shape: (59143, 500), Val shape: (8450, 500), Test shape: (16899, 500)
[2025-07-25 00:00:08,964] [INFO] Classifier: VRScannerModel(
  (input_modules): ModuleList(
    (0): Embedding(65537, 128)
  )
  (rnn_layers): ModuleList(
    (0): GRU(128, 128, num_layers=3, batch_first=True, dropout=0.3)
  )
  (attn_nets): ModuleList(
    (0): Sequential(
      (0): Linear(in_features=128, out_features=64, bias=True)
      (1): Tanh()
      (2): Linear(in_features=64, out_features=1, bias=True)
    )
  )
  (projection_layers): ModuleList(
    (0): Linear(in_features=128, out_features=128, bias=True)
  )
  (feature_attn_net): Sequential(
    (0): Linear(in_features=128, out_features=128, bias=True)
    (1): Tanh()
    (2): Linear(in_features=128, out_features=1, bias=True)
  )
  (fc): Sequential(
    (0): Linear(in_features=128, out_features=128, bias=True)
    (1): ReLU()
    (2): Dropout(p=0.3, inplace=False)
    (3): Linear(in_features=128, out_features=91, bias=True)
  )
)
[2025-07-25 00:00:08,964] [INFO] Training...
[2025-07-25 00:00:33,597] [INFO] Epoch 1/5, ValAcc: 1.92%, TrainLoss: 4.5025, ValLoss: 4.4887, LR: 0.001
[2025-07-25 00:00:48,740] [INFO] Epoch 2/5, ValAcc: 1.86%, TrainLoss: 4.4909, ValLoss: 4.4828, LR: 0.001
[2025-07-25 00:01:03,886] [INFO] Epoch 3/5, ValAcc: 1.53%, TrainLoss: 4.4753, ValLoss: 4.4935, LR: 0.001
…
', leaderboard_path='output/meta-free-apps/step2/step2_meta_tcp_chksum.csv', step1=False, step2=True, step3=False, train=False, longitudinal_evaluation=False, openworld_evaluation=False, device=device(type='cuda'), metadata='chksum', name='tcpchksum_token_gru_500_32_5_0.001_128_128_3_0.3_128_128'),0.0139,0.0048,0.0045,0.0137
[2025-07-25 00:02:39,888] [INFO] Feature 0 normalized using token
[2025-07-25 00:02:39,888] [INFO] Train shape: (59143, 500), Val shape: (8450, 500), Test shape: (16899, 500)
[2025-07-25 00:02:39,957] [INFO] Classifier: VRScannerModel(
  (input_modules): ModuleList(
    (0): Embedding(65537, 128)
  )
  (rnn_layers): ModuleList(
    (0): GRU(128, 128, num_layers=3, batch_first=True, dropout=0.3, bidirectional=True)
  )
  (attn_nets): ModuleList(
    (0): Sequential(
      (0): Linear(in_features=256, out_features=64, bias=True)
      (1): Tanh()
      (2): Linear(in_features=64, out_features=1, bias=True)
    )
  )
  (projection_layers): ModuleList(
    (0): Linear(in_features=256, out_features=128, bias=True)
  )
  (feature_attn_net): Sequential(
    (0): Linear(in_features=128, out_features=128, bias=True)
    (1): Tanh()
    (2): Linear(in_features=128, out_features=1, bias=True)
  )
  (fc): Sequential(
    (0): Linear(in_features=128, out_features=128, bias=True)
    (1): ReLU()
    (2): Dropout(p=0.3, inplace=False)
    (3): Linear(in_features=128, out_features=91, bias=True)
  )
)
[2025-07-25 00:02:39,957] [INFO] Training...
[2025-07-25 00:03:07,490] [INFO] Epoch 1/5, ValAcc: 1.83%, TrainLoss: 4.5072, ValLoss: 4.4903, LR: 0.001
[2025-07-25 00:03:37,226] [INFO] Epoch 2/5, ValAcc: 1.92%, TrainLoss: 4.4917, ValLoss: 4.4811, LR: 0.001
[2025-07-25 00:04:08,971] [INFO] Epoch 3/5, ValAcc: 1.79%, TrainLoss: 4.4798, ValLoss: 4.4939, LR: 0.001
…
