…
[2025-07-24 21:32:56,568] [INFO] [['41794' '443' '41794' ... '53280' '53280' '53280']
 ['43074' '443' '43074' ... '40458' '443' '443']
 ['47326' '443' '47326' ... '47338' '443' '443']
 ...
 ['55810' '443' '55810' ... '50002' '50002' '50002']
 ['60006' '443' '60006' ... '43894' '43894' '443']
 ['57406' '57406' '57406' ... '41738' '58350' '443']]
[2025-07-24 21:33:18,311] [INFO] Feature 0 normalized using maxabs
[2025-07-24 21:33:18,311] [INFO] Train shape: (59143, 500), Val shape: (8450, 500), Test shape: (16899, 500)
[2025-07-24 21:33:18,349] [INFO] Classifier: VRScannerModel(
  (input_modules): ModuleList(
    (0): Linear(in_features=1, out_features=128, bias=True)
  )
  (rnn_layers): ModuleList(
    (0): GRU(128, 128, num_layers=3, batch_first=True, dropout=0.3)
  )
  (attn_nets): ModuleList(
    (0): Sequential(
      (0): Linear(in_features=128, out_features=64, bias=True)
      (1): Tanh()
      (2): Linear(in_features=64, out_features=1, bias=True)
    )
  )
  (projection_layers): ModuleList(
    (0): Linear(in_features=128, out_features=128, bias=True)
  )
  (feature_attn_net): Sequential(
    (0): Linear(in_features=128, out_features=128, bias=True)
    (1): Tanh()
    (2): Linear(in_features=128, out_features=1, bias=True)
  )
  (fc): Sequential(
    (0): Linear(in_features=128, out_features=128, bias=True)
    (1): ReLU()
    (2): Dropout(p=0.3, inplace=False)
    (3): Linear(in_features=128, out_features=91, bias=True)
  )
)
[2025-07-24 21:33:18,349] [INFO] Training...
[2025-07-24 21:33:40,455] [INFO] Epoch 1/5, ValAcc: 10.91%, TrainLoss: 3.9899, ValLoss: 3.3293, LR: 0.001
[2025-07-24 21:33:53,360] [INFO] Epoch 2/5, ValAcc: 16.88%, TrainLoss: 3.2277, ValLoss: 3.0033, LR: 0.001
[2025-07-24 21:34:16,543] [INFO] Epoch 3/5, ValAcc: 17.20%, TrainLoss: 3.0019, ValLoss: 2.9389, LR: 0.001
…
g', leaderboard_path='output/meta-free-apps/step2/step2_meta_tcp_sport.csv', step1=False, step2=True, step3=False, train=False, longitudinal_evaluation=False, openworld_evaluation=False, device=device(type='cuda'), metadata='sport', name='tcpsport_maxabs_gru_500_32_5_0.001_128_128_3_0.3_128_128'),0.2449,0.1862,0.2032,0.2443
[2025-07-24 21:35:27,923] [INFO] Feature 0 normalized using maxabs
[2025-07-24 21:35:27,923] [INFO] Train shape: (59143, 500), Val shape: (8450, 500), Test shape: (16899, 500)
[2025-07-24 21:35:27,952] [INFO] Classifier: VRScannerModel(
  (input_modules): ModuleList(
    (0): Linear(in_features=1, out_features=128, bias=True)
  )
  (rnn_layers): ModuleList(
    (0): GRU(128, 128, num_layers=3, batch_first=True, dropout=0.3, bidirectional=True)
  )
  (attn_nets): ModuleList(
    (0): Sequential(
      (0): Linear(in_features=256, out_features=64, bias=True)
      (1): Tanh()
      (2): Linear(in_features=64, out_features=1, bias=True)
    )
  )
  (projection_layers): ModuleList(
    (0): Linear(in_features=256, out_features=128, bias=True)
  )
  (feature_attn_net): Sequential(
    (0): Linear(in_features=128, out_features=128, bias=True)
    (1): Tanh()
    (2): Linear(in_features=128, out_features=1, bias=True)
  )
  (fc): Sequential(
    (0): Linear(in_features=128, out_features=128, bias=True)
    (1): ReLU()
    (2): Dropout(p=0.3, inplace=False)
    (3): Linear(in_features=128, out_features=91, bias=True)
  )
)
[2025-07-24 21:35:27,952] [INFO] Training...
[2025-07-24 21:35:57,173] [INFO] Epoch 1/5, ValAcc: 0.98%, TrainLoss: 4.5131, ValLoss: 4.5119, LR: 0.001
[2025-07-24 21:36:25,807] [INFO] Epoch 2/5, ValAcc: 0.98%, TrainLoss: 4.5111, ValLoss: 4.5123, LR: 0.001
[2025-07-24 21:36:55,010] [INFO] Epoch 3/5, ValAcc: 0.98%, TrainLoss: 4.5111, ValLoss: 4.5123, LR: 0.001
…
