…
[2025-07-24 23:36:34,824] [INFO] Processed data from meta-free-apps/meta-tcp_dataofs/meta-tcp_dataofs.csv:
[2025-07-24 23:36:34,824] [INFO] (84492, 500)
[2025-07-24 23:36:34,824] [INFO] [['8' '8' '8' ... '8' '8' '8']
 ['8' '8' '8' ... '8' '8' '8']
 ['8' '8' '8' ... '8' '5' '5']
 ...
 ['8' '8' '8' ... '8' '8' '8']
 ['10' '10' '8' ... '8' '8' '8']
 ['11' '8' '8' ... '8' '8' '8']]
[2025-07-24 23:37:00,842] [INFO] Feature 0 normalized using power
[2025-07-24 23:37:00,842] [INFO] Train shape: (59143, 500), Val shape: (8450, 500), Test shape: (16899, 500)
[2025-07-24 23:37:00,875] [INFO] Classifier: VRScannerModel(
  (input_modules): ModuleList(
    (0): Linear(in_features=1, out_features=128, bias=True)
  )
  (rnn_layers): ModuleList(
    (0): GRU(128, 128, num_layers=3, batch_first=True, dropout=0.3)
  )
  (attn_nets): ModuleList(
    (0): Sequential(
      (0): Linear(in_features=128, out_features=64, bias=True)
      (1): Tanh()
      (2): Linear(in_features=64, out_features=1, bias=True)
    )
  )
  (projection_layers): ModuleList(
    (0): Linear(in_features=128, out_features=128, bias=True)
  )
  (feature_attn_net): Sequential(
    (0): Linear(in_features=128, out_features=128, bias=True)
    (1): Tanh()
    (2): Linear(in_features=128, out_features=1, bias=True)
  )
  (fc): Sequential(
    (0): Linear(in_features=128, out_features=128, bias=True)
    (1): ReLU()
    (2): Dropout(p=0.3, inplace=False)
    (3): Linear(in_features=128, out_features=91, bias=True)
  )
)
[2025-07-24 23:37:00,875] [INFO] Training...
[2025-07-24 23:37:23,143] [INFO] Epoch 1/5, ValAcc: 6.06%, TrainLoss: 4.3824, ValLoss: 4.1625, LR: 0.001
[2025-07-24 23:37:46,831] [INFO] Epoch 2/5, ValAcc: 14.34%, TrainLoss: 3.9108, ValLoss: 3.6052, LR: 0.001
[2025-07-24 23:38:06,233] [INFO] Epoch 3/5, ValAcc: 18.93%, TrainLoss: 3.5475, ValLoss: 3.4010, LR: 0.001
…
leaderboard_path='output/meta-free-apps/step2/step2_meta_tcp_dataofs.csv', step1=False, step2=True, step3=False, train=False, longitudinal_evaluation=False, openworld_evaluation=False, device=device(type='cuda'), metadata='dataofs', name='tcpdataofs_power_gru_500_32_5_0.001_128_128_3_0.3_128_128'),0.2217,0.2071,0.2321,0.2226
[2025-07-24 23:39:10,406] [INFO] Feature 0 normalized using power
[2025-07-24 23:39:10,406] [INFO] Train shape: (59143, 500), Val shape: (8450, 500), Test shape: (16899, 500)
[2025-07-24 23:39:10,433] [INFO] Classifier: VRScannerModel(
  (input_modules): ModuleList(
    (0): Linear(in_features=1, out_features=128, bias=True)
  )
  (rnn_layers): ModuleList(
    (0): GRU(128, 128, num_layers=3, batch_first=True, dropout=0.3, bidirectional=True)
  )
  (attn_nets): ModuleList(
    (0): Sequential(
      (0): Linear(in_features=256, out_features=64, bias=True)
      (1): Tanh()
      (2): Linear(in_features=64, out_features=1, bias=True)
    )
  )
  (projection_layers): ModuleList(
    (0): Linear(in_features=256, out_features=128, bias=True)
  )
  (feature_attn_net): Sequential(
    (0): Linear(in_features=128, out_features=128, bias=True)
    (1): Tanh()
    (2): Linear(in_features=128, out_features=1, bias=True)
  )
  (fc): Sequential(
    (0): Linear(in_features=128, out_features=128, bias=True)
    (1): ReLU()
    (2): Dropout(p=0.3, inplace=False)
    (3): Linear(in_features=128, out_features=91, bias=True)
  )
)
[2025-07-24 23:39:10,433] [INFO] Training...
[2025-07-24 23:39:35,750] [INFO] Epoch 1/5, ValAcc: 6.38%, TrainLoss: 4.3936, ValLoss: 4.1604, LR: 0.001
[2025-07-24 23:40:01,091] [INFO] Epoch 2/5, ValAcc: 12.11%, TrainLoss: 4.0267, ValLoss: 3.7772, LR: 0.001
[2025-07-24 23:40:26,433] [INFO] Epoch 3/5, ValAcc: 15.11%, TrainLoss: 3.6778, ValLoss: 3.6362, LR: 0.001
…
