…
[2025-07-24 18:40:20,342] [INFO] Processed data from meta-free-apps/meta-ip_proto/meta-ip_proto.csv:
[2025-07-24 18:40:20,342] [INFO] (84492, 500)
[2025-07-24 18:40:20,342] [INFO] [['6' '6' '6' ... '6' '6' '6']
 ['6' '6' '6' ... '6' '6' '6']
 ['6' '6' '6' ... '6' '6' '6']
 ...
 ['6' '6' '6' ... '6' '6' '6']
 ['6' '6' '6' ... '6' '6' '6']
 ['6' '6' '6' ... '6' '6' '6']]
[2025-07-24 18:40:38,236] [INFO] Feature 0 normalized using token
[2025-07-24 18:40:38,236] [INFO] Train shape: (59143, 500), Val shape: (8450, 500), Test shape: (16899, 500)
[2025-07-24 18:40:38,279] [INFO] Classifier: VRScannerModel(
  (input_modules): ModuleList(
    (0): Embedding(4, 128)
  )
  (rnn_layers): ModuleList(
    (0): GRU(128, 128, num_layers=3, batch_first=True, dropout=0.3)
  )
  (attn_nets): ModuleList(
    (0): Sequential(
      (0): Linear(in_features=128, out_features=64, bias=True)
      (1): Tanh()
      (2): Linear(in_features=64, out_features=1, bias=True)
    )
  )
  (projection_layers): ModuleList(
    (0): Linear(in_features=128, out_features=128, bias=True)
  )
  (feature_attn_net): Sequential(
    (0): Linear(in_features=128, out_features=128, bias=True)
    (1): Tanh()
    (2): Linear(in_features=128, out_features=1, bias=True)
  )
  (fc): Sequential(
    (0): Linear(in_features=128, out_features=128, bias=True)
    (1): ReLU()
    (2): Dropout(p=0.3, inplace=False)
    (3): Linear(in_features=128, out_features=91, bias=True)
  )
)
[2025-07-24 18:40:38,279] [INFO] Training...
[2025-07-24 18:41:01,800] [INFO] Epoch 1/5, ValAcc: 0.98%, TrainLoss: 4.5127, ValLoss: 4.5118, LR: 0.001
[2025-07-24 18:41:24,610] [INFO] Epoch 2/5, ValAcc: 0.98%, TrainLoss: 4.5113, ValLoss: 4.5122, LR: 0.001
[2025-07-24 18:41:47,247] [INFO] Epoch 3/5, ValAcc: 1.04%, TrainLoss: 4.5111, ValLoss: 4.5124, LR: 0.001
…
debug', leaderboard_path='output/meta-free-apps/step2/step2_meta_ip_proto.csv', step1=False, step2=True, step3=False, train=False, longitudinal_evaluation=False, openworld_evaluation=False, device=device(type='cuda'), metadata='proto', name='ipproto_token_gru_500_32_5_0.001_128_128_3_0.3_128_128'),0.0102,0.0002,0.0001,0.0110
[2025-07-24 18:42:55,174] [INFO] Feature 0 normalized using token
[2025-07-24 18:42:55,175] [INFO] Train shape: (59143, 500), Val shape: (8450, 500), Test shape: (16899, 500)
[2025-07-24 18:42:55,225] [INFO] Classifier: VRScannerModel(
  (input_modules): ModuleList(
    (0): Embedding(4, 128)
  )
  (rnn_layers): ModuleList(
    (0): GRU(128, 128, num_layers=3, batch_first=True, dropout=0.3, bidirectional=True)
  )
  (attn_nets): ModuleList(
    (0): Sequential(
      (0): Linear(in_features=256, out_features=64, bias=True)
      (1): Tanh()
      (2): Linear(in_features=64, out_features=1, bias=True)
    )
  )
  (projection_layers): ModuleList(
    (0): Linear(in_features=256, out_features=128, bias=True)
  )
  (feature_attn_net): Sequential(
    (0): Linear(in_features=128, out_features=128, bias=True)
    (1): Tanh()
    (2): Linear(in_features=128, out_features=1, bias=True)
  )
  (fc): Sequential(
    (0): Linear(in_features=128, out_features=128, bias=True)
    (1): ReLU()
    (2): Dropout(p=0.3, inplace=False)
    (3): Linear(in_features=128, out_features=91, bias=True)
  )
)
[2025-07-24 18:42:55,225] [INFO] Training...
[2025-07-24 18:43:24,257] [INFO] Epoch 1/5, ValAcc: 1.05%, TrainLoss: 4.5126, ValLoss: 4.5102, LR: 0.001
[2025-07-24 18:43:55,634] [INFO] Epoch 2/5, ValAcc: 0.99%, TrainLoss: 4.5087, ValLoss: 4.5083, LR: 0.001
[2025-07-24 18:44:26,342] [INFO] Epoch 3/5, ValAcc: 0.98%, TrainLoss: 4.5086, ValLoss: 4.5124, LR: 0.001
…
