…
  '10.0.0.4' '10.0.0.4']
 ...
 ['157.240.215.51' '10.0.1.8' '157.240.215.51' ... '157.240.215.16'
  '157.240.215.16' '157.240.215.16']
 ['157.240.215.51' '10.0.1.8' '157.240.215.51' ... '157.240.215.16'
  '157.240.215.16' '10.0.1.8']
 ['157.240.215.16' '157.240.215.16' '157.240.215.16' ... '157.240.215.51'
  '157.240.215.51' '10.0.1.8']]
[2025-07-24 18:19:17,507] [INFO] Feature 0 normalized using token
[2025-07-24 18:19:17,507] [INFO] Train shape: (59143, 500), Val shape: (8450, 500), Test shape: (16899, 500)
[2025-07-24 18:19:17,555] [INFO] Classifier: VRScannerModel(
  (input_modules): ModuleList(
    (0): Embedding(102, 128)
  )
  (rnn_layers): ModuleList(
    (0): GRU(128, 128, num_layers=3, batch_first=True, dropout=0.3)
  )
  (attn_nets): ModuleList(
    (0): Sequential(
      (0): Linear(in_features=128, out_features=64, bias=True)
      (1): Tanh()
      (2): Linear(in_features=64, out_features=1, bias=True)
    )
  )
  (projection_layers): ModuleList(
    (0): Linear(in_features=128, out_features=128, bias=True)
  )
  (feature_attn_net): Sequential(
    (0): Linear(in_features=128, out_features=128, bias=True)
    (1): Tanh()
    (2): Linear(in_features=128, out_features=1, bias=True)
  )
  (fc): Sequential(
    (0): Linear(in_features=128, out_features=128, bias=True)
    (1): ReLU()
    (2): Dropout(p=0.3, inplace=False)
    (3): Linear(in_features=128, out_features=91, bias=True)
  )
)
[2025-07-24 18:19:17,555] [INFO] Training...
[2025-07-24 18:19:40,610] [INFO] Epoch 1/5, ValAcc: 25.36%, TrainLoss: 3.7301, ValLoss: 2.7708, LR: 0.001
[2025-07-24 18:20:04,461] [INFO] Epoch 2/5, ValAcc: 37.78%, TrainLoss: 2.5486, ValLoss: 2.1684, LR: 0.001
[2025-07-24 18:20:27,959] [INFO] Epoch 3/5, ValAcc: 43.12%, TrainLoss: 2.1374, ValLoss: 1.9163, LR: 0.001
…
p_dst.debug', leaderboard_path='output/meta-free-apps/step2/step2_meta_ip_dst.csv', step1=False, step2=True, step3=False, train=False, longitudinal_evaluation=False, openworld_evaluation=False, device=device(type='cuda'), metadata='dst', name='ipdst_token_gru_500_32_5_0.001_128_128_3_0.3_128_128'),0.4939,0.4891,0.5378,0.4947
[2025-07-24 18:21:57,209] [INFO] Feature 0 normalized using token
[2025-07-24 18:21:57,209] [INFO] Train shape: (59143, 500), Val shape: (8450, 500), Test shape: (16899, 500)
[2025-07-24 18:21:57,233] [INFO] Classifier: VRScannerModel(
  (input_modules): ModuleList(
    (0): Embedding(102, 128)
  )
  (rnn_layers): ModuleList(
    (0): GRU(128, 128, num_layers=3, batch_first=True, dropout=0.3, bidirectional=True)
  )
  (attn_nets): ModuleList(
    (0): Sequential(
      (0): Linear(in_features=256, out_features=64, bias=True)
      (1): Tanh()
      (2): Linear(in_features=64, out_features=1, bias=True)
    )
  )
  (projection_layers): ModuleList(
    (0): Linear(in_features=256, out_features=128, bias=True)
  )
  (feature_attn_net): Sequential(
    (0): Linear(in_features=128, out_features=128, bias=True)
    (1): Tanh()
    (2): Linear(in_features=128, out_features=1, bias=True)
  )
  (fc): Sequential(
    (0): Linear(in_features=128, out_features=128, bias=True)
    (1): ReLU()
    (2): Dropout(p=0.3, inplace=False)
    (3): Linear(in_features=128, out_features=91, bias=True)
  )
)
[2025-07-24 18:21:57,233] [INFO] Training...
[2025-07-24 18:22:26,700] [INFO] Epoch 1/5, ValAcc: 21.56%, TrainLoss: 3.7756, ValLoss: 2.9606, LR: 0.001
[2025-07-24 18:22:56,900] [INFO] Epoch 2/5, ValAcc: 35.17%, TrainLoss: 2.5896, ValLoss: 2.2445, LR: 0.001
[2025-07-24 18:23:27,432] [INFO] Epoch 3/5, ValAcc: 38.09%, TrainLoss: 2.1252, ValLoss: 2.1182, LR: 0.001
…
