…
  '1606477932']
 ['1822707587' '1593607655' '1822707622' ... '2190392372' '0' '0']
 ...
 ['2152894062' '3327834689' '2152894097' ... '2105443833' '2105443833'
  '2105443833']
 ['0' '1950926063' '921263050' ... '1045777300' '1045777300' '4018850944']
 ['2911133304' '2911136064' '2911136549' ... '3588866530' '2310297835'
  '3271261036']]
[2025-07-24 22:38:33,766] [INFO] Feature 0 normalized using power
[2025-07-24 22:38:33,766] [INFO] Train shape: (59143, 500), Val shape: (8450, 500), Test shape: (16899, 500)
[2025-07-24 22:38:33,801] [INFO] Classifier: VRScannerModel(
  (input_modules): ModuleList(
    (0): Linear(in_features=1, out_features=128, bias=True)
  )
  (rnn_layers): ModuleList(
    (0): GRU(128, 128, num_layers=3, batch_first=True, dropout=0.3)
  )
  (attn_nets): ModuleList(
    (0): Sequential(
      (0): Linear(in_features=128, out_features=64, bias=True)
      (1): Tanh()
      (2): Linear(in_features=64, out_features=1, bias=True)
    )
  )
  (projection_layers): ModuleList(
    (0): Linear(in_features=128, out_features=128, bias=True)
  )
  (feature_attn_net): Sequential(
    (0): Linear(in_features=128, out_features=128, bias=True)
    (1): Tanh()
    (2): Linear(in_features=128, out_features=1, bias=True)
  )
  (fc): Sequential(
    (0): Linear(in_features=128, out_features=128, bias=True)
    (1): ReLU()
    (2): Dropout(p=0.3, inplace=False)
    (3): Linear(in_features=128, out_features=91, bias=True)
  )
)
[2025-07-24 22:38:33,801] [INFO] Training...
[2025-07-24 22:38:57,699] [INFO] Epoch 1/5, ValAcc: 1.38%, TrainLoss: 4.5126, ValLoss: 4.5083, LR: 0.001
[2025-07-24 22:39:16,102] [INFO] Epoch 2/5, ValAcc: 3.05%, TrainLoss: 4.4302, ValLoss: 4.2994, LR: 0.001
[2025-07-24 22:39:39,975] [INFO] Epoch 3/5, ValAcc: 8.51%, TrainLoss: 4.1587, ValLoss: 3.8845, LR: 0.001
…
ack.debug', leaderboard_path='output/meta-free-apps/step2/step2_meta_tcp_ack.csv', step1=False, step2=True, step3=False, train=False, longitudinal_evaluation=False, openworld_evaluation=False, device=device(type='cuda'), metadata='ack', name='tcpack_power_gru_500_32_5_0.001_128_128_3_0.3_128_128'),0.2871,0.2736,0.3181,0.2872
[2025-07-24 22:40:47,207] [INFO] Feature 0 normalized using power
[2025-07-24 22:40:47,207] [INFO] Train shape: (59143, 500), Val shape: (8450, 500), Test shape: (16899, 500)
[2025-07-24 22:40:47,227] [INFO] Classifier: VRScannerModel(
  (input_modules): ModuleList(
    (0): Linear(in_features=1, out_features=128, bias=True)
  )
  (rnn_layers): ModuleList(
    (0): GRU(128, 128, num_layers=3, batch_first=True, dropout=0.3, bidirectional=True)
  )
  (attn_nets): ModuleList(
    (0): Sequential(
      (0): Linear(in_features=256, out_features=64, bias=True)
      (1): Tanh()
      (2): Linear(in_features=64, out_features=1, bias=True)
    )
  )
  (projection_layers): ModuleList(
    (0): Linear(in_features=256, out_features=128, bias=True)
  )
  (feature_attn_net): Sequential(
    (0): Linear(in_features=128, out_features=128, bias=True)
    (1): Tanh()
    (2): Linear(in_features=128, out_features=1, bias=True)
  )
  (fc): Sequential(
    (0): Linear(in_features=128, out_features=128, bias=True)
    (1): ReLU()
    (2): Dropout(p=0.3, inplace=False)
    (3): Linear(in_features=128, out_features=91, bias=True)
  )
)
[2025-07-24 22:40:47,227] [INFO] Training...
[2025-07-24 22:41:15,591] [INFO] Epoch 1/5, ValAcc: 0.91%, TrainLoss: 4.5130, ValLoss: 4.5122, LR: 0.001
[2025-07-24 22:41:40,932] [INFO] Epoch 2/5, ValAcc: 0.98%, TrainLoss: 4.5112, ValLoss: 4.5123, LR: 0.001
[2025-07-24 22:42:06,293] [INFO] Epoch 3/5, ValAcc: 0.98%, TrainLoss: 4.5111, ValLoss: 4.5122, LR: 0.001
…
