…
[2025-07-24 19:00:34,220] [INFO] (84492, 500)
[2025-07-24 19:00:34,220] [INFO] [['656' '94' '52' ... '1432' '1432' '1432']
 ['423' '87' '52' ... '52' '242' '141']
 ['423' '87' '52' ... '52' '40' '40']
 ...
 ['242' '87' '52' ... '1432' '1432' '1432']
 ['60' '60' '52' ... '1432' '1432' '52']
 ['64' '52' '52' ... '52' '355' '87']]
[2025-07-24 19:01:23,339] [INFO] Feature 0 normalized using token
[2025-07-24 19:01:23,340] [INFO] Train shape: (59143, 500), Val shape: (8450, 500), Test shape: (16899, 500)
[2025-07-24 19:01:23,397] [INFO] Classifier: VRScannerModel(
  (input_modules): ModuleList(
    (0): Embedding(1385, 128)
  )
  (rnn_layers): ModuleList(
    (0): GRU(128, 128, num_layers=3, batch_first=True, dropout=0.3)
  )
  (attn_nets): ModuleList(
    (0): Sequential(
      (0): Linear(in_features=128, out_features=64, bias=True)
      (1): Tanh()
      (2): Linear(in_features=64, out_features=1, bias=True)
    )
  )
  (projection_layers): ModuleList(
    (0): Linear(in_features=128, out_features=128, bias=True)
  )
  (feature_attn_net): Sequential(
    (0): Linear(in_features=128, out_features=128, bias=True)
    (1): Tanh()
    (2): Linear(in_features=128, out_features=1, bias=True)
  )
  (fc): Sequential(
    (0): Linear(in_features=128, out_features=128, bias=True)
    (1): ReLU()
    (2): Dropout(p=0.3, inplace=False)
    (3): Linear(in_features=128, out_features=91, bias=True)
  )
)
[2025-07-24 19:01:23,397] [INFO] Training...
[2025-07-24 19:01:48,047] [INFO] Epoch 1/5, ValAcc: 72.30%, TrainLoss: 3.0009, ValLoss: 1.0793, LR: 0.001
[2025-07-24 19:02:11,702] [INFO] Epoch 2/5, ValAcc: 90.84%, TrainLoss: 0.6128, ValLoss: 0.3730, LR: 0.001
[2025-07-24 19:02:35,481] [INFO] Epoch 3/5, ValAcc: 92.15%, TrainLoss: 0.3617, ValLoss: 0.3294, LR: 0.001
…
p_len.debug', leaderboard_path='output/meta-free-apps/step2/step2_meta_ip_len.csv', step1=False, step2=True, step3=False, train=False, longitudinal_evaluation=False, openworld_evaluation=False, device=device(type='cuda'), metadata='len', name='iplen_token_gru_500_32_5_0.001_128_128_3_0.3_128_128'),0.9246,0.9256,0.9353,0.9252
[2025-07-24 19:04:13,439] [INFO] Feature 0 normalized using token
[2025-07-24 19:04:13,439] [INFO] Train shape: (59143, 500), Val shape: (8450, 500), Test shape: (16899, 500)
[2025-07-24 19:04:13,473] [INFO] Classifier: VRScannerModel(
  (input_modules): ModuleList(
    (0): Embedding(1385, 128)
  )
  (rnn_layers): ModuleList(
    (0): GRU(128, 128, num_layers=3, batch_first=True, dropout=0.3, bidirectional=True)
  )
  (attn_nets): ModuleList(
    (0): Sequential(
      (0): Linear(in_features=256, out_features=64, bias=True)
      (1): Tanh()
      (2): Linear(in_features=64, out_features=1, bias=True)
    )
  )
  (projection_layers): ModuleList(
    (0): Linear(in_features=256, out_features=128, bias=True)
  )
  (feature_attn_net): Sequential(
    (0): Linear(in_features=128, out_features=128, bias=True)
    (1): Tanh()
    (2): Linear(in_features=128, out_features=1, bias=True)
  )
  (fc): Sequential(
    (0): Linear(in_features=128, out_features=128, bias=True)
    (1): ReLU()
    (2): Dropout(p=0.3, inplace=False)
    (3): Linear(in_features=128, out_features=91, bias=True)
  )
)
[2025-07-24 19:04:13,473] [INFO] Training...
[2025-07-24 19:04:43,067] [INFO] Epoch 1/5, ValAcc: 85.08%, TrainLoss: 2.4102, ValLoss: 0.6254, LR: 0.001
[2025-07-24 19:05:12,642] [INFO] Epoch 2/5, ValAcc: 91.14%, TrainLoss: 0.4809, ValLoss: 0.3593, LR: 0.001
[2025-07-24 19:05:42,248] [INFO] Epoch 3/5, ValAcc: 91.76%, TrainLoss: 0.3435, ValLoss: 0.3567, LR: 0.001
…
