…
[2025-07-24 20:02:46,375] [INFO] Processed data from meta-free-apps/meta-ip_flags/meta-ip_flags.csv:
[2025-07-24 20:02:46,376] [INFO] (84492, 500)
[2025-07-24 20:02:46,376] [INFO] [['DF' 'DF' 'DF' ... 'DF' 'DF' 'DF']
 ['DF' 'DF' 'DF' ... 'DF' 'DF' 'DF']
 ['DF' 'DF' 'DF' ... 'DF' 'DF' 'DF']
 ...
 ['DF' 'DF' 'DF' ... 'DF' 'DF' 'DF']
 ['DF' 'DF' 'DF' ... 'DF' 'DF' 'DF']
 ['DF' 'DF' 'DF' ... 'DF' 'DF' 'DF']]
[2025-07-24 20:03:10,627] [INFO] Feature 0 normalized using token
[2025-07-24 20:03:10,627] [INFO] Train shape: (59143, 500), Val shape: (8450, 500), Test shape: (16899, 500)
[2025-07-24 20:03:10,679] [INFO] Classifier: VRScannerModel(
  (input_modules): ModuleList(
    (0): Embedding(2, 128)
  )
  (rnn_layers): ModuleList(
    (0): GRU(128, 128, num_layers=3, batch_first=True, dropout=0.3)
  )
  (attn_nets): ModuleList(
    (0): Sequential(
      (0): Linear(in_features=128, out_features=64, bias=True)
      (1): Tanh()
      (2): Linear(in_features=64, out_features=1, bias=True)
    )
  )
  (projection_layers): ModuleList(
    (0): Linear(in_features=128, out_features=128, bias=True)
  )
  (feature_attn_net): Sequential(
    (0): Linear(in_features=128, out_features=128, bias=True)
    (1): Tanh()
    (2): Linear(in_features=128, out_features=1, bias=True)
  )
  (fc): Sequential(
    (0): Linear(in_features=128, out_features=128, bias=True)
    (1): ReLU()
    (2): Dropout(p=0.3, inplace=False)
    (3): Linear(in_features=128, out_features=91, bias=True)
  )
)
[2025-07-24 20:03:10,680] [INFO] Training...
[2025-07-24 20:03:30,883] [INFO] Epoch 1/5, ValAcc: 0.99%, TrainLoss: 4.4893, ValLoss: 4.5118, LR: 0.001
[2025-07-24 20:03:54,045] [INFO] Epoch 2/5, ValAcc: 2.06%, TrainLoss: 4.4752, ValLoss: 4.4628, LR: 0.001
[2025-07-24 20:04:11,620] [INFO] Epoch 3/5, ValAcc: 2.09%, TrainLoss: 4.4581, ValLoss: 4.4580, LR: 0.001
…
debug', leaderboard_path='output/meta-free-apps/step2/step2_meta_ip_flags.csv', step1=False, step2=True, step3=False, train=False, longitudinal_evaluation=False, openworld_evaluation=False, device=device(type='cuda'), metadata='flags', name='ipflags_token_gru_500_32_5_0.001_128_128_3_0.3_128_128'),0.0233,0.0179,0.0320,0.0235
[2025-07-24 20:05:25,454] [INFO] Feature 0 normalized using token
[2025-07-24 20:05:25,455] [INFO] Train shape: (59143, 500), Val shape: (8450, 500), Test shape: (16899, 500)
[2025-07-24 20:05:25,479] [INFO] Classifier: VRScannerModel(
  (input_modules): ModuleList(
    (0): Embedding(2, 128)
  )
  (rnn_layers): ModuleList(
    (0): GRU(128, 128, num_layers=3, batch_first=True, dropout=0.3, bidirectional=True)
  )
  (attn_nets): ModuleList(
    (0): Sequential(
      (0): Linear(in_features=256, out_features=64, bias=True)
      (1): Tanh()
      (2): Linear(in_features=64, out_features=1, bias=True)
    )
  )
  (projection_layers): ModuleList(
    (0): Linear(in_features=256, out_features=128, bias=True)
  )
  (feature_attn_net): Sequential(
    (0): Linear(in_features=128, out_features=128, bias=True)
    (1): Tanh()
    (2): Linear(in_features=128, out_features=1, bias=True)
  )
  (fc): Sequential(
    (0): Linear(in_features=128, out_features=128, bias=True)
    (1): ReLU()
    (2): Dropout(p=0.3, inplace=False)
    (3): Linear(in_features=128, out_features=91, bias=True)
  )
)
[2025-07-24 20:05:25,479] [INFO] Training...
[2025-07-24 20:05:55,073] [INFO] Epoch 1/5, ValAcc: 1.91%, TrainLoss: 4.4689, ValLoss: 4.4576, LR: 0.001
[2025-07-24 20:06:24,563] [INFO] Epoch 2/5, ValAcc: 1.99%, TrainLoss: 4.4571, ValLoss: 4.4575, LR: 0.001
[2025-07-24 20:06:55,159] [INFO] Epoch 3/5, ValAcc: 2.11%, TrainLoss: 4.4547, ValLoss: 4.4551, LR: 0.001
…
