…
[2025-07-29 07:43:06,959] [INFO] Processed data from meta-free-apps/meta-ip_inlen/meta-ip_inlen.csv:
[2025-07-29 07:43:06,959] [INFO] (84492, 500)
[2025-07-29 07:43:06,959] [INFO] [['94' '52' '83' ... <NA> <NA> <NA>]
 ['87' '241' '106' ... '126' '83' '52']
 ['87' '240' '106' ... '141' '91' '52']
 ...
 ['87' '653' '52' ... '64' '64' '52']
 ['60' '52' '270' ... '225' '146' '60']
 ['52' '223' '126' ... '52' '52' '60']]
[2025-07-29 07:43:54,114] [INFO] Feature 0 normalized using token
[2025-07-29 07:43:54,114] [INFO] Train shape: (59143, 500), Val shape: (8450, 500), Test shape: (16899, 500)
[2025-07-29 07:43:54,160] [INFO] Classifier: VRScannerModel(
  (input_modules): ModuleList(
    (0): Embedding(1385, 128)
  )
  (rnn_layers): ModuleList(
    (0): GRU(128, 128, num_layers=3, batch_first=True, dropout=0.3)
  )
  (attn_nets): ModuleList(
    (0): Sequential(
      (0): Linear(in_features=128, out_features=64, bias=True)
      (1): Tanh()
      (2): Linear(in_features=64, out_features=1, bias=True)
    )
  )
  (projection_layers): ModuleList(
    (0): Linear(in_features=128, out_features=128, bias=True)
  )
  (feature_attn_net): Sequential(
    (0): Linear(in_features=128, out_features=128, bias=True)
    (1): Tanh()
    (2): Linear(in_features=128, out_features=1, bias=True)
  )
  (fc): Sequential(
    (0): Linear(in_features=128, out_features=128, bias=True)
    (1): ReLU()
    (2): Dropout(p=0.3, inplace=False)
    (3): Linear(in_features=128, out_features=91, bias=True)
  )
)
[2025-07-29 07:43:54,161] [INFO] Training...
[2025-07-29 07:44:07,393] [INFO] Epoch 1/5, ValAcc: 86.65%, TrainLoss: 2.2623, ValLoss: 0.5679, LR: 0.001
[2025-07-29 07:44:19,213] [INFO] Epoch 2/5, ValAcc: 92.20%, TrainLoss: 0.4424, ValLoss: 0.3216, LR: 0.001
[2025-07-29 07:44:31,426] [INFO] Epoch 3/5, ValAcc: 93.08%, TrainLoss: 0.3033, ValLoss: 0.2578, LR: 0.001
…
debug', leaderboard_path='output/meta-free-apps/step2/step2_meta_ip_inlen.csv', step1=False, step2=True, step3=False, train=False, longitudinal_evaluation=False, openworld_evaluation=False, device=device(type='cuda'), metadata='inlen', name='ipinlen_token_gru_500_32_5_0.001_128_128_3_0.3_128_128'),0.9395,0.9407,0.9501,0.9400
[2025-07-29 07:45:43,795] [INFO] Feature 0 normalized using token
[2025-07-29 07:45:43,795] [INFO] Train shape: (59143, 500), Val shape: (8450, 500), Test shape: (16899, 500)
[2025-07-29 07:45:43,815] [INFO] Classifier: VRScannerModel(
  (input_modules): ModuleList(
    (0): Embedding(1385, 128)
  )
  (rnn_layers): ModuleList(
    (0): GRU(128, 128, num_layers=3, batch_first=True, dropout=0.3, bidirectional=True)
  )
  (attn_nets): ModuleList(
    (0): Sequential(
      (0): Linear(in_features=256, out_features=64, bias=True)
      (1): Tanh()
      (2): Linear(in_features=64, out_features=1, bias=True)
    )
  )
  (projection_layers): ModuleList(
    (0): Linear(in_features=256, out_features=128, bias=True)
  )
  (feature_attn_net): Sequential(
    (0): Linear(in_features=128, out_features=128, bias=True)
    (1): Tanh()
    (2): Linear(in_features=128, out_features=1, bias=True)
  )
  (fc): Sequential(
    (0): Linear(in_features=128, out_features=128, bias=True)
    (1): ReLU()
    (2): Dropout(p=0.3, inplace=False)
    (3): Linear(in_features=128, out_features=91, bias=True)
  )
)
[2025-07-29 07:45:43,815] [INFO] Training...
[2025-07-29 07:46:04,163] [INFO] Epoch 1/5, ValAcc: 89.42%, TrainLoss: 1.5697, ValLoss: 0.4692, LR: 0.001
[2025-07-29 07:46:24,559] [INFO] Epoch 2/5, ValAcc: 90.75%, TrainLoss: 0.4549, ValLoss: 0.3684, LR: 0.001
[2025-07-29 07:46:44,992] [INFO] Epoch 3/5, ValAcc: 92.30%, TrainLoss: 0.3564, ValLoss: 0.3116, LR: 0.001
…
