…
[2025-07-24 17:16:44,462] [INFO] Processed data from meta-free-apps/meta-ip_ttl/meta-ip_ttl.csv:
[2025-07-24 17:16:44,463] [INFO] (84492, 500)
[2025-07-24 17:16:44,463] [INFO] [['64' '49' '64' ... '64' '64' '64']
 ['64' '49' '64' ... '64' '49' '49']
 ['64' '49' '64' ... '64' '49' '49']
 ...
 ['64' '50' '64' ... '64' '64' '64']
 ['64' '50' '64' ... '64' '64' '48']
 ['64' '64' '64' ... '64' '64' '48']]
[2025-07-24 17:17:16,649] [INFO] Feature 0 normalized using token
[2025-07-24 17:17:16,649] [INFO] Train shape: (59143, 500), Val shape: (8450, 500), Test shape: (16899, 500)
[2025-07-24 17:17:16,694] [INFO] Classifier: VRScannerModel(
  (input_modules): ModuleList(
    (0): Embedding(18, 128)
  )
  (rnn_layers): ModuleList(
    (0): GRU(128, 128, num_layers=3, batch_first=True, dropout=0.3)
  )
  (attn_nets): ModuleList(
    (0): Sequential(
      (0): Linear(in_features=128, out_features=64, bias=True)
      (1): Tanh()
      (2): Linear(in_features=64, out_features=1, bias=True)
    )
  )
  (projection_layers): ModuleList(
    (0): Linear(in_features=128, out_features=128, bias=True)
  )
  (feature_attn_net): Sequential(
    (0): Linear(in_features=128, out_features=128, bias=True)
    (1): Tanh()
    (2): Linear(in_features=128, out_features=1, bias=True)
  )
  (fc): Sequential(
    (0): Linear(in_features=128, out_features=128, bias=True)
    (1): ReLU()
    (2): Dropout(p=0.3, inplace=False)
    (3): Linear(in_features=128, out_features=91, bias=True)
  )
)
[2025-07-24 17:17:16,694] [INFO] Training...
[2025-07-24 17:17:38,017] [INFO] Epoch 1/5, ValAcc: 12.57%, TrainLoss: 3.9178, ValLoss: 3.2943, LR: 0.001
[2025-07-24 17:17:57,053] [INFO] Epoch 2/5, ValAcc: 10.34%, TrainLoss: 3.2761, ValLoss: 3.2762, LR: 0.001
[2025-07-24 17:18:20,246] [INFO] Epoch 3/5, ValAcc: 18.20%, TrainLoss: 3.0490, ValLoss: 2.8810, LR: 0.001
…
p_ttl.debug', leaderboard_path='output/meta-free-apps/step2/step2_meta_ip_ttl.csv', step1=False, step2=True, step3=False, train=False, longitudinal_evaluation=False, openworld_evaluation=False, device=device(type='cuda'), metadata='ttl', name='ipttl_token_gru_500_32_5_0.001_128_128_3_0.3_128_128'),0.2921,0.2640,0.3014,0.2933
[2025-07-24 17:19:34,561] [INFO] Feature 0 normalized using token
[2025-07-24 17:19:34,561] [INFO] Train shape: (59143, 500), Val shape: (8450, 500), Test shape: (16899, 500)
[2025-07-24 17:19:34,620] [INFO] Classifier: VRScannerModel(
  (input_modules): ModuleList(
    (0): Embedding(18, 128)
  )
  (rnn_layers): ModuleList(
    (0): GRU(128, 128, num_layers=3, batch_first=True, dropout=0.3, bidirectional=True)
  )
  (attn_nets): ModuleList(
    (0): Sequential(
      (0): Linear(in_features=256, out_features=64, bias=True)
      (1): Tanh()
      (2): Linear(in_features=64, out_features=1, bias=True)
    )
  )
  (projection_layers): ModuleList(
    (0): Linear(in_features=256, out_features=128, bias=True)
  )
  (feature_attn_net): Sequential(
    (0): Linear(in_features=128, out_features=128, bias=True)
    (1): Tanh()
    (2): Linear(in_features=128, out_features=1, bias=True)
  )
  (fc): Sequential(
    (0): Linear(in_features=128, out_features=128, bias=True)
    (1): ReLU()
    (2): Dropout(p=0.3, inplace=False)
    (3): Linear(in_features=128, out_features=91, bias=True)
  )
)
[2025-07-24 17:19:34,620] [INFO] Training...
[2025-07-24 17:20:03,941] [INFO] Epoch 1/5, ValAcc: 9.36%, TrainLoss: 3.9543, ValLoss: 3.4514, LR: 0.001
[2025-07-24 17:20:32,833] [INFO] Epoch 2/5, ValAcc: 14.14%, TrainLoss: 3.3622, ValLoss: 3.1056, LR: 0.001
[2025-07-24 17:21:02,037] [INFO] Epoch 3/5, ValAcc: 17.93%, TrainLoss: 3.1282, ValLoss: 2.9171, LR: 0.001
…
