…
[2025-07-24 20:24:26,894] [INFO] [['37264' '38821' '37867' ... '60666' '60665' '60664']
 ['21399' '63662' '21769' ... '1187' '33931' '34031']
 ['45191' '50362' '45561' ... '21796' '51880' '51880']
 ...
 ['38587' '60137' '38776' ... '34662' '34661' '34660']
 ['38403' '51344' '38410' ... '21415' '21414' '7363']
 ['15327' '15338' '15337' ... '16489' '65416' '37810']]
[2025-07-24 20:25:31,069] [INFO] Feature 0 normalized using token
[2025-07-24 20:25:31,070] [INFO] Train shape: (59143, 500), Val shape: (8450, 500), Test shape: (16899, 500)
[2025-07-24 20:25:31,165] [INFO] Classifier: VRScannerModel(
  (input_modules): ModuleList(
    (0): Embedding(65536, 128)
  )
  (rnn_layers): ModuleList(
    (0): GRU(128, 128, num_layers=3, batch_first=True, dropout=0.3)
  )
  (attn_nets): ModuleList(
    (0): Sequential(
      (0): Linear(in_features=128, out_features=64, bias=True)
      (1): Tanh()
      (2): Linear(in_features=64, out_features=1, bias=True)
    )
  )
  (projection_layers): ModuleList(
    (0): Linear(in_features=128, out_features=128, bias=True)
  )
  (feature_attn_net): Sequential(
    (0): Linear(in_features=128, out_features=128, bias=True)
    (1): Tanh()
    (2): Linear(in_features=128, out_features=1, bias=True)
  )
  (fc): Sequential(
    (0): Linear(in_features=128, out_features=128, bias=True)
    (1): ReLU()
    (2): Dropout(p=0.3, inplace=False)
    (3): Linear(in_features=128, out_features=91, bias=True)
  )
)
[2025-07-24 20:25:31,166] [INFO] Training...
[2025-07-24 20:25:54,680] [INFO] Epoch 1/5, ValAcc: 1.63%, TrainLoss: 4.5000, ValLoss: 4.4272, LR: 0.001
[2025-07-24 20:26:18,263] [INFO] Epoch 2/5, ValAcc: 4.38%, TrainLoss: 4.3422, ValLoss: 4.1960, LR: 0.001
[2025-07-24 20:26:42,717] [INFO] Epoch 3/5, ValAcc: 6.79%, TrainLoss: 4.0492, ValLoss: 4.0157, LR: 0.001
…
ug', leaderboard_path='output/meta-free-apps/step2/step2_meta_ip_chksum.csv', step1=False, step2=True, step3=False, train=False, longitudinal_evaluation=False, openworld_evaluation=False, device=device(type='cuda'), metadata='chksum', name='ipchksum_token_gru_500_32_5_0.001_128_128_3_0.3_128_128'),0.1181,0.1023,0.1196,0.1181
[2025-07-24 20:28:37,041] [INFO] Feature 0 normalized using token
[2025-07-24 20:28:37,041] [INFO] Train shape: (59143, 500), Val shape: (8450, 500), Test shape: (16899, 500)
[2025-07-24 20:28:37,104] [INFO] Classifier: VRScannerModel(
  (input_modules): ModuleList(
    (0): Embedding(65536, 128)
  )
  (rnn_layers): ModuleList(
    (0): GRU(128, 128, num_layers=3, batch_first=True, dropout=0.3, bidirectional=True)
  )
  (attn_nets): ModuleList(
    (0): Sequential(
      (0): Linear(in_features=256, out_features=64, bias=True)
      (1): Tanh()
      (2): Linear(in_features=64, out_features=1, bias=True)
    )
  )
  (projection_layers): ModuleList(
    (0): Linear(in_features=256, out_features=128, bias=True)
  )
  (feature_attn_net): Sequential(
    (0): Linear(in_features=128, out_features=128, bias=True)
    (1): Tanh()
    (2): Linear(in_features=128, out_features=1, bias=True)
  )
  (fc): Sequential(
    (0): Linear(in_features=128, out_features=128, bias=True)
    (1): ReLU()
    (2): Dropout(p=0.3, inplace=False)
    (3): Linear(in_features=128, out_features=91, bias=True)
  )
)
[2025-07-24 20:28:37,104] [INFO] Training...
[2025-07-24 20:29:08,646] [INFO] Epoch 1/5, ValAcc: 2.01%, TrainLoss: 4.4823, ValLoss: 4.3906, LR: 0.001
[2025-07-24 20:29:40,302] [INFO] Epoch 2/5, ValAcc: 6.77%, TrainLoss: 4.1976, ValLoss: 3.9324, LR: 0.001
[2025-07-24 20:30:10,810] [INFO] Epoch 3/5, ValAcc: 14.07%, TrainLoss: 3.7179, ValLoss: 3.5253, LR: 0.001
…
