…
  '24.892920']
 ['0.000000' '0.004176' '0.006938' ... '18.650270' '18.653487'
  '18.654598']
 ...
 ['0.000000' '0.005527' '0.040338' ... '10.430344' '10.430345'
  '10.430346']
 ['0.000000' '0.004883' '0.009906' ... '10.663809' '10.663811'
  '10.664173']
 ['0.000000' '0.000003' '0.002250' ... '2.632245' '2.680117' '2.685423']]
[2025-07-24 15:58:53,759] [INFO] Feature 0 normalized using robust
[2025-07-24 15:58:53,760] [INFO] Train shape: (59143, 500), Val shape: (8450, 500), Test shape: (16899, 500)
[2025-07-24 15:58:53,806] [INFO] Classifier: VRScannerModel(
  (input_modules): ModuleList(
    (0): Linear(in_features=1, out_features=128, bias=True)
  )
  (rnn_layers): ModuleList(
    (0): GRU(128, 128, num_layers=3, batch_first=True, dropout=0.3)
  )
  (attn_nets): ModuleList(
    (0): Sequential(
      (0): Linear(in_features=128, out_features=64, bias=True)
      (1): Tanh()
      (2): Linear(in_features=64, out_features=1, bias=True)
    )
  )
  (projection_layers): ModuleList(
    (0): Linear(in_features=128, out_features=128, bias=True)
  )
  (feature_attn_net): Sequential(
    (0): Linear(in_features=128, out_features=128, bias=True)
    (1): Tanh()
    (2): Linear(in_features=128, out_features=1, bias=True)
  )
  (fc): Sequential(
    (0): Linear(in_features=128, out_features=128, bias=True)
    (1): ReLU()
    (2): Dropout(p=0.3, inplace=False)
    (3): Linear(in_features=128, out_features=91, bias=True)
  )
)
[2025-07-24 15:58:53,806] [INFO] Training...
[2025-07-24 15:59:16,998] [INFO] Epoch 1/5, ValAcc: 8.98%, TrainLoss: 3.9577, ValLoss: 3.7475, LR: 0.001
[2025-07-24 15:59:33,233] [INFO] Epoch 2/5, ValAcc: 19.38%, TrainLoss: 3.4703, ValLoss: 3.2555, LR: 0.001
[2025-07-24 15:59:46,144] [INFO] Epoch 3/5, ValAcc: 23.01%, TrainLoss: 3.1964, ValLoss: 3.0805, LR: 0.001
…
ug', leaderboard_path='output/meta-free-apps/step2/step2_meta_pkt_ts_rel.csv', step1=False, step2=True, step3=False, train=False, longitudinal_evaluation=False, openworld_evaluation=False, device=device(type='cuda'), metadata='rel', name='pkttsrel_robust_gru_500_32_5_0.001_128_128_3_0.3_128_128'),0.3007,0.2863,0.3406,0.3009
[2025-07-24 16:00:39,847] [INFO] Feature 0 normalized using robust
[2025-07-24 16:00:39,848] [INFO] Train shape: (59143, 500), Val shape: (8450, 500), Test shape: (16899, 500)
[2025-07-24 16:00:39,880] [INFO] Classifier: VRScannerModel(
  (input_modules): ModuleList(
    (0): Linear(in_features=1, out_features=128, bias=True)
  )
  (rnn_layers): ModuleList(
    (0): GRU(128, 128, num_layers=3, batch_first=True, dropout=0.3, bidirectional=True)
  )
  (attn_nets): ModuleList(
    (0): Sequential(
      (0): Linear(in_features=256, out_features=64, bias=True)
      (1): Tanh()
      (2): Linear(in_features=64, out_features=1, bias=True)
    )
  )
  (projection_layers): ModuleList(
    (0): Linear(in_features=256, out_features=128, bias=True)
  )
  (feature_attn_net): Sequential(
    (0): Linear(in_features=128, out_features=128, bias=True)
    (1): Tanh()
    (2): Linear(in_features=128, out_features=1, bias=True)
  )
  (fc): Sequential(
    (0): Linear(in_features=128, out_features=128, bias=True)
    (1): ReLU()
    (2): Dropout(p=0.3, inplace=False)
    (3): Linear(in_features=128, out_features=91, bias=True)
  )
)
[2025-07-24 16:00:39,880] [INFO] Training...
[2025-07-24 16:01:09,190] [INFO] Epoch 1/5, ValAcc: 17.70%, TrainLoss: 3.9013, ValLoss: 3.3556, LR: 0.001
[2025-07-24 16:01:38,474] [INFO] Epoch 2/5, ValAcc: 26.00%, TrainLoss: 3.2275, ValLoss: 2.9185, LR: 0.001
[2025-07-24 16:02:07,559] [INFO] Epoch 3/5, ValAcc: 31.80%, TrainLoss: 2.8992, ValLoss: 2.6594, LR: 0.001
…
