…
[2025-07-24 16:57:37,301] [INFO] Processed data from meta-free-apps/meta-ip_ihl/meta-ip_ihl.csv:
[2025-07-24 16:57:37,302] [INFO] (84492, 500)
[2025-07-24 16:57:37,302] [INFO] [['5' '5' '5' ... '5' '5' '5']
 ['5' '5' '5' ... '5' '5' '5']
 ['5' '5' '5' ... '5' '5' '5']
 ...
 ['5' '5' '5' ... '5' '5' '5']
 ['5' '5' '5' ... '5' '5' '5']
 ['5' '5' '5' ... '5' '5' '5']]
[2025-07-24 16:57:52,098] [INFO] Feature 0 normalized using zscore
[2025-07-24 16:57:52,099] [INFO] Train shape: (59143, 500), Val shape: (8450, 500), Test shape: (16899, 500)
[2025-07-24 16:57:52,133] [INFO] Classifier: VRScannerModel(
  (input_modules): ModuleList(
    (0): Linear(in_features=1, out_features=128, bias=True)
  )
  (rnn_layers): ModuleList(
    (0): GRU(128, 128, num_layers=3, batch_first=True, dropout=0.3)
  )
  (attn_nets): ModuleList(
    (0): Sequential(
      (0): Linear(in_features=128, out_features=64, bias=True)
      (1): Tanh()
      (2): Linear(in_features=64, out_features=1, bias=True)
    )
  )
  (projection_layers): ModuleList(
    (0): Linear(in_features=128, out_features=128, bias=True)
  )
  (feature_attn_net): Sequential(
    (0): Linear(in_features=128, out_features=128, bias=True)
    (1): Tanh()
    (2): Linear(in_features=128, out_features=1, bias=True)
  )
  (fc): Sequential(
    (0): Linear(in_features=128, out_features=128, bias=True)
    (1): ReLU()
    (2): Dropout(p=0.3, inplace=False)
    (3): Linear(in_features=128, out_features=91, bias=True)
  )
)
[2025-07-24 16:57:52,133] [INFO] Training...
[2025-07-24 16:58:15,238] [INFO] Epoch 1/5, ValAcc: 0.98%, TrainLoss: 4.5125, ValLoss: 4.5119, LR: 0.001
[2025-07-24 16:58:36,830] [INFO] Epoch 2/5, ValAcc: 0.99%, TrainLoss: 4.5116, ValLoss: 4.5124, LR: 0.001
[2025-07-24 16:58:58,995] [INFO] Epoch 3/5, ValAcc: 0.99%, TrainLoss: 4.5096, ValLoss: 4.5101, LR: 0.001
…
ihl.debug', leaderboard_path='output/meta-free-apps/step2/step2_meta_ip_ihl.csv', step1=False, step2=True, step3=False, train=False, longitudinal_evaluation=False, openworld_evaluation=False, device=device(type='cuda'), metadata='ihl', name='ipihl_zscore_gru_500_32_5_0.001_128_128_3_0.3_128_128'),0.0102,0.0002,0.0001,0.0110
[2025-07-24 17:00:02,034] [INFO] Feature 0 normalized using zscore
[2025-07-24 17:00:02,034] [INFO] Train shape: (59143, 500), Val shape: (8450, 500), Test shape: (16899, 500)
[2025-07-24 17:00:02,051] [INFO] Classifier: VRScannerModel(
  (input_modules): ModuleList(
    (0): Linear(in_features=1, out_features=128, bias=True)
  )
  (rnn_layers): ModuleList(
    (0): GRU(128, 128, num_layers=3, batch_first=True, dropout=0.3, bidirectional=True)
  )
  (attn_nets): ModuleList(
    (0): Sequential(
      (0): Linear(in_features=256, out_features=64, bias=True)
      (1): Tanh()
      (2): Linear(in_features=64, out_features=1, bias=True)
    )
  )
  (projection_layers): ModuleList(
    (0): Linear(in_features=256, out_features=128, bias=True)
  )
  (feature_attn_net): Sequential(
    (0): Linear(in_features=128, out_features=128, bias=True)
    (1): Tanh()
    (2): Linear(in_features=128, out_features=1, bias=True)
  )
  (fc): Sequential(
    (0): Linear(in_features=128, out_features=128, bias=True)
    (1): ReLU()
    (2): Dropout(p=0.3, inplace=False)
    (3): Linear(in_features=128, out_features=91, bias=True)
  )
)
[2025-07-24 17:00:02,051] [INFO] Training...
[2025-07-24 17:00:31,365] [INFO] Epoch 1/5, ValAcc: 0.98%, TrainLoss: 4.5132, ValLoss: 4.5117, LR: 0.001
[2025-07-24 17:01:00,687] [INFO] Epoch 2/5, ValAcc: 0.98%, TrainLoss: 4.5111, ValLoss: 4.5122, LR: 0.001
[2025-07-24 17:01:30,020] [INFO] Epoch 3/5, ValAcc: 0.98%, TrainLoss: 4.5110, ValLoss: 4.5124, LR: 0.001
…
