…
[2025-07-24 15:15:49,653] [INFO] (84492, 500)
[2025-07-24 15:15:49,653] [INFO] [['656' '-94' '52' ... '1432' '1432' '1432']
 ['423' '-87' '52' ... '52' '-242' '-141']
 ['423' '-87' '52' ... '52' '-40' '-40']
 ...
 ['242' '-87' '52' ... '1432' '1432' '1432']
 ['60' '-60' '52' ... '1432' '1432' '-52']
 ['64' '52' '52' ... '52' '355' '-87']]
[2025-07-24 15:16:39,291] [INFO] Feature 0 normalized using token
[2025-07-24 15:16:39,292] [INFO] Train shape: (59143, 500), Val shape: (8450, 500), Test shape: (16899, 500)
[2025-07-24 15:16:39,335] [INFO] Classifier: VRScannerModel(
  (input_modules): ModuleList(
    (0): Embedding(2768, 128)
  )
  (rnn_layers): ModuleList(
    (0): GRU(128, 128, num_layers=3, batch_first=True, dropout=0.3)
  )
  (attn_nets): ModuleList(
    (0): Sequential(
      (0): Linear(in_features=128, out_features=64, bias=True)
      (1): Tanh()
      (2): Linear(in_features=64, out_features=1, bias=True)
    )
  )
  (projection_layers): ModuleList(
    (0): Linear(in_features=128, out_features=128, bias=True)
  )
  (feature_attn_net): Sequential(
    (0): Linear(in_features=128, out_features=128, bias=True)
    (1): Tanh()
    (2): Linear(in_features=128, out_features=1, bias=True)
  )
  (fc): Sequential(
    (0): Linear(in_features=128, out_features=128, bias=True)
    (1): ReLU()
    (2): Dropout(p=0.3, inplace=False)
    (3): Linear(in_features=128, out_features=91, bias=True)
  )
)
[2025-07-24 15:16:39,335] [INFO] Training...
[2025-07-24 15:17:03,212] [INFO] Epoch 1/5, ValAcc: 80.45%, TrainLoss: 2.5047, ValLoss: 0.8010, LR: 0.001
[2025-07-24 15:17:21,631] [INFO] Epoch 2/5, ValAcc: 87.68%, TrainLoss: 0.6916, ValLoss: 0.5249, LR: 0.001
[2025-07-24 15:17:45,157] [INFO] Epoch 3/5, ValAcc: 90.62%, TrainLoss: 0.4898, ValLoss: 0.3969, LR: 0.001
…
', leaderboard_path='output/meta-free-apps/step2/step2_meta_pkt_dirlen.csv', step1=False, step2=True, step3=False, train=False, longitudinal_evaluation=False, openworld_evaluation=False, device=device(type='cuda'), metadata='dirlen', name='pktdirlen_token_gru_500_32_5_0.001_128_128_3_0.3_128_128'),0.9170,0.9265,0.9454,0.9174
[2025-07-24 15:19:22,957] [INFO] Feature 0 normalized using token
[2025-07-24 15:19:22,957] [INFO] Train shape: (59143, 500), Val shape: (8450, 500), Test shape: (16899, 500)
[2025-07-24 15:19:22,995] [INFO] Classifier: VRScannerModel(
  (input_modules): ModuleList(
    (0): Embedding(2768, 128)
  )
  (rnn_layers): ModuleList(
    (0): GRU(128, 128, num_layers=3, batch_first=True, dropout=0.3, bidirectional=True)
  )
  (attn_nets): ModuleList(
    (0): Sequential(
      (0): Linear(in_features=256, out_features=64, bias=True)
      (1): Tanh()
      (2): Linear(in_features=64, out_features=1, bias=True)
    )
  )
  (projection_layers): ModuleList(
    (0): Linear(in_features=256, out_features=128, bias=True)
  )
  (feature_attn_net): Sequential(
    (0): Linear(in_features=128, out_features=128, bias=True)
    (1): Tanh()
    (2): Linear(in_features=128, out_features=1, bias=True)
  )
  (fc): Sequential(
    (0): Linear(in_features=128, out_features=128, bias=True)
    (1): ReLU()
    (2): Dropout(p=0.3, inplace=False)
    (3): Linear(in_features=128, out_features=91, bias=True)
  )
)
[2025-07-24 15:19:22,995] [INFO] Training...
[2025-07-24 15:19:48,519] [INFO] Epoch 1/5, ValAcc: 83.81%, TrainLoss: 1.9858, ValLoss: 0.6646, LR: 0.001
[2025-07-24 15:20:14,066] [INFO] Epoch 2/5, ValAcc: 88.24%, TrainLoss: 0.5989, ValLoss: 0.4969, LR: 0.001
[2025-07-24 15:20:39,578] [INFO] Epoch 3/5, ValAcc: 89.70%, TrainLoss: 0.4853, ValLoss: 0.4639, LR: 0.001
…
