…
[2025-07-29 08:00:13,159] [INFO] Processed data from meta-free-apps/meta-ip_outlen/meta-ip_outlen.csv:
[2025-07-29 08:00:13,159] [INFO] (84492, 500)
[2025-07-29 08:00:13,159] [INFO] [['656' '52' '83' ... '1432' '1432' '1432']
 ['423' '52' '52' ... '52' '76' '52']
 ['423' '52' '52' ... '76' '52' '83']
 ...
 ['242' '52' '76' ... '610' '52' '52']
 ['60' '52' '569' ... '1432' '1432' '1432']
 ['64' '52' '52' ... '91' '355' '91']]
[2025-07-29 08:00:50,682] [INFO] Feature 0 normalized using token
[2025-07-29 08:00:50,682] [INFO] Train shape: (59143, 500), Val shape: (8450, 500), Test shape: (16899, 500)
[2025-07-29 08:00:50,722] [INFO] Classifier: VRScannerModel(
  (input_modules): ModuleList(
    (0): Embedding(1384, 128)
  )
  (rnn_layers): ModuleList(
    (0): GRU(128, 128, num_layers=3, batch_first=True, dropout=0.3)
  )
  (attn_nets): ModuleList(
    (0): Sequential(
      (0): Linear(in_features=128, out_features=64, bias=True)
      (1): Tanh()
      (2): Linear(in_features=64, out_features=1, bias=True)
    )
  )
  (projection_layers): ModuleList(
    (0): Linear(in_features=128, out_features=128, bias=True)
  )
  (feature_attn_net): Sequential(
    (0): Linear(in_features=128, out_features=128, bias=True)
    (1): Tanh()
    (2): Linear(in_features=128, out_features=1, bias=True)
  )
  (fc): Sequential(
    (0): Linear(in_features=128, out_features=128, bias=True)
    (1): ReLU()
    (2): Dropout(p=0.3, inplace=False)
    (3): Linear(in_features=128, out_features=91, bias=True)
  )
)
[2025-07-29 08:00:50,722] [INFO] Training...
[2025-07-29 08:01:03,971] [INFO] Epoch 1/5, ValAcc: 62.45%, TrainLoss: 2.8726, ValLoss: 1.3747, LR: 0.001
[2025-07-29 08:01:15,145] [INFO] Epoch 2/5, ValAcc: 68.13%, TrainLoss: 1.3116, ValLoss: 1.1517, LR: 0.001
[2025-07-29 08:01:27,496] [INFO] Epoch 3/5, ValAcc: 70.40%, TrainLoss: 1.1235, ValLoss: 1.0528, LR: 0.001
…
ug', leaderboard_path='output/meta-free-apps/step2/step2_meta_ip_outlen.csv', step1=False, step2=True, step3=False, train=False, longitudinal_evaluation=False, openworld_evaluation=False, device=device(type='cuda'), metadata='outlen', name='ipoutlen_token_gru_500_32_5_0.001_128_128_3_0.3_128_128'),0.7375,0.7430,0.7791,0.7385
[2025-07-29 08:02:31,984] [INFO] Feature 0 normalized using token
[2025-07-29 08:02:31,984] [INFO] Train shape: (59143, 500), Val shape: (8450, 500), Test shape: (16899, 500)
[2025-07-29 08:02:32,006] [INFO] Classifier: VRScannerModel(
  (input_modules): ModuleList(
    (0): Embedding(1384, 128)
  )
  (rnn_layers): ModuleList(
    (0): GRU(128, 128, num_layers=3, batch_first=True, dropout=0.3, bidirectional=True)
  )
  (attn_nets): ModuleList(
    (0): Sequential(
      (0): Linear(in_features=256, out_features=64, bias=True)
      (1): Tanh()
      (2): Linear(in_features=64, out_features=1, bias=True)
    )
  )
  (projection_layers): ModuleList(
    (0): Linear(in_features=256, out_features=128, bias=True)
  )
  (feature_attn_net): Sequential(
    (0): Linear(in_features=128, out_features=128, bias=True)
    (1): Tanh()
    (2): Linear(in_features=128, out_features=1, bias=True)
  )
  (fc): Sequential(
    (0): Linear(in_features=128, out_features=128, bias=True)
    (1): ReLU()
    (2): Dropout(p=0.3, inplace=False)
    (3): Linear(in_features=128, out_features=91, bias=True)
  )
)
[2025-07-29 08:02:32,006] [INFO] Training...
[2025-07-29 08:02:52,309] [INFO] Epoch 1/5, ValAcc: 67.76%, TrainLoss: 2.5061, ValLoss: 1.1579, LR: 0.001
[2025-07-29 08:03:12,644] [INFO] Epoch 2/5, ValAcc: 72.43%, TrainLoss: 1.1322, ValLoss: 0.9975, LR: 0.001
[2025-07-29 08:03:32,959] [INFO] Epoch 3/5, ValAcc: 73.29%, TrainLoss: 0.9893, ValLoss: 0.9515, LR: 0.001
…
