…
[2025-07-24 22:58:36,166] [INFO] Processed data from meta-free-apps/meta-tcp_reserved/meta-tcp_reserved.csv:
[2025-07-24 22:58:36,166] [INFO] (84492, 500)
[2025-07-24 22:58:36,166] [INFO] [['0' '0' '0' ... '0' '0' '0']
 ['0' '0' '0' ... '0' '0' '0']
 ['0' '0' '0' ... '0' '0' '0']
 ...
 ['0' '0' '0' ... '0' '0' '0']
 ['0' '0' '0' ... '0' '0' '0']
 ['0' '0' '0' ... '0' '0' '0']]
[2025-07-24 22:58:53,884] [INFO] Feature 0 normalized using token
[2025-07-24 22:58:53,884] [INFO] Train shape: (59143, 500), Val shape: (8450, 500), Test shape: (16899, 500)
[2025-07-24 22:58:53,925] [INFO] Classifier: VRScannerModel(
  (input_modules): ModuleList(
    (0): Embedding(2, 128)
  )
  (rnn_layers): ModuleList(
    (0): GRU(128, 128, num_layers=3, batch_first=True, dropout=0.3)
  )
  (attn_nets): ModuleList(
    (0): Sequential(
      (0): Linear(in_features=128, out_features=64, bias=True)
      (1): Tanh()
      (2): Linear(in_features=64, out_features=1, bias=True)
    )
  )
  (projection_layers): ModuleList(
    (0): Linear(in_features=128, out_features=128, bias=True)
  )
  (feature_attn_net): Sequential(
    (0): Linear(in_features=128, out_features=128, bias=True)
    (1): Tanh()
    (2): Linear(in_features=128, out_features=1, bias=True)
  )
  (fc): Sequential(
    (0): Linear(in_features=128, out_features=128, bias=True)
    (1): ReLU()
    (2): Dropout(p=0.3, inplace=False)
    (3): Linear(in_features=128, out_features=91, bias=True)
  )
)
[2025-07-24 22:58:53,925] [INFO] Training...
[2025-07-24 22:59:17,422] [INFO] Epoch 1/5, ValAcc: 0.90%, TrainLoss: 4.5109, ValLoss: 4.5122, LR: 0.001
[2025-07-24 22:59:30,595] [INFO] Epoch 2/5, ValAcc: 0.95%, TrainLoss: 4.5113, ValLoss: 4.5135, LR: 0.001
[2025-07-24 22:59:52,082] [INFO] Epoch 3/5, ValAcc: 0.98%, TrainLoss: 4.5112, ValLoss: 4.5123, LR: 0.001
…
derboard_path='output/meta-free-apps/step2/step2_meta_tcp_reserved.csv', step1=False, step2=True, step3=False, train=False, longitudinal_evaluation=False, openworld_evaluation=False, device=device(type='cuda'), metadata='reserved', name='tcpreserved_token_gru_500_32_5_0.001_128_128_3_0.3_128_128'),0.0102,0.0002,0.0001,0.0110
[2025-07-24 23:00:44,767] [INFO] Feature 0 normalized using token
[2025-07-24 23:00:44,767] [INFO] Train shape: (59143, 500), Val shape: (8450, 500), Test shape: (16899, 500)
[2025-07-24 23:00:44,824] [INFO] Classifier: VRScannerModel(
  (input_modules): ModuleList(
    (0): Embedding(2, 128)
  )
  (rnn_layers): ModuleList(
    (0): GRU(128, 128, num_layers=3, batch_first=True, dropout=0.3, bidirectional=True)
  )
  (attn_nets): ModuleList(
    (0): Sequential(
      (0): Linear(in_features=256, out_features=64, bias=True)
      (1): Tanh()
      (2): Linear(in_features=64, out_features=1, bias=True)
    )
  )
  (projection_layers): ModuleList(
    (0): Linear(in_features=256, out_features=128, bias=True)
  )
  (feature_attn_net): Sequential(
    (0): Linear(in_features=128, out_features=128, bias=True)
    (1): Tanh()
    (2): Linear(in_features=128, out_features=1, bias=True)
  )
  (fc): Sequential(
    (0): Linear(in_features=128, out_features=128, bias=True)
    (1): ReLU()
    (2): Dropout(p=0.3, inplace=False)
    (3): Linear(in_features=128, out_features=91, bias=True)
  )
)
[2025-07-24 23:00:44,824] [INFO] Training...
[2025-07-24 23:01:14,781] [INFO] Epoch 1/5, ValAcc: 0.99%, TrainLoss: 4.5130, ValLoss: 4.5119, LR: 0.001
[2025-07-24 23:01:40,512] [INFO] Epoch 2/5, ValAcc: 0.98%, TrainLoss: 4.5111, ValLoss: 4.5123, LR: 0.001
[2025-07-24 23:02:06,219] [INFO] Epoch 3/5, ValAcc: 0.98%, TrainLoss: 4.5111, ValLoss: 4.5123, LR: 0.001
…
