…
[2025-07-24 21:53:32,001] [INFO] (84492, 500)
[2025-07-24 21:53:32,001] [INFO] [['443' '41794' '443' ... '443' '443' '443']
 ['443' '43074' '443' ... '443' '40458' '40458']
 ['443' '47326' '443' ... '443' '47338' '47338']
 ...
 ['443' '55810' '443' ... '443' '443' '443']
 ['443' '60006' '443' ... '443' '443' '43894']
 ['443' '443' '443' ... '443' '443' '58350']]
[2025-07-24 21:53:53,631] [INFO] Feature 0 normalized using robust
[2025-07-24 21:53:53,631] [INFO] Train shape: (59143, 500), Val shape: (8450, 500), Test shape: (16899, 500)
[2025-07-24 21:53:53,668] [INFO] Classifier: VRScannerModel(
  (input_modules): ModuleList(
    (0): Linear(in_features=1, out_features=128, bias=True)
  )
  (rnn_layers): ModuleList(
    (0): GRU(128, 128, num_layers=3, batch_first=True, dropout=0.3)
  )
  (attn_nets): ModuleList(
    (0): Sequential(
      (0): Linear(in_features=128, out_features=64, bias=True)
      (1): Tanh()
      (2): Linear(in_features=64, out_features=1, bias=True)
    )
  )
  (projection_layers): ModuleList(
    (0): Linear(in_features=128, out_features=128, bias=True)
  )
  (feature_attn_net): Sequential(
    (0): Linear(in_features=128, out_features=128, bias=True)
    (1): Tanh()
    (2): Linear(in_features=128, out_features=1, bias=True)
  )
  (fc): Sequential(
    (0): Linear(in_features=128, out_features=128, bias=True)
    (1): ReLU()
    (2): Dropout(p=0.3, inplace=False)
    (3): Linear(in_features=128, out_features=91, bias=True)
  )
)
[2025-07-24 21:53:53,668] [INFO] Training...
[2025-07-24 21:54:18,078] [INFO] Epoch 1/5, ValAcc: 11.40%, TrainLoss: 4.0346, ValLoss: 3.4162, LR: 0.001
[2025-07-24 21:54:31,000] [INFO] Epoch 2/5, ValAcc: 14.72%, TrainLoss: 3.2965, ValLoss: 3.0230, LR: 0.001
[2025-07-24 21:54:54,196] [INFO] Epoch 3/5, ValAcc: 23.28%, TrainLoss: 3.0353, ValLoss: 2.7542, LR: 0.001
…
g', leaderboard_path='output/meta-free-apps/step2/step2_meta_tcp_dport.csv', step1=False, step2=True, step3=False, train=False, longitudinal_evaluation=False, openworld_evaluation=False, device=device(type='cuda'), metadata='dport', name='tcpdport_robust_gru_500_32_5_0.001_128_128_3_0.3_128_128'),0.3522,0.3376,0.4020,0.3533
[2025-07-24 21:55:59,616] [INFO] Feature 0 normalized using robust
[2025-07-24 21:55:59,617] [INFO] Train shape: (59143, 500), Val shape: (8450, 500), Test shape: (16899, 500)
[2025-07-24 21:55:59,643] [INFO] Classifier: VRScannerModel(
  (input_modules): ModuleList(
    (0): Linear(in_features=1, out_features=128, bias=True)
  )
  (rnn_layers): ModuleList(
    (0): GRU(128, 128, num_layers=3, batch_first=True, dropout=0.3, bidirectional=True)
  )
  (attn_nets): ModuleList(
    (0): Sequential(
      (0): Linear(in_features=256, out_features=64, bias=True)
      (1): Tanh()
      (2): Linear(in_features=64, out_features=1, bias=True)
    )
  )
  (projection_layers): ModuleList(
    (0): Linear(in_features=256, out_features=128, bias=True)
  )
  (feature_attn_net): Sequential(
    (0): Linear(in_features=128, out_features=128, bias=True)
    (1): Tanh()
    (2): Linear(in_features=128, out_features=1, bias=True)
  )
  (fc): Sequential(
    (0): Linear(in_features=128, out_features=128, bias=True)
    (1): ReLU()
    (2): Dropout(p=0.3, inplace=False)
    (3): Linear(in_features=128, out_features=91, bias=True)
  )
)
[2025-07-24 21:55:59,643] [INFO] Training...
[2025-07-24 21:56:28,715] [INFO] Epoch 1/5, ValAcc: 1.04%, TrainLoss: 4.5126, ValLoss: 4.5117, LR: 0.001
[2025-07-24 21:56:54,100] [INFO] Epoch 2/5, ValAcc: 1.04%, TrainLoss: 4.5111, ValLoss: 4.5123, LR: 0.001
[2025-07-24 21:57:19,467] [INFO] Epoch 3/5, ValAcc: 0.98%, TrainLoss: 4.5111, ValLoss: 4.5125, LR: 0.001
…
