…
[2025-07-24 15:15:49,653] [INFO] (84492, 500)
[2025-07-24 15:15:49,653] [INFO] [['656' '-94' '52' ... '1432' '1432' '1432']
 ['423' '-87' '52' ... '52' '-242' '-141']
 ['423' '-87' '52' ... '52' '-40' '-40']
 ...
 ['242' '-87' '52' ... '1432' '1432' '1432']
 ['60' '-60' '52' ... '1432' '1432' '-52']
 ['64' '52' '52' ... '52' '355' '-87']]
[2025-07-24 15:16:39,291] [INFO] Feature 0 normalized using token
[2025-07-24 15:16:39,292] [INFO] Train shape: (59143, 500), Val shape: (8450, 500), Test shape: (16899, 500)
[2025-07-24 15:16:39,335] [INFO] Classifier: VRScannerModel(
  (input_modules): ModuleList(
    (0): Embedding(2768, 128)
  )
  (rnn_layers): ModuleList(
    (0): GRU(128, 128, num_layers=3, batch_first=True, dropout=0.3)
  )
  (attn_nets): ModuleList(
    (0): Sequential(
      (0): Linear(in_features=128, out_features=64, bias=True)
      (1): Tanh()
      (2): Linear(in_features=64, out_features=1, bias=True)
    )
  )
  (projection_layers): ModuleList(
    (0): Linear(in_features=128, out_features=128, bias=True)
  )
  (feature_attn_net): Sequential(
    (0): Linear(in_features=128, out_features=128, bias=True)
    (1): Tanh()
    (2): Linear(in_features=128, out_features=1, bias=True)
  )
  (fc): Sequential(
    (0): Linear(in_features=128, out_features=128, bias=True)
    (1): ReLU()
    (2): Dropout(p=0.3, inplace=False)
    (3): Linear(in_features=128, out_features=91, bias=True)
  )
)
[2025-07-24 15:16:39,335] [INFO] Training...
[2025-07-24 15:17:03,212] [INFO] Epoch 1/5, ValAcc: 80.45%, TrainLoss: 2.5047, ValLoss: 0.8010, LR: 0.001
[2025-07-24 15:17:21,631] [INFO] Epoch 2/5, ValAcc: 87.68%, TrainLoss: 0.6916, ValLoss: 0.5249, LR: 0.001
[2025-07-24 15:17:45,157] [INFO] Epoch 3/5, ValAcc: 90.62%, TrainLoss: 0.4898, ValLoss: 0.3969, LR: 0.001
…
', leaderboard_path='output/meta-free-apps/step2/step2_meta_pkt_dirlen.csv', step1=False, step2=True, step3=False, train=False, longitudinal_evaluation=False, openworld_evaluation=False, device=device(type='cuda'), metadata='dirlen', name='pktdirlen_token_gru_500_32_5_0.001_128_128_3_0.3_128_128'),0.9170,0.9265,0.9454,0.9174
[2025-07-24 15:19:22,957] [INFO] Feature 0 normalized using token
[2025-07-24 15:19:22,957] [INFO] Train shape: (59143, 500), Val shape: (8450, 500), Test shape: (16899, 500)
[2025-07-24 15:19:22,995] [INFO] Classifier: VRScannerModel(
  (input_modules): ModuleList(
    (0): Embedding(2768, 128)
  )
  (rnn_layers): ModuleList(
    (0): GRU(128, 128, num_layers=3, batch_first=True, dropout=0.3, bidirectional=True)
  )
  (attn_nets): ModuleList(
    (0): Sequential(
      (0): Linear(in_features=256, out_features=64, bias=True)
      (1): Tanh()
      (2): Linear(in_features=64, out_features=1, bias=True)
    )
  )
  (projection_layers): ModuleList(
    (0): Linear(in_features=256, out_features=128, bias=True)
  )
  (feature_attn_net): Sequential(
    (0): Linear(in_features=128, out_features=128, bias=True)
    (1): Tanh()
    (2): Linear(in_features=128, out_features=1, bias=True)
  )
  (fc): Sequential(
    (0): Linear(in_features=128, out_features=128, bias=True)
    (1): ReLU()
    (2): Dropout(p=0.3, inplace=False)
    (3): Linear(in_features=128, out_features=91, bias=True)
  )
)
[2025-07-24 15:19:22,995] [INFO] Training...
[2025-07-24 15:19:48,519] [INFO] Epoch 1/5, ValAcc: 83.81%, TrainLoss: 1.9858, ValLoss: 0.6646, LR: 0.001
[2025-07-24 15:20:14,066] [INFO] Epoch 2/5, ValAcc: 88.24%, TrainLoss: 0.5989, ValLoss: 0.4969, LR: 0.001
[2025-07-24 15:20:39,578] [INFO] Epoch 3/5, ValAcc: 89.70%, TrainLoss: 0.4853, ValLoss: 0.4639, LR: 0.001
…
[2025-07-24 15:37:54,573] [INFO] Processed data from meta-free-apps/meta-pkt_dir/meta-pkt_dir.csv:
[2025-07-24 15:37:54,573] [INFO] (84492, 500)
[2025-07-24 15:37:54,573] [INFO] [['1' '-1' '1' ... '1' '1' '1']
 ['1' '-1' '1' ... '1' '-1' '-1']
 ['1' '-1' '1' ... '1' '-1' '-1']
 ...
 ['1' '-1' '1' ... '1' '1' '1']
 ['1' '-1' '1' ... '1' '1' '-1']
 ['1' '1' '1' ... '1' '1' '-1']]
[2025-07-24 15:38:10,974] [INFO] Feature 0 normalized using robust
[2025-07-24 15:38:10,974] [INFO] Train shape: (59143, 500), Val shape: (8450, 500), Test shape: (16899, 500)
[2025-07-24 15:38:11,012] [INFO] Classifier: VRScannerModel(
  (input_modules): ModuleList(
    (0): Linear(in_features=1, out_features=128, bias=True)
  )
  (rnn_layers): ModuleList(
    (0): GRU(128, 128, num_layers=3, batch_first=True, dropout=0.3)
  )
  (attn_nets): ModuleList(
    (0): Sequential(
      (0): Linear(in_features=128, out_features=64, bias=True)
      (1): Tanh()
      (2): Linear(in_features=64, out_features=1, bias=True)
    )
  )
  (projection_layers): ModuleList(
    (0): Linear(in_features=128, out_features=128, bias=True)
  )
  (feature_attn_net): Sequential(
    (0): Linear(in_features=128, out_features=128, bias=True)
    (1): Tanh()
    (2): Linear(in_features=128, out_features=1, bias=True)
  )
  (fc): Sequential(
    (0): Linear(in_features=128, out_features=128, bias=True)
    (1): ReLU()
    (2): Dropout(p=0.3, inplace=False)
    (3): Linear(in_features=128, out_features=91, bias=True)
  )
)
[2025-07-24 15:38:11,012] [INFO] Training...
[2025-07-24 15:38:32,491] [INFO] Epoch 1/5, ValAcc: 10.66%, TrainLoss: 3.9960, ValLoss: 3.3746, LR: 0.001
[2025-07-24 15:38:53,339] [INFO] Epoch 2/5, ValAcc: 17.31%, TrainLoss: 3.2514, ValLoss: 2.9888, LR: 0.001
[2025-07-24 15:39:17,182] [INFO] Epoch 3/5, ValAcc: 22.84%, TrainLoss: 2.9722, ValLoss: 2.7758, LR: 0.001
…
r.debug', leaderboard_path='output/meta-free-apps/step2/step2_meta_pkt_dir.csv', step1=False, step2=True, step3=False, train=False, longitudinal_evaluation=False, openworld_evaluation=False, device=device(type='cuda'), metadata='dir', name='pktdir_robust_gru_500_32_5_0.001_128_128_3_0.3_128_128'),0.3486,0.3324,0.3931,0.3498
[2025-07-24 15:40:22,144] [INFO] Feature 0 normalized using robust
[2025-07-24 15:40:22,144] [INFO] Train shape: (59143, 500), Val shape: (8450, 500), Test shape: (16899, 500)
[2025-07-24 15:40:22,160] [INFO] Classifier: VRScannerModel(
  (input_modules): ModuleList(
    (0): Linear(in_features=1, out_features=128, bias=True)
  )
  (rnn_layers): ModuleList(
    (0): GRU(128, 128, num_layers=3, batch_first=True, dropout=0.3, bidirectional=True)
  )
  (attn_nets): ModuleList(
    (0): Sequential(
      (0): Linear(in_features=256, out_features=64, bias=True)
      (1): Tanh()
      (2): Linear(in_features=64, out_features=1, bias=True)
    )
  )
  (projection_layers): ModuleList(
    (0): Linear(in_features=256, out_features=128, bias=True)
  )
  (feature_attn_net): Sequential(
    (0): Linear(in_features=128, out_features=128, bias=True)
    (1): Tanh()
    (2): Linear(in_features=128, out_features=1, bias=True)
  )
  (fc): Sequential(
    (0): Linear(in_features=128, out_features=128, bias=True)
    (1): ReLU()
    (2): Dropout(p=0.3, inplace=False)
    (3): Linear(in_features=128, out_features=91, bias=True)
  )
)
[2025-07-24 15:40:22,160] [INFO] Training...
[2025-07-24 15:40:51,612] [INFO] Epoch 1/5, ValAcc: 0.91%, TrainLoss: 4.5129, ValLoss: 4.5117, LR: 0.001
[2025-07-24 15:41:21,272] [INFO] Epoch 2/5, ValAcc: 1.04%, TrainLoss: 4.5111, ValLoss: 4.5123, LR: 0.001
[2025-07-24 15:41:50,746] [INFO] Epoch 3/5, ValAcc: 0.98%, TrainLoss: 4.5111, ValLoss: 4.5124, LR: 0.001
…
 ['4' '4' '4' ... '4' '4' '4']
 ['4' '4' '4' ... '4' '4' '4']
 ...
 ['4' '4' '4' ... '4' '4' '4']
 ['4' '4' '4' ... '4' '4' '4']
 ['4' '4' '4' ... '4' '4' '4']]
[2025-07-24 16:39:12,614] [INFO] Feature 0 normalized using none
[2025-07-24 16:39:12,614] [INFO] Train shape: (59143, 500), Val shape: (8450, 500), Test shape: (16899, 500)
[2025-07-24 16:39:12,649] [INFO] Classifier: VRScannerModel(
  (input_modules): ModuleList(
    (0): Identity()
  )
  (rnn_layers): ModuleList(
    (0): GRU(1, 128, num_layers=3, batch_first=True, dropout=0.3)
  )
  (attn_nets): ModuleList(
    (0): Sequential(
      (0): Linear(in_features=128, out_features=64, bias=True)
      (1): Tanh()
      (2): Linear(in_features=64, out_features=1, bias=True)
    )
  )
  (projection_layers): ModuleList(
    (0): Linear(in_features=128, out_features=128, bias=True)
  )
  (feature_attn_net): Sequential(
    (0): Linear(in_features=128, out_features=128, bias=True)
    (1): Tanh()
    (2): Linear(in_features=128, out_features=1, bias=True)
  )
  (fc): Sequential(
    (0): Linear(in_features=128, out_features=128, bias=True)
    (1): ReLU()
    (2): Dropout(p=0.3, inplace=False)
    (3): Linear(in_features=128, out_features=91, bias=True)
  )
)
[2025-07-24 16:39:12,649] [INFO] Training...
[2025-07-24 16:39:35,415] [INFO] Epoch 1/5, ValAcc: 0.91%, TrainLoss: 4.5126, ValLoss: 4.5119, LR: 0.001
[2025-07-24 16:39:57,103] [INFO] Epoch 2/5, ValAcc: 0.91%, TrainLoss: 4.5113, ValLoss: 4.5121, LR: 0.001
[2025-07-24 16:40:15,866] [INFO] Epoch 3/5, ValAcc: 1.04%, TrainLoss: 4.5111, ValLoss: 4.5125, LR: 0.001
…
ce=device(type='cuda'), metadata='version', name='ipversion_none_gru_500_32_5_0.001_128_128_3_0.3_128_128'),0.0102,0.0002,0.0001,0.0110
[2025-07-24 16:41:21,158] [INFO] Feature 0 normalized using none
[2025-07-24 16:41:21,158] [INFO] Train shape: (59143, 500), Val shape: (8450, 500), Test shape: (16899, 500)
[2025-07-24 16:41:21,176] [INFO] Classifier: VRScannerModel(
  (input_modules): ModuleList(
    (0): Identity()
  )
  (rnn_layers): ModuleList(
    (0): GRU(1, 128, num_layers=3, batch_first=True, dropout=0.3, bidirectional=True)
  )
  (attn_nets): ModuleList(
    (0): Sequential(
      (0): Linear(in_features=256, out_features=64, bias=True)
      (1): Tanh()
      (2): Linear(in_features=64, out_features=1, bias=True)
    )
  )
  (projection_layers): ModuleList(
    (0): Linear(in_features=256, out_features=128, bias=True)
  )
  (feature_attn_net): Sequential(
    (0): Linear(in_features=128, out_features=128, bias=True)
    (1): Tanh()
    (2): Linear(in_features=128, out_features=1, bias=True)
  )
  (fc): Sequential(
    (0): Linear(in_features=128, out_features=128, bias=True)
    (1): ReLU()
    (2): Dropout(p=0.3, inplace=False)
    (3): Linear(in_features=128, out_features=91, bias=True)
  )
)
[2025-07-24 16:41:21,176] [INFO] Training...
[2025-07-24 16:41:49,116] [INFO] Epoch 1/5, ValAcc: 0.96%, TrainLoss: 4.5127, ValLoss: 4.5127, LR: 0.001
[2025-07-24 16:42:17,194] [INFO] Epoch 2/5, ValAcc: 0.98%, TrainLoss: 4.5114, ValLoss: 4.5124, LR: 0.001
[2025-07-24 16:42:45,637] [INFO] Epoch 3/5, ValAcc: 0.98%, TrainLoss: 4.5111, ValLoss: 4.5124, LR: 0.001
…
[2025-07-24 17:16:44,462] [INFO] Processed data from meta-free-apps/meta-ip_ttl/meta-ip_ttl.csv:
[2025-07-24 17:16:44,463] [INFO] (84492, 500)
[2025-07-24 17:16:44,463] [INFO] [['64' '49' '64' ... '64' '64' '64']
 ['64' '49' '64' ... '64' '49' '49']
 ['64' '49' '64' ... '64' '49' '49']
 ...
 ['64' '50' '64' ... '64' '64' '64']
 ['64' '50' '64' ... '64' '64' '48']
 ['64' '64' '64' ... '64' '64' '48']]
[2025-07-24 17:17:16,649] [INFO] Feature 0 normalized using token
[2025-07-24 17:17:16,649] [INFO] Train shape: (59143, 500), Val shape: (8450, 500), Test shape: (16899, 500)
[2025-07-24 17:17:16,694] [INFO] Classifier: VRScannerModel(
  (input_modules): ModuleList(
    (0): Embedding(18, 128)
  )
  (rnn_layers): ModuleList(
    (0): GRU(128, 128, num_layers=3, batch_first=True, dropout=0.3)
  )
  (attn_nets): ModuleList(
    (0): Sequential(
      (0): Linear(in_features=128, out_features=64, bias=True)
      (1): Tanh()
      (2): Linear(in_features=64, out_features=1, bias=True)
    )
  )
  (projection_layers): ModuleList(
    (0): Linear(in_features=128, out_features=128, bias=True)
  )
  (feature_attn_net): Sequential(
    (0): Linear(in_features=128, out_features=128, bias=True)
    (1): Tanh()
    (2): Linear(in_features=128, out_features=1, bias=True)
  )
  (fc): Sequential(
    (0): Linear(in_features=128, out_features=128, bias=True)
    (1): ReLU()
    (2): Dropout(p=0.3, inplace=False)
    (3): Linear(in_features=128, out_features=91, bias=True)
  )
)
[2025-07-24 17:17:16,694] [INFO] Training...
[2025-07-24 17:17:38,017] [INFO] Epoch 1/5, ValAcc: 12.57%, TrainLoss: 3.9178, ValLoss: 3.2943, LR: 0.001
[2025-07-24 17:17:57,053] [INFO] Epoch 2/5, ValAcc: 10.34%, TrainLoss: 3.2761, ValLoss: 3.2762, LR: 0.001
[2025-07-24 17:18:20,246] [INFO] Epoch 3/5, ValAcc: 18.20%, TrainLoss: 3.0490, ValLoss: 2.8810, LR: 0.001
…
p_ttl.debug', leaderboard_path='output/meta-free-apps/step2/step2_meta_ip_ttl.csv', step1=False, step2=True, step3=False, train=False, longitudinal_evaluation=False, openworld_evaluation=False, device=device(type='cuda'), metadata='ttl', name='ipttl_token_gru_500_32_5_0.001_128_128_3_0.3_128_128'),0.2921,0.2640,0.3014,0.2933
[2025-07-24 17:19:34,561] [INFO] Feature 0 normalized using token
[2025-07-24 17:19:34,561] [INFO] Train shape: (59143, 500), Val shape: (8450, 500), Test shape: (16899, 500)
[2025-07-24 17:19:34,620] [INFO] Classifier: VRScannerModel(
  (input_modules): ModuleList(
    (0): Embedding(18, 128)
  )
  (rnn_layers): ModuleList(
    (0): GRU(128, 128, num_layers=3, batch_first=True, dropout=0.3, bidirectional=True)
  )
  (attn_nets): ModuleList(
    (0): Sequential(
      (0): Linear(in_features=256, out_features=64, bias=True)
      (1): Tanh()
      (2): Linear(in_features=64, out_features=1, bias=True)
    )
  )
  (projection_layers): ModuleList(
    (0): Linear(in_features=256, out_features=128, bias=True)
  )
  (feature_attn_net): Sequential(
    (0): Linear(in_features=128, out_features=128, bias=True)
    (1): Tanh()
    (2): Linear(in_features=128, out_features=1, bias=True)
  )
  (fc): Sequential(
    (0): Linear(in_features=128, out_features=128, bias=True)
    (1): ReLU()
    (2): Dropout(p=0.3, inplace=False)
    (3): Linear(in_features=128, out_features=91, bias=True)
  )
)
[2025-07-24 17:19:34,620] [INFO] Training...
[2025-07-24 17:20:03,941] [INFO] Epoch 1/5, ValAcc: 9.36%, TrainLoss: 3.9543, ValLoss: 3.4514, LR: 0.001
[2025-07-24 17:20:32,833] [INFO] Epoch 2/5, ValAcc: 14.14%, TrainLoss: 3.3622, ValLoss: 3.1056, LR: 0.001
[2025-07-24 17:21:02,037] [INFO] Epoch 3/5, ValAcc: 17.93%, TrainLoss: 3.1282, ValLoss: 2.9171, LR: 0.001
…
 ['10.0.0.4' '157.240.215.51' '10.0.0.4' ... '10.0.0.4' '157.240.215.51'
  '157.240.215.51']
 ...
 ['10.0.1.8' '157.240.215.51' '10.0.1.8' ... '10.0.1.8' '10.0.1.8'
  '10.0.1.8']
 ['10.0.1.8' '157.240.215.51' '10.0.1.8' ... '10.0.1.8' '10.0.1.8'
  '157.240.215.16']
 ['10.0.1.8' '10.0.1.8' '10.0.1.8' ... '10.0.1.8' '10.0.1.8'
  '157.240.215.51']]
[2025-07-24 17:56:43,504] [INFO] Feature 0 normalized using token
[2025-07-24 17:56:43,504] [INFO] Train shape: (59143, 500), Val shape: (8450, 500), Test shape: (16899, 500)
[2025-07-24 17:56:43,550] [INFO] Classifier: VRScannerModel(
  (input_modules): ModuleList(
    (0): Embedding(102, 128)
  )
  (rnn_layers): ModuleList(
    (0): GRU(128, 128, num_layers=3, batch_first=True, dropout=0.3)
  )
  (attn_nets): ModuleList(
    (0): Sequential(
      (0): Linear(in_features=128, out_features=64, bias=True)
      (1): Tanh()
      (2): Linear(in_features=64, out_features=1, bias=True)
    )
  )
  (projection_layers): ModuleList(
    (0): Linear(in_features=128, out_features=128, bias=True)
  )
  (feature_attn_net): Sequential(
    (0): Linear(in_features=128, out_features=128, bias=True)
    (1): Tanh()
    (2): Linear(in_features=128, out_features=1, bias=True)
  )
  (fc): Sequential(
    (0): Linear(in_features=128, out_features=128, bias=True)
    (1): ReLU()
    (2): Dropout(p=0.3, inplace=False)
    (3): Linear(in_features=128, out_features=91, bias=True)
  )
)
[2025-07-24 17:56:43,550] [INFO] Training...
[2025-07-24 17:57:04,903] [INFO] Epoch 1/5, ValAcc: 26.34%, TrainLoss: 3.5846, ValLoss: 2.6954, LR: 0.001
[2025-07-24 17:57:26,497] [INFO] Epoch 2/5, ValAcc: 39.93%, TrainLoss: 2.4986, ValLoss: 2.0785, LR: 0.001
[2025-07-24 17:57:50,098] [INFO] Epoch 3/5, ValAcc: 45.04%, TrainLoss: 2.0397, ValLoss: 1.8175, LR: 0.001
…
p_src.debug', leaderboard_path='output/meta-free-apps/step2/step2_meta_ip_src.csv', step1=False, step2=True, step3=False, train=False, longitudinal_evaluation=False, openworld_evaluation=False, device=device(type='cuda'), metadata='src', name='ipsrc_token_gru_500_32_5_0.001_128_128_3_0.3_128_128'),0.5163,0.5113,0.5575,0.5167
[2025-07-24 17:59:18,113] [INFO] Feature 0 normalized using token
[2025-07-24 17:59:18,114] [INFO] Train shape: (59143, 500), Val shape: (8450, 500), Test shape: (16899, 500)
[2025-07-24 17:59:18,148] [INFO] Classifier: VRScannerModel(
  (input_modules): ModuleList(
    (0): Embedding(102, 128)
  )
  (rnn_layers): ModuleList(
    (0): GRU(128, 128, num_layers=3, batch_first=True, dropout=0.3, bidirectional=True)
  )
  (attn_nets): ModuleList(
    (0): Sequential(
      (0): Linear(in_features=256, out_features=64, bias=True)
      (1): Tanh()
      (2): Linear(in_features=64, out_features=1, bias=True)
    )
  )
  (projection_layers): ModuleList(
    (0): Linear(in_features=256, out_features=128, bias=True)
  )
  (feature_attn_net): Sequential(
    (0): Linear(in_features=128, out_features=128, bias=True)
    (1): Tanh()
    (2): Linear(in_features=128, out_features=1, bias=True)
  )
  (fc): Sequential(
    (0): Linear(in_features=128, out_features=128, bias=True)
    (1): ReLU()
    (2): Dropout(p=0.3, inplace=False)
    (3): Linear(in_features=128, out_features=91, bias=True)
  )
)
[2025-07-24 17:59:18,148] [INFO] Training...
[2025-07-24 17:59:47,274] [INFO] Epoch 1/5, ValAcc: 27.57%, TrainLoss: 3.4752, ValLoss: 2.5441, LR: 0.001
[2025-07-24 18:00:16,285] [INFO] Epoch 2/5, ValAcc: 41.61%, TrainLoss: 2.2571, ValLoss: 1.9557, LR: 0.001
[2025-07-24 18:00:45,612] [INFO] Epoch 3/5, ValAcc: 46.96%, TrainLoss: 1.9278, ValLoss: 1.7609, LR: 0.001
…
[2025-07-24 18:40:20,342] [INFO] Processed data from meta-free-apps/meta-ip_proto/meta-ip_proto.csv:
[2025-07-24 18:40:20,342] [INFO] (84492, 500)
[2025-07-24 18:40:20,342] [INFO] [['6' '6' '6' ... '6' '6' '6']
 ['6' '6' '6' ... '6' '6' '6']
 ['6' '6' '6' ... '6' '6' '6']
 ...
 ['6' '6' '6' ... '6' '6' '6']
 ['6' '6' '6' ... '6' '6' '6']
 ['6' '6' '6' ... '6' '6' '6']]
[2025-07-24 18:40:38,236] [INFO] Feature 0 normalized using token
[2025-07-24 18:40:38,236] [INFO] Train shape: (59143, 500), Val shape: (8450, 500), Test shape: (16899, 500)
[2025-07-24 18:40:38,279] [INFO] Classifier: VRScannerModel(
  (input_modules): ModuleList(
    (0): Embedding(4, 128)
  )
  (rnn_layers): ModuleList(
    (0): GRU(128, 128, num_layers=3, batch_first=True, dropout=0.3)
  )
  (attn_nets): ModuleList(
    (0): Sequential(
      (0): Linear(in_features=128, out_features=64, bias=True)
      (1): Tanh()
      (2): Linear(in_features=64, out_features=1, bias=True)
    )
  )
  (projection_layers): ModuleList(
    (0): Linear(in_features=128, out_features=128, bias=True)
  )
  (feature_attn_net): Sequential(
    (0): Linear(in_features=128, out_features=128, bias=True)
    (1): Tanh()
    (2): Linear(in_features=128, out_features=1, bias=True)
  )
  (fc): Sequential(
    (0): Linear(in_features=128, out_features=128, bias=True)
    (1): ReLU()
    (2): Dropout(p=0.3, inplace=False)
    (3): Linear(in_features=128, out_features=91, bias=True)
  )
)
[2025-07-24 18:40:38,279] [INFO] Training...
[2025-07-24 18:41:01,800] [INFO] Epoch 1/5, ValAcc: 0.98%, TrainLoss: 4.5127, ValLoss: 4.5118, LR: 0.001
[2025-07-24 18:41:24,610] [INFO] Epoch 2/5, ValAcc: 0.98%, TrainLoss: 4.5113, ValLoss: 4.5122, LR: 0.001
[2025-07-24 18:41:47,247] [INFO] Epoch 3/5, ValAcc: 1.04%, TrainLoss: 4.5111, ValLoss: 4.5124, LR: 0.001
…
debug', leaderboard_path='output/meta-free-apps/step2/step2_meta_ip_proto.csv', step1=False, step2=True, step3=False, train=False, longitudinal_evaluation=False, openworld_evaluation=False, device=device(type='cuda'), metadata='proto', name='ipproto_token_gru_500_32_5_0.001_128_128_3_0.3_128_128'),0.0102,0.0002,0.0001,0.0110
[2025-07-24 18:42:55,174] [INFO] Feature 0 normalized using token
[2025-07-24 18:42:55,175] [INFO] Train shape: (59143, 500), Val shape: (8450, 500), Test shape: (16899, 500)
[2025-07-24 18:42:55,225] [INFO] Classifier: VRScannerModel(
  (input_modules): ModuleList(
    (0): Embedding(4, 128)
  )
  (rnn_layers): ModuleList(
    (0): GRU(128, 128, num_layers=3, batch_first=True, dropout=0.3, bidirectional=True)
  )
  (attn_nets): ModuleList(
    (0): Sequential(
      (0): Linear(in_features=256, out_features=64, bias=True)
      (1): Tanh()
      (2): Linear(in_features=64, out_features=1, bias=True)
    )
  )
  (projection_layers): ModuleList(
    (0): Linear(in_features=256, out_features=128, bias=True)
  )
  (feature_attn_net): Sequential(
    (0): Linear(in_features=128, out_features=128, bias=True)
    (1): Tanh()
    (2): Linear(in_features=128, out_features=1, bias=True)
  )
  (fc): Sequential(
    (0): Linear(in_features=128, out_features=128, bias=True)
    (1): ReLU()
    (2): Dropout(p=0.3, inplace=False)
    (3): Linear(in_features=128, out_features=91, bias=True)
  )
)
[2025-07-24 18:42:55,225] [INFO] Training...
[2025-07-24 18:43:24,257] [INFO] Epoch 1/5, ValAcc: 1.05%, TrainLoss: 4.5126, ValLoss: 4.5102, LR: 0.001
[2025-07-24 18:43:55,634] [INFO] Epoch 2/5, ValAcc: 0.99%, TrainLoss: 4.5087, ValLoss: 4.5083, LR: 0.001
[2025-07-24 18:44:26,342] [INFO] Epoch 3/5, ValAcc: 0.98%, TrainLoss: 4.5086, ValLoss: 4.5124, LR: 0.001
…
[2025-07-24 19:00:34,220] [INFO] (84492, 500)
[2025-07-24 19:00:34,220] [INFO] [['656' '94' '52' ... '1432' '1432' '1432']
 ['423' '87' '52' ... '52' '242' '141']
 ['423' '87' '52' ... '52' '40' '40']
 ...
 ['242' '87' '52' ... '1432' '1432' '1432']
 ['60' '60' '52' ... '1432' '1432' '52']
 ['64' '52' '52' ... '52' '355' '87']]
[2025-07-24 19:01:23,339] [INFO] Feature 0 normalized using token
[2025-07-24 19:01:23,340] [INFO] Train shape: (59143, 500), Val shape: (8450, 500), Test shape: (16899, 500)
[2025-07-24 19:01:23,397] [INFO] Classifier: VRScannerModel(
  (input_modules): ModuleList(
    (0): Embedding(1385, 128)
  )
  (rnn_layers): ModuleList(
    (0): GRU(128, 128, num_layers=3, batch_first=True, dropout=0.3)
  )
  (attn_nets): ModuleList(
    (0): Sequential(
      (0): Linear(in_features=128, out_features=64, bias=True)
      (1): Tanh()
      (2): Linear(in_features=64, out_features=1, bias=True)
    )
  )
  (projection_layers): ModuleList(
    (0): Linear(in_features=128, out_features=128, bias=True)
  )
  (feature_attn_net): Sequential(
    (0): Linear(in_features=128, out_features=128, bias=True)
    (1): Tanh()
    (2): Linear(in_features=128, out_features=1, bias=True)
  )
  (fc): Sequential(
    (0): Linear(in_features=128, out_features=128, bias=True)
    (1): ReLU()
    (2): Dropout(p=0.3, inplace=False)
    (3): Linear(in_features=128, out_features=91, bias=True)
  )
)
[2025-07-24 19:01:23,397] [INFO] Training...
[2025-07-24 19:01:48,047] [INFO] Epoch 1/5, ValAcc: 72.30%, TrainLoss: 3.0009, ValLoss: 1.0793, LR: 0.001
[2025-07-24 19:02:11,702] [INFO] Epoch 2/5, ValAcc: 90.84%, TrainLoss: 0.6128, ValLoss: 0.3730, LR: 0.001
[2025-07-24 19:02:35,481] [INFO] Epoch 3/5, ValAcc: 92.15%, TrainLoss: 0.3617, ValLoss: 0.3294, LR: 0.001
…
p_len.debug', leaderboard_path='output/meta-free-apps/step2/step2_meta_ip_len.csv', step1=False, step2=True, step3=False, train=False, longitudinal_evaluation=False, openworld_evaluation=False, device=device(type='cuda'), metadata='len', name='iplen_token_gru_500_32_5_0.001_128_128_3_0.3_128_128'),0.9246,0.9256,0.9353,0.9252
[2025-07-24 19:04:13,439] [INFO] Feature 0 normalized using token
[2025-07-24 19:04:13,439] [INFO] Train shape: (59143, 500), Val shape: (8450, 500), Test shape: (16899, 500)
[2025-07-24 19:04:13,473] [INFO] Classifier: VRScannerModel(
  (input_modules): ModuleList(
    (0): Embedding(1385, 128)
  )
  (rnn_layers): ModuleList(
    (0): GRU(128, 128, num_layers=3, batch_first=True, dropout=0.3, bidirectional=True)
  )
  (attn_nets): ModuleList(
    (0): Sequential(
      (0): Linear(in_features=256, out_features=64, bias=True)
      (1): Tanh()
      (2): Linear(in_features=64, out_features=1, bias=True)
    )
  )
  (projection_layers): ModuleList(
    (0): Linear(in_features=256, out_features=128, bias=True)
  )
  (feature_attn_net): Sequential(
    (0): Linear(in_features=128, out_features=128, bias=True)
    (1): Tanh()
    (2): Linear(in_features=128, out_features=1, bias=True)
  )
  (fc): Sequential(
    (0): Linear(in_features=128, out_features=128, bias=True)
    (1): ReLU()
    (2): Dropout(p=0.3, inplace=False)
    (3): Linear(in_features=128, out_features=91, bias=True)
  )
)
[2025-07-24 19:04:13,473] [INFO] Training...
[2025-07-24 19:04:43,067] [INFO] Epoch 1/5, ValAcc: 85.08%, TrainLoss: 2.4102, ValLoss: 0.6254, LR: 0.001
[2025-07-24 19:05:12,642] [INFO] Epoch 2/5, ValAcc: 91.14%, TrainLoss: 0.4809, ValLoss: 0.3593, LR: 0.001
[2025-07-24 19:05:42,248] [INFO] Epoch 3/5, ValAcc: 91.76%, TrainLoss: 0.3435, ValLoss: 0.3567, LR: 0.001
…
[2025-07-24 20:02:46,375] [INFO] Processed data from meta-free-apps/meta-ip_flags/meta-ip_flags.csv:
[2025-07-24 20:02:46,376] [INFO] (84492, 500)
[2025-07-24 20:02:46,376] [INFO] [['DF' 'DF' 'DF' ... 'DF' 'DF' 'DF']
 ['DF' 'DF' 'DF' ... 'DF' 'DF' 'DF']
 ['DF' 'DF' 'DF' ... 'DF' 'DF' 'DF']
 ...
 ['DF' 'DF' 'DF' ... 'DF' 'DF' 'DF']
 ['DF' 'DF' 'DF' ... 'DF' 'DF' 'DF']
 ['DF' 'DF' 'DF' ... 'DF' 'DF' 'DF']]
[2025-07-24 20:03:10,627] [INFO] Feature 0 normalized using token
[2025-07-24 20:03:10,627] [INFO] Train shape: (59143, 500), Val shape: (8450, 500), Test shape: (16899, 500)
[2025-07-24 20:03:10,679] [INFO] Classifier: VRScannerModel(
  (input_modules): ModuleList(
    (0): Embedding(2, 128)
  )
  (rnn_layers): ModuleList(
    (0): GRU(128, 128, num_layers=3, batch_first=True, dropout=0.3)
  )
  (attn_nets): ModuleList(
    (0): Sequential(
      (0): Linear(in_features=128, out_features=64, bias=True)
      (1): Tanh()
      (2): Linear(in_features=64, out_features=1, bias=True)
    )
  )
  (projection_layers): ModuleList(
    (0): Linear(in_features=128, out_features=128, bias=True)
  )
  (feature_attn_net): Sequential(
    (0): Linear(in_features=128, out_features=128, bias=True)
    (1): Tanh()
    (2): Linear(in_features=128, out_features=1, bias=True)
  )
  (fc): Sequential(
    (0): Linear(in_features=128, out_features=128, bias=True)
    (1): ReLU()
    (2): Dropout(p=0.3, inplace=False)
    (3): Linear(in_features=128, out_features=91, bias=True)
  )
)
[2025-07-24 20:03:10,680] [INFO] Training...
[2025-07-24 20:03:30,883] [INFO] Epoch 1/5, ValAcc: 0.99%, TrainLoss: 4.4893, ValLoss: 4.5118, LR: 0.001
[2025-07-24 20:03:54,045] [INFO] Epoch 2/5, ValAcc: 2.06%, TrainLoss: 4.4752, ValLoss: 4.4628, LR: 0.001
[2025-07-24 20:04:11,620] [INFO] Epoch 3/5, ValAcc: 2.09%, TrainLoss: 4.4581, ValLoss: 4.4580, LR: 0.001
…
debug', leaderboard_path='output/meta-free-apps/step2/step2_meta_ip_flags.csv', step1=False, step2=True, step3=False, train=False, longitudinal_evaluation=False, openworld_evaluation=False, device=device(type='cuda'), metadata='flags', name='ipflags_token_gru_500_32_5_0.001_128_128_3_0.3_128_128'),0.0233,0.0179,0.0320,0.0235
[2025-07-24 20:05:25,454] [INFO] Feature 0 normalized using token
[2025-07-24 20:05:25,455] [INFO] Train shape: (59143, 500), Val shape: (8450, 500), Test shape: (16899, 500)
[2025-07-24 20:05:25,479] [INFO] Classifier: VRScannerModel(
  (input_modules): ModuleList(
    (0): Embedding(2, 128)
  )
  (rnn_layers): ModuleList(
    (0): GRU(128, 128, num_layers=3, batch_first=True, dropout=0.3, bidirectional=True)
  )
  (attn_nets): ModuleList(
    (0): Sequential(
      (0): Linear(in_features=256, out_features=64, bias=True)
      (1): Tanh()
      (2): Linear(in_features=64, out_features=1, bias=True)
    )
  )
  (projection_layers): ModuleList(
    (0): Linear(in_features=256, out_features=128, bias=True)
  )
  (feature_attn_net): Sequential(
    (0): Linear(in_features=128, out_features=128, bias=True)
    (1): Tanh()
    (2): Linear(in_features=128, out_features=1, bias=True)
  )
  (fc): Sequential(
    (0): Linear(in_features=128, out_features=128, bias=True)
    (1): ReLU()
    (2): Dropout(p=0.3, inplace=False)
    (3): Linear(in_features=128, out_features=91, bias=True)
  )
)
[2025-07-24 20:05:25,479] [INFO] Training...
[2025-07-24 20:05:55,073] [INFO] Epoch 1/5, ValAcc: 1.91%, TrainLoss: 4.4689, ValLoss: 4.4576, LR: 0.001
[2025-07-24 20:06:24,563] [INFO] Epoch 2/5, ValAcc: 1.99%, TrainLoss: 4.4571, ValLoss: 4.4575, LR: 0.001
[2025-07-24 20:06:55,159] [INFO] Epoch 3/5, ValAcc: 2.11%, TrainLoss: 4.4547, ValLoss: 4.4551, LR: 0.001
…
[2025-07-24 20:24:26,894] [INFO] [['37264' '38821' '37867' ... '60666' '60665' '60664']
 ['21399' '63662' '21769' ... '1187' '33931' '34031']
 ['45191' '50362' '45561' ... '21796' '51880' '51880']
 ...
 ['38587' '60137' '38776' ... '34662' '34661' '34660']
 ['38403' '51344' '38410' ... '21415' '21414' '7363']
 ['15327' '15338' '15337' ... '16489' '65416' '37810']]
[2025-07-24 20:25:31,069] [INFO] Feature 0 normalized using token
[2025-07-24 20:25:31,070] [INFO] Train shape: (59143, 500), Val shape: (8450, 500), Test shape: (16899, 500)
[2025-07-24 20:25:31,165] [INFO] Classifier: VRScannerModel(
  (input_modules): ModuleList(
    (0): Embedding(65536, 128)
  )
  (rnn_layers): ModuleList(
    (0): GRU(128, 128, num_layers=3, batch_first=True, dropout=0.3)
  )
  (attn_nets): ModuleList(
    (0): Sequential(
      (0): Linear(in_features=128, out_features=64, bias=True)
      (1): Tanh()
      (2): Linear(in_features=64, out_features=1, bias=True)
    )
  )
  (projection_layers): ModuleList(
    (0): Linear(in_features=128, out_features=128, bias=True)
  )
  (feature_attn_net): Sequential(
    (0): Linear(in_features=128, out_features=128, bias=True)
    (1): Tanh()
    (2): Linear(in_features=128, out_features=1, bias=True)
  )
  (fc): Sequential(
    (0): Linear(in_features=128, out_features=128, bias=True)
    (1): ReLU()
    (2): Dropout(p=0.3, inplace=False)
    (3): Linear(in_features=128, out_features=91, bias=True)
  )
)
[2025-07-24 20:25:31,166] [INFO] Training...
[2025-07-24 20:25:54,680] [INFO] Epoch 1/5, ValAcc: 1.63%, TrainLoss: 4.5000, ValLoss: 4.4272, LR: 0.001
[2025-07-24 20:26:18,263] [INFO] Epoch 2/5, ValAcc: 4.38%, TrainLoss: 4.3422, ValLoss: 4.1960, LR: 0.001
[2025-07-24 20:26:42,717] [INFO] Epoch 3/5, ValAcc: 6.79%, TrainLoss: 4.0492, ValLoss: 4.0157, LR: 0.001
…
ug', leaderboard_path='output/meta-free-apps/step2/step2_meta_ip_chksum.csv', step1=False, step2=True, step3=False, train=False, longitudinal_evaluation=False, openworld_evaluation=False, device=device(type='cuda'), metadata='chksum', name='ipchksum_token_gru_500_32_5_0.001_128_128_3_0.3_128_128'),0.1181,0.1023,0.1196,0.1181
[2025-07-24 20:28:37,041] [INFO] Feature 0 normalized using token
[2025-07-24 20:28:37,041] [INFO] Train shape: (59143, 500), Val shape: (8450, 500), Test shape: (16899, 500)
[2025-07-24 20:28:37,104] [INFO] Classifier: VRScannerModel(
  (input_modules): ModuleList(
    (0): Embedding(65536, 128)
  )
  (rnn_layers): ModuleList(
    (0): GRU(128, 128, num_layers=3, batch_first=True, dropout=0.3, bidirectional=True)
  )
  (attn_nets): ModuleList(
    (0): Sequential(
      (0): Linear(in_features=256, out_features=64, bias=True)
      (1): Tanh()
      (2): Linear(in_features=64, out_features=1, bias=True)
    )
  )
  (projection_layers): ModuleList(
    (0): Linear(in_features=256, out_features=128, bias=True)
  )
  (feature_attn_net): Sequential(
    (0): Linear(in_features=128, out_features=128, bias=True)
    (1): Tanh()
    (2): Linear(in_features=128, out_features=1, bias=True)
  )
  (fc): Sequential(
    (0): Linear(in_features=128, out_features=128, bias=True)
    (1): ReLU()
    (2): Dropout(p=0.3, inplace=False)
    (3): Linear(in_features=128, out_features=91, bias=True)
  )
)
[2025-07-24 20:28:37,104] [INFO] Training...
[2025-07-24 20:29:08,646] [INFO] Epoch 1/5, ValAcc: 2.01%, TrainLoss: 4.4823, ValLoss: 4.3906, LR: 0.001
[2025-07-24 20:29:40,302] [INFO] Epoch 2/5, ValAcc: 6.77%, TrainLoss: 4.1976, ValLoss: 3.9324, LR: 0.001
[2025-07-24 20:30:10,810] [INFO] Epoch 3/5, ValAcc: 14.07%, TrainLoss: 3.7179, ValLoss: 3.5253, LR: 0.001
…
[2025-07-24 20:50:18,642] [INFO] (84492, 500)
[2025-07-24 20:50:18,642] [INFO] [['2747' '2038' '2747' ... '289' '289' '289']
 ['307' '307' '307' ... '645' '1121' '1121']
 ['307' '307' '307' ... '310' '0' '0']
 ...
 ['774' '1301' '774' ... '300' '300' '300']
 ['65535' '65535' '256' ... '300' '300' '1030']
 ['267' '278' '289' ... '1119' '1539' '2631']]
[2025-07-24 20:51:13,330] [INFO] Feature 0 normalized using token
[2025-07-24 20:51:13,331] [INFO] Train shape: (59143, 500), Val shape: (8450, 500), Test shape: (16899, 500)
[2025-07-24 20:51:13,380] [INFO] Classifier: VRScannerModel(
  (input_modules): ModuleList(
    (0): Embedding(5813, 128)
  )
  (rnn_layers): ModuleList(
    (0): GRU(128, 128, num_layers=3, batch_first=True, dropout=0.3)
  )
  (attn_nets): ModuleList(
    (0): Sequential(
      (0): Linear(in_features=128, out_features=64, bias=True)
      (1): Tanh()
      (2): Linear(in_features=64, out_features=1, bias=True)
    )
  )
  (projection_layers): ModuleList(
    (0): Linear(in_features=128, out_features=128, bias=True)
  )
  (feature_attn_net): Sequential(
    (0): Linear(in_features=128, out_features=128, bias=True)
    (1): Tanh()
    (2): Linear(in_features=128, out_features=1, bias=True)
  )
  (fc): Sequential(
    (0): Linear(in_features=128, out_features=128, bias=True)
    (1): ReLU()
    (2): Dropout(p=0.3, inplace=False)
    (3): Linear(in_features=128, out_features=91, bias=True)
  )
)
[2025-07-24 20:51:13,381] [INFO] Training...
[2025-07-24 20:51:33,343] [INFO] Epoch 1/5, ValAcc: 36.07%, TrainLoss: 3.3672, ValLoss: 2.3571, LR: 0.001
[2025-07-24 20:51:53,631] [INFO] Epoch 2/5, ValAcc: 51.79%, TrainLoss: 2.0729, ValLoss: 1.7098, LR: 0.001
[2025-07-24 20:52:16,687] [INFO] Epoch 3/5, ValAcc: 56.88%, TrainLoss: 1.6379, ValLoss: 1.4840, LR: 0.001
…
', leaderboard_path='output/meta-free-apps/step2/step2_meta_tcp_window.csv', step1=False, step2=True, step3=False, train=False, longitudinal_evaluation=False, openworld_evaluation=False, device=device(type='cuda'), metadata='window', name='tcpwindow_token_gru_500_32_5_0.001_128_128_3_0.3_128_128'),0.6470,0.6446,0.6851,0.6469
[2025-07-24 20:53:59,392] [INFO] Feature 0 normalized using token
[2025-07-24 20:53:59,392] [INFO] Train shape: (59143, 500), Val shape: (8450, 500), Test shape: (16899, 500)
[2025-07-24 20:53:59,426] [INFO] Classifier: VRScannerModel(
  (input_modules): ModuleList(
    (0): Embedding(5813, 128)
  )
  (rnn_layers): ModuleList(
    (0): GRU(128, 128, num_layers=3, batch_first=True, dropout=0.3, bidirectional=True)
  )
  (attn_nets): ModuleList(
    (0): Sequential(
      (0): Linear(in_features=256, out_features=64, bias=True)
      (1): Tanh()
      (2): Linear(in_features=64, out_features=1, bias=True)
    )
  )
  (projection_layers): ModuleList(
    (0): Linear(in_features=256, out_features=128, bias=True)
  )
  (feature_attn_net): Sequential(
    (0): Linear(in_features=128, out_features=128, bias=True)
    (1): Tanh()
    (2): Linear(in_features=128, out_features=1, bias=True)
  )
  (fc): Sequential(
    (0): Linear(in_features=128, out_features=128, bias=True)
    (1): ReLU()
    (2): Dropout(p=0.3, inplace=False)
    (3): Linear(in_features=128, out_features=91, bias=True)
  )
)
[2025-07-24 20:53:59,426] [INFO] Training...
[2025-07-24 20:54:28,140] [INFO] Epoch 1/5, ValAcc: 49.01%, TrainLoss: 3.0064, ValLoss: 1.8825, LR: 0.001
[2025-07-24 20:54:57,687] [INFO] Epoch 2/5, ValAcc: 58.47%, TrainLoss: 1.7221, ValLoss: 1.4240, LR: 0.001
[2025-07-24 20:55:27,531] [INFO] Epoch 3/5, ValAcc: 63.01%, TrainLoss: 1.3996, ValLoss: 1.2878, LR: 0.001
…
[2025-07-24 23:17:25,950] [INFO] Processed data from meta-free-apps/meta-tcp_flags/meta-tcp_flags.csv:
[2025-07-24 23:17:25,950] [INFO] (84492, 500)
[2025-07-24 23:17:25,950] [INFO] [['PA' 'PA' 'A' ... 'A' 'A' 'A']
 ['PA' 'PA' 'A' ... 'A' 'A' 'PA']
 ['PA' 'PA' 'A' ... 'FA' 'R' 'R']
 ...
 ['PA' 'PA' 'A' ... 'A' 'A' 'A']
 ['S' 'SA' 'A' ... 'A' 'A' 'A']
 ['A' 'A' 'A' ... 'A' 'PA' 'PA']]
[2025-07-24 23:17:49,570] [INFO] Feature 0 normalized using token
[2025-07-24 23:17:49,570] [INFO] Train shape: (59143, 500), Val shape: (8450, 500), Test shape: (16899, 500)
[2025-07-24 23:17:49,608] [INFO] Classifier: VRScannerModel(
  (input_modules): ModuleList(
    (0): Embedding(9, 128)
  )
  (rnn_layers): ModuleList(
    (0): GRU(128, 128, num_layers=3, batch_first=True, dropout=0.3)
  )
  (attn_nets): ModuleList(
    (0): Sequential(
      (0): Linear(in_features=128, out_features=64, bias=True)
      (1): Tanh()
      (2): Linear(in_features=64, out_features=1, bias=True)
    )
  )
  (projection_layers): ModuleList(
    (0): Linear(in_features=128, out_features=128, bias=True)
  )
  (feature_attn_net): Sequential(
    (0): Linear(in_features=128, out_features=128, bias=True)
    (1): Tanh()
    (2): Linear(in_features=128, out_features=1, bias=True)
  )
  (fc): Sequential(
    (0): Linear(in_features=128, out_features=128, bias=True)
    (1): ReLU()
    (2): Dropout(p=0.3, inplace=False)
    (3): Linear(in_features=128, out_features=91, bias=True)
  )
)
[2025-07-24 23:17:49,608] [INFO] Training...
[2025-07-24 23:18:13,843] [INFO] Epoch 1/5, ValAcc: 17.47%, TrainLoss: 4.0182, ValLoss: 3.2690, LR: 0.001
[2025-07-24 23:18:29,756] [INFO] Epoch 2/5, ValAcc: 33.04%, TrainLoss: 2.9450, ValLoss: 2.5209, LR: 0.001
[2025-07-24 23:18:42,899] [INFO] Epoch 3/5, ValAcc: 38.56%, TrainLoss: 2.4800, ValLoss: 2.2653, LR: 0.001
…
bug', leaderboard_path='output/meta-free-apps/step2/step2_meta_tcp_flags.csv', step1=False, step2=True, step3=False, train=False, longitudinal_evaluation=False, openworld_evaluation=False, device=device(type='cuda'), metadata='flags', name='tcpflags_token_gru_500_32_5_0.001_128_128_3_0.3_128_128'),0.3803,0.3709,0.4249,0.3811
[2025-07-24 23:19:34,464] [INFO] Feature 0 normalized using token
[2025-07-24 23:19:34,464] [INFO] Train shape: (59143, 500), Val shape: (8450, 500), Test shape: (16899, 500)
[2025-07-24 23:19:34,494] [INFO] Classifier: VRScannerModel(
  (input_modules): ModuleList(
    (0): Embedding(9, 128)
  )
  (rnn_layers): ModuleList(
    (0): GRU(128, 128, num_layers=3, batch_first=True, dropout=0.3, bidirectional=True)
  )
  (attn_nets): ModuleList(
    (0): Sequential(
      (0): Linear(in_features=256, out_features=64, bias=True)
      (1): Tanh()
      (2): Linear(in_features=64, out_features=1, bias=True)
    )
  )
  (projection_layers): ModuleList(
    (0): Linear(in_features=256, out_features=128, bias=True)
  )
  (feature_attn_net): Sequential(
    (0): Linear(in_features=128, out_features=128, bias=True)
    (1): Tanh()
    (2): Linear(in_features=128, out_features=1, bias=True)
  )
  (fc): Sequential(
    (0): Linear(in_features=128, out_features=128, bias=True)
    (1): ReLU()
    (2): Dropout(p=0.3, inplace=False)
    (3): Linear(in_features=128, out_features=91, bias=True)
  )
)
[2025-07-24 23:19:34,494] [INFO] Training...
[2025-07-24 23:20:03,574] [INFO] Epoch 1/5, ValAcc: 17.21%, TrainLoss: 4.0334, ValLoss: 3.3120, LR: 0.001
[2025-07-24 23:20:29,105] [INFO] Epoch 2/5, ValAcc: 33.28%, TrainLoss: 2.9274, ValLoss: 2.5302, LR: 0.001
[2025-07-24 23:20:54,703] [INFO] Epoch 3/5, ValAcc: 38.89%, TrainLoss: 2.4222, ValLoss: 2.2264, LR: 0.001
…
[2025-07-24 23:59:04,841] [INFO] [['2068' '41411' '18148' ... '37587' '1701' '34460']
 ['25780' '15074' '4277' ... '33082' '51130' '61461']
 ['57731' '61081' '55057' ... '61252' '14160' '14160']
 ...
 ['19379' '32169' '5845' ... '55570' '63296' '13801']
 ['49176' '41396' '53038' ... '5044' '53168' '61622']
 ['41597' '62950' '62451' ... '57283' '29685' '32759']]
[2025-07-25 00:00:08,882] [INFO] Feature 0 normalized using token
[2025-07-25 00:00:08,883] [INFO] Train shape: (59143, 500), Val shape: (8450, 500), Test shape: (16899, 500)
[2025-07-25 00:00:08,964] [INFO] Classifier: VRScannerModel(
  (input_modules): ModuleList(
    (0): Embedding(65537, 128)
  )
  (rnn_layers): ModuleList(
    (0): GRU(128, 128, num_layers=3, batch_first=True, dropout=0.3)
  )
  (attn_nets): ModuleList(
    (0): Sequential(
      (0): Linear(in_features=128, out_features=64, bias=True)
      (1): Tanh()
      (2): Linear(in_features=64, out_features=1, bias=True)
    )
  )
  (projection_layers): ModuleList(
    (0): Linear(in_features=128, out_features=128, bias=True)
  )
  (feature_attn_net): Sequential(
    (0): Linear(in_features=128, out_features=128, bias=True)
    (1): Tanh()
    (2): Linear(in_features=128, out_features=1, bias=True)
  )
  (fc): Sequential(
    (0): Linear(in_features=128, out_features=128, bias=True)
    (1): ReLU()
    (2): Dropout(p=0.3, inplace=False)
    (3): Linear(in_features=128, out_features=91, bias=True)
  )
)
[2025-07-25 00:00:08,964] [INFO] Training...
[2025-07-25 00:00:33,597] [INFO] Epoch 1/5, ValAcc: 1.92%, TrainLoss: 4.5025, ValLoss: 4.4887, LR: 0.001
[2025-07-25 00:00:48,740] [INFO] Epoch 2/5, ValAcc: 1.86%, TrainLoss: 4.4909, ValLoss: 4.4828, LR: 0.001
[2025-07-25 00:01:03,886] [INFO] Epoch 3/5, ValAcc: 1.53%, TrainLoss: 4.4753, ValLoss: 4.4935, LR: 0.001
…
', leaderboard_path='output/meta-free-apps/step2/step2_meta_tcp_chksum.csv', step1=False, step2=True, step3=False, train=False, longitudinal_evaluation=False, openworld_evaluation=False, device=device(type='cuda'), metadata='chksum', name='tcpchksum_token_gru_500_32_5_0.001_128_128_3_0.3_128_128'),0.0139,0.0048,0.0045,0.0137
[2025-07-25 00:02:39,888] [INFO] Feature 0 normalized using token
[2025-07-25 00:02:39,888] [INFO] Train shape: (59143, 500), Val shape: (8450, 500), Test shape: (16899, 500)
[2025-07-25 00:02:39,957] [INFO] Classifier: VRScannerModel(
  (input_modules): ModuleList(
    (0): Embedding(65537, 128)
  )
  (rnn_layers): ModuleList(
    (0): GRU(128, 128, num_layers=3, batch_first=True, dropout=0.3, bidirectional=True)
  )
  (attn_nets): ModuleList(
    (0): Sequential(
      (0): Linear(in_features=256, out_features=64, bias=True)
      (1): Tanh()
      (2): Linear(in_features=64, out_features=1, bias=True)
    )
  )
  (projection_layers): ModuleList(
    (0): Linear(in_features=256, out_features=128, bias=True)
  )
  (feature_attn_net): Sequential(
    (0): Linear(in_features=128, out_features=128, bias=True)
    (1): Tanh()
    (2): Linear(in_features=128, out_features=1, bias=True)
  )
  (fc): Sequential(
    (0): Linear(in_features=128, out_features=128, bias=True)
    (1): ReLU()
    (2): Dropout(p=0.3, inplace=False)
    (3): Linear(in_features=128, out_features=91, bias=True)
  )
)
[2025-07-25 00:02:39,957] [INFO] Training...
[2025-07-25 00:03:07,490] [INFO] Epoch 1/5, ValAcc: 1.83%, TrainLoss: 4.5072, ValLoss: 4.4903, LR: 0.001
[2025-07-25 00:03:37,226] [INFO] Epoch 2/5, ValAcc: 1.92%, TrainLoss: 4.4917, ValLoss: 4.4811, LR: 0.001
[2025-07-25 00:04:08,971] [INFO] Epoch 3/5, ValAcc: 1.79%, TrainLoss: 4.4798, ValLoss: 4.4939, LR: 0.001
…
