…
[2025-08-01 03:08:34,413] [INFO] [['1281' '1281' '580' ... <NA> <NA> <NA>]
 ['65535' '65535' '256' ... <NA> <NA> <NA>]
 ['2038' '2038' '2038' ... <NA> <NA> <NA>]
 ...
 ['265' '774' '774' ... <NA> <NA> <NA>]
 ['265' '265' '332' ... <NA> <NA> <NA>]
 ['343' '761' '300' ... <NA> <NA> <NA>]]
[2025-08-01 03:08:34,703] [INFO] Training from 0 to 500 / 5000
[2025-08-01 03:08:42,054] [INFO] Feature 0 normalized using token
[2025-08-01 03:08:42,054] [INFO] Train shape: (10659, 500), Val shape: (1523, 500), Test shape: (3046, 500)
[2025-08-01 03:08:42,106] [INFO] Classifier: VRScannerModel(
  (input_modules): ModuleList(
    (0): Embedding(4461, 512)
  )
  (rnn_layers): ModuleList(
    (0): GRU(512, 256, num_layers=3, batch_first=True, dropout=0.3, bidirectional=True)
  )
  (attn_nets): ModuleList(
    (0): Sequential(
      (0): Linear(in_features=512, out_features=64, bias=True)
      (1): Tanh()
      (2): Linear(in_features=64, out_features=1, bias=True)
    )
  )
  (projection_layers): ModuleList(
    (0): Linear(in_features=512, out_features=256, bias=True)
  )
  (feature_attn_net): Sequential(
    (0): Linear(in_features=256, out_features=128, bias=True)
    (1): Tanh()
    (2): Linear(in_features=128, out_features=1, bias=True)
  )
  (fc): Sequential(
    (0): Linear(in_features=256, out_features=128, bias=True)
    (1): ReLU()
    (2): Dropout(p=0.3, inplace=False)
    (3): Linear(in_features=128, out_features=50, bias=True)
  )
)
[2025-08-01 03:08:42,106] [INFO] Training...
[2025-08-01 03:09:05,288] [INFO] Epoch 1/50, ValAcc: 43.53%, TrainLoss: 3.0895, ValLoss: 2.1476, LR: 0.001
[2025-08-01 03:09:27,421] [INFO] Epoch 2/50, ValAcc: 60.87%, TrainLoss: 1.8655, ValLoss: 1.4750, LR: 0.001
[2025-08-01 03:09:49,569] [INFO] Epoch 3/50, ValAcc: 67.37%, TrainLoss: 1.2411, ValLoss: 1.2475, LR: 0.001
…
ation=False, device=device(type='cuda'), name='tcpwindow_token_bigru_5000_64_50_0.001_512_256_3_0.3_256_128_500_100_0'),0.7597,0.7580,0.7615,0.7579
[2025-08-01 03:15:16,189] [INFO] [(0.7596848325673013, 0.7579655667002654, 0.7615318430063539, 0.757875256733018)]
[2025-08-01 03:15:16,189] [INFO] Training from 100 to 600 / 5000
[2025-08-01 03:15:23,526] [INFO] Feature 0 normalized using token
[2025-08-01 03:15:23,526] [INFO] Train shape: (10659, 500), Val shape: (1523, 500), Test shape: (3046, 500)
[2025-08-01 03:15:23,552] [INFO] Classifier: VRScannerModel(
  (input_modules): ModuleList(
    (0): Embedding(4442, 512)
  )
  (rnn_layers): ModuleList(
    (0): GRU(512, 256, num_layers=3, batch_first=True, dropout=0.3, bidirectional=True)
  )
  (attn_nets): ModuleList(
    (0): Sequential(
      (0): Linear(in_features=512, out_features=64, bias=True)
      (1): Tanh()
      (2): Linear(in_features=64, out_features=1, bias=True)
    )
  )
  (projection_layers): ModuleList(
    (0): Linear(in_features=512, out_features=256, bias=True)
  )
  (feature_attn_net): Sequential(
    (0): Linear(in_features=256, out_features=128, bias=True)
    (1): Tanh()
    (2): Linear(in_features=128, out_features=1, bias=True)
  )
  (fc): Sequential(
    (0): Linear(in_features=256, out_features=128, bias=True)
    (1): ReLU()
    (2): Dropout(p=0.3, inplace=False)
    (3): Linear(in_features=128, out_features=50, bias=True)
  )
)
[2025-08-01 03:15:23,552] [INFO] Training...
[2025-08-01 03:15:45,717] [INFO] Epoch 1/50, ValAcc: 47.54%, TrainLoss: 3.0229, ValLoss: 2.0159, LR: 0.001
[2025-08-01 03:16:07,869] [INFO] Epoch 2/50, ValAcc: 62.90%, TrainLoss: 1.7930, ValLoss: 1.3582, LR: 0.001
[2025-08-01 03:16:30,010] [INFO] Epoch 3/50, ValAcc: 69.93%, TrainLoss: 1.1948, ValLoss: 1.1561, LR: 0.001
…
ion=False, device=device(type='cuda'), name='tcpwindow_token_bigru_5000_64_50_0.001_512_256_3_0.3_256_128_500_100_100'),0.7840,0.7822,0.7852,0.7833
[2025-08-01 03:21:56,065] [INFO] [(0.7839789888378201, 0.7822133473540918, 0.7852302801529961, 0.783347341283168)]
[2025-08-01 03:21:56,065] [INFO] Training from 200 to 700 / 5000
[2025-08-01 03:22:03,452] [INFO] Feature 0 normalized using token
[2025-08-01 03:22:03,452] [INFO] Train shape: (10659, 500), Val shape: (1523, 500), Test shape: (3046, 500)
[2025-08-01 03:22:03,478] [INFO] Classifier: VRScannerModel(
  (input_modules): ModuleList(
    (0): Embedding(4553, 512)
  )
  (rnn_layers): ModuleList(
    (0): GRU(512, 256, num_layers=3, batch_first=True, dropout=0.3, bidirectional=True)
  )
  (attn_nets): ModuleList(
    (0): Sequential(
      (0): Linear(in_features=512, out_features=64, bias=True)
      (1): Tanh()
      (2): Linear(in_features=64, out_features=1, bias=True)
    )
  )
  (projection_layers): ModuleList(
    (0): Linear(in_features=512, out_features=256, bias=True)
  )
  (feature_attn_net): Sequential(
    (0): Linear(in_features=256, out_features=128, bias=True)
    (1): Tanh()
    (2): Linear(in_features=128, out_features=1, bias=True)
  )
  (fc): Sequential(
    (0): Linear(in_features=256, out_features=128, bias=True)
    (1): ReLU()
    (2): Dropout(p=0.3, inplace=False)
    (3): Linear(in_features=128, out_features=50, bias=True)
  )
)
[2025-08-01 03:22:03,478] [INFO] Training...
[2025-08-01 03:22:25,496] [INFO] Epoch 1/50, ValAcc: 48.06%, TrainLoss: 3.0566, ValLoss: 1.9857, LR: 0.001
[2025-08-01 03:22:47,448] [INFO] Epoch 2/50, ValAcc: 65.07%, TrainLoss: 1.6905, ValLoss: 1.3115, LR: 0.001
[2025-08-01 03:23:09,416] [INFO] Epoch 3/50, ValAcc: 68.35%, TrainLoss: 1.1543, ValLoss: 1.1396, LR: 0.001
…
on=False, device=device(type='cuda'), name='tcpwindow_token_bigru_5000_64_50_0.001_512_256_3_0.3_256_128_500_100_200'),0.8024,0.7997,0.8012,0.8010
[2025-08-01 03:28:20,648] [INFO] [(0.8023637557452397, 0.7996931774363866, 0.8012006397961803, 0.8009687072698801)]
[2025-08-01 03:28:20,648] [INFO] Training from 300 to 800 / 5000
[2025-08-01 03:28:28,039] [INFO] Feature 0 normalized using token
[2025-08-01 03:28:28,039] [INFO] Train shape: (10659, 500), Val shape: (1523, 500), Test shape: (3046, 500)
[2025-08-01 03:28:28,065] [INFO] Classifier: VRScannerModel(
  (input_modules): ModuleList(
    (0): Embedding(4629, 512)
  )
  (rnn_layers): ModuleList(
    (0): GRU(512, 256, num_layers=3, batch_first=True, dropout=0.3, bidirectional=True)
  )
  (attn_nets): ModuleList(
    (0): Sequential(
      (0): Linear(in_features=512, out_features=64, bias=True)
      (1): Tanh()
      (2): Linear(in_features=64, out_features=1, bias=True)
    )
  )
  (projection_layers): ModuleList(
    (0): Linear(in_features=512, out_features=256, bias=True)
  )
  (feature_attn_net): Sequential(
    (0): Linear(in_features=256, out_features=128, bias=True)
    (1): Tanh()
    (2): Linear(in_features=128, out_features=1, bias=True)
  )
  (fc): Sequential(
    (0): Linear(in_features=256, out_features=128, bias=True)
    (1): ReLU()
    (2): Dropout(p=0.3, inplace=False)
    (3): Linear(in_features=128, out_features=50, bias=True)
  )
)
[2025-08-01 03:28:28,065] [INFO] Training...
[2025-08-01 03:28:41,074] [INFO] Epoch 1/50, ValAcc: 48.39%, TrainLoss: 3.0012, ValLoss: 1.9618, LR: 0.001
[2025-08-01 03:29:03,168] [INFO] Epoch 2/50, ValAcc: 65.79%, TrainLoss: 1.6474, ValLoss: 1.2487, LR: 0.001
[2025-08-01 03:29:25,228] [INFO] Epoch 3/50, ValAcc: 70.26%, TrainLoss: 1.0720, ValLoss: 1.1074, LR: 0.001
…
on=False, device=device(type='cuda'), name='tcpwindow_token_bigru_5000_64_50_0.001_512_256_3_0.3_256_128_500_100_300'),0.8066,0.8038,0.8051,0.8065
[2025-08-01 03:35:00,174] [INFO] [(0.8066316480630334, 0.8037780038604916, 0.8051139018219351, 0.8064529389216776)]
[2025-08-01 03:35:00,174] [INFO] Training from 400 to 900 / 5000
[2025-08-01 03:35:07,606] [INFO] Feature 0 normalized using token
[2025-08-01 03:35:07,607] [INFO] Train shape: (10659, 500), Val shape: (1523, 500), Test shape: (3046, 500)
[2025-08-01 03:35:07,633] [INFO] Classifier: VRScannerModel(
  (input_modules): ModuleList(
    (0): Embedding(4642, 512)
  )
  (rnn_layers): ModuleList(
    (0): GRU(512, 256, num_layers=3, batch_first=True, dropout=0.3, bidirectional=True)
  )
  (attn_nets): ModuleList(
    (0): Sequential(
      (0): Linear(in_features=512, out_features=64, bias=True)
      (1): Tanh()
      (2): Linear(in_features=64, out_features=1, bias=True)
    )
  )
  (projection_layers): ModuleList(
    (0): Linear(in_features=512, out_features=256, bias=True)
  )
  (feature_attn_net): Sequential(
    (0): Linear(in_features=256, out_features=128, bias=True)
    (1): Tanh()
    (2): Linear(in_features=128, out_features=1, bias=True)
  )
  (fc): Sequential(
    (0): Linear(in_features=256, out_features=128, bias=True)
    (1): ReLU()
    (2): Dropout(p=0.3, inplace=False)
    (3): Linear(in_features=128, out_features=50, bias=True)
  )
)
[2025-08-01 03:35:07,633] [INFO] Training...
[2025-08-01 03:35:28,598] [INFO] Epoch 1/50, ValAcc: 48.85%, TrainLoss: 3.0151, ValLoss: 1.9796, LR: 0.001
[2025-08-01 03:35:42,973] [INFO] Epoch 2/50, ValAcc: 61.98%, TrainLoss: 1.6931, ValLoss: 1.3708, LR: 0.001
[2025-08-01 03:36:05,069] [INFO] Epoch 3/50, ValAcc: 70.72%, TrainLoss: 1.1187, ValLoss: 1.1305, LR: 0.001
…
n=False, device=device(type='cuda'), name='tcpwindow_token_bigru_5000_64_50_0.001_512_256_3_0.3_256_128_500_100_400'),0.8056,0.8037,0.8064,0.8055
[2025-08-01 03:41:18,402] [INFO] [(0.8056467498358503, 0.8036742660978667, 0.8064331624481134, 0.8054655196283506)]
[2025-08-01 03:41:18,402] [INFO] Training from 500 to 1000 / 5000
[2025-08-01 03:41:25,795] [INFO] Feature 0 normalized using token
[2025-08-01 03:41:25,795] [INFO] Train shape: (10659, 500), Val shape: (1523, 500), Test shape: (3046, 500)
[2025-08-01 03:41:25,822] [INFO] Classifier: VRScannerModel(
  (input_modules): ModuleList(
    (0): Embedding(4653, 512)
  )
  (rnn_layers): ModuleList(
    (0): GRU(512, 256, num_layers=3, batch_first=True, dropout=0.3, bidirectional=True)
  )
  (attn_nets): ModuleList(
    (0): Sequential(
      (0): Linear(in_features=512, out_features=64, bias=True)
      (1): Tanh()
      (2): Linear(in_features=64, out_features=1, bias=True)
    )
  )
  (projection_layers): ModuleList(
    (0): Linear(in_features=512, out_features=256, bias=True)
  )
  (feature_attn_net): Sequential(
    (0): Linear(in_features=256, out_features=128, bias=True)
    (1): Tanh()
    (2): Linear(in_features=128, out_features=1, bias=True)
  )
  (fc): Sequential(
    (0): Linear(in_features=256, out_features=128, bias=True)
    (1): ReLU()
    (2): Dropout(p=0.3, inplace=False)
    (3): Linear(in_features=128, out_features=50, bias=True)
  )
)
[2025-08-01 03:41:25,822] [INFO] Training...
[2025-08-01 03:41:47,928] [INFO] Epoch 1/50, ValAcc: 46.55%, TrainLoss: 3.0486, ValLoss: 2.0141, LR: 0.001
[2025-08-01 03:42:10,053] [INFO] Epoch 2/50, ValAcc: 63.36%, TrainLoss: 1.7783, ValLoss: 1.4030, LR: 0.001
[2025-08-01 03:42:32,189] [INFO] Epoch 3/50, ValAcc: 70.58%, TrainLoss: 1.1688, ValLoss: 1.1096, LR: 0.001
…
n=False, device=device(type='cuda'), name='tcpwindow_token_bigru_5000_64_50_0.001_512_256_3_0.3_256_128_500_100_500'),0.7919,0.7893,0.7933,0.7915
[2025-08-01 03:47:37,636] [INFO] [(0.7918581746552856, 0.7893385576192135, 0.7932780809969782, 0.7915310122801662)]
[2025-08-01 03:47:37,636] [INFO] Training from 600 to 1100 / 5000
[2025-08-01 03:47:44,989] [INFO] Feature 0 normalized using token
[2025-08-01 03:47:44,989] [INFO] Train shape: (10659, 500), Val shape: (1523, 500), Test shape: (3046, 500)
[2025-08-01 03:47:45,015] [INFO] Classifier: VRScannerModel(
  (input_modules): ModuleList(
    (0): Embedding(4665, 512)
  )
  (rnn_layers): ModuleList(
    (0): GRU(512, 256, num_layers=3, batch_first=True, dropout=0.3, bidirectional=True)
  )
  (attn_nets): ModuleList(
    (0): Sequential(
      (0): Linear(in_features=512, out_features=64, bias=True)
      (1): Tanh()
      (2): Linear(in_features=64, out_features=1, bias=True)
    )
  )
  (projection_layers): ModuleList(
    (0): Linear(in_features=512, out_features=256, bias=True)
  )
  (feature_attn_net): Sequential(
    (0): Linear(in_features=256, out_features=128, bias=True)
    (1): Tanh()
    (2): Linear(in_features=128, out_features=1, bias=True)
  )
  (fc): Sequential(
    (0): Linear(in_features=256, out_features=128, bias=True)
    (1): ReLU()
    (2): Dropout(p=0.3, inplace=False)
    (3): Linear(in_features=128, out_features=50, bias=True)
  )
)
[2025-08-01 03:47:45,016] [INFO] Training...
[2025-08-01 03:48:07,136] [INFO] Epoch 1/50, ValAcc: 42.15%, TrainLoss: 3.0629, ValLoss: 2.1840, LR: 0.001
[2025-08-01 03:48:29,257] [INFO] Epoch 2/50, ValAcc: 60.74%, TrainLoss: 1.8292, ValLoss: 1.4242, LR: 0.001
[2025-08-01 03:48:51,356] [INFO] Epoch 3/50, ValAcc: 66.51%, TrainLoss: 1.1973, ValLoss: 1.1971, LR: 0.001
…
n=False, device=device(type='cuda'), name='tcpwindow_token_bigru_5000_64_50_0.001_512_256_3_0.3_256_128_500_100_600'),0.7948,0.7918,0.7934,0.7935
[2025-08-01 03:54:17,832] [INFO] [(0.7948128693368351, 0.7918268215297987, 0.7934492177390975, 0.7935275462827401)]
[2025-08-01 03:54:17,832] [INFO] Training from 700 to 1200 / 5000
[2025-08-01 03:54:25,337] [INFO] Feature 0 normalized using token
[2025-08-01 03:54:25,337] [INFO] Train shape: (10659, 500), Val shape: (1523, 500), Test shape: (3046, 500)
[2025-08-01 03:54:25,364] [INFO] Classifier: VRScannerModel(
  (input_modules): ModuleList(
    (0): Embedding(4614, 512)
  )
  (rnn_layers): ModuleList(
    (0): GRU(512, 256, num_layers=3, batch_first=True, dropout=0.3, bidirectional=True)
  )
  (attn_nets): ModuleList(
    (0): Sequential(
      (0): Linear(in_features=512, out_features=64, bias=True)
      (1): Tanh()
      (2): Linear(in_features=64, out_features=1, bias=True)
    )
  )
  (projection_layers): ModuleList(
    (0): Linear(in_features=512, out_features=256, bias=True)
  )
  (feature_attn_net): Sequential(
    (0): Linear(in_features=256, out_features=128, bias=True)
    (1): Tanh()
    (2): Linear(in_features=128, out_features=1, bias=True)
  )
  (fc): Sequential(
    (0): Linear(in_features=256, out_features=128, bias=True)
    (1): ReLU()
    (2): Dropout(p=0.3, inplace=False)
    (3): Linear(in_features=128, out_features=50, bias=True)
  )
)
[2025-08-01 03:54:25,364] [INFO] Training...
[2025-08-01 03:54:47,495] [INFO] Epoch 1/50, ValAcc: 48.00%, TrainLoss: 2.9845, ValLoss: 1.9610, LR: 0.001
[2025-08-01 03:55:09,592] [INFO] Epoch 2/50, ValAcc: 63.30%, TrainLoss: 1.6852, ValLoss: 1.3579, LR: 0.001
[2025-08-01 03:55:31,585] [INFO] Epoch 3/50, ValAcc: 67.50%, TrainLoss: 1.1357, ValLoss: 1.1932, LR: 0.001
…
n=False, device=device(type='cuda'), name='tcpwindow_token_bigru_5000_64_50_0.001_512_256_3_0.3_256_128_500_100_700'),0.7922,0.7891,0.7944,0.7891
[2025-08-01 04:00:36,619] [INFO] [(0.7921864740643467, 0.7890963379843602, 0.7943686618679466, 0.7890975616681842)]
[2025-08-01 04:00:36,619] [INFO] Training from 800 to 1300 / 5000
[2025-08-01 04:00:43,980] [INFO] Feature 0 normalized using token
[2025-08-01 04:00:43,980] [INFO] Train shape: (10659, 500), Val shape: (1523, 500), Test shape: (3046, 500)
[2025-08-01 04:00:44,004] [INFO] Classifier: VRScannerModel(
  (input_modules): ModuleList(
    (0): Embedding(4615, 512)
  )
  (rnn_layers): ModuleList(
    (0): GRU(512, 256, num_layers=3, batch_first=True, dropout=0.3, bidirectional=True)
  )
  (attn_nets): ModuleList(
    (0): Sequential(
      (0): Linear(in_features=512, out_features=64, bias=True)
      (1): Tanh()
      (2): Linear(in_features=64, out_features=1, bias=True)
    )
  )
  (projection_layers): ModuleList(
    (0): Linear(in_features=512, out_features=256, bias=True)
  )
  (feature_attn_net): Sequential(
    (0): Linear(in_features=256, out_features=128, bias=True)
    (1): Tanh()
    (2): Linear(in_features=128, out_features=1, bias=True)
  )
  (fc): Sequential(
    (0): Linear(in_features=256, out_features=128, bias=True)
    (1): ReLU()
    (2): Dropout(p=0.3, inplace=False)
    (3): Linear(in_features=128, out_features=50, bias=True)
  )
)
[2025-08-01 04:00:44,005] [INFO] Training...
[2025-08-01 04:01:06,142] [INFO] Epoch 1/50, ValAcc: 43.86%, TrainLoss: 3.0300, ValLoss: 2.0722, LR: 0.001
[2025-08-01 04:01:28,240] [INFO] Epoch 2/50, ValAcc: 61.79%, TrainLoss: 1.8004, ValLoss: 1.3818, LR: 0.001
[2025-08-01 04:01:50,306] [INFO] Epoch 3/50, ValAcc: 68.55%, TrainLoss: 1.1872, ValLoss: 1.1627, LR: 0.001
…
on=False, device=device(type='cuda'), name='tcpwindow_token_bigru_5000_64_50_0.001_512_256_3_0.3_256_128_500_100_800'),0.7856,0.7822,0.7852,0.7837
[2025-08-01 04:06:55,217] [INFO] [(0.7856204858831254, 0.782234018186824, 0.7851687596661016, 0.7837349460448044)]
[2025-08-01 04:06:55,218] [INFO] Training from 900 to 1400 / 5000
[2025-08-01 04:07:02,497] [INFO] Feature 0 normalized using token
[2025-08-01 04:07:02,497] [INFO] Train shape: (10659, 500), Val shape: (1523, 500), Test shape: (3046, 500)
[2025-08-01 04:07:02,524] [INFO] Classifier: VRScannerModel(
  (input_modules): ModuleList(
    (0): Embedding(4611, 512)
  )
  (rnn_layers): ModuleList(
    (0): GRU(512, 256, num_layers=3, batch_first=True, dropout=0.3, bidirectional=True)
  )
  (attn_nets): ModuleList(
    (0): Sequential(
      (0): Linear(in_features=512, out_features=64, bias=True)
      (1): Tanh()
      (2): Linear(in_features=64, out_features=1, bias=True)
    )
  )
  (projection_layers): ModuleList(
    (0): Linear(in_features=512, out_features=256, bias=True)
  )
  (feature_attn_net): Sequential(
    (0): Linear(in_features=256, out_features=128, bias=True)
    (1): Tanh()
    (2): Linear(in_features=128, out_features=1, bias=True)
  )
  (fc): Sequential(
    (0): Linear(in_features=256, out_features=128, bias=True)
    (1): ReLU()
    (2): Dropout(p=0.3, inplace=False)
    (3): Linear(in_features=128, out_features=50, bias=True)
  )
)
[2025-08-01 04:07:02,524] [INFO] Training...
[2025-08-01 04:07:24,734] [INFO] Epoch 1/50, ValAcc: 50.03%, TrainLoss: 3.0276, ValLoss: 2.0462, LR: 0.001
[2025-08-01 04:07:46,814] [INFO] Epoch 2/50, ValAcc: 63.89%, TrainLoss: 1.7323, ValLoss: 1.3149, LR: 0.001
[2025-08-01 04:08:08,932] [INFO] Epoch 3/50, ValAcc: 69.60%, TrainLoss: 1.1571, ValLoss: 1.1330, LR: 0.001
…
=False, device=device(type='cuda'), name='tcpwindow_token_bigru_5000_64_50_0.001_512_256_3_0.3_256_128_500_100_900'),0.7876,0.7839,0.7859,0.7849
[2025-08-01 04:13:57,666] [INFO] [(0.7875902823374918, 0.7839079582449523, 0.7858604743712638, 0.7849125800070317)]
[2025-08-01 04:13:57,666] [INFO] Training from 1000 to 1500 / 5000
[2025-08-01 04:14:04,954] [INFO] Feature 0 normalized using token
[2025-08-01 04:14:04,954] [INFO] Train shape: (10659, 500), Val shape: (1523, 500), Test shape: (3046, 500)
[2025-08-01 04:14:04,979] [INFO] Classifier: VRScannerModel(
  (input_modules): ModuleList(
    (0): Embedding(4602, 512)
  )
  (rnn_layers): ModuleList(
    (0): GRU(512, 256, num_layers=3, batch_first=True, dropout=0.3, bidirectional=True)
  )
  (attn_nets): ModuleList(
    (0): Sequential(
      (0): Linear(in_features=512, out_features=64, bias=True)
      (1): Tanh()
      (2): Linear(in_features=64, out_features=1, bias=True)
    )
  )
  (projection_layers): ModuleList(
    (0): Linear(in_features=512, out_features=256, bias=True)
  )
  (feature_attn_net): Sequential(
    (0): Linear(in_features=256, out_features=128, bias=True)
    (1): Tanh()
    (2): Linear(in_features=128, out_features=1, bias=True)
  )
  (fc): Sequential(
    (0): Linear(in_features=256, out_features=128, bias=True)
    (1): ReLU()
    (2): Dropout(p=0.3, inplace=False)
    (3): Linear(in_features=128, out_features=50, bias=True)
  )
)
[2025-08-01 04:14:04,979] [INFO] Training...
[2025-08-01 04:14:27,012] [INFO] Epoch 1/50, ValAcc: 46.22%, TrainLoss: 3.0279, ValLoss: 2.1024, LR: 0.001
[2025-08-01 04:14:48,969] [INFO] Epoch 2/50, ValAcc: 63.76%, TrainLoss: 1.7526, ValLoss: 1.2917, LR: 0.001
[2025-08-01 04:15:10,921] [INFO] Epoch 3/50, ValAcc: 70.45%, TrainLoss: 1.1138, ValLoss: 1.1297, LR: 0.001
…
False, device=device(type='cuda'), name='tcpwindow_token_bigru_5000_64_50_0.001_512_256_3_0.3_256_128_500_100_1000'),0.8122,0.8094,0.8123,0.8106
[2025-08-01 04:20:14,846] [INFO] [(0.8122127380170716, 0.8094111574788944, 0.8123317100508551, 0.8106428709022889)]
[2025-08-01 04:20:14,846] [INFO] Training from 1100 to 1600 / 5000
[2025-08-01 04:20:22,432] [INFO] Feature 0 normalized using token
[2025-08-01 04:20:22,432] [INFO] Train shape: (10659, 500), Val shape: (1523, 500), Test shape: (3046, 500)
[2025-08-01 04:20:22,458] [INFO] Classifier: VRScannerModel(
  (input_modules): ModuleList(
    (0): Embedding(4584, 512)
  )
  (rnn_layers): ModuleList(
    (0): GRU(512, 256, num_layers=3, batch_first=True, dropout=0.3, bidirectional=True)
  )
  (attn_nets): ModuleList(
    (0): Sequential(
      (0): Linear(in_features=512, out_features=64, bias=True)
      (1): Tanh()
      (2): Linear(in_features=64, out_features=1, bias=True)
    )
  )
  (projection_layers): ModuleList(
    (0): Linear(in_features=512, out_features=256, bias=True)
  )
  (feature_attn_net): Sequential(
    (0): Linear(in_features=256, out_features=128, bias=True)
    (1): Tanh()
    (2): Linear(in_features=128, out_features=1, bias=True)
  )
  (fc): Sequential(
    (0): Linear(in_features=256, out_features=128, bias=True)
    (1): ReLU()
    (2): Dropout(p=0.3, inplace=False)
    (3): Linear(in_features=128, out_features=50, bias=True)
  )
)
[2025-08-01 04:20:22,458] [INFO] Training...
[2025-08-01 04:20:44,625] [INFO] Epoch 1/50, ValAcc: 45.57%, TrainLoss: 3.0273, ValLoss: 2.1330, LR: 0.001
[2025-08-01 04:21:06,636] [INFO] Epoch 2/50, ValAcc: 63.16%, TrainLoss: 1.7829, ValLoss: 1.3972, LR: 0.001
[2025-08-01 04:21:28,788] [INFO] Epoch 3/50, ValAcc: 69.67%, TrainLoss: 1.1504, ValLoss: 1.1545, LR: 0.001
…
False, device=device(type='cuda'), name='tcpwindow_token_bigru_5000_64_50_0.001_512_256_3_0.3_256_128_500_100_1100'),0.8070,0.8041,0.8075,0.8049
[2025-08-01 04:26:55,974] [INFO] [(0.8069599474720945, 0.8041091429314282, 0.8074591001625819, 0.8049395199911603)]
[2025-08-01 04:26:55,974] [INFO] Training from 1200 to 1700 / 5000
[2025-08-01 04:27:03,411] [INFO] Feature 0 normalized using token
[2025-08-01 04:27:03,412] [INFO] Train shape: (10659, 500), Val shape: (1523, 500), Test shape: (3046, 500)
[2025-08-01 04:27:03,437] [INFO] Classifier: VRScannerModel(
  (input_modules): ModuleList(
    (0): Embedding(4573, 512)
  )
  (rnn_layers): ModuleList(
    (0): GRU(512, 256, num_layers=3, batch_first=True, dropout=0.3, bidirectional=True)
  )
  (attn_nets): ModuleList(
    (0): Sequential(
      (0): Linear(in_features=512, out_features=64, bias=True)
      (1): Tanh()
      (2): Linear(in_features=64, out_features=1, bias=True)
    )
  )
  (projection_layers): ModuleList(
    (0): Linear(in_features=512, out_features=256, bias=True)
  )
  (feature_attn_net): Sequential(
    (0): Linear(in_features=256, out_features=128, bias=True)
    (1): Tanh()
    (2): Linear(in_features=128, out_features=1, bias=True)
  )
  (fc): Sequential(
    (0): Linear(in_features=256, out_features=128, bias=True)
    (1): ReLU()
    (2): Dropout(p=0.3, inplace=False)
    (3): Linear(in_features=128, out_features=50, bias=True)
  )
)
[2025-08-01 04:27:03,437] [INFO] Training...
[2025-08-01 04:27:25,607] [INFO] Epoch 1/50, ValAcc: 45.90%, TrainLoss: 2.9756, ValLoss: 2.0191, LR: 0.001
[2025-08-01 04:27:47,720] [INFO] Epoch 2/50, ValAcc: 66.51%, TrainLoss: 1.6297, ValLoss: 1.2678, LR: 0.001
[2025-08-01 04:28:09,775] [INFO] Epoch 3/50, ValAcc: 71.24%, TrainLoss: 1.0589, ValLoss: 1.0809, LR: 0.001
…
False, device=device(type='cuda'), name='tcpwindow_token_bigru_5000_64_50_0.001_512_256_3_0.3_256_128_500_100_1300'),0.8076,0.8046,0.8072,0.8062
[2025-08-01 04:39:40,925] [INFO] [(0.8076165462902167, 0.8045546263230399, 0.8072005704989519, 0.8062116325172248)]
[2025-08-01 04:39:40,925] [INFO] Training from 1400 to 1900 / 5000
[2025-08-01 04:39:48,445] [INFO] Feature 0 normalized using token
[2025-08-01 04:39:48,445] [INFO] Train shape: (10659, 500), Val shape: (1523, 500), Test shape: (3046, 500)
[2025-08-01 04:39:48,470] [INFO] Classifier: VRScannerModel(
  (input_modules): ModuleList(
    (0): Embedding(4583, 512)
  )
  (rnn_layers): ModuleList(
    (0): GRU(512, 256, num_layers=3, batch_first=True, dropout=0.3, bidirectional=True)
  )
  (attn_nets): ModuleList(
    (0): Sequential(
      (0): Linear(in_features=512, out_features=64, bias=True)
      (1): Tanh()
      (2): Linear(in_features=64, out_features=1, bias=True)
    )
  )
  (projection_layers): ModuleList(
    (0): Linear(in_features=512, out_features=256, bias=True)
  )
  (feature_attn_net): Sequential(
    (0): Linear(in_features=256, out_features=128, bias=True)
    (1): Tanh()
    (2): Linear(in_features=128, out_features=1, bias=True)
  )
  (fc): Sequential(
    (0): Linear(in_features=256, out_features=128, bias=True)
    (1): ReLU()
    (2): Dropout(p=0.3, inplace=False)
    (3): Linear(in_features=128, out_features=50, bias=True)
  )
)
[2025-08-01 04:39:48,470] [INFO] Training...
[2025-08-01 04:40:02,365] [INFO] Epoch 1/50, ValAcc: 43.66%, TrainLoss: 3.0881, ValLoss: 2.1173, LR: 0.001
[2025-08-01 04:40:24,410] [INFO] Epoch 2/50, ValAcc: 62.77%, TrainLoss: 1.8092, ValLoss: 1.4155, LR: 0.001
[2025-08-01 04:40:46,393] [INFO] Epoch 3/50, ValAcc: 69.73%, TrainLoss: 1.1574, ValLoss: 1.1213, LR: 0.001
…
=False, device=device(type='cuda'), name='tcpwindow_token_bigru_5000_64_50_0.001_512_256_3_0.3_256_128_500_100_1400'),0.8047,0.8019,0.8047,0.8032
[2025-08-01 04:45:58,572] [INFO] [(0.8046618516086671, 0.801880994590142, 0.8047224866792478, 0.8031580118770841)]
[2025-08-01 04:45:58,572] [INFO] Training from 1500 to 2000 / 5000
[2025-08-01 04:46:05,935] [INFO] Feature 0 normalized using token
[2025-08-01 04:46:05,935] [INFO] Train shape: (10659, 500), Val shape: (1523, 500), Test shape: (3046, 500)
[2025-08-01 04:46:05,961] [INFO] Classifier: VRScannerModel(
  (input_modules): ModuleList(
    (0): Embedding(4571, 512)
  )
  (rnn_layers): ModuleList(
    (0): GRU(512, 256, num_layers=3, batch_first=True, dropout=0.3, bidirectional=True)
  )
  (attn_nets): ModuleList(
    (0): Sequential(
      (0): Linear(in_features=512, out_features=64, bias=True)
      (1): Tanh()
      (2): Linear(in_features=64, out_features=1, bias=True)
    )
  )
  (projection_layers): ModuleList(
    (0): Linear(in_features=512, out_features=256, bias=True)
  )
  (feature_attn_net): Sequential(
    (0): Linear(in_features=256, out_features=128, bias=True)
    (1): Tanh()
    (2): Linear(in_features=128, out_features=1, bias=True)
  )
  (fc): Sequential(
    (0): Linear(in_features=256, out_features=128, bias=True)
    (1): ReLU()
    (2): Dropout(p=0.3, inplace=False)
    (3): Linear(in_features=128, out_features=50, bias=True)
  )
)
[2025-08-01 04:46:05,961] [INFO] Training...
[2025-08-01 04:46:28,135] [INFO] Epoch 1/50, ValAcc: 48.19%, TrainLoss: 2.9894, ValLoss: 1.9579, LR: 0.001
[2025-08-01 04:46:50,006] [INFO] Epoch 2/50, ValAcc: 63.89%, TrainLoss: 1.6697, ValLoss: 1.2930, LR: 0.001
[2025-08-01 04:47:04,496] [INFO] Epoch 3/50, ValAcc: 70.58%, TrainLoss: 1.0963, ValLoss: 1.0801, LR: 0.001
…
=False, device=device(type='cuda'), name='tcpwindow_token_bigru_5000_64_50_0.001_512_256_3_0.3_256_128_500_100_1500'),0.8043,0.8016,0.8040,0.8036
[2025-08-01 04:52:17,728] [INFO] [(0.804333552199606, 0.8015718682428696, 0.8040146488975073, 0.8035800409828971)]
[2025-08-01 04:52:17,728] [INFO] Training from 1600 to 2100 / 5000
[2025-08-01 04:52:24,904] [INFO] Feature 0 normalized using token
[2025-08-01 04:52:24,904] [INFO] Train shape: (10659, 500), Val shape: (1523, 500), Test shape: (3046, 500)
[2025-08-01 04:52:24,928] [INFO] Classifier: VRScannerModel(
  (input_modules): ModuleList(
    (0): Embedding(4539, 512)
  )
  (rnn_layers): ModuleList(
    (0): GRU(512, 256, num_layers=3, batch_first=True, dropout=0.3, bidirectional=True)
  )
  (attn_nets): ModuleList(
    (0): Sequential(
      (0): Linear(in_features=512, out_features=64, bias=True)
      (1): Tanh()
      (2): Linear(in_features=64, out_features=1, bias=True)
    )
  )
  (projection_layers): ModuleList(
    (0): Linear(in_features=512, out_features=256, bias=True)
  )
  (feature_attn_net): Sequential(
    (0): Linear(in_features=256, out_features=128, bias=True)
    (1): Tanh()
    (2): Linear(in_features=128, out_features=1, bias=True)
  )
  (fc): Sequential(
    (0): Linear(in_features=256, out_features=128, bias=True)
    (1): ReLU()
    (2): Dropout(p=0.3, inplace=False)
    (3): Linear(in_features=128, out_features=50, bias=True)
  )
)
[2025-08-01 04:52:24,928] [INFO] Training...
[2025-08-01 04:52:47,015] [INFO] Epoch 1/50, ValAcc: 46.55%, TrainLoss: 2.9909, ValLoss: 2.0562, LR: 0.001
[2025-08-01 04:53:09,154] [INFO] Epoch 2/50, ValAcc: 65.00%, TrainLoss: 1.7197, ValLoss: 1.3195, LR: 0.001
[2025-08-01 04:53:31,280] [INFO] Epoch 3/50, ValAcc: 71.18%, TrainLoss: 1.1367, ValLoss: 1.1057, LR: 0.001
…
n=False, device=device(type='cuda'), name='tcpwindow_token_bigru_5000_64_50_0.001_512_256_3_0.3_256_128_500_100_1600'),0.7889,0.7861,0.7931,0.7878
[2025-08-01 04:58:58,490] [INFO] [(0.788903479973736, 0.7861394456995632, 0.7931393237671704, 0.787812915008741)]
[2025-08-01 04:58:58,490] [INFO] Training from 1700 to 2200 / 5000
[2025-08-01 04:59:05,849] [INFO] Feature 0 normalized using token
[2025-08-01 04:59:05,849] [INFO] Train shape: (10659, 500), Val shape: (1523, 500), Test shape: (3046, 500)
[2025-08-01 04:59:05,876] [INFO] Classifier: VRScannerModel(
  (input_modules): ModuleList(
    (0): Embedding(4564, 512)
  )
  (rnn_layers): ModuleList(
    (0): GRU(512, 256, num_layers=3, batch_first=True, dropout=0.3, bidirectional=True)
  )
  (attn_nets): ModuleList(
    (0): Sequential(
      (0): Linear(in_features=512, out_features=64, bias=True)
      (1): Tanh()
      (2): Linear(in_features=64, out_features=1, bias=True)
    )
  )
  (projection_layers): ModuleList(
    (0): Linear(in_features=512, out_features=256, bias=True)
  )
  (feature_attn_net): Sequential(
    (0): Linear(in_features=256, out_features=128, bias=True)
    (1): Tanh()
    (2): Linear(in_features=128, out_features=1, bias=True)
  )
  (fc): Sequential(
    (0): Linear(in_features=256, out_features=128, bias=True)
    (1): ReLU()
    (2): Dropout(p=0.3, inplace=False)
    (3): Linear(in_features=128, out_features=50, bias=True)
  )
)
[2025-08-01 04:59:05,876] [INFO] Training...
[2025-08-01 04:59:27,981] [INFO] Epoch 1/50, ValAcc: 40.25%, TrainLoss: 3.0955, ValLoss: 2.2301, LR: 0.001
[2025-08-01 04:59:50,104] [INFO] Epoch 2/50, ValAcc: 63.82%, TrainLoss: 1.7738, ValLoss: 1.2941, LR: 0.001
[2025-08-01 05:00:12,119] [INFO] Epoch 3/50, ValAcc: 69.99%, TrainLoss: 1.0979, ValLoss: 1.1467, LR: 0.001
…
False, device=device(type='cuda'), name='tcpwindow_token_bigru_5000_64_50_0.001_512_256_3_0.3_256_128_500_100_1700'),0.7974,0.7957,0.8024,0.7973
[2025-08-01 05:05:14,649] [INFO] [(0.7974392646093237, 0.7957451184340378, 0.8024006673727294, 0.7972804914454246)]
[2025-08-01 05:05:14,649] [INFO] Training from 1800 to 2300 / 5000
[2025-08-01 05:05:22,241] [INFO] Feature 0 normalized using token
[2025-08-01 05:05:22,241] [INFO] Train shape: (10659, 500), Val shape: (1523, 500), Test shape: (3046, 500)
[2025-08-01 05:05:22,266] [INFO] Classifier: VRScannerModel(
  (input_modules): ModuleList(
    (0): Embedding(4566, 512)
  )
  (rnn_layers): ModuleList(
    (0): GRU(512, 256, num_layers=3, batch_first=True, dropout=0.3, bidirectional=True)
  )
  (attn_nets): ModuleList(
    (0): Sequential(
      (0): Linear(in_features=512, out_features=64, bias=True)
      (1): Tanh()
      (2): Linear(in_features=64, out_features=1, bias=True)
    )
  )
  (projection_layers): ModuleList(
    (0): Linear(in_features=512, out_features=256, bias=True)
  )
  (feature_attn_net): Sequential(
    (0): Linear(in_features=256, out_features=128, bias=True)
    (1): Tanh()
    (2): Linear(in_features=128, out_features=1, bias=True)
  )
  (fc): Sequential(
    (0): Linear(in_features=256, out_features=128, bias=True)
    (1): ReLU()
    (2): Dropout(p=0.3, inplace=False)
    (3): Linear(in_features=128, out_features=50, bias=True)
  )
)
[2025-08-01 05:05:22,266] [INFO] Training...
[2025-08-01 05:05:44,241] [INFO] Epoch 1/50, ValAcc: 45.76%, TrainLoss: 3.0359, ValLoss: 2.0626, LR: 0.001
[2025-08-01 05:06:06,169] [INFO] Epoch 2/50, ValAcc: 65.13%, TrainLoss: 1.7115, ValLoss: 1.3208, LR: 0.001
[2025-08-01 05:06:28,094] [INFO] Epoch 3/50, ValAcc: 69.21%, TrainLoss: 1.1115, ValLoss: 1.2020, LR: 0.001
…
=False, device=device(type='cuda'), name='tcpwindow_token_bigru_5000_64_50_0.001_512_256_3_0.3_256_128_500_100_1800'),0.7873,0.7859,0.7948,0.7868
[2025-08-01 05:11:53,881] [INFO] [(0.7872619829284307, 0.7858894136041974, 0.794797573983225, 0.7867682953520395)]
[2025-08-01 05:11:53,881] [INFO] Training from 1900 to 2400 / 5000
[2025-08-01 05:12:01,277] [INFO] Feature 0 normalized using token
[2025-08-01 05:12:01,278] [INFO] Train shape: (10659, 500), Val shape: (1523, 500), Test shape: (3046, 500)
[2025-08-01 05:12:01,304] [INFO] Classifier: VRScannerModel(
  (input_modules): ModuleList(
    (0): Embedding(4522, 512)
  )
  (rnn_layers): ModuleList(
    (0): GRU(512, 256, num_layers=3, batch_first=True, dropout=0.3, bidirectional=True)
  )
  (attn_nets): ModuleList(
    (0): Sequential(
      (0): Linear(in_features=512, out_features=64, bias=True)
      (1): Tanh()
      (2): Linear(in_features=64, out_features=1, bias=True)
    )
  )
  (projection_layers): ModuleList(
    (0): Linear(in_features=512, out_features=256, bias=True)
  )
  (feature_attn_net): Sequential(
    (0): Linear(in_features=256, out_features=128, bias=True)
    (1): Tanh()
    (2): Linear(in_features=128, out_features=1, bias=True)
  )
  (fc): Sequential(
    (0): Linear(in_features=256, out_features=128, bias=True)
    (1): ReLU()
    (2): Dropout(p=0.3, inplace=False)
    (3): Linear(in_features=128, out_features=50, bias=True)
  )
)
[2025-08-01 05:12:01,304] [INFO] Training...
[2025-08-01 05:12:23,427] [INFO] Epoch 1/50, ValAcc: 45.90%, TrainLoss: 2.9786, ValLoss: 2.0173, LR: 0.001
[2025-08-01 05:12:45,551] [INFO] Epoch 2/50, ValAcc: 62.25%, TrainLoss: 1.6882, ValLoss: 1.3573, LR: 0.001
[2025-08-01 05:13:07,548] [INFO] Epoch 3/50, ValAcc: 70.45%, TrainLoss: 1.1377, ValLoss: 1.0721, LR: 0.001
…
=False, device=device(type='cuda'), name='tcpwindow_token_bigru_5000_64_50_0.001_512_256_3_0.3_256_128_500_100_1900'),0.7856,0.7859,0.7988,0.7850
[2025-08-01 05:18:33,943] [INFO] [(0.7856204858831254, 0.785882917214222, 0.7987681371444292, 0.7849814950410008)]
[2025-08-01 05:18:33,943] [INFO] Training from 2000 to 2500 / 5000
[2025-08-01 05:18:41,447] [INFO] Feature 0 normalized using token
[2025-08-01 05:18:41,447] [INFO] Train shape: (10659, 500), Val shape: (1523, 500), Test shape: (3046, 500)
[2025-08-01 05:18:41,472] [INFO] Classifier: VRScannerModel(
  (input_modules): ModuleList(
    (0): Embedding(4520, 512)
  )
  (rnn_layers): ModuleList(
    (0): GRU(512, 256, num_layers=3, batch_first=True, dropout=0.3, bidirectional=True)
  )
  (attn_nets): ModuleList(
    (0): Sequential(
      (0): Linear(in_features=512, out_features=64, bias=True)
      (1): Tanh()
      (2): Linear(in_features=64, out_features=1, bias=True)
    )
  )
  (projection_layers): ModuleList(
    (0): Linear(in_features=512, out_features=256, bias=True)
  )
  (feature_attn_net): Sequential(
    (0): Linear(in_features=256, out_features=128, bias=True)
    (1): Tanh()
    (2): Linear(in_features=128, out_features=1, bias=True)
  )
  (fc): Sequential(
    (0): Linear(in_features=256, out_features=128, bias=True)
    (1): ReLU()
    (2): Dropout(p=0.3, inplace=False)
    (3): Linear(in_features=128, out_features=50, bias=True)
  )
)
[2025-08-01 05:18:41,472] [INFO] Training...
[2025-08-01 05:19:03,635] [INFO] Epoch 1/50, ValAcc: 47.34%, TrainLoss: 3.0383, ValLoss: 2.0224, LR: 0.001
[2025-08-01 05:19:25,728] [INFO] Epoch 2/50, ValAcc: 62.84%, TrainLoss: 1.7187, ValLoss: 1.3326, LR: 0.001
[2025-08-01 05:19:47,773] [INFO] Epoch 3/50, ValAcc: 69.07%, TrainLoss: 1.1426, ValLoss: 1.1468, LR: 0.001
…
False, device=device(type='cuda'), name='tcpwindow_token_bigru_5000_64_50_0.001_512_256_3_0.3_256_128_500_100_2000'),0.7807,0.7810,0.7969,0.7795
[2025-08-01 05:24:52,616] [INFO] [(0.7806959947472094, 0.7809533062501626, 0.7968713100276607, 0.7795030643690464)]
[2025-08-01 05:24:52,616] [INFO] Training from 2100 to 2600 / 5000
[2025-08-01 05:24:59,826] [INFO] Feature 0 normalized using token
[2025-08-01 05:24:59,827] [INFO] Train shape: (10659, 500), Val shape: (1523, 500), Test shape: (3046, 500)
[2025-08-01 05:24:59,853] [INFO] Classifier: VRScannerModel(
  (input_modules): ModuleList(
    (0): Embedding(4503, 512)
  )
  (rnn_layers): ModuleList(
    (0): GRU(512, 256, num_layers=3, batch_first=True, dropout=0.3, bidirectional=True)
  )
  (attn_nets): ModuleList(
    (0): Sequential(
      (0): Linear(in_features=512, out_features=64, bias=True)
      (1): Tanh()
      (2): Linear(in_features=64, out_features=1, bias=True)
    )
  )
  (projection_layers): ModuleList(
    (0): Linear(in_features=512, out_features=256, bias=True)
  )
  (feature_attn_net): Sequential(
    (0): Linear(in_features=256, out_features=128, bias=True)
    (1): Tanh()
    (2): Linear(in_features=128, out_features=1, bias=True)
  )
  (fc): Sequential(
    (0): Linear(in_features=256, out_features=128, bias=True)
    (1): ReLU()
    (2): Dropout(p=0.3, inplace=False)
    (3): Linear(in_features=128, out_features=50, bias=True)
  )
)
[2025-08-01 05:24:59,853] [INFO] Training...
[2025-08-01 05:25:22,095] [INFO] Epoch 1/50, ValAcc: 43.73%, TrainLoss: 3.0855, ValLoss: 2.0526, LR: 0.001
[2025-08-01 05:25:44,138] [INFO] Epoch 2/50, ValAcc: 61.26%, TrainLoss: 1.7732, ValLoss: 1.4338, LR: 0.001
[2025-08-01 05:26:06,236] [INFO] Epoch 3/50, ValAcc: 67.37%, TrainLoss: 1.1847, ValLoss: 1.2579, LR: 0.001
…
False, device=device(type='cuda'), name='tcpwindow_token_bigru_5000_64_50_0.001_512_256_3_0.3_256_128_500_100_2100'),0.7761,0.7785,0.7968,0.7738
[2025-08-01 05:31:10,032] [INFO] [(0.7760998030203545, 0.7784581872071251, 0.7968347318640135, 0.7738458859127152)]
[2025-08-01 05:31:10,033] [INFO] Training from 2200 to 2700 / 5000
[2025-08-01 05:31:17,485] [INFO] Feature 0 normalized using token
[2025-08-01 05:31:17,485] [INFO] Train shape: (10659, 500), Val shape: (1523, 500), Test shape: (3046, 500)
[2025-08-01 05:31:17,510] [INFO] Classifier: VRScannerModel(
  (input_modules): ModuleList(
    (0): Embedding(4493, 512)
  )
  (rnn_layers): ModuleList(
    (0): GRU(512, 256, num_layers=3, batch_first=True, dropout=0.3, bidirectional=True)
  )
  (attn_nets): ModuleList(
    (0): Sequential(
      (0): Linear(in_features=512, out_features=64, bias=True)
      (1): Tanh()
      (2): Linear(in_features=64, out_features=1, bias=True)
    )
  )
  (projection_layers): ModuleList(
    (0): Linear(in_features=512, out_features=256, bias=True)
  )
  (feature_attn_net): Sequential(
    (0): Linear(in_features=256, out_features=128, bias=True)
    (1): Tanh()
    (2): Linear(in_features=128, out_features=1, bias=True)
  )
  (fc): Sequential(
    (0): Linear(in_features=256, out_features=128, bias=True)
    (1): ReLU()
    (2): Dropout(p=0.3, inplace=False)
    (3): Linear(in_features=128, out_features=50, bias=True)
  )
)
[2025-08-01 05:31:17,511] [INFO] Training...
[2025-08-01 05:31:39,628] [INFO] Epoch 1/50, ValAcc: 46.68%, TrainLoss: 3.0344, ValLoss: 2.0482, LR: 0.001
[2025-08-01 05:32:01,586] [INFO] Epoch 2/50, ValAcc: 62.18%, TrainLoss: 1.7240, ValLoss: 1.3597, LR: 0.001
[2025-08-01 05:32:23,708] [INFO] Epoch 3/50, ValAcc: 67.76%, TrainLoss: 1.1932, ValLoss: 1.1753, LR: 0.001
…
=False, device=device(type='cuda'), name='tcpwindow_token_bigru_5000_64_50_0.001_512_256_3_0.3_256_128_500_100_2200'),0.7840,0.7871,0.8045,0.7831
[2025-08-01 05:37:27,926] [INFO] [(0.7839789888378201, 0.7870929033382486, 0.8045174344984829, 0.783064893483251)]
[2025-08-01 05:37:27,926] [INFO] Training from 2300 to 2800 / 5000
[2025-08-01 05:37:35,162] [INFO] Feature 0 normalized using token
[2025-08-01 05:37:35,162] [INFO] Train shape: (10659, 500), Val shape: (1523, 500), Test shape: (3046, 500)
[2025-08-01 05:37:35,189] [INFO] Classifier: VRScannerModel(
  (input_modules): ModuleList(
    (0): Embedding(4475, 512)
  )
  (rnn_layers): ModuleList(
    (0): GRU(512, 256, num_layers=3, batch_first=True, dropout=0.3, bidirectional=True)
  )
  (attn_nets): ModuleList(
    (0): Sequential(
      (0): Linear(in_features=512, out_features=64, bias=True)
      (1): Tanh()
      (2): Linear(in_features=64, out_features=1, bias=True)
    )
  )
  (projection_layers): ModuleList(
    (0): Linear(in_features=512, out_features=256, bias=True)
  )
  (feature_attn_net): Sequential(
    (0): Linear(in_features=256, out_features=128, bias=True)
    (1): Tanh()
    (2): Linear(in_features=128, out_features=1, bias=True)
  )
  (fc): Sequential(
    (0): Linear(in_features=256, out_features=128, bias=True)
    (1): ReLU()
    (2): Dropout(p=0.3, inplace=False)
    (3): Linear(in_features=128, out_features=50, bias=True)
  )
)
[2025-08-01 05:37:35,189] [INFO] Training...
[2025-08-01 05:37:57,240] [INFO] Epoch 1/50, ValAcc: 45.17%, TrainLoss: 3.0979, ValLoss: 2.0813, LR: 0.001
[2025-08-01 05:38:19,310] [INFO] Epoch 2/50, ValAcc: 59.23%, TrainLoss: 1.7909, ValLoss: 1.4656, LR: 0.001
[2025-08-01 05:38:41,360] [INFO] Epoch 3/50, ValAcc: 65.46%, TrainLoss: 1.2508, ValLoss: 1.2934, LR: 0.001
…
False, device=device(type='cuda'), name='tcpwindow_token_bigru_5000_64_50_0.001_512_256_3_0.3_256_128_500_100_2300'),0.7669,0.7713,0.7965,0.7654
[2025-08-01 05:43:45,593] [INFO] [(0.7669074195666448, 0.7713101394075043, 0.7965022634846207, 0.7654443422829442)]
[2025-08-01 05:43:45,593] [INFO] Training from 2400 to 2900 / 5000
[2025-08-01 05:43:52,587] [INFO] Feature 0 normalized using token
[2025-08-01 05:43:52,587] [INFO] Train shape: (10659, 500), Val shape: (1523, 500), Test shape: (3046, 500)
[2025-08-01 05:43:52,612] [INFO] Classifier: VRScannerModel(
  (input_modules): ModuleList(
    (0): Embedding(4476, 512)
  )
  (rnn_layers): ModuleList(
    (0): GRU(512, 256, num_layers=3, batch_first=True, dropout=0.3, bidirectional=True)
  )
  (attn_nets): ModuleList(
    (0): Sequential(
      (0): Linear(in_features=512, out_features=64, bias=True)
      (1): Tanh()
      (2): Linear(in_features=64, out_features=1, bias=True)
    )
  )
  (projection_layers): ModuleList(
    (0): Linear(in_features=512, out_features=256, bias=True)
  )
  (feature_attn_net): Sequential(
    (0): Linear(in_features=256, out_features=128, bias=True)
    (1): Tanh()
    (2): Linear(in_features=128, out_features=1, bias=True)
  )
  (fc): Sequential(
    (0): Linear(in_features=256, out_features=128, bias=True)
    (1): ReLU()
    (2): Dropout(p=0.3, inplace=False)
    (3): Linear(in_features=128, out_features=50, bias=True)
  )
)
[2025-08-01 05:43:52,612] [INFO] Training...
[2025-08-01 05:44:14,654] [INFO] Epoch 1/50, ValAcc: 40.25%, TrainLoss: 3.1612, ValLoss: 2.2706, LR: 0.001
[2025-08-01 05:44:36,733] [INFO] Epoch 2/50, ValAcc: 57.19%, TrainLoss: 1.9426, ValLoss: 1.5627, LR: 0.001
[2025-08-01 05:44:58,818] [INFO] Epoch 3/50, ValAcc: 63.03%, TrainLoss: 1.3208, ValLoss: 1.3555, LR: 0.001
…
False, device=device(type='cuda'), name='tcpwindow_token_bigru_5000_64_50_0.001_512_256_3_0.3_256_128_500_100_2400'),0.7495,0.7565,0.7889,0.7466
[2025-08-01 05:50:11,502] [INFO] [(0.7495075508864084, 0.7565308224439522, 0.7888938872191634, 0.7466454560690318)]
[2025-08-01 05:50:11,502] [INFO] Training from 2500 to 3000 / 5000
[2025-08-01 05:50:18,621] [INFO] Feature 0 normalized using token
[2025-08-01 05:50:18,621] [INFO] Train shape: (10659, 500), Val shape: (1523, 500), Test shape: (3046, 500)
[2025-08-01 05:50:18,648] [INFO] Classifier: VRScannerModel(
  (input_modules): ModuleList(
    (0): Embedding(4423, 512)
  )
  (rnn_layers): ModuleList(
    (0): GRU(512, 256, num_layers=3, batch_first=True, dropout=0.3, bidirectional=True)
  )
  (attn_nets): ModuleList(
    (0): Sequential(
      (0): Linear(in_features=512, out_features=64, bias=True)
      (1): Tanh()
      (2): Linear(in_features=64, out_features=1, bias=True)
    )
  )
  (projection_layers): ModuleList(
    (0): Linear(in_features=512, out_features=256, bias=True)
  )
  (feature_attn_net): Sequential(
    (0): Linear(in_features=256, out_features=128, bias=True)
    (1): Tanh()
    (2): Linear(in_features=128, out_features=1, bias=True)
  )
  (fc): Sequential(
    (0): Linear(in_features=256, out_features=128, bias=True)
    (1): ReLU()
    (2): Dropout(p=0.3, inplace=False)
    (3): Linear(in_features=128, out_features=50, bias=True)
  )
)
[2025-08-01 05:50:18,648] [INFO] Training...
[2025-08-01 05:50:38,709] [INFO] Epoch 1/50, ValAcc: 38.21%, TrainLoss: 3.1641, ValLoss: 2.3507, LR: 0.001
[2025-08-01 05:50:54,733] [INFO] Epoch 2/50, ValAcc: 55.22%, TrainLoss: 2.0536, ValLoss: 1.6518, LR: 0.001
[2025-08-01 05:51:16,860] [INFO] Epoch 3/50, ValAcc: 60.28%, TrainLoss: 1.4812, ValLoss: 1.4520, LR: 0.001
…
False, device=device(type='cuda'), name='tcpwindow_token_bigru_5000_64_50_0.001_512_256_3_0.3_256_128_500_100_2500'),0.7262,0.7354,0.7732,0.7232
[2025-08-01 05:56:51,899] [INFO] [(0.7261982928430729, 0.7353778857654053, 0.7732008778801007, 0.7232323955915249)]
[2025-08-01 05:56:51,899] [INFO] Training from 2600 to 3100 / 5000
[2025-08-01 05:56:58,836] [INFO] Feature 0 normalized using token
[2025-08-01 05:56:58,837] [INFO] Train shape: (10659, 500), Val shape: (1523, 500), Test shape: (3046, 500)
[2025-08-01 05:56:58,863] [INFO] Classifier: VRScannerModel(
  (input_modules): ModuleList(
    (0): Embedding(4422, 512)
  )
  (rnn_layers): ModuleList(
    (0): GRU(512, 256, num_layers=3, batch_first=True, dropout=0.3, bidirectional=True)
  )
  (attn_nets): ModuleList(
    (0): Sequential(
      (0): Linear(in_features=512, out_features=64, bias=True)
      (1): Tanh()
      (2): Linear(in_features=64, out_features=1, bias=True)
    )
  )
  (projection_layers): ModuleList(
    (0): Linear(in_features=512, out_features=256, bias=True)
  )
  (feature_attn_net): Sequential(
    (0): Linear(in_features=256, out_features=128, bias=True)
    (1): Tanh()
    (2): Linear(in_features=128, out_features=1, bias=True)
  )
  (fc): Sequential(
    (0): Linear(in_features=256, out_features=128, bias=True)
    (1): ReLU()
    (2): Dropout(p=0.3, inplace=False)
    (3): Linear(in_features=128, out_features=50, bias=True)
  )
)
[2025-08-01 05:56:58,863] [INFO] Training...
[2025-08-01 05:57:20,988] [INFO] Epoch 1/50, ValAcc: 36.64%, TrainLoss: 3.1147, ValLoss: 2.3967, LR: 0.001
[2025-08-01 05:57:43,092] [INFO] Epoch 2/50, ValAcc: 55.09%, TrainLoss: 2.0534, ValLoss: 1.7167, LR: 0.001
[2025-08-01 05:58:00,708] [INFO] Epoch 3/50, ValAcc: 57.26%, TrainLoss: 1.4904, ValLoss: 1.5603, LR: 0.001
…
False, device=device(type='cuda'), name='tcpwindow_token_bigru_5000_64_50_0.001_512_256_3_0.3_256_128_500_100_2600'),0.6924,0.7115,0.7608,0.6909
[2025-08-01 06:03:32,468] [INFO] [(0.6923834537097833, 0.7115174846093931, 0.7607527683857066, 0.6909316103700577)]
[2025-08-01 06:03:32,468] [INFO] Training from 2700 to 3200 / 5000
[2025-08-01 06:03:39,106] [INFO] Feature 0 normalized using token
[2025-08-01 06:03:39,106] [INFO] Train shape: (10659, 500), Val shape: (1523, 500), Test shape: (3046, 500)
[2025-08-01 06:03:39,132] [INFO] Classifier: VRScannerModel(
  (input_modules): ModuleList(
    (0): Embedding(4396, 512)
  )
  (rnn_layers): ModuleList(
    (0): GRU(512, 256, num_layers=3, batch_first=True, dropout=0.3, bidirectional=True)
  )
  (attn_nets): ModuleList(
    (0): Sequential(
      (0): Linear(in_features=512, out_features=64, bias=True)
      (1): Tanh()
      (2): Linear(in_features=64, out_features=1, bias=True)
    )
  )
  (projection_layers): ModuleList(
    (0): Linear(in_features=512, out_features=256, bias=True)
  )
  (feature_attn_net): Sequential(
    (0): Linear(in_features=256, out_features=128, bias=True)
    (1): Tanh()
    (2): Linear(in_features=128, out_features=1, bias=True)
  )
  (fc): Sequential(
    (0): Linear(in_features=256, out_features=128, bias=True)
    (1): ReLU()
    (2): Dropout(p=0.3, inplace=False)
    (3): Linear(in_features=128, out_features=50, bias=True)
  )
)
[2025-08-01 06:03:39,132] [INFO] Training...
[2025-08-01 06:04:01,417] [INFO] Epoch 1/50, ValAcc: 36.51%, TrainLoss: 3.1990, ValLoss: 2.4645, LR: 0.001
[2025-08-01 06:04:23,582] [INFO] Epoch 2/50, ValAcc: 50.89%, TrainLoss: 2.1705, ValLoss: 1.8451, LR: 0.001
[2025-08-01 06:04:45,703] [INFO] Epoch 3/50, ValAcc: 53.71%, TrainLoss: 1.6658, ValLoss: 1.6872, LR: 0.001
…
n=False, device=device(type='cuda'), name='tcpwindow_token_bigru_5000_64_50_0.001_512_256_3_0.3_256_128_500_100_2700'),0.6550,0.6806,0.7399,0.6528
[2025-08-01 06:09:49,390] [INFO] [(0.654957321076822, 0.6805886265575277, 0.739867209033126, 0.6528188025599975)]
[2025-08-01 06:09:49,390] [INFO] Training from 2800 to 3300 / 5000
[2025-08-01 06:09:55,989] [INFO] Feature 0 normalized using token
[2025-08-01 06:09:55,989] [INFO] Train shape: (10659, 500), Val shape: (1523, 500), Test shape: (3046, 500)
[2025-08-01 06:09:56,014] [INFO] Classifier: VRScannerModel(
  (input_modules): ModuleList(
    (0): Embedding(4339, 512)
  )
  (rnn_layers): ModuleList(
    (0): GRU(512, 256, num_layers=3, batch_first=True, dropout=0.3, bidirectional=True)
  )
  (attn_nets): ModuleList(
    (0): Sequential(
      (0): Linear(in_features=512, out_features=64, bias=True)
      (1): Tanh()
      (2): Linear(in_features=64, out_features=1, bias=True)
    )
  )
  (projection_layers): ModuleList(
    (0): Linear(in_features=512, out_features=256, bias=True)
  )
  (feature_attn_net): Sequential(
    (0): Linear(in_features=256, out_features=128, bias=True)
    (1): Tanh()
    (2): Linear(in_features=128, out_features=1, bias=True)
  )
  (fc): Sequential(
    (0): Linear(in_features=256, out_features=128, bias=True)
    (1): ReLU()
    (2): Dropout(p=0.3, inplace=False)
    (3): Linear(in_features=128, out_features=50, bias=True)
  )
)
[2025-08-01 06:09:56,014] [INFO] Training...
[2025-08-01 06:10:18,078] [INFO] Epoch 1/50, ValAcc: 32.17%, TrainLoss: 3.2711, ValLoss: 2.5338, LR: 0.001
[2025-08-01 06:10:40,195] [INFO] Epoch 2/50, ValAcc: 46.16%, TrainLoss: 2.2957, ValLoss: 1.9860, LR: 0.001
[2025-08-01 06:11:02,320] [INFO] Epoch 3/50, ValAcc: 52.86%, TrainLoss: 1.7932, ValLoss: 1.7945, LR: 0.001
…
n=False, device=device(type='cuda'), name='tcpwindow_token_bigru_5000_64_50_0.001_512_256_3_0.3_256_128_500_100_2800'),0.6290,0.6651,0.7433,0.6281
[2025-08-01 06:16:51,618] [INFO] [(0.629021667760998, 0.665086103150961, 0.7433163756620018, 0.6280597326808249)]
[2025-08-01 06:16:51,618] [INFO] Training from 2900 to 3400 / 5000
[2025-08-01 06:16:57,866] [INFO] Feature 0 normalized using token
[2025-08-01 06:16:57,866] [INFO] Train shape: (10659, 500), Val shape: (1523, 500), Test shape: (3046, 500)
[2025-08-01 06:16:57,892] [INFO] Classifier: VRScannerModel(
  (input_modules): ModuleList(
    (0): Embedding(4286, 512)
  )
  (rnn_layers): ModuleList(
    (0): GRU(512, 256, num_layers=3, batch_first=True, dropout=0.3, bidirectional=True)
  )
  (attn_nets): ModuleList(
    (0): Sequential(
      (0): Linear(in_features=512, out_features=64, bias=True)
      (1): Tanh()
      (2): Linear(in_features=64, out_features=1, bias=True)
    )
  )
  (projection_layers): ModuleList(
    (0): Linear(in_features=512, out_features=256, bias=True)
  )
  (feature_attn_net): Sequential(
    (0): Linear(in_features=256, out_features=128, bias=True)
    (1): Tanh()
    (2): Linear(in_features=128, out_features=1, bias=True)
  )
  (fc): Sequential(
    (0): Linear(in_features=256, out_features=128, bias=True)
    (1): ReLU()
    (2): Dropout(p=0.3, inplace=False)
    (3): Linear(in_features=128, out_features=50, bias=True)
  )
)
[2025-08-01 06:16:57,892] [INFO] Training...
[2025-08-01 06:17:19,899] [INFO] Epoch 1/50, ValAcc: 34.80%, TrainLoss: 3.2586, ValLoss: 2.5184, LR: 0.001
[2025-08-01 06:17:41,855] [INFO] Epoch 2/50, ValAcc: 45.37%, TrainLoss: 2.3544, ValLoss: 2.1134, LR: 0.001
[2025-08-01 06:18:03,811] [INFO] Epoch 3/50, ValAcc: 48.79%, TrainLoss: 1.9164, ValLoss: 1.9696, LR: 0.001
…
False, device=device(type='cuda'), name='tcpwindow_token_bigru_5000_64_50_0.001_512_256_3_0.3_256_128_500_100_2900'),0.5936,0.6401,0.7329,0.5948
[2025-08-01 06:23:51,964] [INFO] [(0.5935653315824031, 0.6401243094475838, 0.7329216192458021, 0.5947592179114477)]
[2025-08-01 06:23:51,964] [INFO] Training from 3000 to 3500 / 5000
[2025-08-01 06:23:58,030] [INFO] Feature 0 normalized using token
[2025-08-01 06:23:58,030] [INFO] Train shape: (10659, 500), Val shape: (1523, 500), Test shape: (3046, 500)
[2025-08-01 06:23:58,054] [INFO] Classifier: VRScannerModel(
  (input_modules): ModuleList(
    (0): Embedding(4232, 512)
  )
  (rnn_layers): ModuleList(
    (0): GRU(512, 256, num_layers=3, batch_first=True, dropout=0.3, bidirectional=True)
  )
  (attn_nets): ModuleList(
    (0): Sequential(
      (0): Linear(in_features=512, out_features=64, bias=True)
      (1): Tanh()
      (2): Linear(in_features=64, out_features=1, bias=True)
    )
  )
  (projection_layers): ModuleList(
    (0): Linear(in_features=512, out_features=256, bias=True)
  )
  (feature_attn_net): Sequential(
    (0): Linear(in_features=256, out_features=128, bias=True)
    (1): Tanh()
    (2): Linear(in_features=128, out_features=1, bias=True)
  )
  (fc): Sequential(
    (0): Linear(in_features=256, out_features=128, bias=True)
    (1): ReLU()
    (2): Dropout(p=0.3, inplace=False)
    (3): Linear(in_features=128, out_features=50, bias=True)
  )
)
[2025-08-01 06:23:58,055] [INFO] Training...
[2025-08-01 06:24:20,126] [INFO] Epoch 1/50, ValAcc: 27.18%, TrainLoss: 3.3586, ValLoss: 2.7019, LR: 0.001
[2025-08-01 06:24:42,134] [INFO] Epoch 2/50, ValAcc: 41.76%, TrainLoss: 2.4667, ValLoss: 2.2022, LR: 0.001
[2025-08-01 06:25:04,224] [INFO] Epoch 3/50, ValAcc: 45.04%, TrainLoss: 2.0287, ValLoss: 2.0622, LR: 0.001
…
False, device=device(type='cuda'), name='tcpwindow_token_bigru_5000_64_50_0.001_512_256_3_0.3_256_128_500_100_3000'),0.5374,0.5932,0.7104,0.5392
[2025-08-01 06:30:09,748] [INFO] [(0.5374261326329612, 0.5932240664788949, 0.7103856154269411, 0.5392495645082316)]
[2025-08-01 06:30:09,748] [INFO] Training from 3100 to 3600 / 5000
[2025-08-01 06:30:15,678] [INFO] Feature 0 normalized using token
[2025-08-01 06:30:15,678] [INFO] Train shape: (10659, 500), Val shape: (1523, 500), Test shape: (3046, 500)
[2025-08-01 06:30:15,704] [INFO] Classifier: VRScannerModel(
  (input_modules): ModuleList(
    (0): Embedding(4118, 512)
  )
  (rnn_layers): ModuleList(
    (0): GRU(512, 256, num_layers=3, batch_first=True, dropout=0.3, bidirectional=True)
  )
  (attn_nets): ModuleList(
    (0): Sequential(
      (0): Linear(in_features=512, out_features=64, bias=True)
      (1): Tanh()
      (2): Linear(in_features=64, out_features=1, bias=True)
    )
  )
  (projection_layers): ModuleList(
    (0): Linear(in_features=512, out_features=256, bias=True)
  )
  (feature_attn_net): Sequential(
    (0): Linear(in_features=256, out_features=128, bias=True)
    (1): Tanh()
    (2): Linear(in_features=128, out_features=1, bias=True)
  )
  (fc): Sequential(
    (0): Linear(in_features=256, out_features=128, bias=True)
    (1): ReLU()
    (2): Dropout(p=0.3, inplace=False)
    (3): Linear(in_features=128, out_features=50, bias=True)
  )
)
[2025-08-01 06:30:15,704] [INFO] Training...
[2025-08-01 06:30:37,761] [INFO] Epoch 1/50, ValAcc: 25.67%, TrainLoss: 3.4570, ValLoss: 2.9281, LR: 0.001
[2025-08-01 06:30:59,824] [INFO] Epoch 2/50, ValAcc: 35.00%, TrainLoss: 2.7042, ValLoss: 2.4318, LR: 0.001
[2025-08-01 06:31:21,938] [INFO] Epoch 3/50, ValAcc: 40.38%, TrainLoss: 2.2947, ValLoss: 2.2839, LR: 0.001
…
False, device=device(type='cuda'), name='tcpwindow_token_bigru_5000_64_50_0.001_512_256_3_0.3_256_128_500_100_3100'),0.5007,0.5638,0.7038,0.5031
[2025-08-01 06:36:49,755] [INFO] [(0.5006565988181221, 0.5638460226648662, 0.7038418934315169, 0.5031220774809145)]
[2025-08-01 06:36:49,755] [INFO] Training from 3200 to 3700 / 5000
[2025-08-01 06:36:55,536] [INFO] Feature 0 normalized using token
[2025-08-01 06:36:55,536] [INFO] Train shape: (10659, 500), Val shape: (1523, 500), Test shape: (3046, 500)
[2025-08-01 06:36:55,562] [INFO] Classifier: VRScannerModel(
  (input_modules): ModuleList(
    (0): Embedding(4011, 512)
  )
  (rnn_layers): ModuleList(
    (0): GRU(512, 256, num_layers=3, batch_first=True, dropout=0.3, bidirectional=True)
  )
  (attn_nets): ModuleList(
    (0): Sequential(
      (0): Linear(in_features=512, out_features=64, bias=True)
      (1): Tanh()
      (2): Linear(in_features=64, out_features=1, bias=True)
    )
  )
  (projection_layers): ModuleList(
    (0): Linear(in_features=512, out_features=256, bias=True)
  )
  (feature_attn_net): Sequential(
    (0): Linear(in_features=256, out_features=128, bias=True)
    (1): Tanh()
    (2): Linear(in_features=128, out_features=1, bias=True)
  )
  (fc): Sequential(
    (0): Linear(in_features=256, out_features=128, bias=True)
    (1): ReLU()
    (2): Dropout(p=0.3, inplace=False)
    (3): Linear(in_features=128, out_features=50, bias=True)
  )
)
[2025-08-01 06:36:55,562] [INFO] Training...
[2025-08-01 06:37:17,757] [INFO] Epoch 1/50, ValAcc: 20.16%, TrainLoss: 3.5602, ValLoss: 3.1000, LR: 0.001
[2025-08-01 06:37:39,923] [INFO] Epoch 2/50, ValAcc: 32.37%, TrainLoss: 2.8333, ValLoss: 2.5584, LR: 0.001
[2025-08-01 06:38:02,065] [INFO] Epoch 3/50, ValAcc: 36.97%, TrainLoss: 2.4189, ValLoss: 2.3983, LR: 0.001
…
alse, device=device(type='cuda'), name='tcpwindow_token_bigru_5000_64_50_0.001_512_256_3_0.3_256_128_500_100_3200'),0.4511,0.5168,0.6794,0.4519
[2025-08-01 06:43:29,900] [INFO] [(0.4510833880499015, 0.5167586275605243, 0.6794432532230921, 0.45192366044393906)]
[2025-08-01 06:43:29,900] [INFO] Training from 3300 to 3800 / 5000
[2025-08-01 06:43:35,392] [INFO] Feature 0 normalized using token
[2025-08-01 06:43:35,392] [INFO] Train shape: (10659, 500), Val shape: (1523, 500), Test shape: (3046, 500)
[2025-08-01 06:43:35,417] [INFO] Classifier: VRScannerModel(
  (input_modules): ModuleList(
    (0): Embedding(3922, 512)
  )
  (rnn_layers): ModuleList(
    (0): GRU(512, 256, num_layers=3, batch_first=True, dropout=0.3, bidirectional=True)
  )
  (attn_nets): ModuleList(
    (0): Sequential(
      (0): Linear(in_features=512, out_features=64, bias=True)
      (1): Tanh()
      (2): Linear(in_features=64, out_features=1, bias=True)
    )
  )
  (projection_layers): ModuleList(
    (0): Linear(in_features=512, out_features=256, bias=True)
  )
  (feature_attn_net): Sequential(
    (0): Linear(in_features=256, out_features=128, bias=True)
    (1): Tanh()
    (2): Linear(in_features=128, out_features=1, bias=True)
  )
  (fc): Sequential(
    (0): Linear(in_features=256, out_features=128, bias=True)
    (1): ReLU()
    (2): Dropout(p=0.3, inplace=False)
    (3): Linear(in_features=128, out_features=50, bias=True)
  )
)
[2025-08-01 06:43:35,417] [INFO] Training...
[2025-08-01 06:43:57,615] [INFO] Epoch 1/50, ValAcc: 16.87%, TrainLoss: 3.5974, ValLoss: 3.2641, LR: 0.001
[2025-08-01 06:44:19,738] [INFO] Epoch 2/50, ValAcc: 22.78%, TrainLoss: 3.0804, ValLoss: 2.8984, LR: 0.001
[2025-08-01 06:44:41,837] [INFO] Epoch 3/50, ValAcc: 30.40%, TrainLoss: 2.6707, ValLoss: 2.6577, LR: 0.001
…
alse, device=device(type='cuda'), name='tcpwindow_token_bigru_5000_64_50_0.001_512_256_3_0.3_256_128_500_100_3300'),0.4058,0.4718,0.6461,0.4080
[2025-08-01 06:50:31,592] [INFO] [(0.4057780695994747, 0.47183623990168555, 0.6461192881244451, 0.4080318846433022)]
[2025-08-01 06:50:31,592] [INFO] Training from 3400 to 3900 / 5000
[2025-08-01 06:50:37,068] [INFO] Feature 0 normalized using token
[2025-08-01 06:50:37,069] [INFO] Train shape: (10659, 500), Val shape: (1523, 500), Test shape: (3046, 500)
[2025-08-01 06:50:37,094] [INFO] Classifier: VRScannerModel(
  (input_modules): ModuleList(
    (0): Embedding(3842, 512)
  )
  (rnn_layers): ModuleList(
    (0): GRU(512, 256, num_layers=3, batch_first=True, dropout=0.3, bidirectional=True)
  )
  (attn_nets): ModuleList(
    (0): Sequential(
      (0): Linear(in_features=512, out_features=64, bias=True)
      (1): Tanh()
      (2): Linear(in_features=64, out_features=1, bias=True)
    )
  )
  (projection_layers): ModuleList(
    (0): Linear(in_features=512, out_features=256, bias=True)
  )
  (feature_attn_net): Sequential(
    (0): Linear(in_features=256, out_features=128, bias=True)
    (1): Tanh()
    (2): Linear(in_features=128, out_features=1, bias=True)
  )
  (fc): Sequential(
    (0): Linear(in_features=256, out_features=128, bias=True)
    (1): ReLU()
    (2): Dropout(p=0.3, inplace=False)
    (3): Linear(in_features=128, out_features=50, bias=True)
  )
)
[2025-08-01 06:50:37,094] [INFO] Training...
[2025-08-01 06:50:59,285] [INFO] Epoch 1/50, ValAcc: 16.09%, TrainLoss: 3.6478, ValLoss: 3.2816, LR: 0.001
[2025-08-01 06:51:21,377] [INFO] Epoch 2/50, ValAcc: 25.15%, TrainLoss: 3.1129, ValLoss: 2.9027, LR: 0.001
[2025-08-01 06:51:43,463] [INFO] Epoch 3/50, ValAcc: 28.76%, TrainLoss: 2.7701, ValLoss: 2.7571, LR: 0.001
…
alse, device=device(type='cuda'), name='tcpwindow_token_bigru_5000_64_50_0.001_512_256_3_0.3_256_128_500_100_3400'),0.3743,0.4442,0.6438,0.3735
[2025-08-01 06:57:11,186] [INFO] [(0.3742613263296126, 0.44424310876601214, 0.6438429078446994, 0.3734966231423481)]
[2025-08-01 06:57:11,186] [INFO] Training from 3500 to 4000 / 5000
[2025-08-01 06:57:16,342] [INFO] Feature 0 normalized using token
[2025-08-01 06:57:16,342] [INFO] Train shape: (10659, 500), Val shape: (1523, 500), Test shape: (3046, 500)
[2025-08-01 06:57:16,367] [INFO] Classifier: VRScannerModel(
  (input_modules): ModuleList(
    (0): Embedding(3725, 512)
  )
  (rnn_layers): ModuleList(
    (0): GRU(512, 256, num_layers=3, batch_first=True, dropout=0.3, bidirectional=True)
  )
  (attn_nets): ModuleList(
    (0): Sequential(
      (0): Linear(in_features=512, out_features=64, bias=True)
      (1): Tanh()
      (2): Linear(in_features=64, out_features=1, bias=True)
    )
  )
  (projection_layers): ModuleList(
    (0): Linear(in_features=512, out_features=256, bias=True)
  )
  (feature_attn_net): Sequential(
    (0): Linear(in_features=256, out_features=128, bias=True)
    (1): Tanh()
    (2): Linear(in_features=128, out_features=1, bias=True)
  )
  (fc): Sequential(
    (0): Linear(in_features=256, out_features=128, bias=True)
    (1): ReLU()
    (2): Dropout(p=0.3, inplace=False)
    (3): Linear(in_features=128, out_features=50, bias=True)
  )
)
[2025-08-01 06:57:16,367] [INFO] Training...
[2025-08-01 06:57:38,447] [INFO] Epoch 1/50, ValAcc: 13.72%, TrainLoss: 3.6776, ValLoss: 3.4195, LR: 0.001
[2025-08-01 06:58:00,574] [INFO] Epoch 2/50, ValAcc: 19.70%, TrainLoss: 3.2356, ValLoss: 3.0639, LR: 0.001
[2025-08-01 06:58:22,702] [INFO] Epoch 3/50, ValAcc: 25.15%, TrainLoss: 2.9064, ValLoss: 2.9211, LR: 0.001
…
lse, device=device(type='cuda'), name='tcpwindow_token_bigru_5000_64_50_0.001_512_256_3_0.3_256_128_500_100_3500'),0.3293,0.3991,0.6272,0.3279
[2025-08-01 07:03:50,804] [INFO] [(0.32928430728824687, 0.39911790055072993, 0.627167430228584, 0.32789823652367195)]
[2025-08-01 07:03:50,804] [INFO] Training from 3600 to 4100 / 5000
[2025-08-01 07:03:55,775] [INFO] Feature 0 normalized using token
[2025-08-01 07:03:55,775] [INFO] Train shape: (10659, 500), Val shape: (1523, 500), Test shape: (3046, 500)
[2025-08-01 07:03:55,800] [INFO] Classifier: VRScannerModel(
  (input_modules): ModuleList(
    (0): Embedding(3586, 512)
  )
  (rnn_layers): ModuleList(
    (0): GRU(512, 256, num_layers=3, batch_first=True, dropout=0.3, bidirectional=True)
  )
  (attn_nets): ModuleList(
    (0): Sequential(
      (0): Linear(in_features=512, out_features=64, bias=True)
      (1): Tanh()
      (2): Linear(in_features=64, out_features=1, bias=True)
    )
  )
  (projection_layers): ModuleList(
    (0): Linear(in_features=512, out_features=256, bias=True)
  )
  (feature_attn_net): Sequential(
    (0): Linear(in_features=256, out_features=128, bias=True)
    (1): Tanh()
    (2): Linear(in_features=128, out_features=1, bias=True)
  )
  (fc): Sequential(
    (0): Linear(in_features=256, out_features=128, bias=True)
    (1): ReLU()
    (2): Dropout(p=0.3, inplace=False)
    (3): Linear(in_features=128, out_features=50, bias=True)
  )
)
[2025-08-01 07:03:55,800] [INFO] Training...
[2025-08-01 07:04:17,902] [INFO] Epoch 1/50, ValAcc: 8.60%, TrainLoss: 3.7242, ValLoss: 3.4994, LR: 0.001
[2025-08-01 07:04:40,029] [INFO] Epoch 2/50, ValAcc: 17.01%, TrainLoss: 3.3384, ValLoss: 3.1871, LR: 0.001
[2025-08-01 07:05:02,140] [INFO] Epoch 3/50, ValAcc: 23.24%, TrainLoss: 3.0342, ValLoss: 3.0007, LR: 0.001
…
se, device=device(type='cuda'), name='tcpwindow_token_bigru_5000_64_50_0.001_512_256_3_0.3_256_128_500_100_3600'),0.3007,0.3704,0.6223,0.2995
[2025-08-01 07:10:51,870] [INFO] [(0.30072225869993435, 0.37044286625427103, 0.6223308275602668, 0.29950626183547124)]
[2025-08-01 07:10:51,870] [INFO] Training from 3700 to 4200 / 5000
[2025-08-01 07:10:56,672] [INFO] Feature 0 normalized using token
[2025-08-01 07:10:56,672] [INFO] Train shape: (10659, 500), Val shape: (1523, 500), Test shape: (3046, 500)
[2025-08-01 07:10:56,695] [INFO] Classifier: VRScannerModel(
  (input_modules): ModuleList(
    (0): Embedding(3474, 512)
  )
  (rnn_layers): ModuleList(
    (0): GRU(512, 256, num_layers=3, batch_first=True, dropout=0.3, bidirectional=True)
  )
  (attn_nets): ModuleList(
    (0): Sequential(
      (0): Linear(in_features=512, out_features=64, bias=True)
      (1): Tanh()
      (2): Linear(in_features=64, out_features=1, bias=True)
    )
  )
  (projection_layers): ModuleList(
    (0): Linear(in_features=512, out_features=256, bias=True)
  )
  (feature_attn_net): Sequential(
    (0): Linear(in_features=256, out_features=128, bias=True)
    (1): Tanh()
    (2): Linear(in_features=128, out_features=1, bias=True)
  )
  (fc): Sequential(
    (0): Linear(in_features=256, out_features=128, bias=True)
    (1): ReLU()
    (2): Dropout(p=0.3, inplace=False)
    (3): Linear(in_features=128, out_features=50, bias=True)
  )
)
[2025-08-01 07:10:56,695] [INFO] Training...
[2025-08-01 07:11:18,734] [INFO] Epoch 1/50, ValAcc: 10.70%, TrainLoss: 3.7211, ValLoss: 3.4845, LR: 0.001
[2025-08-01 07:11:40,855] [INFO] Epoch 2/50, ValAcc: 17.79%, TrainLoss: 3.3591, ValLoss: 3.2161, LR: 0.001
[2025-08-01 07:12:02,826] [INFO] Epoch 3/50, ValAcc: 20.29%, TrainLoss: 3.1176, ValLoss: 3.0983, LR: 0.001
…
=False, device=device(type='cuda'), name='tcpwindow_token_bigru_5000_64_50_0.001_512_256_3_0.3_256_128_500_100_3700'),0.2672,0.3349,0.5892,0.2668
[2025-08-01 07:17:14,142] [INFO] [(0.26723571897570586, 0.334924825721652, 0.589153516004716, 0.2668452958503462)]
[2025-08-01 07:17:14,142] [INFO] Training from 3800 to 4300 / 5000
[2025-08-01 07:17:19,058] [INFO] Feature 0 normalized using token
[2025-08-01 07:17:19,059] [INFO] Train shape: (10659, 500), Val shape: (1523, 500), Test shape: (3046, 500)
[2025-08-01 07:17:19,083] [INFO] Classifier: VRScannerModel(
  (input_modules): ModuleList(
    (0): Embedding(3369, 512)
  )
  (rnn_layers): ModuleList(
    (0): GRU(512, 256, num_layers=3, batch_first=True, dropout=0.3, bidirectional=True)
  )
  (attn_nets): ModuleList(
    (0): Sequential(
      (0): Linear(in_features=512, out_features=64, bias=True)
      (1): Tanh()
      (2): Linear(in_features=64, out_features=1, bias=True)
    )
  )
  (projection_layers): ModuleList(
    (0): Linear(in_features=512, out_features=256, bias=True)
  )
  (feature_attn_net): Sequential(
    (0): Linear(in_features=256, out_features=128, bias=True)
    (1): Tanh()
    (2): Linear(in_features=128, out_features=1, bias=True)
  )
  (fc): Sequential(
    (0): Linear(in_features=256, out_features=128, bias=True)
    (1): ReLU()
    (2): Dropout(p=0.3, inplace=False)
    (3): Linear(in_features=128, out_features=50, bias=True)
  )
)
[2025-08-01 07:17:19,083] [INFO] Training...
[2025-08-01 07:17:35,008] [INFO] Epoch 1/50, ValAcc: 6.83%, TrainLoss: 3.7648, ValLoss: 3.5936, LR: 0.001
[2025-08-01 07:17:56,954] [INFO] Epoch 2/50, ValAcc: 13.46%, TrainLoss: 3.4859, ValLoss: 3.3288, LR: 0.001
[2025-08-01 07:18:18,951] [INFO] Epoch 3/50, ValAcc: 17.27%, TrainLoss: 3.2464, ValLoss: 3.1708, LR: 0.001
…
lse, device=device(type='cuda'), name='tcpwindow_token_bigru_5000_64_50_0.001_512_256_3_0.3_256_128_500_100_3800'),0.2416,0.3060,0.5695,0.2408
[2025-08-01 07:24:36,463] [INFO] [(0.24162836506894286, 0.3059810462745692, 0.5694758115573183, 0.24078517405112695)]
[2025-08-01 07:24:36,463] [INFO] Training from 3900 to 4400 / 5000
[2025-08-01 07:24:41,210] [INFO] Feature 0 normalized using token
[2025-08-01 07:24:41,210] [INFO] Train shape: (10659, 500), Val shape: (1523, 500), Test shape: (3046, 500)
[2025-08-01 07:24:41,233] [INFO] Classifier: VRScannerModel(
  (input_modules): ModuleList(
    (0): Embedding(3228, 512)
  )
  (rnn_layers): ModuleList(
    (0): GRU(512, 256, num_layers=3, batch_first=True, dropout=0.3, bidirectional=True)
  )
  (attn_nets): ModuleList(
    (0): Sequential(
      (0): Linear(in_features=512, out_features=64, bias=True)
      (1): Tanh()
      (2): Linear(in_features=64, out_features=1, bias=True)
    )
  )
  (projection_layers): ModuleList(
    (0): Linear(in_features=512, out_features=256, bias=True)
  )
  (feature_attn_net): Sequential(
    (0): Linear(in_features=256, out_features=128, bias=True)
    (1): Tanh()
    (2): Linear(in_features=128, out_features=1, bias=True)
  )
  (fc): Sequential(
    (0): Linear(in_features=256, out_features=128, bias=True)
    (1): ReLU()
    (2): Dropout(p=0.3, inplace=False)
    (3): Linear(in_features=128, out_features=50, bias=True)
  )
)
[2025-08-01 07:24:41,233] [INFO] Training...
[2025-08-01 07:25:03,379] [INFO] Epoch 1/50, ValAcc: 9.13%, TrainLoss: 3.7726, ValLoss: 3.5896, LR: 0.001
[2025-08-01 07:25:19,046] [INFO] Epoch 2/50, ValAcc: 14.12%, TrainLoss: 3.4923, ValLoss: 3.3571, LR: 0.001
[2025-08-01 07:25:41,170] [INFO] Epoch 3/50, ValAcc: 15.56%, TrainLoss: 3.2856, ValLoss: 3.2821, LR: 0.001
…
lse, device=device(type='cuda'), name='tcpwindow_token_bigru_5000_64_50_0.001_512_256_3_0.3_256_128_500_100_3900'),0.2134,0.2720,0.5052,0.2155
[2025-08-01 07:31:16,300] [INFO] [(0.21339461588969139, 0.27198897263850946, 0.5051926891092666, 0.2154550880538908)]
[2025-08-01 07:31:16,300] [INFO] Training from 4000 to 4500 / 5000
[2025-08-01 07:31:20,991] [INFO] Feature 0 normalized using token
[2025-08-01 07:31:20,992] [INFO] Train shape: (10659, 500), Val shape: (1523, 500), Test shape: (3046, 500)
[2025-08-01 07:31:21,014] [INFO] Classifier: VRScannerModel(
  (input_modules): ModuleList(
    (0): Embedding(3180, 512)
  )
  (rnn_layers): ModuleList(
    (0): GRU(512, 256, num_layers=3, batch_first=True, dropout=0.3, bidirectional=True)
  )
  (attn_nets): ModuleList(
    (0): Sequential(
      (0): Linear(in_features=512, out_features=64, bias=True)
      (1): Tanh()
      (2): Linear(in_features=64, out_features=1, bias=True)
    )
  )
  (projection_layers): ModuleList(
    (0): Linear(in_features=512, out_features=256, bias=True)
  )
  (feature_attn_net): Sequential(
    (0): Linear(in_features=256, out_features=128, bias=True)
    (1): Tanh()
    (2): Linear(in_features=128, out_features=1, bias=True)
  )
  (fc): Sequential(
    (0): Linear(in_features=256, out_features=128, bias=True)
    (1): ReLU()
    (2): Dropout(p=0.3, inplace=False)
    (3): Linear(in_features=128, out_features=50, bias=True)
  )
)
[2025-08-01 07:31:21,015] [INFO] Training...
[2025-08-01 07:31:43,130] [INFO] Epoch 1/50, ValAcc: 7.29%, TrainLoss: 3.7841, ValLoss: 3.6254, LR: 0.001
[2025-08-01 07:32:05,268] [INFO] Epoch 2/50, ValAcc: 11.69%, TrainLoss: 3.5526, ValLoss: 3.4316, LR: 0.001
[2025-08-01 07:32:27,402] [INFO] Epoch 3/50, ValAcc: 14.12%, TrainLoss: 3.3638, ValLoss: 3.3423, LR: 0.001
…
False, device=device(type='cuda'), name='tcpwindow_token_bigru_5000_64_50_0.001_512_256_3_0.3_256_128_500_100_4000'),0.2026,0.2604,0.5301,0.2049
[2025-08-01 07:37:56,699] [INFO] [(0.2025607353906763, 0.2603772761614362, 0.530124238456563, 0.20494022496071365)]
[2025-08-01 07:37:56,699] [INFO] Training from 4100 to 4600 / 5000
[2025-08-01 07:38:01,345] [INFO] Feature 0 normalized using token
[2025-08-01 07:38:01,345] [INFO] Train shape: (10659, 500), Val shape: (1523, 500), Test shape: (3046, 500)
[2025-08-01 07:38:01,368] [INFO] Classifier: VRScannerModel(
  (input_modules): ModuleList(
    (0): Embedding(3082, 512)
  )
  (rnn_layers): ModuleList(
    (0): GRU(512, 256, num_layers=3, batch_first=True, dropout=0.3, bidirectional=True)
  )
  (attn_nets): ModuleList(
    (0): Sequential(
      (0): Linear(in_features=512, out_features=64, bias=True)
      (1): Tanh()
      (2): Linear(in_features=64, out_features=1, bias=True)
    )
  )
  (projection_layers): ModuleList(
    (0): Linear(in_features=512, out_features=256, bias=True)
  )
  (feature_attn_net): Sequential(
    (0): Linear(in_features=256, out_features=128, bias=True)
    (1): Tanh()
    (2): Linear(in_features=128, out_features=1, bias=True)
  )
  (fc): Sequential(
    (0): Linear(in_features=256, out_features=128, bias=True)
    (1): ReLU()
    (2): Dropout(p=0.3, inplace=False)
    (3): Linear(in_features=128, out_features=50, bias=True)
  )
)
[2025-08-01 07:38:01,368] [INFO] Training...
[2025-08-01 07:38:23,488] [INFO] Epoch 1/50, ValAcc: 5.38%, TrainLoss: 3.8057, ValLoss: 3.6696, LR: 0.001
[2025-08-01 07:38:45,615] [INFO] Epoch 2/50, ValAcc: 10.37%, TrainLoss: 3.5910, ValLoss: 3.4545, LR: 0.001
[2025-08-01 07:39:07,753] [INFO] Epoch 3/50, ValAcc: 12.48%, TrainLoss: 3.4193, ValLoss: 3.3614, LR: 0.001
…
lse, device=device(type='cuda'), name='tcpwindow_token_bigru_5000_64_50_0.001_512_256_3_0.3_256_128_500_100_4100'),0.1914,0.2467,0.5294,0.1925
[2025-08-01 07:44:36,876] [INFO] [(0.19139855548260012, 0.24670231819853847, 0.5294107416833985, 0.1924580416199817)]
[2025-08-01 07:44:36,876] [INFO] Training from 4200 to 4700 / 5000
[2025-08-01 07:44:41,525] [INFO] Feature 0 normalized using token
[2025-08-01 07:44:41,525] [INFO] Train shape: (10659, 500), Val shape: (1523, 500), Test shape: (3046, 500)
[2025-08-01 07:44:41,548] [INFO] Classifier: VRScannerModel(
  (input_modules): ModuleList(
    (0): Embedding(2985, 512)
  )
  (rnn_layers): ModuleList(
    (0): GRU(512, 256, num_layers=3, batch_first=True, dropout=0.3, bidirectional=True)
  )
  (attn_nets): ModuleList(
    (0): Sequential(
      (0): Linear(in_features=512, out_features=64, bias=True)
      (1): Tanh()
      (2): Linear(in_features=64, out_features=1, bias=True)
    )
  )
  (projection_layers): ModuleList(
    (0): Linear(in_features=512, out_features=256, bias=True)
  )
  (feature_attn_net): Sequential(
    (0): Linear(in_features=256, out_features=128, bias=True)
    (1): Tanh()
    (2): Linear(in_features=128, out_features=1, bias=True)
  )
  (fc): Sequential(
    (0): Linear(in_features=256, out_features=128, bias=True)
    (1): ReLU()
    (2): Dropout(p=0.3, inplace=False)
    (3): Linear(in_features=128, out_features=50, bias=True)
  )
)
[2025-08-01 07:44:41,549] [INFO] Training...
[2025-08-01 07:45:03,659] [INFO] Epoch 1/50, ValAcc: 6.43%, TrainLoss: 3.7825, ValLoss: 3.6479, LR: 0.001
[2025-08-01 07:45:25,783] [INFO] Epoch 2/50, ValAcc: 8.86%, TrainLoss: 3.5970, ValLoss: 3.5413, LR: 0.001
[2025-08-01 07:45:47,919] [INFO] Epoch 3/50, ValAcc: 11.82%, TrainLoss: 3.4613, ValLoss: 3.4463, LR: 0.001
…
se, device=device(type='cuda'), name='tcpwindow_token_bigru_5000_64_50_0.001_512_256_3_0.3_256_128_500_100_4200'),0.1720,0.2223,0.4783,0.1747
[2025-08-01 07:51:16,647] [INFO] [(0.17202889034799737, 0.22230791539102404, 0.4783006436537704, 0.17474364412822255)]
[2025-08-01 07:51:16,647] [INFO] Training from 4300 to 4800 / 5000
[2025-08-01 07:51:21,189] [INFO] Feature 0 normalized using token
[2025-08-01 07:51:21,189] [INFO] Train shape: (10659, 500), Val shape: (1523, 500), Test shape: (3046, 500)
[2025-08-01 07:51:21,212] [INFO] Classifier: VRScannerModel(
  (input_modules): ModuleList(
    (0): Embedding(2938, 512)
  )
  (rnn_layers): ModuleList(
    (0): GRU(512, 256, num_layers=3, batch_first=True, dropout=0.3, bidirectional=True)
  )
  (attn_nets): ModuleList(
    (0): Sequential(
      (0): Linear(in_features=512, out_features=64, bias=True)
      (1): Tanh()
      (2): Linear(in_features=64, out_features=1, bias=True)
    )
  )
  (projection_layers): ModuleList(
    (0): Linear(in_features=512, out_features=256, bias=True)
  )
  (feature_attn_net): Sequential(
    (0): Linear(in_features=256, out_features=128, bias=True)
    (1): Tanh()
    (2): Linear(in_features=128, out_features=1, bias=True)
  )
  (fc): Sequential(
    (0): Linear(in_features=256, out_features=128, bias=True)
    (1): ReLU()
    (2): Dropout(p=0.3, inplace=False)
    (3): Linear(in_features=128, out_features=50, bias=True)
  )
)
[2025-08-01 07:51:21,212] [INFO] Training...
[2025-08-01 07:51:43,334] [INFO] Epoch 1/50, ValAcc: 4.53%, TrainLoss: 3.7963, ValLoss: 3.7134, LR: 0.001
[2025-08-01 07:52:05,462] [INFO] Epoch 2/50, ValAcc: 9.46%, TrainLoss: 3.6158, ValLoss: 3.5662, LR: 0.001
[2025-08-01 07:52:27,592] [INFO] Epoch 3/50, ValAcc: 11.03%, TrainLoss: 3.4809, ValLoss: 3.4526, LR: 0.001
…
False, device=device(type='cuda'), name='tcpwindow_token_bigru_5000_64_50_0.001_512_256_3_0.3_256_128_500_100_4300'),0.1753,0.2295,0.4989,0.1784
[2025-08-01 07:58:18,693] [INFO] [(0.175311884438608, 0.22952955613006507, 0.4988802844674188, 0.1784233746663274)]
[2025-08-01 07:58:18,693] [INFO] Training from 4400 to 4900 / 5000
[2025-08-01 07:58:23,254] [INFO] Feature 0 normalized using token
[2025-08-01 07:58:23,254] [INFO] Train shape: (10659, 500), Val shape: (1523, 500), Test shape: (3046, 500)
[2025-08-01 07:58:23,276] [INFO] Classifier: VRScannerModel(
  (input_modules): ModuleList(
    (0): Embedding(2909, 512)
  )
  (rnn_layers): ModuleList(
    (0): GRU(512, 256, num_layers=3, batch_first=True, dropout=0.3, bidirectional=True)
  )
  (attn_nets): ModuleList(
    (0): Sequential(
      (0): Linear(in_features=512, out_features=64, bias=True)
      (1): Tanh()
      (2): Linear(in_features=64, out_features=1, bias=True)
    )
  )
  (projection_layers): ModuleList(
    (0): Linear(in_features=512, out_features=256, bias=True)
  )
  (feature_attn_net): Sequential(
    (0): Linear(in_features=256, out_features=128, bias=True)
    (1): Tanh()
    (2): Linear(in_features=128, out_features=1, bias=True)
  )
  (fc): Sequential(
    (0): Linear(in_features=256, out_features=128, bias=True)
    (1): ReLU()
    (2): Dropout(p=0.3, inplace=False)
    (3): Linear(in_features=128, out_features=50, bias=True)
  )
)
[2025-08-01 07:58:23,276] [INFO] Training...
[2025-08-01 07:58:45,411] [INFO] Epoch 1/50, ValAcc: 4.92%, TrainLoss: 3.7985, ValLoss: 3.7082, LR: 0.001
[2025-08-01 07:59:07,518] [INFO] Epoch 2/50, ValAcc: 8.27%, TrainLoss: 3.6259, ValLoss: 3.5588, LR: 0.001
[2025-08-01 07:59:29,653] [INFO] Epoch 3/50, ValAcc: 11.36%, TrainLoss: 3.5117, ValLoss: 3.4734, LR: 0.001
…
lse, device=device(type='cuda'), name='tcpwindow_token_bigru_5000_64_50_0.001_512_256_3_0.3_256_128_500_100_4400'),0.1586,0.2085,0.4829,0.1624
[2025-08-01 08:05:22,778] [INFO] [(0.15856861457649377, 0.20852096920107954, 0.4828621234538555, 0.1624318095873302)]
[2025-08-01 08:05:22,779] [INFO] Training from 4500 to 5000 / 5000
[2025-08-01 08:05:27,176] [INFO] Feature 0 normalized using token
[2025-08-01 08:05:27,176] [INFO] Train shape: (10659, 500), Val shape: (1523, 500), Test shape: (3046, 500)
[2025-08-01 08:05:27,198] [INFO] Classifier: VRScannerModel(
  (input_modules): ModuleList(
    (0): Embedding(2835, 512)
  )
  (rnn_layers): ModuleList(
    (0): GRU(512, 256, num_layers=3, batch_first=True, dropout=0.3, bidirectional=True)
  )
  (attn_nets): ModuleList(
    (0): Sequential(
      (0): Linear(in_features=512, out_features=64, bias=True)
      (1): Tanh()
      (2): Linear(in_features=64, out_features=1, bias=True)
    )
  )
  (projection_layers): ModuleList(
    (0): Linear(in_features=512, out_features=256, bias=True)
  )
  (feature_attn_net): Sequential(
    (0): Linear(in_features=256, out_features=128, bias=True)
    (1): Tanh()
    (2): Linear(in_features=128, out_features=1, bias=True)
  )
  (fc): Sequential(
    (0): Linear(in_features=256, out_features=128, bias=True)
    (1): ReLU()
    (2): Dropout(p=0.3, inplace=False)
    (3): Linear(in_features=128, out_features=50, bias=True)
  )
)
[2025-08-01 08:05:27,199] [INFO] Training...
[2025-08-01 08:05:49,399] [INFO] Epoch 1/50, ValAcc: 5.38%, TrainLoss: 3.7976, ValLoss: 3.6945, LR: 0.001
[2025-08-01 08:06:11,535] [INFO] Epoch 2/50, ValAcc: 10.77%, TrainLoss: 3.6129, ValLoss: 3.5051, LR: 0.001
[2025-08-01 08:06:33,705] [INFO] Epoch 3/50, ValAcc: 11.23%, TrainLoss: 3.4926, ValLoss: 3.4836, LR: 0.001
…
