…
[2025-08-01 18:14:38,266] [INFO] [['1281' '1281' '580' ... <NA> <NA> <NA>]
 ['65535' '65535' '256' ... <NA> <NA> <NA>]
 ['2038' '2038' '2038' ... <NA> <NA> <NA>]
 ...
 ['265' '774' '774' ... <NA> <NA> <NA>]
 ['265' '265' '332' ... <NA> <NA> <NA>]
 ['343' '761' '300' ... <NA> <NA> <NA>]]
[2025-08-01 18:14:38,555] [INFO] Training from 0 to 100 / 5000
[2025-08-01 18:14:39,610] [INFO] Feature 0 normalized using token
[2025-08-01 18:14:39,611] [INFO] Train shape: (10659, 100), Val shape: (1523, 100), Test shape: (3046, 100)
[2025-08-01 18:14:39,660] [INFO] Classifier: VRScannerModel(
  (input_modules): ModuleList(
    (0): Embedding(3279, 512)
  )
  (rnn_layers): ModuleList(
    (0): GRU(512, 256, num_layers=3, batch_first=True, dropout=0.3, bidirectional=True)
  )
  (attn_nets): ModuleList(
    (0): Sequential(
      (0): Linear(in_features=512, out_features=64, bias=True)
      (1): Tanh()
      (2): Linear(in_features=64, out_features=1, bias=True)
    )
  )
  (projection_layers): ModuleList(
    (0): Linear(in_features=512, out_features=256, bias=True)
  )
  (feature_attn_net): Sequential(
    (0): Linear(in_features=256, out_features=128, bias=True)
    (1): Tanh()
    (2): Linear(in_features=128, out_features=1, bias=True)
  )
  (fc): Sequential(
    (0): Linear(in_features=256, out_features=128, bias=True)
    (1): ReLU()
    (2): Dropout(p=0.3, inplace=False)
    (3): Linear(in_features=128, out_features=50, bias=True)
  )
)
[2025-08-01 18:14:39,660] [INFO] Training...
[2025-08-01 18:14:46,857] [INFO] Epoch 1/50, ValAcc: 27.12%, TrainLoss: 3.4549, ValLoss: 2.8795, LR: 0.001
[2025-08-01 18:14:52,893] [INFO] Epoch 2/50, ValAcc: 38.02%, TrainLoss: 2.7315, ValLoss: 2.4183, LR: 0.001
[2025-08-01 18:14:58,954] [INFO] Epoch 3/50, ValAcc: 42.28%, TrainLoss: 2.2915, ValLoss: 2.2501, LR: 0.001
…
=False, device=device(type='cuda'), name='tcpwindow_token_bigru_5000_64_50_0.001_512_256_3_0.3_256_128_100_100_0'),0.4777,0.4793,0.4958,0.4744
[2025-08-01 18:16:24,892] [INFO] [(0.47767564018384767, 0.47933442498027234, 0.49576587237869674, 0.47440357566864577)]
[2025-08-01 18:16:24,892] [INFO] Training from 100 to 200 / 5000
[2025-08-01 18:16:26,048] [INFO] Feature 0 normalized using token
[2025-08-01 18:16:26,048] [INFO] Train shape: (10659, 100), Val shape: (1523, 100), Test shape: (3046, 100)
[2025-08-01 18:16:26,070] [INFO] Classifier: VRScannerModel(
  (input_modules): ModuleList(
    (0): Embedding(3052, 512)
  )
  (rnn_layers): ModuleList(
    (0): GRU(512, 256, num_layers=3, batch_first=True, dropout=0.3, bidirectional=True)
  )
  (attn_nets): ModuleList(
    (0): Sequential(
      (0): Linear(in_features=512, out_features=64, bias=True)
      (1): Tanh()
      (2): Linear(in_features=64, out_features=1, bias=True)
    )
  )
  (projection_layers): ModuleList(
    (0): Linear(in_features=512, out_features=256, bias=True)
  )
  (feature_attn_net): Sequential(
    (0): Linear(in_features=256, out_features=128, bias=True)
    (1): Tanh()
    (2): Linear(in_features=128, out_features=1, bias=True)
  )
  (fc): Sequential(
    (0): Linear(in_features=256, out_features=128, bias=True)
    (1): ReLU()
    (2): Dropout(p=0.3, inplace=False)
    (3): Linear(in_features=128, out_features=50, bias=True)
  )
)
[2025-08-01 18:16:26,070] [INFO] Training...
[2025-08-01 18:16:32,173] [INFO] Epoch 1/50, ValAcc: 13.92%, TrainLoss: 3.6643, ValLoss: 3.3522, LR: 0.001
[2025-08-01 18:16:38,222] [INFO] Epoch 2/50, ValAcc: 22.92%, TrainLoss: 3.1674, ValLoss: 3.0247, LR: 0.001
[2025-08-01 18:16:44,283] [INFO] Epoch 3/50, ValAcc: 26.53%, TrainLoss: 2.8191, ValLoss: 2.8944, LR: 0.001
…
=False, device=device(type='cuda'), name='tcpwindow_token_bigru_5000_64_50_0.001_512_256_3_0.3_256_128_100_100_100'),0.3224,0.3227,0.3336,0.3205
[2025-08-01 18:18:09,649] [INFO] [(0.32239001969796455, 0.32266024837988316, 0.3336388769318975, 0.3204533213129159)]
[2025-08-01 18:18:09,649] [INFO] Training from 200 to 300 / 5000
[2025-08-01 18:18:10,769] [INFO] Feature 0 normalized using token
[2025-08-01 18:18:10,770] [INFO] Train shape: (10659, 100), Val shape: (1523, 100), Test shape: (3046, 100)
[2025-08-01 18:18:10,791] [INFO] Classifier: VRScannerModel(
  (input_modules): ModuleList(
    (0): Embedding(3206, 512)
  )
  (rnn_layers): ModuleList(
    (0): GRU(512, 256, num_layers=3, batch_first=True, dropout=0.3, bidirectional=True)
  )
  (attn_nets): ModuleList(
    (0): Sequential(
      (0): Linear(in_features=512, out_features=64, bias=True)
      (1): Tanh()
      (2): Linear(in_features=64, out_features=1, bias=True)
    )
  )
  (projection_layers): ModuleList(
    (0): Linear(in_features=512, out_features=256, bias=True)
  )
  (feature_attn_net): Sequential(
    (0): Linear(in_features=256, out_features=128, bias=True)
    (1): Tanh()
    (2): Linear(in_features=128, out_features=1, bias=True)
  )
  (fc): Sequential(
    (0): Linear(in_features=256, out_features=128, bias=True)
    (1): ReLU()
    (2): Dropout(p=0.3, inplace=False)
    (3): Linear(in_features=128, out_features=50, bias=True)
  )
)
[2025-08-01 18:18:10,791] [INFO] Training...
[2025-08-01 18:18:16,870] [INFO] Epoch 1/50, ValAcc: 17.53%, TrainLoss: 3.6065, ValLoss: 3.2644, LR: 0.001
[2025-08-01 18:18:22,915] [INFO] Epoch 2/50, ValAcc: 28.43%, TrainLoss: 3.0362, ValLoss: 2.8485, LR: 0.001
[2025-08-01 18:18:28,960] [INFO] Epoch 3/50, ValAcc: 32.76%, TrainLoss: 2.6431, ValLoss: 2.6438, LR: 0.001
…
=False, device=device(type='cuda'), name='tcpwindow_token_bigru_5000_64_50_0.001_512_256_3_0.3_256_128_100_100_200'),0.3976,0.3961,0.4021,0.3962
[2025-08-01 18:20:00,929] [INFO] [(0.3975705843729481, 0.39612830548149625, 0.4020914603786686, 0.39620656463041004)]
[2025-08-01 18:20:00,930] [INFO] Training from 300 to 400 / 5000
[2025-08-01 18:20:02,142] [INFO] Feature 0 normalized using token
[2025-08-01 18:20:02,142] [INFO] Train shape: (10659, 100), Val shape: (1523, 100), Test shape: (3046, 100)
[2025-08-01 18:20:02,166] [INFO] Classifier: VRScannerModel(
  (input_modules): ModuleList(
    (0): Embedding(3395, 512)
  )
  (rnn_layers): ModuleList(
    (0): GRU(512, 256, num_layers=3, batch_first=True, dropout=0.3, bidirectional=True)
  )
  (attn_nets): ModuleList(
    (0): Sequential(
      (0): Linear(in_features=512, out_features=64, bias=True)
      (1): Tanh()
      (2): Linear(in_features=64, out_features=1, bias=True)
    )
  )
  (projection_layers): ModuleList(
    (0): Linear(in_features=512, out_features=256, bias=True)
  )
  (feature_attn_net): Sequential(
    (0): Linear(in_features=256, out_features=128, bias=True)
    (1): Tanh()
    (2): Linear(in_features=128, out_features=1, bias=True)
  )
  (fc): Sequential(
    (0): Linear(in_features=256, out_features=128, bias=True)
    (1): ReLU()
    (2): Dropout(p=0.3, inplace=False)
    (3): Linear(in_features=128, out_features=50, bias=True)
  )
)
[2025-08-01 18:20:02,166] [INFO] Training...
[2025-08-01 18:20:08,264] [INFO] Epoch 1/50, ValAcc: 23.97%, TrainLoss: 3.4898, ValLoss: 2.9861, LR: 0.001
[2025-08-01 18:20:14,324] [INFO] Epoch 2/50, ValAcc: 33.55%, TrainLoss: 2.7573, ValLoss: 2.5478, LR: 0.001
[2025-08-01 18:20:20,376] [INFO] Epoch 3/50, ValAcc: 40.05%, TrainLoss: 2.3178, ValLoss: 2.3292, LR: 0.001
…
n=False, device=device(type='cuda'), name='tcpwindow_token_bigru_5000_64_50_0.001_512_256_3_0.3_256_128_100_100_300'),0.4833,0.4849,0.4966,0.4825
[2025-08-01 18:21:45,044] [INFO] [(0.4832567301378857, 0.48493026694358077, 0.4966471125407177, 0.4825297211020922)]
[2025-08-01 18:21:45,044] [INFO] Training from 400 to 500 / 5000
[2025-08-01 18:21:46,250] [INFO] Feature 0 normalized using token
[2025-08-01 18:21:46,250] [INFO] Train shape: (10659, 100), Val shape: (1523, 100), Test shape: (3046, 100)
[2025-08-01 18:21:46,274] [INFO] Classifier: VRScannerModel(
  (input_modules): ModuleList(
    (0): Embedding(3394, 512)
  )
  (rnn_layers): ModuleList(
    (0): GRU(512, 256, num_layers=3, batch_first=True, dropout=0.3, bidirectional=True)
  )
  (attn_nets): ModuleList(
    (0): Sequential(
      (0): Linear(in_features=512, out_features=64, bias=True)
      (1): Tanh()
      (2): Linear(in_features=64, out_features=1, bias=True)
    )
  )
  (projection_layers): ModuleList(
    (0): Linear(in_features=512, out_features=256, bias=True)
  )
  (feature_attn_net): Sequential(
    (0): Linear(in_features=256, out_features=128, bias=True)
    (1): Tanh()
    (2): Linear(in_features=128, out_features=1, bias=True)
  )
  (fc): Sequential(
    (0): Linear(in_features=256, out_features=128, bias=True)
    (1): ReLU()
    (2): Dropout(p=0.3, inplace=False)
    (3): Linear(in_features=128, out_features=50, bias=True)
  )
)
[2025-08-01 18:21:46,274] [INFO] Training...
[2025-08-01 18:21:52,366] [INFO] Epoch 1/50, ValAcc: 23.05%, TrainLoss: 3.5081, ValLoss: 3.0118, LR: 0.001
[2025-08-01 18:21:58,420] [INFO] Epoch 2/50, ValAcc: 34.47%, TrainLoss: 2.8035, ValLoss: 2.5278, LR: 0.001
[2025-08-01 18:22:04,469] [INFO] Epoch 3/50, ValAcc: 38.21%, TrainLoss: 2.3526, ValLoss: 2.3196, LR: 0.001
…
n=False, device=device(type='cuda'), name='tcpwindow_token_bigru_5000_64_50_0.001_512_256_3_0.3_256_128_100_100_400'),0.4563,0.4548,0.4649,0.4543
[2025-08-01 18:23:36,465] [INFO] [(0.4563361785948785, 0.45475531903403443, 0.4648761552358424, 0.4542653546498677)]
[2025-08-01 18:23:36,465] [INFO] Training from 500 to 600 / 5000
[2025-08-01 18:23:37,674] [INFO] Feature 0 normalized using token
[2025-08-01 18:23:37,674] [INFO] Train shape: (10659, 100), Val shape: (1523, 100), Test shape: (3046, 100)
[2025-08-01 18:23:37,696] [INFO] Classifier: VRScannerModel(
  (input_modules): ModuleList(
    (0): Embedding(3367, 512)
  )
  (rnn_layers): ModuleList(
    (0): GRU(512, 256, num_layers=3, batch_first=True, dropout=0.3, bidirectional=True)
  )
  (attn_nets): ModuleList(
    (0): Sequential(
      (0): Linear(in_features=512, out_features=64, bias=True)
      (1): Tanh()
      (2): Linear(in_features=64, out_features=1, bias=True)
    )
  )
  (projection_layers): ModuleList(
    (0): Linear(in_features=512, out_features=256, bias=True)
  )
  (feature_attn_net): Sequential(
    (0): Linear(in_features=256, out_features=128, bias=True)
    (1): Tanh()
    (2): Linear(in_features=128, out_features=1, bias=True)
  )
  (fc): Sequential(
    (0): Linear(in_features=256, out_features=128, bias=True)
    (1): ReLU()
    (2): Dropout(p=0.3, inplace=False)
    (3): Linear(in_features=128, out_features=50, bias=True)
  )
)
[2025-08-01 18:23:37,696] [INFO] Training...
[2025-08-01 18:23:43,457] [INFO] Epoch 1/50, ValAcc: 21.41%, TrainLoss: 3.5511, ValLoss: 3.0463, LR: 0.001
[2025-08-01 18:23:49,222] [INFO] Epoch 2/50, ValAcc: 34.54%, TrainLoss: 2.8400, ValLoss: 2.5447, LR: 0.001
[2025-08-01 18:23:55,273] [INFO] Epoch 3/50, ValAcc: 39.92%, TrainLoss: 2.3755, ValLoss: 2.3354, LR: 0.001
…
=False, device=device(type='cuda'), name='tcpwindow_token_bigru_5000_64_50_0.001_512_256_3_0.3_256_128_100_100_500'),0.4534,0.4562,0.4738,0.4522
[2025-08-01 18:25:21,217] [INFO] [(0.45338148391332894, 0.4562225055867751, 0.47377905225753025, 0.4521832717012834)]
[2025-08-01 18:25:21,217] [INFO] Training from 600 to 700 / 5000
[2025-08-01 18:25:22,382] [INFO] Feature 0 normalized using token
[2025-08-01 18:25:22,382] [INFO] Train shape: (10659, 100), Val shape: (1523, 100), Test shape: (3046, 100)
[2025-08-01 18:25:22,405] [INFO] Classifier: VRScannerModel(
  (input_modules): ModuleList(
    (0): Embedding(3456, 512)
  )
  (rnn_layers): ModuleList(
    (0): GRU(512, 256, num_layers=3, batch_first=True, dropout=0.3, bidirectional=True)
  )
  (attn_nets): ModuleList(
    (0): Sequential(
      (0): Linear(in_features=512, out_features=64, bias=True)
      (1): Tanh()
      (2): Linear(in_features=64, out_features=1, bias=True)
    )
  )
  (projection_layers): ModuleList(
    (0): Linear(in_features=512, out_features=256, bias=True)
  )
  (feature_attn_net): Sequential(
    (0): Linear(in_features=256, out_features=128, bias=True)
    (1): Tanh()
    (2): Linear(in_features=128, out_features=1, bias=True)
  )
  (fc): Sequential(
    (0): Linear(in_features=256, out_features=128, bias=True)
    (1): ReLU()
    (2): Dropout(p=0.3, inplace=False)
    (3): Linear(in_features=128, out_features=50, bias=True)
  )
)
[2025-08-01 18:25:22,405] [INFO] Training...
[2025-08-01 18:25:28,501] [INFO] Epoch 1/50, ValAcc: 21.80%, TrainLoss: 3.5554, ValLoss: 3.1021, LR: 0.001
[2025-08-01 18:25:34,546] [INFO] Epoch 2/50, ValAcc: 30.53%, TrainLoss: 2.9011, ValLoss: 2.6245, LR: 0.001
[2025-08-01 18:25:40,612] [INFO] Epoch 3/50, ValAcc: 37.23%, TrainLoss: 2.4635, ValLoss: 2.4741, LR: 0.001
…
n=False, device=device(type='cuda'), name='tcpwindow_token_bigru_5000_64_50_0.001_512_256_3_0.3_256_128_100_100_600'),0.4324,0.4314,0.4409,0.4307
[2025-08-01 18:27:12,012] [INFO] [(0.4323703217334209, 0.4313521529742978, 0.4409139753707808, 0.43073904757631054)]
[2025-08-01 18:27:12,012] [INFO] Training from 700 to 800 / 5000
[2025-08-01 18:27:13,211] [INFO] Feature 0 normalized using token
[2025-08-01 18:27:13,211] [INFO] Train shape: (10659, 100), Val shape: (1523, 100), Test shape: (3046, 100)
[2025-08-01 18:27:13,233] [INFO] Classifier: VRScannerModel(
  (input_modules): ModuleList(
    (0): Embedding(3430, 512)
  )
  (rnn_layers): ModuleList(
    (0): GRU(512, 256, num_layers=3, batch_first=True, dropout=0.3, bidirectional=True)
  )
  (attn_nets): ModuleList(
    (0): Sequential(
      (0): Linear(in_features=512, out_features=64, bias=True)
      (1): Tanh()
      (2): Linear(in_features=64, out_features=1, bias=True)
    )
  )
  (projection_layers): ModuleList(
    (0): Linear(in_features=512, out_features=256, bias=True)
  )
  (feature_attn_net): Sequential(
    (0): Linear(in_features=256, out_features=128, bias=True)
    (1): Tanh()
    (2): Linear(in_features=128, out_features=1, bias=True)
  )
  (fc): Sequential(
    (0): Linear(in_features=256, out_features=128, bias=True)
    (1): ReLU()
    (2): Dropout(p=0.3, inplace=False)
    (3): Linear(in_features=128, out_features=50, bias=True)
  )
)
[2025-08-01 18:27:13,233] [INFO] Training...
[2025-08-01 18:27:19,306] [INFO] Epoch 1/50, ValAcc: 18.12%, TrainLoss: 3.5814, ValLoss: 3.1494, LR: 0.001
[2025-08-01 18:27:25,351] [INFO] Epoch 2/50, ValAcc: 30.07%, TrainLoss: 2.9649, ValLoss: 2.7147, LR: 0.001
[2025-08-01 18:27:31,419] [INFO] Epoch 3/50, ValAcc: 32.83%, TrainLoss: 2.5384, ValLoss: 2.5753, LR: 0.001
…
False, device=device(type='cuda'), name='tcpwindow_token_bigru_5000_64_50_0.001_512_256_3_0.3_256_128_100_100_700'),0.4035,0.4051,0.4162,0.4031
[2025-08-01 18:28:57,370] [INFO] [(0.40347997373604727, 0.4050573318792019, 0.41622094863835196, 0.40313655876835497)]
[2025-08-01 18:28:57,370] [INFO] Training from 800 to 900 / 5000
[2025-08-01 18:28:58,539] [INFO] Feature 0 normalized using token
[2025-08-01 18:28:58,539] [INFO] Train shape: (10659, 100), Val shape: (1523, 100), Test shape: (3046, 100)
[2025-08-01 18:28:58,561] [INFO] Classifier: VRScannerModel(
  (input_modules): ModuleList(
    (0): Embedding(3399, 512)
  )
  (rnn_layers): ModuleList(
    (0): GRU(512, 256, num_layers=3, batch_first=True, dropout=0.3, bidirectional=True)
  )
  (attn_nets): ModuleList(
    (0): Sequential(
      (0): Linear(in_features=512, out_features=64, bias=True)
      (1): Tanh()
      (2): Linear(in_features=64, out_features=1, bias=True)
    )
  )
  (projection_layers): ModuleList(
    (0): Linear(in_features=512, out_features=256, bias=True)
  )
  (feature_attn_net): Sequential(
    (0): Linear(in_features=256, out_features=128, bias=True)
    (1): Tanh()
    (2): Linear(in_features=128, out_features=1, bias=True)
  )
  (fc): Sequential(
    (0): Linear(in_features=256, out_features=128, bias=True)
    (1): ReLU()
    (2): Dropout(p=0.3, inplace=False)
    (3): Linear(in_features=128, out_features=50, bias=True)
  )
)
[2025-08-01 18:28:58,561] [INFO] Training...
[2025-08-01 18:29:04,639] [INFO] Epoch 1/50, ValAcc: 20.09%, TrainLoss: 3.5731, ValLoss: 3.1283, LR: 0.001
[2025-08-01 18:29:10,698] [INFO] Epoch 2/50, ValAcc: 31.06%, TrainLoss: 2.9242, ValLoss: 2.6794, LR: 0.001
[2025-08-01 18:29:16,737] [INFO] Epoch 3/50, ValAcc: 34.47%, TrainLoss: 2.5315, ValLoss: 2.5469, LR: 0.001
…
alse, device=device(type='cuda'), name='tcpwindow_token_bigru_5000_64_50_0.001_512_256_3_0.3_256_128_100_100_800'),0.4012,0.4016,0.4142,0.4002
[2025-08-01 18:30:42,031] [INFO] [(0.40118187787261983, 0.40156400140859666, 0.41421156367951156, 0.4001820082628187)]
[2025-08-01 18:30:42,031] [INFO] Training from 900 to 1000 / 5000
[2025-08-01 18:30:43,094] [INFO] Feature 0 normalized using token
[2025-08-01 18:30:43,094] [INFO] Train shape: (10659, 100), Val shape: (1523, 100), Test shape: (3046, 100)
[2025-08-01 18:30:43,116] [INFO] Classifier: VRScannerModel(
  (input_modules): ModuleList(
    (0): Embedding(3419, 512)
  )
  (rnn_layers): ModuleList(
    (0): GRU(512, 256, num_layers=3, batch_first=True, dropout=0.3, bidirectional=True)
  )
  (attn_nets): ModuleList(
    (0): Sequential(
      (0): Linear(in_features=512, out_features=64, bias=True)
      (1): Tanh()
      (2): Linear(in_features=64, out_features=1, bias=True)
    )
  )
  (projection_layers): ModuleList(
    (0): Linear(in_features=512, out_features=256, bias=True)
  )
  (feature_attn_net): Sequential(
    (0): Linear(in_features=256, out_features=128, bias=True)
    (1): Tanh()
    (2): Linear(in_features=128, out_features=1, bias=True)
  )
  (fc): Sequential(
    (0): Linear(in_features=256, out_features=128, bias=True)
    (1): ReLU()
    (2): Dropout(p=0.3, inplace=False)
    (3): Linear(in_features=128, out_features=50, bias=True)
  )
)
[2025-08-01 18:30:43,116] [INFO] Training...
[2025-08-01 18:30:49,218] [INFO] Epoch 1/50, ValAcc: 19.37%, TrainLoss: 3.5821, ValLoss: 3.1503, LR: 0.001
[2025-08-01 18:30:55,278] [INFO] Epoch 2/50, ValAcc: 31.19%, TrainLoss: 2.9478, ValLoss: 2.7069, LR: 0.001
[2025-08-01 18:31:01,327] [INFO] Epoch 3/50, ValAcc: 35.92%, TrainLoss: 2.5003, ValLoss: 2.5438, LR: 0.001
…
on=False, device=device(type='cuda'), name='tcpwindow_token_bigru_5000_64_50_0.001_512_256_3_0.3_256_128_100_100_900'),0.4074,0.4094,0.4245,0.4046
[2025-08-01 18:32:33,266] [INFO] [(0.40741956664478, 0.4093509089141126, 0.4245014361199364, 0.4045835957777272)]
[2025-08-01 18:32:33,266] [INFO] Training from 1000 to 1100 / 5000
[2025-08-01 18:32:34,319] [INFO] Feature 0 normalized using token
[2025-08-01 18:32:34,319] [INFO] Train shape: (10659, 100), Val shape: (1523, 100), Test shape: (3046, 100)
[2025-08-01 18:32:34,341] [INFO] Classifier: VRScannerModel(
  (input_modules): ModuleList(
    (0): Embedding(3385, 512)
  )
  (rnn_layers): ModuleList(
    (0): GRU(512, 256, num_layers=3, batch_first=True, dropout=0.3, bidirectional=True)
  )
  (attn_nets): ModuleList(
    (0): Sequential(
      (0): Linear(in_features=512, out_features=64, bias=True)
      (1): Tanh()
      (2): Linear(in_features=64, out_features=1, bias=True)
    )
  )
  (projection_layers): ModuleList(
    (0): Linear(in_features=512, out_features=256, bias=True)
  )
  (feature_attn_net): Sequential(
    (0): Linear(in_features=256, out_features=128, bias=True)
    (1): Tanh()
    (2): Linear(in_features=128, out_features=1, bias=True)
  )
  (fc): Sequential(
    (0): Linear(in_features=256, out_features=128, bias=True)
    (1): ReLU()
    (2): Dropout(p=0.3, inplace=False)
    (3): Linear(in_features=128, out_features=50, bias=True)
  )
)
[2025-08-01 18:32:34,341] [INFO] Training...
[2025-08-01 18:32:40,435] [INFO] Epoch 1/50, ValAcc: 18.78%, TrainLoss: 3.5812, ValLoss: 3.1421, LR: 0.001
[2025-08-01 18:32:46,210] [INFO] Epoch 2/50, ValAcc: 30.07%, TrainLoss: 2.9374, ValLoss: 2.7224, LR: 0.001
[2025-08-01 18:32:51,932] [INFO] Epoch 3/50, ValAcc: 33.42%, TrainLoss: 2.5128, ValLoss: 2.5715, LR: 0.001
…
lse, device=device(type='cuda'), name='tcpwindow_token_bigru_5000_64_50_0.001_512_256_3_0.3_256_128_100_100_1000'),0.4183,0.4197,0.4356,0.4157
[2025-08-01 18:34:17,875] [INFO] [(0.41825344714379514, 0.4197094984621343, 0.4356370203844838, 0.41571925528782805)]
[2025-08-01 18:34:17,875] [INFO] Training from 1100 to 1200 / 5000
[2025-08-01 18:34:18,941] [INFO] Feature 0 normalized using token
[2025-08-01 18:34:18,941] [INFO] Train shape: (10659, 100), Val shape: (1523, 100), Test shape: (3046, 100)
[2025-08-01 18:34:18,963] [INFO] Classifier: VRScannerModel(
  (input_modules): ModuleList(
    (0): Embedding(3346, 512)
  )
  (rnn_layers): ModuleList(
    (0): GRU(512, 256, num_layers=3, batch_first=True, dropout=0.3, bidirectional=True)
  )
  (attn_nets): ModuleList(
    (0): Sequential(
      (0): Linear(in_features=512, out_features=64, bias=True)
      (1): Tanh()
      (2): Linear(in_features=64, out_features=1, bias=True)
    )
  )
  (projection_layers): ModuleList(
    (0): Linear(in_features=512, out_features=256, bias=True)
  )
  (feature_attn_net): Sequential(
    (0): Linear(in_features=256, out_features=128, bias=True)
    (1): Tanh()
    (2): Linear(in_features=128, out_features=1, bias=True)
  )
  (fc): Sequential(
    (0): Linear(in_features=256, out_features=128, bias=True)
    (1): ReLU()
    (2): Dropout(p=0.3, inplace=False)
    (3): Linear(in_features=128, out_features=50, bias=True)
  )
)
[2025-08-01 18:34:18,963] [INFO] Training...
[2025-08-01 18:34:25,047] [INFO] Epoch 1/50, ValAcc: 21.67%, TrainLoss: 3.5465, ValLoss: 3.0862, LR: 0.001
[2025-08-01 18:34:31,086] [INFO] Epoch 2/50, ValAcc: 30.07%, TrainLoss: 2.8516, ValLoss: 2.6661, LR: 0.001
[2025-08-01 18:34:37,134] [INFO] Epoch 3/50, ValAcc: 35.06%, TrainLoss: 2.4327, ValLoss: 2.4871, LR: 0.001
…
se, device=device(type='cuda'), name='tcpwindow_token_bigru_5000_64_50_0.001_512_256_3_0.3_256_128_100_100_1100'),0.4337,0.4312,0.4410,0.4299
[2025-08-01 18:36:08,479] [INFO] [(0.43368351936966515, 0.4312365885918734, 0.44095454416586494, 0.42991662092577504)]
[2025-08-01 18:36:08,479] [INFO] Training from 1200 to 1300 / 5000
[2025-08-01 18:36:09,545] [INFO] Feature 0 normalized using token
[2025-08-01 18:36:09,546] [INFO] Train shape: (10659, 100), Val shape: (1523, 100), Test shape: (3046, 100)
[2025-08-01 18:36:09,568] [INFO] Classifier: VRScannerModel(
  (input_modules): ModuleList(
    (0): Embedding(3470, 512)
  )
  (rnn_layers): ModuleList(
    (0): GRU(512, 256, num_layers=3, batch_first=True, dropout=0.3, bidirectional=True)
  )
  (attn_nets): ModuleList(
    (0): Sequential(
      (0): Linear(in_features=512, out_features=64, bias=True)
      (1): Tanh()
      (2): Linear(in_features=64, out_features=1, bias=True)
    )
  )
  (projection_layers): ModuleList(
    (0): Linear(in_features=512, out_features=256, bias=True)
  )
  (feature_attn_net): Sequential(
    (0): Linear(in_features=256, out_features=128, bias=True)
    (1): Tanh()
    (2): Linear(in_features=128, out_features=1, bias=True)
  )
  (fc): Sequential(
    (0): Linear(in_features=256, out_features=128, bias=True)
    (1): ReLU()
    (2): Dropout(p=0.3, inplace=False)
    (3): Linear(in_features=128, out_features=50, bias=True)
  )
)
[2025-08-01 18:36:09,568] [INFO] Training...
[2025-08-01 18:36:15,655] [INFO] Epoch 1/50, ValAcc: 23.11%, TrainLoss: 3.4956, ValLoss: 2.9651, LR: 0.001
[2025-08-01 18:36:21,695] [INFO] Epoch 2/50, ValAcc: 33.95%, TrainLoss: 2.8387, ValLoss: 2.5767, LR: 0.001
[2025-08-01 18:36:27,736] [INFO] Epoch 3/50, ValAcc: 36.57%, TrainLoss: 2.4358, ValLoss: 2.3867, LR: 0.001
…
lse, device=device(type='cuda'), name='tcpwindow_token_bigru_5000_64_50_0.001_512_256_3_0.3_256_128_100_100_1200'),0.4429,0.4424,0.4570,0.4388
[2025-08-01 18:37:53,689] [INFO] [(0.4428759028233749, 0.4424027941460731, 0.45704685729018474, 0.43877935120888323)]
[2025-08-01 18:37:53,689] [INFO] Training from 1300 to 1400 / 5000
[2025-08-01 18:37:54,752] [INFO] Feature 0 normalized using token
[2025-08-01 18:37:54,752] [INFO] Train shape: (10659, 100), Val shape: (1523, 100), Test shape: (3046, 100)
[2025-08-01 18:37:54,775] [INFO] Classifier: VRScannerModel(
  (input_modules): ModuleList(
    (0): Embedding(3420, 512)
  )
  (rnn_layers): ModuleList(
    (0): GRU(512, 256, num_layers=3, batch_first=True, dropout=0.3, bidirectional=True)
  )
  (attn_nets): ModuleList(
    (0): Sequential(
      (0): Linear(in_features=512, out_features=64, bias=True)
      (1): Tanh()
      (2): Linear(in_features=64, out_features=1, bias=True)
    )
  )
  (projection_layers): ModuleList(
    (0): Linear(in_features=512, out_features=256, bias=True)
  )
  (feature_attn_net): Sequential(
    (0): Linear(in_features=256, out_features=128, bias=True)
    (1): Tanh()
    (2): Linear(in_features=128, out_features=1, bias=True)
  )
  (fc): Sequential(
    (0): Linear(in_features=256, out_features=128, bias=True)
    (1): ReLU()
    (2): Dropout(p=0.3, inplace=False)
    (3): Linear(in_features=128, out_features=50, bias=True)
  )
)
[2025-08-01 18:37:54,775] [INFO] Training...
[2025-08-01 18:38:00,863] [INFO] Epoch 1/50, ValAcc: 25.67%, TrainLoss: 3.4860, ValLoss: 2.9363, LR: 0.001
[2025-08-01 18:38:06,925] [INFO] Epoch 2/50, ValAcc: 33.62%, TrainLoss: 2.7686, ValLoss: 2.5245, LR: 0.001
[2025-08-01 18:38:12,973] [INFO] Epoch 3/50, ValAcc: 38.15%, TrainLoss: 2.3346, ValLoss: 2.3515, LR: 0.001
…
=False, device=device(type='cuda'), name='tcpwindow_token_bigru_5000_64_50_0.001_512_256_3_0.3_256_128_100_100_1300'),0.4613,0.4622,0.4778,0.4574
[2025-08-01 18:39:37,625] [INFO] [(0.4612606697307945, 0.4621724289049504, 0.477815202614002, 0.4573654000391676)]
[2025-08-01 18:39:37,625] [INFO] Training from 1400 to 1500 / 5000
[2025-08-01 18:39:38,695] [INFO] Feature 0 normalized using token
[2025-08-01 18:39:38,695] [INFO] Train shape: (10659, 100), Val shape: (1523, 100), Test shape: (3046, 100)
[2025-08-01 18:39:38,717] [INFO] Classifier: VRScannerModel(
  (input_modules): ModuleList(
    (0): Embedding(3431, 512)
  )
  (rnn_layers): ModuleList(
    (0): GRU(512, 256, num_layers=3, batch_first=True, dropout=0.3, bidirectional=True)
  )
  (attn_nets): ModuleList(
    (0): Sequential(
      (0): Linear(in_features=512, out_features=64, bias=True)
      (1): Tanh()
      (2): Linear(in_features=64, out_features=1, bias=True)
    )
  )
  (projection_layers): ModuleList(
    (0): Linear(in_features=512, out_features=256, bias=True)
  )
  (feature_attn_net): Sequential(
    (0): Linear(in_features=256, out_features=128, bias=True)
    (1): Tanh()
    (2): Linear(in_features=128, out_features=1, bias=True)
  )
  (fc): Sequential(
    (0): Linear(in_features=256, out_features=128, bias=True)
    (1): ReLU()
    (2): Dropout(p=0.3, inplace=False)
    (3): Linear(in_features=128, out_features=50, bias=True)
  )
)
[2025-08-01 18:39:38,717] [INFO] Training...
[2025-08-01 18:39:44,805] [INFO] Epoch 1/50, ValAcc: 25.80%, TrainLoss: 3.4763, ValLoss: 2.9316, LR: 0.001
[2025-08-01 18:39:50,861] [INFO] Epoch 2/50, ValAcc: 36.84%, TrainLoss: 2.7451, ValLoss: 2.4613, LR: 0.001
[2025-08-01 18:39:56,905] [INFO] Epoch 3/50, ValAcc: 41.76%, TrainLoss: 2.2935, ValLoss: 2.3309, LR: 0.001
…
False, device=device(type='cuda'), name='tcpwindow_token_bigru_5000_64_50_0.001_512_256_3_0.3_256_128_100_100_1400'),0.4695,0.4703,0.4899,0.4652
[2025-08-01 18:41:22,851] [INFO] [(0.4694681549573211, 0.470344706920083, 0.4899055997776985, 0.46524389962020585)]
[2025-08-01 18:41:22,851] [INFO] Training from 1500 to 1600 / 5000
[2025-08-01 18:41:24,068] [INFO] Feature 0 normalized using token
[2025-08-01 18:41:24,068] [INFO] Train shape: (10659, 100), Val shape: (1523, 100), Test shape: (3046, 100)
[2025-08-01 18:41:24,090] [INFO] Classifier: VRScannerModel(
  (input_modules): ModuleList(
    (0): Embedding(3375, 512)
  )
  (rnn_layers): ModuleList(
    (0): GRU(512, 256, num_layers=3, batch_first=True, dropout=0.3, bidirectional=True)
  )
  (attn_nets): ModuleList(
    (0): Sequential(
      (0): Linear(in_features=512, out_features=64, bias=True)
      (1): Tanh()
      (2): Linear(in_features=64, out_features=1, bias=True)
    )
  )
  (projection_layers): ModuleList(
    (0): Linear(in_features=512, out_features=256, bias=True)
  )
  (feature_attn_net): Sequential(
    (0): Linear(in_features=256, out_features=128, bias=True)
    (1): Tanh()
    (2): Linear(in_features=128, out_features=1, bias=True)
  )
  (fc): Sequential(
    (0): Linear(in_features=256, out_features=128, bias=True)
    (1): ReLU()
    (2): Dropout(p=0.3, inplace=False)
    (3): Linear(in_features=128, out_features=50, bias=True)
  )
)
[2025-08-01 18:41:24,090] [INFO] Training...
[2025-08-01 18:41:30,176] [INFO] Epoch 1/50, ValAcc: 25.87%, TrainLoss: 3.4782, ValLoss: 2.9202, LR: 0.001
[2025-08-01 18:41:36,235] [INFO] Epoch 2/50, ValAcc: 34.08%, TrainLoss: 2.7838, ValLoss: 2.4917, LR: 0.001
[2025-08-01 18:41:42,285] [INFO] Epoch 3/50, ValAcc: 41.10%, TrainLoss: 2.3387, ValLoss: 2.2995, LR: 0.001
…
False, device=device(type='cuda'), name='tcpwindow_token_bigru_5000_64_50_0.001_512_256_3_0.3_256_128_100_100_1500'),0.4718,0.4705,0.4868,0.4697
[2025-08-01 18:43:07,627] [INFO] [(0.4717662508207485, 0.4704975840294706, 0.4868014145868338, 0.4696991139077619)]
[2025-08-01 18:43:07,627] [INFO] Training from 1600 to 1700 / 5000
[2025-08-01 18:43:08,695] [INFO] Feature 0 normalized using token
[2025-08-01 18:43:08,695] [INFO] Train shape: (10659, 100), Val shape: (1523, 100), Test shape: (3046, 100)
[2025-08-01 18:43:08,717] [INFO] Classifier: VRScannerModel(
  (input_modules): ModuleList(
    (0): Embedding(3388, 512)
  )
  (rnn_layers): ModuleList(
    (0): GRU(512, 256, num_layers=3, batch_first=True, dropout=0.3, bidirectional=True)
  )
  (attn_nets): ModuleList(
    (0): Sequential(
      (0): Linear(in_features=512, out_features=64, bias=True)
      (1): Tanh()
      (2): Linear(in_features=64, out_features=1, bias=True)
    )
  )
  (projection_layers): ModuleList(
    (0): Linear(in_features=512, out_features=256, bias=True)
  )
  (feature_attn_net): Sequential(
    (0): Linear(in_features=256, out_features=128, bias=True)
    (1): Tanh()
    (2): Linear(in_features=128, out_features=1, bias=True)
  )
  (fc): Sequential(
    (0): Linear(in_features=256, out_features=128, bias=True)
    (1): ReLU()
    (2): Dropout(p=0.3, inplace=False)
    (3): Linear(in_features=128, out_features=50, bias=True)
  )
)
[2025-08-01 18:43:08,717] [INFO] Training...
[2025-08-01 18:43:14,727] [INFO] Epoch 1/50, ValAcc: 22.13%, TrainLoss: 3.5289, ValLoss: 3.0041, LR: 0.001
[2025-08-01 18:43:20,683] [INFO] Epoch 2/50, ValAcc: 34.27%, TrainLoss: 2.8316, ValLoss: 2.5249, LR: 0.001
[2025-08-01 18:43:26,651] [INFO] Epoch 3/50, ValAcc: 38.61%, TrainLoss: 2.3642, ValLoss: 2.3159, LR: 0.001
…
False, device=device(type='cuda'), name='tcpwindow_token_bigru_5000_64_50_0.001_512_256_3_0.3_256_128_100_100_1600'),0.4494,0.4477,0.4626,0.4460
[2025-08-01 18:44:57,005] [INFO] [(0.4494418910045962, 0.4476689658485713, 0.462568426308224, 0.44597819955944834)]
[2025-08-01 18:44:57,005] [INFO] Training from 1700 to 1800 / 5000
[2025-08-01 18:44:58,103] [INFO] Feature 0 normalized using token
[2025-08-01 18:44:58,103] [INFO] Train shape: (10659, 100), Val shape: (1523, 100), Test shape: (3046, 100)
[2025-08-01 18:44:58,126] [INFO] Classifier: VRScannerModel(
  (input_modules): ModuleList(
    (0): Embedding(3349, 512)
  )
  (rnn_layers): ModuleList(
    (0): GRU(512, 256, num_layers=3, batch_first=True, dropout=0.3, bidirectional=True)
  )
  (attn_nets): ModuleList(
    (0): Sequential(
      (0): Linear(in_features=512, out_features=64, bias=True)
      (1): Tanh()
      (2): Linear(in_features=64, out_features=1, bias=True)
    )
  )
  (projection_layers): ModuleList(
    (0): Linear(in_features=512, out_features=256, bias=True)
  )
  (feature_attn_net): Sequential(
    (0): Linear(in_features=256, out_features=128, bias=True)
    (1): Tanh()
    (2): Linear(in_features=128, out_features=1, bias=True)
  )
  (fc): Sequential(
    (0): Linear(in_features=256, out_features=128, bias=True)
    (1): ReLU()
    (2): Dropout(p=0.3, inplace=False)
    (3): Linear(in_features=128, out_features=50, bias=True)
  )
)
[2025-08-01 18:44:58,126] [INFO] Training...
[2025-08-01 18:45:03,930] [INFO] Epoch 1/50, ValAcc: 21.67%, TrainLoss: 3.4864, ValLoss: 2.9677, LR: 0.001
[2025-08-01 18:45:09,984] [INFO] Epoch 2/50, ValAcc: 31.52%, TrainLoss: 2.8162, ValLoss: 2.6011, LR: 0.001
[2025-08-01 18:45:16,043] [INFO] Epoch 3/50, ValAcc: 38.67%, TrainLoss: 2.4129, ValLoss: 2.3725, LR: 0.001
…
alse, device=device(type='cuda'), name='tcpwindow_token_bigru_5000_64_50_0.001_512_256_3_0.3_256_128_100_100_1700'),0.4330,0.4356,0.4586,0.4313
[2025-08-01 18:46:42,088] [INFO] [(0.433026920551543, 0.4356280139202395, 0.45858636457065616, 0.43130211253262146)]
[2025-08-01 18:46:42,088] [INFO] Training from 1800 to 1900 / 5000
[2025-08-01 18:46:43,170] [INFO] Feature 0 normalized using token
[2025-08-01 18:46:43,170] [INFO] Train shape: (10659, 100), Val shape: (1523, 100), Test shape: (3046, 100)
[2025-08-01 18:46:43,194] [INFO] Classifier: VRScannerModel(
  (input_modules): ModuleList(
    (0): Embedding(3408, 512)
  )
  (rnn_layers): ModuleList(
    (0): GRU(512, 256, num_layers=3, batch_first=True, dropout=0.3, bidirectional=True)
  )
  (attn_nets): ModuleList(
    (0): Sequential(
      (0): Linear(in_features=512, out_features=64, bias=True)
      (1): Tanh()
      (2): Linear(in_features=64, out_features=1, bias=True)
    )
  )
  (projection_layers): ModuleList(
    (0): Linear(in_features=512, out_features=256, bias=True)
  )
  (feature_attn_net): Sequential(
    (0): Linear(in_features=256, out_features=128, bias=True)
    (1): Tanh()
    (2): Linear(in_features=128, out_features=1, bias=True)
  )
  (fc): Sequential(
    (0): Linear(in_features=256, out_features=128, bias=True)
    (1): ReLU()
    (2): Dropout(p=0.3, inplace=False)
    (3): Linear(in_features=128, out_features=50, bias=True)
  )
)
[2025-08-01 18:46:43,194] [INFO] Training...
[2025-08-01 18:46:49,299] [INFO] Epoch 1/50, ValAcc: 21.86%, TrainLoss: 3.5227, ValLoss: 3.0775, LR: 0.001
[2025-08-01 18:46:55,363] [INFO] Epoch 2/50, ValAcc: 33.22%, TrainLoss: 2.8640, ValLoss: 2.5501, LR: 0.001
[2025-08-01 18:47:01,410] [INFO] Epoch 3/50, ValAcc: 35.85%, TrainLoss: 2.4044, ValLoss: 2.4486, LR: 0.001
…
se, device=device(type='cuda'), name='tcpwindow_token_bigru_5000_64_50_0.001_512_256_3_0.3_256_128_100_100_1800'),0.4087,0.4102,0.4290,0.4072
[2025-08-01 18:48:26,786] [INFO] [(0.4087327642810243, 0.41020683302436567, 0.42899047876006335, 0.40717852205508587)]
[2025-08-01 18:48:26,786] [INFO] Training from 1900 to 2000 / 5000
[2025-08-01 18:48:27,855] [INFO] Feature 0 normalized using token
[2025-08-01 18:48:27,856] [INFO] Train shape: (10659, 100), Val shape: (1523, 100), Test shape: (3046, 100)
[2025-08-01 18:48:27,877] [INFO] Classifier: VRScannerModel(
  (input_modules): ModuleList(
    (0): Embedding(3360, 512)
  )
  (rnn_layers): ModuleList(
    (0): GRU(512, 256, num_layers=3, batch_first=True, dropout=0.3, bidirectional=True)
  )
  (attn_nets): ModuleList(
    (0): Sequential(
      (0): Linear(in_features=512, out_features=64, bias=True)
      (1): Tanh()
      (2): Linear(in_features=64, out_features=1, bias=True)
    )
  )
  (projection_layers): ModuleList(
    (0): Linear(in_features=512, out_features=256, bias=True)
  )
  (feature_attn_net): Sequential(
    (0): Linear(in_features=256, out_features=128, bias=True)
    (1): Tanh()
    (2): Linear(in_features=128, out_features=1, bias=True)
  )
  (fc): Sequential(
    (0): Linear(in_features=256, out_features=128, bias=True)
    (1): ReLU()
    (2): Dropout(p=0.3, inplace=False)
    (3): Linear(in_features=128, out_features=50, bias=True)
  )
)
[2025-08-01 18:48:27,878] [INFO] Training...
[2025-08-01 18:48:33,985] [INFO] Epoch 1/50, ValAcc: 20.81%, TrainLoss: 3.5165, ValLoss: 3.0817, LR: 0.001
[2025-08-01 18:48:40,040] [INFO] Epoch 2/50, ValAcc: 29.68%, TrainLoss: 2.8389, ValLoss: 2.6008, LR: 0.001
[2025-08-01 18:48:46,101] [INFO] Epoch 3/50, ValAcc: 34.73%, TrainLoss: 2.4181, ValLoss: 2.4612, LR: 0.001
…
lse, device=device(type='cuda'), name='tcpwindow_token_bigru_5000_64_50_0.001_512_256_3_0.3_256_128_100_100_2000'),0.4173,0.4207,0.4488,0.4168
[2025-08-01 18:51:57,636] [INFO] [(0.41726854891661197, 0.42071129896215276, 0.4488307963828937, 0.4167688804636599)]
[2025-08-01 18:51:57,637] [INFO] Training from 2100 to 2200 / 5000
[2025-08-01 18:51:58,938] [INFO] Feature 0 normalized using token
[2025-08-01 18:51:58,938] [INFO] Train shape: (10659, 100), Val shape: (1523, 100), Test shape: (3046, 100)
[2025-08-01 18:51:58,974] [INFO] Classifier: VRScannerModel(
  (input_modules): ModuleList(
    (0): Embedding(3402, 512)
  )
  (rnn_layers): ModuleList(
    (0): GRU(512, 256, num_layers=3, batch_first=True, dropout=0.3, bidirectional=True)
  )
  (attn_nets): ModuleList(
    (0): Sequential(
      (0): Linear(in_features=512, out_features=64, bias=True)
      (1): Tanh()
      (2): Linear(in_features=64, out_features=1, bias=True)
    )
  )
  (projection_layers): ModuleList(
    (0): Linear(in_features=512, out_features=256, bias=True)
  )
  (feature_attn_net): Sequential(
    (0): Linear(in_features=256, out_features=128, bias=True)
    (1): Tanh()
    (2): Linear(in_features=128, out_features=1, bias=True)
  )
  (fc): Sequential(
    (0): Linear(in_features=256, out_features=128, bias=True)
    (1): ReLU()
    (2): Dropout(p=0.3, inplace=False)
    (3): Linear(in_features=128, out_features=50, bias=True)
  )
)
[2025-08-01 18:51:58,974] [INFO] Training...
[2025-08-01 18:52:05,106] [INFO] Epoch 1/50, ValAcc: 21.67%, TrainLoss: 3.5254, ValLoss: 3.0401, LR: 0.001
[2025-08-01 18:52:11,202] [INFO] Epoch 2/50, ValAcc: 30.33%, TrainLoss: 2.8616, ValLoss: 2.6338, LR: 0.001
[2025-08-01 18:52:17,308] [INFO] Epoch 3/50, ValAcc: 34.34%, TrainLoss: 2.4224, ValLoss: 2.4755, LR: 0.001
…
lse, device=device(type='cuda'), name='tcpwindow_token_bigru_5000_64_50_0.001_512_256_3_0.3_256_128_100_100_2100'),0.4192,0.4296,0.4668,0.4157
[2025-08-01 18:53:43,783] [INFO] [(0.4192383453709783, 0.4295869487380659, 0.46682639286487787, 0.41570096776503335)]
[2025-08-01 18:53:43,783] [INFO] Training from 2200 to 2300 / 5000
[2025-08-01 18:53:45,002] [INFO] Feature 0 normalized using token
[2025-08-01 18:53:45,002] [INFO] Train shape: (10659, 100), Val shape: (1523, 100), Test shape: (3046, 100)
[2025-08-01 18:53:45,025] [INFO] Classifier: VRScannerModel(
  (input_modules): ModuleList(
    (0): Embedding(3357, 512)
  )
  (rnn_layers): ModuleList(
    (0): GRU(512, 256, num_layers=3, batch_first=True, dropout=0.3, bidirectional=True)
  )
  (attn_nets): ModuleList(
    (0): Sequential(
      (0): Linear(in_features=512, out_features=64, bias=True)
      (1): Tanh()
      (2): Linear(in_features=64, out_features=1, bias=True)
    )
  )
  (projection_layers): ModuleList(
    (0): Linear(in_features=512, out_features=256, bias=True)
  )
  (feature_attn_net): Sequential(
    (0): Linear(in_features=256, out_features=128, bias=True)
    (1): Tanh()
    (2): Linear(in_features=128, out_features=1, bias=True)
  )
  (fc): Sequential(
    (0): Linear(in_features=256, out_features=128, bias=True)
    (1): ReLU()
    (2): Dropout(p=0.3, inplace=False)
    (3): Linear(in_features=128, out_features=50, bias=True)
  )
)
[2025-08-01 18:53:45,025] [INFO] Training...
[2025-08-01 18:53:51,167] [INFO] Epoch 1/50, ValAcc: 22.78%, TrainLoss: 3.5020, ValLoss: 3.0545, LR: 0.001
[2025-08-01 18:53:57,142] [INFO] Epoch 2/50, ValAcc: 32.30%, TrainLoss: 2.8261, ValLoss: 2.6078, LR: 0.001
[2025-08-01 18:54:02,857] [INFO] Epoch 3/50, ValAcc: 35.19%, TrainLoss: 2.4071, ValLoss: 2.4792, LR: 0.001
…
lse, device=device(type='cuda'), name='tcpwindow_token_bigru_5000_64_50_0.001_512_256_3_0.3_256_128_100_100_2200'),0.4343,0.4369,0.4649,0.4314
[2025-08-01 18:55:35,291] [INFO] [(0.4343401181877873, 0.43688294340788175, 0.4649171905052368, 0.43142805338919105)]
[2025-08-01 18:55:35,291] [INFO] Training from 2300 to 2400 / 5000
[2025-08-01 18:55:36,488] [INFO] Feature 0 normalized using token
[2025-08-01 18:55:36,488] [INFO] Train shape: (10659, 100), Val shape: (1523, 100), Test shape: (3046, 100)
[2025-08-01 18:55:36,510] [INFO] Classifier: VRScannerModel(
  (input_modules): ModuleList(
    (0): Embedding(3328, 512)
  )
  (rnn_layers): ModuleList(
    (0): GRU(512, 256, num_layers=3, batch_first=True, dropout=0.3, bidirectional=True)
  )
  (attn_nets): ModuleList(
    (0): Sequential(
      (0): Linear(in_features=512, out_features=64, bias=True)
      (1): Tanh()
      (2): Linear(in_features=64, out_features=1, bias=True)
    )
  )
  (projection_layers): ModuleList(
    (0): Linear(in_features=512, out_features=256, bias=True)
  )
  (feature_attn_net): Sequential(
    (0): Linear(in_features=256, out_features=128, bias=True)
    (1): Tanh()
    (2): Linear(in_features=128, out_features=1, bias=True)
  )
  (fc): Sequential(
    (0): Linear(in_features=256, out_features=128, bias=True)
    (1): ReLU()
    (2): Dropout(p=0.3, inplace=False)
    (3): Linear(in_features=128, out_features=50, bias=True)
  )
)
[2025-08-01 18:55:36,510] [INFO] Training...
[2025-08-01 18:55:42,650] [INFO] Epoch 1/50, ValAcc: 20.09%, TrainLoss: 3.5155, ValLoss: 3.0661, LR: 0.001
[2025-08-01 18:55:48,736] [INFO] Epoch 2/50, ValAcc: 33.16%, TrainLoss: 2.8516, ValLoss: 2.5938, LR: 0.001
[2025-08-01 18:55:54,815] [INFO] Epoch 3/50, ValAcc: 37.16%, TrainLoss: 2.4155, ValLoss: 2.4562, LR: 0.001
…
lse, device=device(type='cuda'), name='tcpwindow_token_bigru_5000_64_50_0.001_512_256_3_0.3_256_128_100_100_2300'),0.4363,0.4373,0.4641,0.4344
[2025-08-01 18:57:14,059] [INFO] [(0.43630991464215363, 0.43733044325246767, 0.4641499790853863, 0.4343979681668065)]
[2025-08-01 18:57:14,059] [INFO] Training from 2400 to 2500 / 5000
[2025-08-01 18:57:15,275] [INFO] Feature 0 normalized using token
[2025-08-01 18:57:15,275] [INFO] Train shape: (10659, 100), Val shape: (1523, 100), Test shape: (3046, 100)
[2025-08-01 18:57:15,298] [INFO] Classifier: VRScannerModel(
  (input_modules): ModuleList(
    (0): Embedding(3406, 512)
  )
  (rnn_layers): ModuleList(
    (0): GRU(512, 256, num_layers=3, batch_first=True, dropout=0.3, bidirectional=True)
  )
  (attn_nets): ModuleList(
    (0): Sequential(
      (0): Linear(in_features=512, out_features=64, bias=True)
      (1): Tanh()
      (2): Linear(in_features=64, out_features=1, bias=True)
    )
  )
  (projection_layers): ModuleList(
    (0): Linear(in_features=512, out_features=256, bias=True)
  )
  (feature_attn_net): Sequential(
    (0): Linear(in_features=256, out_features=128, bias=True)
    (1): Tanh()
    (2): Linear(in_features=128, out_features=1, bias=True)
  )
  (fc): Sequential(
    (0): Linear(in_features=256, out_features=128, bias=True)
    (1): ReLU()
    (2): Dropout(p=0.3, inplace=False)
    (3): Linear(in_features=128, out_features=50, bias=True)
  )
)
[2025-08-01 18:57:15,298] [INFO] Training...
[2025-08-01 18:57:21,431] [INFO] Epoch 1/50, ValAcc: 22.39%, TrainLoss: 3.5558, ValLoss: 3.0478, LR: 0.001
[2025-08-01 18:57:27,537] [INFO] Epoch 2/50, ValAcc: 30.79%, TrainLoss: 2.9006, ValLoss: 2.6039, LR: 0.001
[2025-08-01 18:57:33,624] [INFO] Epoch 3/50, ValAcc: 35.00%, TrainLoss: 2.4498, ValLoss: 2.4879, LR: 0.001
…
lse, device=device(type='cuda'), name='tcpwindow_token_bigru_5000_64_50_0.001_512_256_3_0.3_256_128_100_100_2400'),0.4419,0.4429,0.4727,0.4373
[2025-08-01 18:59:00,073] [INFO] [(0.44189100459619174, 0.4428609708642394, 0.47266078851775895, 0.4373076701241787)]
[2025-08-01 18:59:00,073] [INFO] Training from 2500 to 2600 / 5000
[2025-08-01 18:59:01,282] [INFO] Feature 0 normalized using token
[2025-08-01 18:59:01,282] [INFO] Train shape: (10659, 100), Val shape: (1523, 100), Test shape: (3046, 100)
[2025-08-01 18:59:01,304] [INFO] Classifier: VRScannerModel(
  (input_modules): ModuleList(
    (0): Embedding(3335, 512)
  )
  (rnn_layers): ModuleList(
    (0): GRU(512, 256, num_layers=3, batch_first=True, dropout=0.3, bidirectional=True)
  )
  (attn_nets): ModuleList(
    (0): Sequential(
      (0): Linear(in_features=512, out_features=64, bias=True)
      (1): Tanh()
      (2): Linear(in_features=64, out_features=1, bias=True)
    )
  )
  (projection_layers): ModuleList(
    (0): Linear(in_features=512, out_features=256, bias=True)
  )
  (feature_attn_net): Sequential(
    (0): Linear(in_features=256, out_features=128, bias=True)
    (1): Tanh()
    (2): Linear(in_features=128, out_features=1, bias=True)
  )
  (fc): Sequential(
    (0): Linear(in_features=256, out_features=128, bias=True)
    (1): ReLU()
    (2): Dropout(p=0.3, inplace=False)
    (3): Linear(in_features=128, out_features=50, bias=True)
  )
)
[2025-08-01 18:59:01,304] [INFO] Training...
[2025-08-01 18:59:07,441] [INFO] Epoch 1/50, ValAcc: 19.83%, TrainLoss: 3.5345, ValLoss: 3.0878, LR: 0.001
[2025-08-01 18:59:13,528] [INFO] Epoch 2/50, ValAcc: 27.97%, TrainLoss: 2.9377, ValLoss: 2.7465, LR: 0.001
[2025-08-01 18:59:19,631] [INFO] Epoch 3/50, ValAcc: 33.55%, TrainLoss: 2.5236, ValLoss: 2.5120, LR: 0.001
…
alse, device=device(type='cuda'), name='tcpwindow_token_bigru_5000_64_50_0.001_512_256_3_0.3_256_128_100_100_2600'),0.4110,0.4179,0.4647,0.4084
[2025-08-01 19:02:31,400] [INFO] [(0.4110308601444517, 0.4178651913476398, 0.46469903872907337, 0.4084467384785856)]
[2025-08-01 19:02:31,400] [INFO] Training from 2700 to 2800 / 5000
[2025-08-01 19:02:32,542] [INFO] Feature 0 normalized using token
[2025-08-01 19:02:32,542] [INFO] Train shape: (10659, 100), Val shape: (1523, 100), Test shape: (3046, 100)
[2025-08-01 19:02:32,564] [INFO] Classifier: VRScannerModel(
  (input_modules): ModuleList(
    (0): Embedding(3273, 512)
  )
  (rnn_layers): ModuleList(
    (0): GRU(512, 256, num_layers=3, batch_first=True, dropout=0.3, bidirectional=True)
  )
  (attn_nets): ModuleList(
    (0): Sequential(
      (0): Linear(in_features=512, out_features=64, bias=True)
      (1): Tanh()
      (2): Linear(in_features=64, out_features=1, bias=True)
    )
  )
  (projection_layers): ModuleList(
    (0): Linear(in_features=512, out_features=256, bias=True)
  )
  (feature_attn_net): Sequential(
    (0): Linear(in_features=256, out_features=128, bias=True)
    (1): Tanh()
    (2): Linear(in_features=128, out_features=1, bias=True)
  )
  (fc): Sequential(
    (0): Linear(in_features=256, out_features=128, bias=True)
    (1): ReLU()
    (2): Dropout(p=0.3, inplace=False)
    (3): Linear(in_features=128, out_features=50, bias=True)
  )
)
[2025-08-01 19:02:32,564] [INFO] Training...
[2025-08-01 19:02:38,704] [INFO] Epoch 1/50, ValAcc: 17.33%, TrainLoss: 3.5870, ValLoss: 3.2078, LR: 0.001
[2025-08-01 19:02:44,788] [INFO] Epoch 2/50, ValAcc: 26.53%, TrainLoss: 3.0081, ValLoss: 2.8288, LR: 0.001
[2025-08-01 19:02:50,897] [INFO] Epoch 3/50, ValAcc: 30.20%, TrainLoss: 2.6119, ValLoss: 2.7080, LR: 0.001
…
alse, device=device(type='cuda'), name='tcpwindow_token_bigru_5000_64_50_0.001_512_256_3_0.3_256_128_100_100_2700'),0.3769,0.3855,0.4335,0.3737
[2025-08-01 19:04:16,662] [INFO] [(0.3768877216021011, 0.3855312596959141, 0.43347004964899083, 0.3736849460698696)]
[2025-08-01 19:04:16,662] [INFO] Training from 2800 to 2900 / 5000
[2025-08-01 19:04:17,983] [INFO] Feature 0 normalized using token
[2025-08-01 19:04:17,983] [INFO] Train shape: (10659, 100), Val shape: (1523, 100), Test shape: (3046, 100)
[2025-08-01 19:04:18,005] [INFO] Classifier: VRScannerModel(
  (input_modules): ModuleList(
    (0): Embedding(3294, 512)
  )
  (rnn_layers): ModuleList(
    (0): GRU(512, 256, num_layers=3, batch_first=True, dropout=0.3, bidirectional=True)
  )
  (attn_nets): ModuleList(
    (0): Sequential(
      (0): Linear(in_features=512, out_features=64, bias=True)
      (1): Tanh()
      (2): Linear(in_features=64, out_features=1, bias=True)
    )
  )
  (projection_layers): ModuleList(
    (0): Linear(in_features=512, out_features=256, bias=True)
  )
  (feature_attn_net): Sequential(
    (0): Linear(in_features=256, out_features=128, bias=True)
    (1): Tanh()
    (2): Linear(in_features=128, out_features=1, bias=True)
  )
  (fc): Sequential(
    (0): Linear(in_features=256, out_features=128, bias=True)
    (1): ReLU()
    (2): Dropout(p=0.3, inplace=False)
    (3): Linear(in_features=128, out_features=50, bias=True)
  )
)
[2025-08-01 19:04:18,005] [INFO] Training...
[2025-08-01 19:04:24,125] [INFO] Epoch 1/50, ValAcc: 15.23%, TrainLoss: 3.6108, ValLoss: 3.2234, LR: 0.001
[2025-08-01 19:04:30,225] [INFO] Epoch 2/50, ValAcc: 26.33%, TrainLoss: 3.0553, ValLoss: 2.8480, LR: 0.001
[2025-08-01 19:04:36,313] [INFO] Epoch 3/50, ValAcc: 30.53%, TrainLoss: 2.6698, ValLoss: 2.7097, LR: 0.001
…
e, device=device(type='cuda'), name='tcpwindow_token_bigru_5000_64_50_0.001_512_256_3_0.3_256_128_100_100_2800'),0.3667,0.3819,0.4369,0.3663
[2025-08-01 19:06:02,743] [INFO] [(0.36671043992120816, 0.38190461674471016, 0.43686099745022916, 0.36629978036052535)]
[2025-08-01 19:06:02,743] [INFO] Training from 2900 to 3000 / 5000
[2025-08-01 19:06:03,909] [INFO] Feature 0 normalized using token
[2025-08-01 19:06:03,909] [INFO] Train shape: (10659, 100), Val shape: (1523, 100), Test shape: (3046, 100)
[2025-08-01 19:06:03,930] [INFO] Classifier: VRScannerModel(
  (input_modules): ModuleList(
    (0): Embedding(3252, 512)
  )
  (rnn_layers): ModuleList(
    (0): GRU(512, 256, num_layers=3, batch_first=True, dropout=0.3, bidirectional=True)
  )
  (attn_nets): ModuleList(
    (0): Sequential(
      (0): Linear(in_features=512, out_features=64, bias=True)
      (1): Tanh()
      (2): Linear(in_features=64, out_features=1, bias=True)
    )
  )
  (projection_layers): ModuleList(
    (0): Linear(in_features=512, out_features=256, bias=True)
  )
  (feature_attn_net): Sequential(
    (0): Linear(in_features=256, out_features=128, bias=True)
    (1): Tanh()
    (2): Linear(in_features=128, out_features=1, bias=True)
  )
  (fc): Sequential(
    (0): Linear(in_features=256, out_features=128, bias=True)
    (1): ReLU()
    (2): Dropout(p=0.3, inplace=False)
    (3): Linear(in_features=128, out_features=50, bias=True)
  )
)
[2025-08-01 19:06:03,930] [INFO] Training...
[2025-08-01 19:06:09,853] [INFO] Epoch 1/50, ValAcc: 16.09%, TrainLoss: 3.6225, ValLoss: 3.2375, LR: 0.001
[2025-08-01 19:06:15,578] [INFO] Epoch 2/50, ValAcc: 24.23%, TrainLoss: 3.1359, ValLoss: 2.9562, LR: 0.001
[2025-08-01 19:06:21,635] [INFO] Epoch 3/50, ValAcc: 28.63%, TrainLoss: 2.8010, ValLoss: 2.8049, LR: 0.001
…
alse, device=device(type='cuda'), name='tcpwindow_token_bigru_5000_64_50_0.001_512_256_3_0.3_256_128_100_100_2900'),0.3418,0.3578,0.4197,0.3409
[2025-08-01 19:07:48,162] [INFO] [(0.3417596848325673, 0.35779121481212556, 0.4196545977127778, 0.3408539330305094)]
[2025-08-01 19:07:48,162] [INFO] Training from 3000 to 3100 / 5000
[2025-08-01 19:07:49,305] [INFO] Feature 0 normalized using token
[2025-08-01 19:07:49,305] [INFO] Train shape: (10659, 100), Val shape: (1523, 100), Test shape: (3046, 100)
[2025-08-01 19:07:49,325] [INFO] Classifier: VRScannerModel(
  (input_modules): ModuleList(
    (0): Embedding(3221, 512)
  )
  (rnn_layers): ModuleList(
    (0): GRU(512, 256, num_layers=3, batch_first=True, dropout=0.3, bidirectional=True)
  )
  (attn_nets): ModuleList(
    (0): Sequential(
      (0): Linear(in_features=512, out_features=64, bias=True)
      (1): Tanh()
      (2): Linear(in_features=64, out_features=1, bias=True)
    )
  )
  (projection_layers): ModuleList(
    (0): Linear(in_features=512, out_features=256, bias=True)
  )
  (feature_attn_net): Sequential(
    (0): Linear(in_features=256, out_features=128, bias=True)
    (1): Tanh()
    (2): Linear(in_features=128, out_features=1, bias=True)
  )
  (fc): Sequential(
    (0): Linear(in_features=256, out_features=128, bias=True)
    (1): ReLU()
    (2): Dropout(p=0.3, inplace=False)
    (3): Linear(in_features=128, out_features=50, bias=True)
  )
)
[2025-08-01 19:07:49,326] [INFO] Training...
[2025-08-01 19:07:55,474] [INFO] Epoch 1/50, ValAcc: 13.39%, TrainLoss: 3.6772, ValLoss: 3.3534, LR: 0.001
[2025-08-01 19:08:01,580] [INFO] Epoch 2/50, ValAcc: 22.46%, TrainLoss: 3.2402, ValLoss: 3.0557, LR: 0.001
[2025-08-01 19:08:07,674] [INFO] Epoch 3/50, ValAcc: 24.82%, TrainLoss: 2.9086, ValLoss: 2.9017, LR: 0.001
…
alse, device=device(type='cuda'), name='tcpwindow_token_bigru_5000_64_50_0.001_512_256_3_0.3_256_128_100_100_3000'),0.3024,0.3270,0.4178,0.3031
[2025-08-01 19:09:39,627] [INFO] [(0.30236375574523966, 0.3269807283929632, 0.4178149179302158, 0.3031416718081001)]
[2025-08-01 19:09:39,628] [INFO] Training from 3100 to 3200 / 5000
[2025-08-01 19:09:40,786] [INFO] Feature 0 normalized using token
[2025-08-01 19:09:40,786] [INFO] Train shape: (10659, 100), Val shape: (1523, 100), Test shape: (3046, 100)
[2025-08-01 19:09:40,809] [INFO] Classifier: VRScannerModel(
  (input_modules): ModuleList(
    (0): Embedding(3157, 512)
  )
  (rnn_layers): ModuleList(
    (0): GRU(512, 256, num_layers=3, batch_first=True, dropout=0.3, bidirectional=True)
  )
  (attn_nets): ModuleList(
    (0): Sequential(
      (0): Linear(in_features=512, out_features=64, bias=True)
      (1): Tanh()
      (2): Linear(in_features=64, out_features=1, bias=True)
    )
  )
  (projection_layers): ModuleList(
    (0): Linear(in_features=512, out_features=256, bias=True)
  )
  (feature_attn_net): Sequential(
    (0): Linear(in_features=256, out_features=128, bias=True)
    (1): Tanh()
    (2): Linear(in_features=128, out_features=1, bias=True)
  )
  (fc): Sequential(
    (0): Linear(in_features=256, out_features=128, bias=True)
    (1): ReLU()
    (2): Dropout(p=0.3, inplace=False)
    (3): Linear(in_features=128, out_features=50, bias=True)
  )
)
[2025-08-01 19:09:40,809] [INFO] Training...
[2025-08-01 19:09:46,935] [INFO] Epoch 1/50, ValAcc: 12.08%, TrainLoss: 3.6896, ValLoss: 3.4090, LR: 0.001
[2025-08-01 19:09:53,011] [INFO] Epoch 2/50, ValAcc: 17.86%, TrainLoss: 3.3083, ValLoss: 3.1918, LR: 0.001
[2025-08-01 19:09:59,111] [INFO] Epoch 3/50, ValAcc: 24.49%, TrainLoss: 3.0214, ValLoss: 3.0270, LR: 0.001
…
alse, device=device(type='cuda'), name='tcpwindow_token_bigru_5000_64_50_0.001_512_256_3_0.3_256_128_100_100_3100'),0.2764,0.3035,0.3861,0.2767
[2025-08-01 19:11:25,613] [INFO] [(0.2764281024294156, 0.3034628021443734, 0.3861188170274673, 0.27670044591182646)]
[2025-08-01 19:11:25,613] [INFO] Training from 3200 to 3300 / 5000
[2025-08-01 19:11:26,719] [INFO] Feature 0 normalized using token
[2025-08-01 19:11:26,719] [INFO] Train shape: (10659, 100), Val shape: (1523, 100), Test shape: (3046, 100)
[2025-08-01 19:11:26,741] [INFO] Classifier: VRScannerModel(
  (input_modules): ModuleList(
    (0): Embedding(3059, 512)
  )
  (rnn_layers): ModuleList(
    (0): GRU(512, 256, num_layers=3, batch_first=True, dropout=0.3, bidirectional=True)
  )
  (attn_nets): ModuleList(
    (0): Sequential(
      (0): Linear(in_features=512, out_features=64, bias=True)
      (1): Tanh()
      (2): Linear(in_features=64, out_features=1, bias=True)
    )
  )
  (projection_layers): ModuleList(
    (0): Linear(in_features=512, out_features=256, bias=True)
  )
  (feature_attn_net): Sequential(
    (0): Linear(in_features=256, out_features=128, bias=True)
    (1): Tanh()
    (2): Linear(in_features=128, out_features=1, bias=True)
  )
  (fc): Sequential(
    (0): Linear(in_features=256, out_features=128, bias=True)
    (1): ReLU()
    (2): Dropout(p=0.3, inplace=False)
    (3): Linear(in_features=128, out_features=50, bias=True)
  )
)
[2025-08-01 19:11:26,741] [INFO] Training...
[2025-08-01 19:11:32,856] [INFO] Epoch 1/50, ValAcc: 9.19%, TrainLoss: 3.7197, ValLoss: 3.5165, LR: 0.001
[2025-08-01 19:11:38,951] [INFO] Epoch 2/50, ValAcc: 14.38%, TrainLoss: 3.3977, ValLoss: 3.3143, LR: 0.001
[2025-08-01 19:11:45,045] [INFO] Epoch 3/50, ValAcc: 19.76%, TrainLoss: 3.1553, ValLoss: 3.1256, LR: 0.001
…
alse, device=device(type='cuda'), name='tcpwindow_token_bigru_5000_64_50_0.001_512_256_3_0.3_256_128_100_100_3200'),0.2449,0.2758,0.3875,0.2481
[2025-08-01 19:13:10,881] [INFO] [(0.2449113591595535, 0.2757802569980214, 0.3875214234307169, 0.24806334989506457)]
[2025-08-01 19:13:10,881] [INFO] Training from 3300 to 3400 / 5000
[2025-08-01 19:13:11,883] [INFO] Feature 0 normalized using token
[2025-08-01 19:13:11,883] [INFO] Train shape: (10659, 100), Val shape: (1523, 100), Test shape: (3046, 100)
[2025-08-01 19:13:11,905] [INFO] Classifier: VRScannerModel(
  (input_modules): ModuleList(
    (0): Embedding(3023, 512)
  )
  (rnn_layers): ModuleList(
    (0): GRU(512, 256, num_layers=3, batch_first=True, dropout=0.3, bidirectional=True)
  )
  (attn_nets): ModuleList(
    (0): Sequential(
      (0): Linear(in_features=512, out_features=64, bias=True)
      (1): Tanh()
      (2): Linear(in_features=64, out_features=1, bias=True)
    )
  )
  (projection_layers): ModuleList(
    (0): Linear(in_features=512, out_features=256, bias=True)
  )
  (feature_attn_net): Sequential(
    (0): Linear(in_features=256, out_features=128, bias=True)
    (1): Tanh()
    (2): Linear(in_features=128, out_features=1, bias=True)
  )
  (fc): Sequential(
    (0): Linear(in_features=256, out_features=128, bias=True)
    (1): ReLU()
    (2): Dropout(p=0.3, inplace=False)
    (3): Linear(in_features=128, out_features=50, bias=True)
  )
)
[2025-08-01 19:13:11,905] [INFO] Training...
[2025-08-01 19:13:18,036] [INFO] Epoch 1/50, ValAcc: 10.83%, TrainLoss: 3.7272, ValLoss: 3.4521, LR: 0.001
[2025-08-01 19:13:24,125] [INFO] Epoch 2/50, ValAcc: 16.28%, TrainLoss: 3.4331, ValLoss: 3.3069, LR: 0.001
[2025-08-01 19:13:30,220] [INFO] Epoch 3/50, ValAcc: 17.27%, TrainLoss: 3.2039, ValLoss: 3.1798, LR: 0.001
…
lse, device=device(type='cuda'), name='tcpwindow_token_bigru_5000_64_50_0.001_512_256_3_0.3_256_128_100_100_3300'),0.2272,0.2574,0.3642,0.2287
[2025-08-01 19:14:56,645] [INFO] [(0.22718319107025609, 0.2574266165026992, 0.36417129671531845, 0.2286693897592366)]
[2025-08-01 19:14:56,645] [INFO] Training from 3400 to 3500 / 5000
[2025-08-01 19:14:57,760] [INFO] Feature 0 normalized using token
[2025-08-01 19:14:57,760] [INFO] Train shape: (10659, 100), Val shape: (1523, 100), Test shape: (3046, 100)
[2025-08-01 19:14:57,781] [INFO] Classifier: VRScannerModel(
  (input_modules): ModuleList(
    (0): Embedding(2928, 512)
  )
  (rnn_layers): ModuleList(
    (0): GRU(512, 256, num_layers=3, batch_first=True, dropout=0.3, bidirectional=True)
  )
  (attn_nets): ModuleList(
    (0): Sequential(
      (0): Linear(in_features=512, out_features=64, bias=True)
      (1): Tanh()
      (2): Linear(in_features=64, out_features=1, bias=True)
    )
  )
  (projection_layers): ModuleList(
    (0): Linear(in_features=512, out_features=256, bias=True)
  )
  (feature_attn_net): Sequential(
    (0): Linear(in_features=256, out_features=128, bias=True)
    (1): Tanh()
    (2): Linear(in_features=128, out_features=1, bias=True)
  )
  (fc): Sequential(
    (0): Linear(in_features=256, out_features=128, bias=True)
    (1): ReLU()
    (2): Dropout(p=0.3, inplace=False)
    (3): Linear(in_features=128, out_features=50, bias=True)
  )
)
[2025-08-01 19:14:57,781] [INFO] Training...
[2025-08-01 19:15:03,914] [INFO] Epoch 1/50, ValAcc: 7.94%, TrainLoss: 3.7778, ValLoss: 3.5806, LR: 0.001
[2025-08-01 19:15:09,911] [INFO] Epoch 2/50, ValAcc: 12.61%, TrainLoss: 3.4926, ValLoss: 3.3711, LR: 0.001
[2025-08-01 19:15:15,627] [INFO] Epoch 3/50, ValAcc: 15.82%, TrainLoss: 3.2588, ValLoss: 3.2421, LR: 0.001
…
se, device=device(type='cuda'), name='tcpwindow_token_bigru_5000_64_50_0.001_512_256_3_0.3_256_128_100_100_3400'),0.2121,0.2395,0.3572,0.2131
[2025-08-01 19:16:41,258] [INFO] [(0.21208141825344715, 0.23946974051697942, 0.3571627775383379, 0.21314025880726664)]
[2025-08-01 19:16:41,258] [INFO] Training from 3500 to 3600 / 5000
[2025-08-01 19:16:42,322] [INFO] Feature 0 normalized using token
[2025-08-01 19:16:42,322] [INFO] Train shape: (10659, 100), Val shape: (1523, 100), Test shape: (3046, 100)
[2025-08-01 19:16:42,344] [INFO] Classifier: VRScannerModel(
  (input_modules): ModuleList(
    (0): Embedding(2861, 512)
  )
  (rnn_layers): ModuleList(
    (0): GRU(512, 256, num_layers=3, batch_first=True, dropout=0.3, bidirectional=True)
  )
  (attn_nets): ModuleList(
    (0): Sequential(
      (0): Linear(in_features=512, out_features=64, bias=True)
      (1): Tanh()
      (2): Linear(in_features=64, out_features=1, bias=True)
    )
  )
  (projection_layers): ModuleList(
    (0): Linear(in_features=512, out_features=256, bias=True)
  )
  (feature_attn_net): Sequential(
    (0): Linear(in_features=256, out_features=128, bias=True)
    (1): Tanh()
    (2): Linear(in_features=128, out_features=1, bias=True)
  )
  (fc): Sequential(
    (0): Linear(in_features=256, out_features=128, bias=True)
    (1): ReLU()
    (2): Dropout(p=0.3, inplace=False)
    (3): Linear(in_features=128, out_features=50, bias=True)
  )
)
[2025-08-01 19:16:42,344] [INFO] Training...
[2025-08-01 19:16:48,470] [INFO] Epoch 1/50, ValAcc: 6.89%, TrainLoss: 3.7807, ValLoss: 3.6121, LR: 0.001
[2025-08-01 19:16:54,575] [INFO] Epoch 2/50, ValAcc: 11.29%, TrainLoss: 3.5373, ValLoss: 3.4405, LR: 0.001
[2025-08-01 19:17:00,679] [INFO] Epoch 3/50, ValAcc: 14.51%, TrainLoss: 3.3571, ValLoss: 3.3352, LR: 0.001
…
lse, device=device(type='cuda'), name='tcpwindow_token_bigru_5000_64_50_0.001_512_256_3_0.3_256_128_100_100_3500'),0.1884,0.2173,0.3529,0.1858
[2025-08-01 19:18:26,754] [INFO] [(0.18844386080105055, 0.2172557582118839, 0.3528501804292716, 0.18582442133426047)]
[2025-08-01 19:18:26,754] [INFO] Training from 3600 to 3700 / 5000
[2025-08-01 19:18:27,805] [INFO] Feature 0 normalized using token
[2025-08-01 19:18:27,805] [INFO] Train shape: (10659, 100), Val shape: (1523, 100), Test shape: (3046, 100)
[2025-08-01 19:18:27,826] [INFO] Classifier: VRScannerModel(
  (input_modules): ModuleList(
    (0): Embedding(2763, 512)
  )
  (rnn_layers): ModuleList(
    (0): GRU(512, 256, num_layers=3, batch_first=True, dropout=0.3, bidirectional=True)
  )
  (attn_nets): ModuleList(
    (0): Sequential(
      (0): Linear(in_features=512, out_features=64, bias=True)
      (1): Tanh()
      (2): Linear(in_features=64, out_features=1, bias=True)
    )
  )
  (projection_layers): ModuleList(
    (0): Linear(in_features=512, out_features=256, bias=True)
  )
  (feature_attn_net): Sequential(
    (0): Linear(in_features=256, out_features=128, bias=True)
    (1): Tanh()
    (2): Linear(in_features=128, out_features=1, bias=True)
  )
  (fc): Sequential(
    (0): Linear(in_features=256, out_features=128, bias=True)
    (1): ReLU()
    (2): Dropout(p=0.3, inplace=False)
    (3): Linear(in_features=128, out_features=50, bias=True)
  )
)
[2025-08-01 19:18:27,826] [INFO] Training...
[2025-08-01 19:18:33,922] [INFO] Epoch 1/50, ValAcc: 7.09%, TrainLoss: 3.7912, ValLoss: 3.6521, LR: 0.001
[2025-08-01 19:18:40,018] [INFO] Epoch 2/50, ValAcc: 9.59%, TrainLoss: 3.5780, ValLoss: 3.5112, LR: 0.001
[2025-08-01 19:18:46,121] [INFO] Epoch 3/50, ValAcc: 13.26%, TrainLoss: 3.3943, ValLoss: 3.4068, LR: 0.001
…
se, device=device(type='cuda'), name='tcpwindow_token_bigru_5000_64_50_0.001_512_256_3_0.3_256_128_100_100_3600'),0.1684,0.1929,0.3407,0.1655
[2025-08-01 19:20:12,663] [INFO] [(0.16841759684832566, 0.19285008034387027, 0.34071121736739385, 0.1655154759722964)]
[2025-08-01 19:20:12,663] [INFO] Training from 3700 to 3800 / 5000
[2025-08-01 19:20:13,564] [INFO] Feature 0 normalized using token
[2025-08-01 19:20:13,564] [INFO] Train shape: (10659, 100), Val shape: (1523, 100), Test shape: (3046, 100)
[2025-08-01 19:20:13,585] [INFO] Classifier: VRScannerModel(
  (input_modules): ModuleList(
    (0): Embedding(2664, 512)
  )
  (rnn_layers): ModuleList(
    (0): GRU(512, 256, num_layers=3, batch_first=True, dropout=0.3, bidirectional=True)
  )
  (attn_nets): ModuleList(
    (0): Sequential(
      (0): Linear(in_features=512, out_features=64, bias=True)
      (1): Tanh()
      (2): Linear(in_features=64, out_features=1, bias=True)
    )
  )
  (projection_layers): ModuleList(
    (0): Linear(in_features=512, out_features=256, bias=True)
  )
  (feature_attn_net): Sequential(
    (0): Linear(in_features=256, out_features=128, bias=True)
    (1): Tanh()
    (2): Linear(in_features=128, out_features=1, bias=True)
  )
  (fc): Sequential(
    (0): Linear(in_features=256, out_features=128, bias=True)
    (1): ReLU()
    (2): Dropout(p=0.3, inplace=False)
    (3): Linear(in_features=128, out_features=50, bias=True)
  )
)
[2025-08-01 19:20:13,585] [INFO] Training...
[2025-08-01 19:20:19,718] [INFO] Epoch 1/50, ValAcc: 7.09%, TrainLoss: 3.8016, ValLoss: 3.6442, LR: 0.001
[2025-08-01 19:20:25,816] [INFO] Epoch 2/50, ValAcc: 9.32%, TrainLoss: 3.5952, ValLoss: 3.5184, LR: 0.001
[2025-08-01 19:20:31,918] [INFO] Epoch 3/50, ValAcc: 11.88%, TrainLoss: 3.4455, ValLoss: 3.4428, LR: 0.001
…
lse, device=device(type='cuda'), name='tcpwindow_token_bigru_5000_64_50_0.001_512_256_3_0.3_256_128_100_100_3700'),0.1573,0.1885,0.3411,0.1579
[2025-08-01 19:21:57,786] [INFO] [(0.1572554169402495, 0.1884932062839943, 0.34106019171404484, 0.15791376322526726)]
[2025-08-01 19:21:57,786] [INFO] Training from 3800 to 3900 / 5000
[2025-08-01 19:21:58,818] [INFO] Feature 0 normalized using token
[2025-08-01 19:21:58,818] [INFO] Train shape: (10659, 100), Val shape: (1523, 100), Test shape: (3046, 100)
[2025-08-01 19:21:58,839] [INFO] Classifier: VRScannerModel(
  (input_modules): ModuleList(
    (0): Embedding(2568, 512)
  )
  (rnn_layers): ModuleList(
    (0): GRU(512, 256, num_layers=3, batch_first=True, dropout=0.3, bidirectional=True)
  )
  (attn_nets): ModuleList(
    (0): Sequential(
      (0): Linear(in_features=512, out_features=64, bias=True)
      (1): Tanh()
      (2): Linear(in_features=64, out_features=1, bias=True)
    )
  )
  (projection_layers): ModuleList(
    (0): Linear(in_features=512, out_features=256, bias=True)
  )
  (feature_attn_net): Sequential(
    (0): Linear(in_features=256, out_features=128, bias=True)
    (1): Tanh()
    (2): Linear(in_features=128, out_features=1, bias=True)
  )
  (fc): Sequential(
    (0): Linear(in_features=256, out_features=128, bias=True)
    (1): ReLU()
    (2): Dropout(p=0.3, inplace=False)
    (3): Linear(in_features=128, out_features=50, bias=True)
  )
)
[2025-08-01 19:21:58,839] [INFO] Training...
[2025-08-01 19:22:04,982] [INFO] Epoch 1/50, ValAcc: 4.66%, TrainLoss: 3.8153, ValLoss: 3.7208, LR: 0.001
[2025-08-01 19:22:11,079] [INFO] Epoch 2/50, ValAcc: 8.27%, TrainLoss: 3.6753, ValLoss: 3.6023, LR: 0.001
[2025-08-01 19:22:17,157] [INFO] Epoch 3/50, ValAcc: 10.44%, TrainLoss: 3.5445, ValLoss: 3.5087, LR: 0.001
…
alse, device=device(type='cuda'), name='tcpwindow_token_bigru_5000_64_50_0.001_512_256_3_0.3_256_128_100_100_3800'),0.1356,0.1572,0.3273,0.1331
[2025-08-01 19:23:43,641] [INFO] [(0.1355876559422193, 0.15715058894870595, 0.327276475718279, 0.13311224400943805)]
[2025-08-01 19:23:43,641] [INFO] Training from 3900 to 4000 / 5000
[2025-08-01 19:23:44,531] [INFO] Feature 0 normalized using token
[2025-08-01 19:23:44,531] [INFO] Train shape: (10659, 100), Val shape: (1523, 100), Test shape: (3046, 100)
[2025-08-01 19:23:44,551] [INFO] Classifier: VRScannerModel(
  (input_modules): ModuleList(
    (0): Embedding(2420, 512)
  )
  (rnn_layers): ModuleList(
    (0): GRU(512, 256, num_layers=3, batch_first=True, dropout=0.3, bidirectional=True)
  )
  (attn_nets): ModuleList(
    (0): Sequential(
      (0): Linear(in_features=512, out_features=64, bias=True)
      (1): Tanh()
      (2): Linear(in_features=64, out_features=1, bias=True)
    )
  )
  (projection_layers): ModuleList(
    (0): Linear(in_features=512, out_features=256, bias=True)
  )
  (feature_attn_net): Sequential(
    (0): Linear(in_features=256, out_features=128, bias=True)
    (1): Tanh()
    (2): Linear(in_features=128, out_features=1, bias=True)
  )
  (fc): Sequential(
    (0): Linear(in_features=256, out_features=128, bias=True)
    (1): ReLU()
    (2): Dropout(p=0.3, inplace=False)
    (3): Linear(in_features=128, out_features=50, bias=True)
  )
)
[2025-08-01 19:23:44,551] [INFO] Training...
[2025-08-01 19:23:50,694] [INFO] Epoch 1/50, ValAcc: 5.65%, TrainLoss: 3.8201, ValLoss: 3.7177, LR: 0.001
[2025-08-01 19:23:56,782] [INFO] Epoch 2/50, ValAcc: 7.49%, TrainLoss: 3.6943, ValLoss: 3.6144, LR: 0.001
[2025-08-01 19:24:02,864] [INFO] Epoch 3/50, ValAcc: 8.01%, TrainLoss: 3.5946, ValLoss: 3.5716, LR: 0.001
…
e, device=device(type='cuda'), name='tcpwindow_token_bigru_5000_64_50_0.001_512_256_3_0.3_256_128_100_100_3900'),0.1225,0.1435,0.2854,0.1226
[2025-08-01 19:25:34,814] [INFO] [(0.12245567957977675, 0.14345060946491744, 0.28543121229665586, 0.12263114679946702)]
[2025-08-01 19:25:34,814] [INFO] Training from 4000 to 4100 / 5000
[2025-08-01 19:25:35,802] [INFO] Feature 0 normalized using token
[2025-08-01 19:25:35,802] [INFO] Train shape: (10659, 100), Val shape: (1523, 100), Test shape: (3046, 100)
[2025-08-01 19:25:35,822] [INFO] Classifier: VRScannerModel(
  (input_modules): ModuleList(
    (0): Embedding(2389, 512)
  )
  (rnn_layers): ModuleList(
    (0): GRU(512, 256, num_layers=3, batch_first=True, dropout=0.3, bidirectional=True)
  )
  (attn_nets): ModuleList(
    (0): Sequential(
      (0): Linear(in_features=512, out_features=64, bias=True)
      (1): Tanh()
      (2): Linear(in_features=64, out_features=1, bias=True)
    )
  )
  (projection_layers): ModuleList(
    (0): Linear(in_features=512, out_features=256, bias=True)
  )
  (feature_attn_net): Sequential(
    (0): Linear(in_features=256, out_features=128, bias=True)
    (1): Tanh()
    (2): Linear(in_features=128, out_features=1, bias=True)
  )
  (fc): Sequential(
    (0): Linear(in_features=256, out_features=128, bias=True)
    (1): ReLU()
    (2): Dropout(p=0.3, inplace=False)
    (3): Linear(in_features=128, out_features=50, bias=True)
  )
)
[2025-08-01 19:25:35,822] [INFO] Training...
[2025-08-01 19:25:41,957] [INFO] Epoch 1/50, ValAcc: 4.66%, TrainLoss: 3.8278, ValLoss: 3.7532, LR: 0.001
[2025-08-01 19:25:48,038] [INFO] Epoch 2/50, ValAcc: 7.35%, TrainLoss: 3.7380, ValLoss: 3.6795, LR: 0.001
[2025-08-01 19:25:54,136] [INFO] Epoch 3/50, ValAcc: 7.35%, TrainLoss: 3.6571, ValLoss: 3.6056, LR: 0.001
…
se, device=device(type='cuda'), name='tcpwindow_token_bigru_5000_64_50_0.001_512_256_3_0.3_256_128_100_100_4000'),0.1142,0.1332,0.2683,0.1151
[2025-08-01 19:27:26,460] [INFO] [(0.11424819435325016, 0.13319103974710347, 0.2683423128443316, 0.11506774448147379)]
[2025-08-01 19:27:26,460] [INFO] Training from 4100 to 4200 / 5000
[2025-08-01 19:27:27,426] [INFO] Feature 0 normalized using token
[2025-08-01 19:27:27,426] [INFO] Train shape: (10659, 100), Val shape: (1523, 100), Test shape: (3046, 100)
[2025-08-01 19:27:27,446] [INFO] Classifier: VRScannerModel(
  (input_modules): ModuleList(
    (0): Embedding(2313, 512)
  )
  (rnn_layers): ModuleList(
    (0): GRU(512, 256, num_layers=3, batch_first=True, dropout=0.3, bidirectional=True)
  )
  (attn_nets): ModuleList(
    (0): Sequential(
      (0): Linear(in_features=512, out_features=64, bias=True)
      (1): Tanh()
      (2): Linear(in_features=64, out_features=1, bias=True)
    )
  )
  (projection_layers): ModuleList(
    (0): Linear(in_features=512, out_features=256, bias=True)
  )
  (feature_attn_net): Sequential(
    (0): Linear(in_features=256, out_features=128, bias=True)
    (1): Tanh()
    (2): Linear(in_features=128, out_features=1, bias=True)
  )
  (fc): Sequential(
    (0): Linear(in_features=256, out_features=128, bias=True)
    (1): ReLU()
    (2): Dropout(p=0.3, inplace=False)
    (3): Linear(in_features=128, out_features=50, bias=True)
  )
)
[2025-08-01 19:27:27,446] [INFO] Training...
[2025-08-01 19:27:33,338] [INFO] Epoch 1/50, ValAcc: 3.55%, TrainLoss: 3.8277, ValLoss: 3.7652, LR: 0.001
[2025-08-01 19:27:39,442] [INFO] Epoch 2/50, ValAcc: 6.50%, TrainLoss: 3.7208, ValLoss: 3.6611, LR: 0.001
[2025-08-01 19:27:45,535] [INFO] Epoch 3/50, ValAcc: 7.62%, TrainLoss: 3.6118, ValLoss: 3.6103, LR: 0.001
…
lse, device=device(type='cuda'), name='tcpwindow_token_bigru_5000_64_50_0.001_512_256_3_0.3_256_128_100_100_4100'),0.1064,0.1253,0.2675,0.1064
[2025-08-01 19:29:11,938] [INFO] [(0.10636900853578464, 0.12531874562840348, 0.267537978410669, 0.10637115241835321)]
[2025-08-01 19:29:11,938] [INFO] Training from 4200 to 4300 / 5000
[2025-08-01 19:29:12,865] [INFO] Feature 0 normalized using token
[2025-08-01 19:29:12,865] [INFO] Train shape: (10659, 100), Val shape: (1523, 100), Test shape: (3046, 100)
[2025-08-01 19:29:12,885] [INFO] Classifier: VRScannerModel(
  (input_modules): ModuleList(
    (0): Embedding(2177, 512)
  )
  (rnn_layers): ModuleList(
    (0): GRU(512, 256, num_layers=3, batch_first=True, dropout=0.3, bidirectional=True)
  )
  (attn_nets): ModuleList(
    (0): Sequential(
      (0): Linear(in_features=512, out_features=64, bias=True)
      (1): Tanh()
      (2): Linear(in_features=64, out_features=1, bias=True)
    )
  )
  (projection_layers): ModuleList(
    (0): Linear(in_features=512, out_features=256, bias=True)
  )
  (feature_attn_net): Sequential(
    (0): Linear(in_features=256, out_features=128, bias=True)
    (1): Tanh()
    (2): Linear(in_features=128, out_features=1, bias=True)
  )
  (fc): Sequential(
    (0): Linear(in_features=256, out_features=128, bias=True)
    (1): ReLU()
    (2): Dropout(p=0.3, inplace=False)
    (3): Linear(in_features=128, out_features=50, bias=True)
  )
)
[2025-08-01 19:29:12,885] [INFO] Training...
[2025-08-01 19:29:19,038] [INFO] Epoch 1/50, ValAcc: 4.92%, TrainLoss: 3.8222, ValLoss: 3.7657, LR: 0.001
[2025-08-01 19:29:25,133] [INFO] Epoch 2/50, ValAcc: 6.50%, TrainLoss: 3.7235, ValLoss: 3.6774, LR: 0.001
[2025-08-01 19:29:31,226] [INFO] Epoch 3/50, ValAcc: 7.81%, TrainLoss: 3.6432, ValLoss: 3.6322, LR: 0.001
…
alse, device=device(type='cuda'), name='tcpwindow_token_bigru_5000_64_50_0.001_512_256_3_0.3_256_128_100_100_4200'),0.1031,0.1226,0.2872,0.1046
[2025-08-01 19:31:09,240] [INFO] [(0.103086014445174, 0.12264376803309845, 0.2872322678821959, 0.10464233964029847)]
[2025-08-01 19:31:09,240] [INFO] Training from 4300 to 4400 / 5000
[2025-08-01 19:31:10,133] [INFO] Feature 0 normalized using token
[2025-08-01 19:31:10,133] [INFO] Train shape: (10659, 100), Val shape: (1523, 100), Test shape: (3046, 100)
[2025-08-01 19:31:10,153] [INFO] Classifier: VRScannerModel(
  (input_modules): ModuleList(
    (0): Embedding(1991, 512)
  )
  (rnn_layers): ModuleList(
    (0): GRU(512, 256, num_layers=3, batch_first=True, dropout=0.3, bidirectional=True)
  )
  (attn_nets): ModuleList(
    (0): Sequential(
      (0): Linear(in_features=512, out_features=64, bias=True)
      (1): Tanh()
      (2): Linear(in_features=64, out_features=1, bias=True)
    )
  )
  (projection_layers): ModuleList(
    (0): Linear(in_features=512, out_features=256, bias=True)
  )
  (feature_attn_net): Sequential(
    (0): Linear(in_features=256, out_features=128, bias=True)
    (1): Tanh()
    (2): Linear(in_features=128, out_features=1, bias=True)
  )
  (fc): Sequential(
    (0): Linear(in_features=256, out_features=128, bias=True)
    (1): ReLU()
    (2): Dropout(p=0.3, inplace=False)
    (3): Linear(in_features=128, out_features=50, bias=True)
  )
)
[2025-08-01 19:31:10,153] [INFO] Training...
[2025-08-01 19:31:16,300] [INFO] Epoch 1/50, ValAcc: 5.38%, TrainLoss: 3.8328, ValLoss: 3.7565, LR: 0.001
[2025-08-01 19:31:22,395] [INFO] Epoch 2/50, ValAcc: 7.42%, TrainLoss: 3.7054, ValLoss: 3.6493, LR: 0.001
[2025-08-01 19:31:28,490] [INFO] Epoch 3/50, ValAcc: 6.17%, TrainLoss: 3.6201, ValLoss: 3.6224, LR: 0.001
…
e, device=device(type='cuda'), name='tcpwindow_token_bigru_5000_64_50_0.001_512_256_3_0.3_256_128_100_100_4300'),0.1001,0.1169,0.2740,0.1010
[2025-08-01 19:32:54,991] [INFO] [(0.10013131976362442, 0.11690308256776666, 0.27403161379419255, 0.10096212318589183)]
[2025-08-01 19:32:54,991] [INFO] Training from 4400 to 4500 / 5000
[2025-08-01 19:32:55,887] [INFO] Feature 0 normalized using token
[2025-08-01 19:32:55,887] [INFO] Train shape: (10659, 100), Val shape: (1523, 100), Test shape: (3046, 100)
[2025-08-01 19:32:55,907] [INFO] Classifier: VRScannerModel(
  (input_modules): ModuleList(
    (0): Embedding(2018, 512)
  )
  (rnn_layers): ModuleList(
    (0): GRU(512, 256, num_layers=3, batch_first=True, dropout=0.3, bidirectional=True)
  )
  (attn_nets): ModuleList(
    (0): Sequential(
      (0): Linear(in_features=512, out_features=64, bias=True)
      (1): Tanh()
      (2): Linear(in_features=64, out_features=1, bias=True)
    )
  )
  (projection_layers): ModuleList(
    (0): Linear(in_features=512, out_features=256, bias=True)
  )
  (feature_attn_net): Sequential(
    (0): Linear(in_features=256, out_features=128, bias=True)
    (1): Tanh()
    (2): Linear(in_features=128, out_features=1, bias=True)
  )
  (fc): Sequential(
    (0): Linear(in_features=256, out_features=128, bias=True)
    (1): ReLU()
    (2): Dropout(p=0.3, inplace=False)
    (3): Linear(in_features=128, out_features=50, bias=True)
  )
)
[2025-08-01 19:32:55,907] [INFO] Training...
[2025-08-01 19:33:02,008] [INFO] Epoch 1/50, ValAcc: 6.37%, TrainLoss: 3.8173, ValLoss: 3.7247, LR: 0.001
[2025-08-01 19:33:08,060] [INFO] Epoch 2/50, ValAcc: 6.24%, TrainLoss: 3.6963, ValLoss: 3.6702, LR: 0.001
[2025-08-01 19:33:14,144] [INFO] Epoch 3/50, ValAcc: 7.75%, TrainLoss: 3.6285, ValLoss: 3.6215, LR: 0.001
…
se, device=device(type='cuda'), name='tcpwindow_token_bigru_5000_64_50_0.001_512_256_3_0.3_256_128_100_100_4400'),0.0913,0.1049,0.2131,0.0922
[2025-08-01 19:34:14,151] [INFO] [(0.0912672357189757, 0.10490749625793866, 0.21309275211586876, 0.09217397029213602)]
[2025-08-01 19:34:14,151] [INFO] Training from 4500 to 4600 / 5000
[2025-08-01 19:34:15,077] [INFO] Feature 0 normalized using token
[2025-08-01 19:34:15,077] [INFO] Train shape: (10659, 100), Val shape: (1523, 100), Test shape: (3046, 100)
[2025-08-01 19:34:15,096] [INFO] Classifier: VRScannerModel(
  (input_modules): ModuleList(
    (0): Embedding(1921, 512)
  )
  (rnn_layers): ModuleList(
    (0): GRU(512, 256, num_layers=3, batch_first=True, dropout=0.3, bidirectional=True)
  )
  (attn_nets): ModuleList(
    (0): Sequential(
      (0): Linear(in_features=512, out_features=64, bias=True)
      (1): Tanh()
      (2): Linear(in_features=64, out_features=1, bias=True)
    )
  )
  (projection_layers): ModuleList(
    (0): Linear(in_features=512, out_features=256, bias=True)
  )
  (feature_attn_net): Sequential(
    (0): Linear(in_features=256, out_features=128, bias=True)
    (1): Tanh()
    (2): Linear(in_features=128, out_features=1, bias=True)
  )
  (fc): Sequential(
    (0): Linear(in_features=256, out_features=128, bias=True)
    (1): ReLU()
    (2): Dropout(p=0.3, inplace=False)
    (3): Linear(in_features=128, out_features=50, bias=True)
  )
)
[2025-08-01 19:34:15,096] [INFO] Training...
[2025-08-01 19:34:17,663] [INFO] Epoch 1/50, ValAcc: 4.73%, TrainLoss: 3.8180, ValLoss: 3.7407, LR: 0.001
[2025-08-01 19:34:20,224] [INFO] Epoch 2/50, ValAcc: 6.76%, TrainLoss: 3.7022, ValLoss: 3.6904, LR: 0.001
[2025-08-01 19:34:22,780] [INFO] Epoch 3/50, ValAcc: 8.27%, TrainLoss: 3.6246, ValLoss: 3.6200, LR: 0.001
…
se, device=device(type='cuda'), name='tcpwindow_token_bigru_5000_64_50_0.001_512_256_3_0.3_256_128_100_100_4500'),0.0913,0.1046,0.2243,0.0921
[2025-08-01 19:34:59,035] [INFO] [(0.0912672357189757, 0.10463562044543952, 0.22426685638085359, 0.09206522686047533)]
[2025-08-01 19:34:59,035] [INFO] Training from 4600 to 4700 / 5000
[2025-08-01 19:35:00,051] [INFO] Feature 0 normalized using token
[2025-08-01 19:35:00,051] [INFO] Train shape: (10659, 100), Val shape: (1523, 100), Test shape: (3046, 100)
[2025-08-01 19:35:00,070] [INFO] Classifier: VRScannerModel(
  (input_modules): ModuleList(
    (0): Embedding(1907, 512)
  )
  (rnn_layers): ModuleList(
    (0): GRU(512, 256, num_layers=3, batch_first=True, dropout=0.3, bidirectional=True)
  )
  (attn_nets): ModuleList(
    (0): Sequential(
      (0): Linear(in_features=512, out_features=64, bias=True)
      (1): Tanh()
      (2): Linear(in_features=64, out_features=1, bias=True)
    )
  )
  (projection_layers): ModuleList(
    (0): Linear(in_features=512, out_features=256, bias=True)
  )
  (feature_attn_net): Sequential(
    (0): Linear(in_features=256, out_features=128, bias=True)
    (1): Tanh()
    (2): Linear(in_features=128, out_features=1, bias=True)
  )
  (fc): Sequential(
    (0): Linear(in_features=256, out_features=128, bias=True)
    (1): ReLU()
    (2): Dropout(p=0.3, inplace=False)
    (3): Linear(in_features=128, out_features=50, bias=True)
  )
)
[2025-08-01 19:35:00,070] [INFO] Training...
[2025-08-01 19:35:02,742] [INFO] Epoch 1/50, ValAcc: 4.27%, TrainLoss: 3.8225, ValLoss: 3.7472, LR: 0.001
[2025-08-01 19:35:05,373] [INFO] Epoch 2/50, ValAcc: 6.89%, TrainLoss: 3.7204, ValLoss: 3.6639, LR: 0.001
[2025-08-01 19:35:07,859] [INFO] Epoch 3/50, ValAcc: 7.22%, TrainLoss: 3.6449, ValLoss: 3.6146, LR: 0.001
…
se, device=device(type='cuda'), name='tcpwindow_token_bigru_5000_64_50_0.001_512_256_3_0.3_256_128_100_100_4600'),0.0972,0.1142,0.2522,0.0978
[2025-08-01 19:35:48,866] [INFO] [(0.09717662508207485, 0.11415257395910551, 0.25217173459331405, 0.0977737457283526)]
[2025-08-01 19:35:48,866] [INFO] Training from 4700 to 4800 / 5000
[2025-08-01 19:35:49,710] [INFO] Feature 0 normalized using token
[2025-08-01 19:35:49,710] [INFO] Train shape: (10659, 100), Val shape: (1523, 100), Test shape: (3046, 100)
[2025-08-01 19:35:49,728] [INFO] Classifier: VRScannerModel(
  (input_modules): ModuleList(
    (0): Embedding(1871, 512)
  )
  (rnn_layers): ModuleList(
    (0): GRU(512, 256, num_layers=3, batch_first=True, dropout=0.3, bidirectional=True)
  )
  (attn_nets): ModuleList(
    (0): Sequential(
      (0): Linear(in_features=512, out_features=64, bias=True)
      (1): Tanh()
      (2): Linear(in_features=64, out_features=1, bias=True)
    )
  )
  (projection_layers): ModuleList(
    (0): Linear(in_features=512, out_features=256, bias=True)
  )
  (feature_attn_net): Sequential(
    (0): Linear(in_features=256, out_features=128, bias=True)
    (1): Tanh()
    (2): Linear(in_features=128, out_features=1, bias=True)
  )
  (fc): Sequential(
    (0): Linear(in_features=256, out_features=128, bias=True)
    (1): ReLU()
    (2): Dropout(p=0.3, inplace=False)
    (3): Linear(in_features=128, out_features=50, bias=True)
  )
)
[2025-08-01 19:35:49,728] [INFO] Training...
[2025-08-01 19:35:52,290] [INFO] Epoch 1/50, ValAcc: 6.04%, TrainLoss: 3.8198, ValLoss: 3.7346, LR: 0.001
[2025-08-01 19:35:54,793] [INFO] Epoch 2/50, ValAcc: 6.17%, TrainLoss: 3.7037, ValLoss: 3.6614, LR: 0.001
[2025-08-01 19:35:57,302] [INFO] Epoch 3/50, ValAcc: 7.68%, TrainLoss: 3.6140, ValLoss: 3.6234, LR: 0.001
…
lse, device=device(type='cuda'), name='tcpwindow_token_bigru_5000_64_50_0.001_512_256_3_0.3_256_128_100_100_4700'),0.0873,0.0986,0.2228,0.0881
[2025-08-01 19:37:18,896] [INFO] [(0.08732764281024294, 0.09859082922314392, 0.22275099493101091, 0.088051494466245)]
[2025-08-01 19:37:18,896] [INFO] Training from 4800 to 4900 / 5000
[2025-08-01 19:37:19,812] [INFO] Feature 0 normalized using token
[2025-08-01 19:37:19,812] [INFO] Train shape: (10659, 100), Val shape: (1523, 100), Test shape: (3046, 100)
[2025-08-01 19:37:19,830] [INFO] Classifier: VRScannerModel(
  (input_modules): ModuleList(
    (0): Embedding(1811, 512)
  )
  (rnn_layers): ModuleList(
    (0): GRU(512, 256, num_layers=3, batch_first=True, dropout=0.3, bidirectional=True)
  )
  (attn_nets): ModuleList(
    (0): Sequential(
      (0): Linear(in_features=512, out_features=64, bias=True)
      (1): Tanh()
      (2): Linear(in_features=64, out_features=1, bias=True)
    )
  )
  (projection_layers): ModuleList(
    (0): Linear(in_features=512, out_features=256, bias=True)
  )
  (feature_attn_net): Sequential(
    (0): Linear(in_features=256, out_features=128, bias=True)
    (1): Tanh()
    (2): Linear(in_features=128, out_features=1, bias=True)
  )
  (fc): Sequential(
    (0): Linear(in_features=256, out_features=128, bias=True)
    (1): ReLU()
    (2): Dropout(p=0.3, inplace=False)
    (3): Linear(in_features=128, out_features=50, bias=True)
  )
)
[2025-08-01 19:37:19,830] [INFO] Training...
[2025-08-01 19:37:25,920] [INFO] Epoch 1/50, ValAcc: 4.66%, TrainLoss: 3.8114, ValLoss: 3.7163, LR: 0.001
[2025-08-01 19:37:31,979] [INFO] Epoch 2/50, ValAcc: 6.63%, TrainLoss: 3.7029, ValLoss: 3.6609, LR: 0.001
[2025-08-01 19:37:38,027] [INFO] Epoch 3/50, ValAcc: 6.57%, TrainLoss: 3.6369, ValLoss: 3.6336, LR: 0.001
…
se, device=device(type='cuda'), name='tcpwindow_token_bigru_5000_64_50_0.001_512_256_3_0.3_256_128_100_100_4800'),0.0896,0.1013,0.2119,0.0901
[2025-08-01 19:39:03,593] [INFO] [(0.0896257386736704, 0.10133446373950657, 0.21189692551649333, 0.09009184719769117)]
[2025-08-01 19:39:03,593] [INFO] Training from 4900 to 5000 / 5000
[2025-08-01 19:39:04,517] [INFO] Feature 0 normalized using token
[2025-08-01 19:39:04,517] [INFO] Train shape: (10659, 100), Val shape: (1523, 100), Test shape: (3046, 100)
[2025-08-01 19:39:04,536] [INFO] Classifier: VRScannerModel(
  (input_modules): ModuleList(
    (0): Embedding(1716, 512)
  )
  (rnn_layers): ModuleList(
    (0): GRU(512, 256, num_layers=3, batch_first=True, dropout=0.3, bidirectional=True)
  )
  (attn_nets): ModuleList(
    (0): Sequential(
      (0): Linear(in_features=512, out_features=64, bias=True)
      (1): Tanh()
      (2): Linear(in_features=64, out_features=1, bias=True)
    )
  )
  (projection_layers): ModuleList(
    (0): Linear(in_features=512, out_features=256, bias=True)
  )
  (feature_attn_net): Sequential(
    (0): Linear(in_features=256, out_features=128, bias=True)
    (1): Tanh()
    (2): Linear(in_features=128, out_features=1, bias=True)
  )
  (fc): Sequential(
    (0): Linear(in_features=256, out_features=128, bias=True)
    (1): ReLU()
    (2): Dropout(p=0.3, inplace=False)
    (3): Linear(in_features=128, out_features=50, bias=True)
  )
)
[2025-08-01 19:39:04,537] [INFO] Training...
[2025-08-01 19:39:10,371] [INFO] Epoch 1/50, ValAcc: 5.65%, TrainLoss: 3.8252, ValLoss: 3.7311, LR: 0.001
[2025-08-01 19:39:16,433] [INFO] Epoch 2/50, ValAcc: 6.30%, TrainLoss: 3.7029, ValLoss: 3.6727, LR: 0.001
[2025-08-01 19:39:22,473] [INFO] Epoch 3/50, ValAcc: 7.22%, TrainLoss: 3.6300, ValLoss: 3.6304, LR: 0.001
…
