…
[2025-08-01 08:27:32,800] [INFO] [['244' '141' '52' ... <NA> <NA> <NA>]
 ['60' '60' '52' ... <NA> <NA> <NA>]
 ['1432' '1432' '1432' ... <NA> <NA> <NA>]
 ...
 ['52' '1432' '1432' ... <NA> <NA> <NA>]
 ['1432' '340' '52' ... <NA> <NA> <NA>]
 ['52' '52' '1432' ... <NA> <NA> <NA>]]
[2025-08-01 08:27:33,064] [INFO] Training from 0 to 1000 / 5000
[2025-08-01 08:27:47,651] [INFO] Feature 0 normalized using token
[2025-08-01 08:27:47,651] [INFO] Train shape: (10659, 1000), Val shape: (1523, 1000), Test shape: (3046, 1000)
[2025-08-01 08:27:47,709] [INFO] Classifier: VRScannerModel(
  (input_modules): ModuleList(
    (0): Embedding(1384, 512)
  )
  (rnn_layers): ModuleList(
    (0): GRU(512, 256, num_layers=3, batch_first=True, dropout=0.3, bidirectional=True)
  )
  (attn_nets): ModuleList(
    (0): Sequential(
      (0): Linear(in_features=512, out_features=64, bias=True)
      (1): Tanh()
      (2): Linear(in_features=64, out_features=1, bias=True)
    )
  )
  (projection_layers): ModuleList(
    (0): Linear(in_features=512, out_features=256, bias=True)
  )
  (feature_attn_net): Sequential(
    (0): Linear(in_features=256, out_features=128, bias=True)
    (1): Tanh()
    (2): Linear(in_features=128, out_features=1, bias=True)
  )
  (fc): Sequential(
    (0): Linear(in_features=256, out_features=128, bias=True)
    (1): ReLU()
    (2): Dropout(p=0.3, inplace=False)
    (3): Linear(in_features=128, out_features=50, bias=True)
  )
)
[2025-08-01 08:27:47,709] [INFO] Training...
[2025-08-01 08:28:13,899] [INFO] Epoch 1/50, ValAcc: 19.44%, TrainLoss: 3.5587, ValLoss: 2.8926, LR: 0.001
[2025-08-01 08:28:47,045] [INFO] Epoch 2/50, ValAcc: 49.90%, TrainLoss: 2.4245, ValLoss: 1.7067, LR: 0.001
[2025-08-01 08:29:20,269] [INFO] Epoch 3/50, ValAcc: 65.13%, TrainLoss: 1.4562, ValLoss: 1.1164, LR: 0.001
…
se, device=device(type='cuda'), name='iplen_token_bigru_5000_64_50_0.001_512_256_3_0.3_256_128_1000_100_3300'),0.2745,0.3148,0.4348,0.2780
[2025-08-01 14:38:29,864] [INFO] [(0.2744583059750492, 0.31477202552462624, 0.43484858326004144, 0.27799554833564805)]
[2025-08-01 14:38:29,864] [INFO] Training from 3400 to 4400 / 5000
[2025-08-01 14:38:39,801] [INFO] Feature 0 normalized using token
[2025-08-01 14:38:39,801] [INFO] Train shape: (10659, 1000), Val shape: (1523, 1000), Test shape: (3046, 1000)
[2025-08-01 14:38:39,826] [INFO] Classifier: VRScannerModel(
  (input_modules): ModuleList(
    (0): Embedding(1383, 512)
  )
  (rnn_layers): ModuleList(
    (0): GRU(512, 256, num_layers=3, batch_first=True, dropout=0.3, bidirectional=True)
  )
  (attn_nets): ModuleList(
    (0): Sequential(
      (0): Linear(in_features=512, out_features=64, bias=True)
      (1): Tanh()
      (2): Linear(in_features=64, out_features=1, bias=True)
    )
  )
  (projection_layers): ModuleList(
    (0): Linear(in_features=512, out_features=256, bias=True)
  )
  (feature_attn_net): Sequential(
    (0): Linear(in_features=256, out_features=128, bias=True)
    (1): Tanh()
    (2): Linear(in_features=128, out_features=1, bias=True)
  )
  (fc): Sequential(
    (0): Linear(in_features=256, out_features=128, bias=True)
    (1): ReLU()
    (2): Dropout(p=0.3, inplace=False)
    (3): Linear(in_features=128, out_features=50, bias=True)
  )
)
[2025-08-01 14:38:39,826] [INFO] Training...
[2025-08-01 14:39:19,052] [INFO] Epoch 1/50, ValAcc: 4.27%, TrainLoss: 3.8324, ValLoss: 3.7238, LR: 0.001
[2025-08-01 14:39:58,288] [INFO] Epoch 2/50, ValAcc: 8.86%, TrainLoss: 3.6446, ValLoss: 3.5290, LR: 0.001
[2025-08-01 14:40:36,853] [INFO] Epoch 3/50, ValAcc: 11.62%, TrainLoss: 3.4364, ValLoss: 3.3071, LR: 0.001
…
