…
[2025-08-01 08:27:56,331] [INFO] [['244' '141' '52' ... <NA> <NA> <NA>]
 ['60' '60' '52' ... <NA> <NA> <NA>]
 ['1432' '1432' '1432' ... <NA> <NA> <NA>]
 ...
 ['52' '1432' '1432' ... <NA> <NA> <NA>]
 ['1432' '340' '52' ... <NA> <NA> <NA>]
 ['52' '52' '1432' ... <NA> <NA> <NA>]]
[2025-08-01 08:27:56,603] [INFO] Training from 0 to 100 / 5000
[2025-08-01 08:27:57,184] [INFO] Feature 0 normalized using token
[2025-08-01 08:27:57,184] [INFO] Train shape: (10659, 100), Val shape: (1523, 100), Test shape: (3046, 100)
[2025-08-01 08:27:57,232] [INFO] Classifier: VRScannerModel(
  (input_modules): ModuleList(
    (0): Embedding(1366, 512)
  )
  (rnn_layers): ModuleList(
    (0): GRU(512, 256, num_layers=3, batch_first=True, dropout=0.3, bidirectional=True)
  )
  (attn_nets): ModuleList(
    (0): Sequential(
      (0): Linear(in_features=512, out_features=64, bias=True)
      (1): Tanh()
      (2): Linear(in_features=64, out_features=1, bias=True)
    )
  )
  (projection_layers): ModuleList(
    (0): Linear(in_features=512, out_features=256, bias=True)
  )
  (feature_attn_net): Sequential(
    (0): Linear(in_features=256, out_features=128, bias=True)
    (1): Tanh()
    (2): Linear(in_features=128, out_features=1, bias=True)
  )
  (fc): Sequential(
    (0): Linear(in_features=256, out_features=128, bias=True)
    (1): ReLU()
    (2): Dropout(p=0.3, inplace=False)
    (3): Linear(in_features=128, out_features=50, bias=True)
  )
)
[2025-08-01 08:27:57,232] [INFO] Training...
[2025-08-01 08:28:04,481] [INFO] Epoch 1/50, ValAcc: 8.34%, TrainLoss: 3.8356, ValLoss: 3.5592, LR: 0.001
[2025-08-01 08:28:10,600] [INFO] Epoch 2/50, ValAcc: 24.49%, TrainLoss: 3.2348, ValLoss: 2.7711, LR: 0.001
[2025-08-01 08:28:16,600] [INFO] Epoch 3/50, ValAcc: 35.59%, TrainLoss: 2.5836, ValLoss: 2.3444, LR: 0.001
…
ation=False, device=device(type='cuda'), name='iplen_token_bigru_5000_64_50_0.001_512_256_3_0.3_256_128_100_100_0'),0.4478,0.4524,0.4798,0.4435
[2025-08-01 08:29:55,750] [INFO] [(0.4478003939592909, 0.45242926246782145, 0.47982660127982835, 0.44348031322781345)]
[2025-08-01 08:29:55,750] [INFO] Training from 100 to 200 / 5000
[2025-08-01 08:29:56,294] [INFO] Feature 0 normalized using token
[2025-08-01 08:29:56,295] [INFO] Train shape: (10659, 100), Val shape: (1523, 100), Test shape: (3046, 100)
[2025-08-01 08:29:56,314] [INFO] Classifier: VRScannerModel(
  (input_modules): ModuleList(
    (0): Embedding(1379, 512)
  )
  (rnn_layers): ModuleList(
    (0): GRU(512, 256, num_layers=3, batch_first=True, dropout=0.3, bidirectional=True)
  )
  (attn_nets): ModuleList(
    (0): Sequential(
      (0): Linear(in_features=512, out_features=64, bias=True)
      (1): Tanh()
      (2): Linear(in_features=64, out_features=1, bias=True)
    )
  )
  (projection_layers): ModuleList(
    (0): Linear(in_features=512, out_features=256, bias=True)
  )
  (feature_attn_net): Sequential(
    (0): Linear(in_features=256, out_features=128, bias=True)
    (1): Tanh()
    (2): Linear(in_features=128, out_features=1, bias=True)
  )
  (fc): Sequential(
    (0): Linear(in_features=256, out_features=128, bias=True)
    (1): ReLU()
    (2): Dropout(p=0.3, inplace=False)
    (3): Linear(in_features=128, out_features=50, bias=True)
  )
)
[2025-08-01 08:29:56,314] [INFO] Training...
[2025-08-01 08:30:02,502] [INFO] Epoch 1/50, ValAcc: 4.53%, TrainLoss: 3.8871, ValLoss: 3.7167, LR: 0.001
[2025-08-01 08:30:08,640] [INFO] Epoch 2/50, ValAcc: 12.15%, TrainLoss: 3.5050, ValLoss: 3.2925, LR: 0.001
[2025-08-01 08:30:14,784] [INFO] Epoch 3/50, ValAcc: 16.35%, TrainLoss: 3.1997, ValLoss: 3.1488, LR: 0.001
…
ion=False, device=device(type='cuda'), name='iplen_token_bigru_5000_64_50_0.001_512_256_3_0.3_256_128_100_100_100'),0.2196,0.2284,0.2513,0.2167
[2025-08-01 08:31:47,753] [INFO] [(0.2196323046618516, 0.22839016793143144, 0.25131631612735045, 0.21670310894294864)]
[2025-08-01 08:31:47,753] [INFO] Training from 200 to 300 / 5000
[2025-08-01 08:31:48,664] [INFO] Feature 0 normalized using token
[2025-08-01 08:31:48,664] [INFO] Train shape: (10659, 100), Val shape: (1523, 100), Test shape: (3046, 100)
[2025-08-01 08:31:48,683] [INFO] Classifier: VRScannerModel(
  (input_modules): ModuleList(
    (0): Embedding(1382, 512)
  )
  (rnn_layers): ModuleList(
    (0): GRU(512, 256, num_layers=3, batch_first=True, dropout=0.3, bidirectional=True)
  )
  (attn_nets): ModuleList(
    (0): Sequential(
      (0): Linear(in_features=512, out_features=64, bias=True)
      (1): Tanh()
      (2): Linear(in_features=64, out_features=1, bias=True)
    )
  )
  (projection_layers): ModuleList(
    (0): Linear(in_features=512, out_features=256, bias=True)
  )
  (feature_attn_net): Sequential(
    (0): Linear(in_features=256, out_features=128, bias=True)
    (1): Tanh()
    (2): Linear(in_features=128, out_features=1, bias=True)
  )
  (fc): Sequential(
    (0): Linear(in_features=256, out_features=128, bias=True)
    (1): ReLU()
    (2): Dropout(p=0.3, inplace=False)
    (3): Linear(in_features=128, out_features=50, bias=True)
  )
)
[2025-08-01 08:31:48,683] [INFO] Training...
[2025-08-01 08:31:54,846] [INFO] Epoch 1/50, ValAcc: 6.43%, TrainLoss: 3.8751, ValLoss: 3.7236, LR: 0.001
[2025-08-01 08:32:00,990] [INFO] Epoch 2/50, ValAcc: 12.80%, TrainLoss: 3.5926, ValLoss: 3.3470, LR: 0.001
[2025-08-01 08:32:07,005] [INFO] Epoch 3/50, ValAcc: 14.64%, TrainLoss: 3.2789, ValLoss: 3.2027, LR: 0.001
…
on=False, device=device(type='cuda'), name='iplen_token_bigru_5000_64_50_0.001_512_256_3_0.3_256_128_100_100_200'),0.2456,0.2497,0.2711,0.2429
[2025-08-01 08:33:40,176] [INFO] [(0.24556795797767564, 0.24966388967491554, 0.27106111031938623, 0.24291299164890165)]
[2025-08-01 08:33:40,176] [INFO] Training from 300 to 400 / 5000
[2025-08-01 08:33:41,138] [INFO] Feature 0 normalized using token
[2025-08-01 08:33:41,138] [INFO] Train shape: (10659, 100), Val shape: (1523, 100), Test shape: (3046, 100)
[2025-08-01 08:33:41,157] [INFO] Classifier: VRScannerModel(
  (input_modules): ModuleList(
    (0): Embedding(1380, 512)
  )
  (rnn_layers): ModuleList(
    (0): GRU(512, 256, num_layers=3, batch_first=True, dropout=0.3, bidirectional=True)
  )
  (attn_nets): ModuleList(
    (0): Sequential(
      (0): Linear(in_features=512, out_features=64, bias=True)
      (1): Tanh()
      (2): Linear(in_features=64, out_features=1, bias=True)
    )
  )
  (projection_layers): ModuleList(
    (0): Linear(in_features=512, out_features=256, bias=True)
  )
  (feature_attn_net): Sequential(
    (0): Linear(in_features=256, out_features=128, bias=True)
    (1): Tanh()
    (2): Linear(in_features=128, out_features=1, bias=True)
  )
  (fc): Sequential(
    (0): Linear(in_features=256, out_features=128, bias=True)
    (1): ReLU()
    (2): Dropout(p=0.3, inplace=False)
    (3): Linear(in_features=128, out_features=50, bias=True)
  )
)
[2025-08-01 08:33:41,157] [INFO] Training...
[2025-08-01 08:33:47,201] [INFO] Epoch 1/50, ValAcc: 8.47%, TrainLoss: 3.8070, ValLoss: 3.5920, LR: 0.001
[2025-08-01 08:33:53,350] [INFO] Epoch 2/50, ValAcc: 14.12%, TrainLoss: 3.3855, ValLoss: 3.1867, LR: 0.001
[2025-08-01 08:33:59,498] [INFO] Epoch 3/50, ValAcc: 19.04%, TrainLoss: 3.0961, ValLoss: 2.9985, LR: 0.001
…
ion=False, device=device(type='cuda'), name='iplen_token_bigru_5000_64_50_0.001_512_256_3_0.3_256_128_100_100_700'),0.2072,0.2088,0.2243,0.2067
[2025-08-01 08:43:14,902] [INFO] [(0.2071569271175312, 0.20877513102009485, 0.22429357375377765, 0.20672464541222912)]
[2025-08-01 08:43:14,902] [INFO] Training from 800 to 900 / 5000
[2025-08-01 08:43:15,815] [INFO] Feature 0 normalized using token
[2025-08-01 08:43:15,815] [INFO] Train shape: (10659, 100), Val shape: (1523, 100), Test shape: (3046, 100)
[2025-08-01 08:43:15,836] [INFO] Classifier: VRScannerModel(
  (input_modules): ModuleList(
    (0): Embedding(1376, 512)
  )
  (rnn_layers): ModuleList(
    (0): GRU(512, 256, num_layers=3, batch_first=True, dropout=0.3, bidirectional=True)
  )
  (attn_nets): ModuleList(
    (0): Sequential(
      (0): Linear(in_features=512, out_features=64, bias=True)
      (1): Tanh()
      (2): Linear(in_features=64, out_features=1, bias=True)
    )
  )
  (projection_layers): ModuleList(
    (0): Linear(in_features=512, out_features=256, bias=True)
  )
  (feature_attn_net): Sequential(
    (0): Linear(in_features=256, out_features=128, bias=True)
    (1): Tanh()
    (2): Linear(in_features=128, out_features=1, bias=True)
  )
  (fc): Sequential(
    (0): Linear(in_features=256, out_features=128, bias=True)
    (1): ReLU()
    (2): Dropout(p=0.3, inplace=False)
    (3): Linear(in_features=128, out_features=50, bias=True)
  )
)
[2025-08-01 08:43:15,836] [INFO] Training...
[2025-08-01 08:43:21,954] [INFO] Epoch 1/50, ValAcc: 7.09%, TrainLoss: 3.8926, ValLoss: 3.7400, LR: 0.001
[2025-08-01 08:43:28,055] [INFO] Epoch 2/50, ValAcc: 11.56%, TrainLoss: 3.5734, ValLoss: 3.3797, LR: 0.001
[2025-08-01 08:43:34,197] [INFO] Epoch 3/50, ValAcc: 12.87%, TrainLoss: 3.3033, ValLoss: 3.2483, LR: 0.001
…
on=False, device=device(type='cuda'), name='iplen_token_bigru_5000_64_50_0.001_512_256_3_0.3_256_128_100_100_800'),0.2049,0.2138,0.2384,0.2063
[2025-08-01 08:45:07,202] [INFO] [(0.20485883125410373, 0.2137763949022391, 0.23836378237081665, 0.20631191061079626)]
[2025-08-01 08:45:07,202] [INFO] Training from 900 to 1000 / 5000
[2025-08-01 08:45:08,086] [INFO] Feature 0 normalized using token
[2025-08-01 08:45:08,086] [INFO] Train shape: (10659, 100), Val shape: (1523, 100), Test shape: (3046, 100)
[2025-08-01 08:45:08,104] [INFO] Classifier: VRScannerModel(
  (input_modules): ModuleList(
    (0): Embedding(1381, 512)
  )
  (rnn_layers): ModuleList(
    (0): GRU(512, 256, num_layers=3, batch_first=True, dropout=0.3, bidirectional=True)
  )
  (attn_nets): ModuleList(
    (0): Sequential(
      (0): Linear(in_features=512, out_features=64, bias=True)
      (1): Tanh()
      (2): Linear(in_features=64, out_features=1, bias=True)
    )
  )
  (projection_layers): ModuleList(
    (0): Linear(in_features=512, out_features=256, bias=True)
  )
  (feature_attn_net): Sequential(
    (0): Linear(in_features=256, out_features=128, bias=True)
    (1): Tanh()
    (2): Linear(in_features=128, out_features=1, bias=True)
  )
  (fc): Sequential(
    (0): Linear(in_features=256, out_features=128, bias=True)
    (1): ReLU()
    (2): Dropout(p=0.3, inplace=False)
    (3): Linear(in_features=128, out_features=50, bias=True)
  )
)
[2025-08-01 08:45:08,105] [INFO] Training...
[2025-08-01 08:45:14,270] [INFO] Epoch 1/50, ValAcc: 1.90%, TrainLoss: 3.9206, ValLoss: 3.9127, LR: 0.001
[2025-08-01 08:45:20,410] [INFO] Epoch 2/50, ValAcc: 5.19%, TrainLoss: 3.8897, ValLoss: 3.7809, LR: 0.001
[2025-08-01 08:45:26,562] [INFO] Epoch 3/50, ValAcc: 10.11%, TrainLoss: 3.6494, ValLoss: 3.4204, LR: 0.001
…
n=False, device=device(type='cuda'), name='iplen_token_bigru_5000_64_50_0.001_512_256_3_0.3_256_128_100_100_900'),0.2032,0.2092,0.2317,0.2018
[2025-08-01 08:47:11,854] [INFO] [(0.20321733420879842, 0.2091952817713568, 0.23168002776907293, 0.20184680946694017)]
[2025-08-01 08:47:11,854] [INFO] Training from 1000 to 1100 / 5000
[2025-08-01 08:47:12,753] [INFO] Feature 0 normalized using token
[2025-08-01 08:47:12,753] [INFO] Train shape: (10659, 100), Val shape: (1523, 100), Test shape: (3046, 100)
[2025-08-01 08:47:12,771] [INFO] Classifier: VRScannerModel(
  (input_modules): ModuleList(
    (0): Embedding(1375, 512)
  )
  (rnn_layers): ModuleList(
    (0): GRU(512, 256, num_layers=3, batch_first=True, dropout=0.3, bidirectional=True)
  )
  (attn_nets): ModuleList(
    (0): Sequential(
      (0): Linear(in_features=512, out_features=64, bias=True)
      (1): Tanh()
      (2): Linear(in_features=64, out_features=1, bias=True)
    )
  )
  (projection_layers): ModuleList(
    (0): Linear(in_features=512, out_features=256, bias=True)
  )
  (feature_attn_net): Sequential(
    (0): Linear(in_features=256, out_features=128, bias=True)
    (1): Tanh()
    (2): Linear(in_features=128, out_features=1, bias=True)
  )
  (fc): Sequential(
    (0): Linear(in_features=256, out_features=128, bias=True)
    (1): ReLU()
    (2): Dropout(p=0.3, inplace=False)
    (3): Linear(in_features=128, out_features=50, bias=True)
  )
)
[2025-08-01 08:47:12,772] [INFO] Training...
[2025-08-01 08:47:18,946] [INFO] Epoch 1/50, ValAcc: 4.14%, TrainLoss: 3.8628, ValLoss: 3.7620, LR: 0.001
[2025-08-01 08:47:25,093] [INFO] Epoch 2/50, ValAcc: 9.06%, TrainLoss: 3.6516, ValLoss: 3.4970, LR: 0.001
[2025-08-01 08:47:31,223] [INFO] Epoch 3/50, ValAcc: 13.79%, TrainLoss: 3.3786, ValLoss: 3.2405, LR: 0.001
…
=False, device=device(type='cuda'), name='iplen_token_bigru_5000_64_50_0.001_512_256_3_0.3_256_128_100_100_1000'),0.2078,0.2182,0.2489,0.2051
[2025-08-01 08:49:10,429] [INFO] [(0.2078135259356533, 0.21816412226057252, 0.24894767947086632, 0.20510749435205333)]
[2025-08-01 08:49:10,429] [INFO] Training from 1100 to 1200 / 5000
[2025-08-01 08:49:11,312] [INFO] Feature 0 normalized using token
[2025-08-01 08:49:11,312] [INFO] Train shape: (10659, 100), Val shape: (1523, 100), Test shape: (3046, 100)
[2025-08-01 08:49:11,331] [INFO] Classifier: VRScannerModel(
  (input_modules): ModuleList(
    (0): Embedding(1377, 512)
  )
  (rnn_layers): ModuleList(
    (0): GRU(512, 256, num_layers=3, batch_first=True, dropout=0.3, bidirectional=True)
  )
  (attn_nets): ModuleList(
    (0): Sequential(
      (0): Linear(in_features=512, out_features=64, bias=True)
      (1): Tanh()
      (2): Linear(in_features=64, out_features=1, bias=True)
    )
  )
  (projection_layers): ModuleList(
    (0): Linear(in_features=512, out_features=256, bias=True)
  )
  (feature_attn_net): Sequential(
    (0): Linear(in_features=256, out_features=128, bias=True)
    (1): Tanh()
    (2): Linear(in_features=128, out_features=1, bias=True)
  )
  (fc): Sequential(
    (0): Linear(in_features=256, out_features=128, bias=True)
    (1): ReLU()
    (2): Dropout(p=0.3, inplace=False)
    (3): Linear(in_features=128, out_features=50, bias=True)
  )
)
[2025-08-01 08:49:11,331] [INFO] Training...
[2025-08-01 08:49:17,532] [INFO] Epoch 1/50, ValAcc: 6.70%, TrainLoss: 3.8502, ValLoss: 3.6474, LR: 0.001
[2025-08-01 08:49:23,654] [INFO] Epoch 2/50, ValAcc: 11.95%, TrainLoss: 3.4825, ValLoss: 3.3602, LR: 0.001
[2025-08-01 08:49:29,704] [INFO] Epoch 3/50, ValAcc: 15.43%, TrainLoss: 3.2350, ValLoss: 3.1785, LR: 0.001
…
n=False, device=device(type='cuda'), name='iplen_token_bigru_5000_64_50_0.001_512_256_3_0.3_256_128_100_100_1600'),0.2246,0.2313,0.2593,0.2224
[2025-08-01 09:00:52,983] [INFO] [(0.22455679579776758, 0.23127293483786457, 0.2593063359420369, 0.2224063072174993)]
[2025-08-01 09:00:52,983] [INFO] Training from 1700 to 1800 / 5000
[2025-08-01 09:00:53,857] [INFO] Feature 0 normalized using token
[2025-08-01 09:00:53,857] [INFO] Train shape: (10659, 100), Val shape: (1523, 100), Test shape: (3046, 100)
[2025-08-01 09:00:53,876] [INFO] Classifier: VRScannerModel(
  (input_modules): ModuleList(
    (0): Embedding(1378, 512)
  )
  (rnn_layers): ModuleList(
    (0): GRU(512, 256, num_layers=3, batch_first=True, dropout=0.3, bidirectional=True)
  )
  (attn_nets): ModuleList(
    (0): Sequential(
      (0): Linear(in_features=512, out_features=64, bias=True)
      (1): Tanh()
      (2): Linear(in_features=64, out_features=1, bias=True)
    )
  )
  (projection_layers): ModuleList(
    (0): Linear(in_features=512, out_features=256, bias=True)
  )
  (feature_attn_net): Sequential(
    (0): Linear(in_features=256, out_features=128, bias=True)
    (1): Tanh()
    (2): Linear(in_features=128, out_features=1, bias=True)
  )
  (fc): Sequential(
    (0): Linear(in_features=256, out_features=128, bias=True)
    (1): ReLU()
    (2): Dropout(p=0.3, inplace=False)
    (3): Linear(in_features=128, out_features=50, bias=True)
  )
)
[2025-08-01 09:00:53,876] [INFO] Training...
[2025-08-01 09:00:55,896] [INFO] Epoch 1/50, ValAcc: 5.32%, TrainLoss: 3.8745, ValLoss: 3.7771, LR: 0.001
[2025-08-01 09:00:57,934] [INFO] Epoch 2/50, ValAcc: 11.16%, TrainLoss: 3.5917, ValLoss: 3.3802, LR: 0.001
[2025-08-01 09:01:00,116] [INFO] Epoch 3/50, ValAcc: 15.82%, TrainLoss: 3.3200, ValLoss: 3.2195, LR: 0.001
…
=False, device=device(type='cuda'), name='iplen_token_bigru_5000_64_50_0.001_512_256_3_0.3_256_128_100_100_1900'),0.2124,0.2151,0.2423,0.2128
[2025-08-01 09:06:37,751] [INFO] [(0.2124097176625082, 0.21512790405836682, 0.24231838468751074, 0.21275037474546118)]
[2025-08-01 09:06:37,751] [INFO] Training from 2000 to 2100 / 5000
[2025-08-01 09:06:38,677] [INFO] Feature 0 normalized using token
[2025-08-01 09:06:38,678] [INFO] Train shape: (10659, 100), Val shape: (1523, 100), Test shape: (3046, 100)
[2025-08-01 09:06:38,696] [INFO] Classifier: VRScannerModel(
  (input_modules): ModuleList(
    (0): Embedding(1371, 512)
  )
  (rnn_layers): ModuleList(
    (0): GRU(512, 256, num_layers=3, batch_first=True, dropout=0.3, bidirectional=True)
  )
  (attn_nets): ModuleList(
    (0): Sequential(
      (0): Linear(in_features=512, out_features=64, bias=True)
      (1): Tanh()
      (2): Linear(in_features=64, out_features=1, bias=True)
    )
  )
  (projection_layers): ModuleList(
    (0): Linear(in_features=512, out_features=256, bias=True)
  )
  (feature_attn_net): Sequential(
    (0): Linear(in_features=256, out_features=128, bias=True)
    (1): Tanh()
    (2): Linear(in_features=128, out_features=1, bias=True)
  )
  (fc): Sequential(
    (0): Linear(in_features=256, out_features=128, bias=True)
    (1): ReLU()
    (2): Dropout(p=0.3, inplace=False)
    (3): Linear(in_features=128, out_features=50, bias=True)
  )
)
[2025-08-01 09:06:38,696] [INFO] Training...
[2025-08-01 09:06:44,894] [INFO] Epoch 1/50, ValAcc: 2.30%, TrainLoss: 3.8690, ValLoss: 3.8608, LR: 0.001
[2025-08-01 09:06:51,025] [INFO] Epoch 2/50, ValAcc: 7.55%, TrainLoss: 3.7126, ValLoss: 3.5231, LR: 0.001
[2025-08-01 09:06:57,162] [INFO] Epoch 3/50, ValAcc: 11.88%, TrainLoss: 3.4326, ValLoss: 3.3175, LR: 0.001
…
on=False, device=device(type='cuda'), name='iplen_token_bigru_5000_64_50_0.001_512_256_3_0.3_256_128_100_100_2100'),0.2016,0.2044,0.2310,0.2007
[2025-08-01 09:10:47,066] [INFO] [(0.20157583716349312, 0.20437607774464545, 0.2310497652184665, 0.200719375126359)]
[2025-08-01 09:10:47,066] [INFO] Training from 2200 to 2300 / 5000
[2025-08-01 09:10:47,968] [INFO] Feature 0 normalized using token
[2025-08-01 09:10:47,968] [INFO] Train shape: (10659, 100), Val shape: (1523, 100), Test shape: (3046, 100)
[2025-08-01 09:10:47,987] [INFO] Classifier: VRScannerModel(
  (input_modules): ModuleList(
    (0): Embedding(1374, 512)
  )
  (rnn_layers): ModuleList(
    (0): GRU(512, 256, num_layers=3, batch_first=True, dropout=0.3, bidirectional=True)
  )
  (attn_nets): ModuleList(
    (0): Sequential(
      (0): Linear(in_features=512, out_features=64, bias=True)
      (1): Tanh()
      (2): Linear(in_features=64, out_features=1, bias=True)
    )
  )
  (projection_layers): ModuleList(
    (0): Linear(in_features=512, out_features=256, bias=True)
  )
  (feature_attn_net): Sequential(
    (0): Linear(in_features=256, out_features=128, bias=True)
    (1): Tanh()
    (2): Linear(in_features=128, out_features=1, bias=True)
  )
  (fc): Sequential(
    (0): Linear(in_features=256, out_features=128, bias=True)
    (1): ReLU()
    (2): Dropout(p=0.3, inplace=False)
    (3): Linear(in_features=128, out_features=50, bias=True)
  )
)
[2025-08-01 09:10:47,987] [INFO] Training...
[2025-08-01 09:10:54,149] [INFO] Epoch 1/50, ValAcc: 5.58%, TrainLoss: 3.8228, ValLoss: 3.6977, LR: 0.001
[2025-08-01 09:11:00,213] [INFO] Epoch 2/50, ValAcc: 11.42%, TrainLoss: 3.5081, ValLoss: 3.3409, LR: 0.001
[2025-08-01 09:11:06,359] [INFO] Epoch 3/50, ValAcc: 14.05%, TrainLoss: 3.2537, ValLoss: 3.1966, LR: 0.001
…
n=False, device=device(type='cuda'), name='iplen_token_bigru_5000_64_50_0.001_512_256_3_0.3_256_128_100_100_2200'),0.2098,0.2138,0.2398,0.2073
[2025-08-01 09:12:26,599] [INFO] [(0.2097833223900197, 0.21376817885965635, 0.2398354827748414, 0.20732765473434658)]
[2025-08-01 09:12:26,599] [INFO] Training from 2300 to 2400 / 5000
[2025-08-01 09:12:27,498] [INFO] Feature 0 normalized using token
[2025-08-01 09:12:27,498] [INFO] Train shape: (10659, 100), Val shape: (1523, 100), Test shape: (3046, 100)
[2025-08-01 09:12:27,516] [INFO] Classifier: VRScannerModel(
  (input_modules): ModuleList(
    (0): Embedding(1373, 512)
  )
  (rnn_layers): ModuleList(
    (0): GRU(512, 256, num_layers=3, batch_first=True, dropout=0.3, bidirectional=True)
  )
  (attn_nets): ModuleList(
    (0): Sequential(
      (0): Linear(in_features=512, out_features=64, bias=True)
      (1): Tanh()
      (2): Linear(in_features=64, out_features=1, bias=True)
    )
  )
  (projection_layers): ModuleList(
    (0): Linear(in_features=512, out_features=256, bias=True)
  )
  (feature_attn_net): Sequential(
    (0): Linear(in_features=256, out_features=128, bias=True)
    (1): Tanh()
    (2): Linear(in_features=128, out_features=1, bias=True)
  )
  (fc): Sequential(
    (0): Linear(in_features=256, out_features=128, bias=True)
    (1): ReLU()
    (2): Dropout(p=0.3, inplace=False)
    (3): Linear(in_features=128, out_features=50, bias=True)
  )
)
[2025-08-01 09:12:27,516] [INFO] Training...
[2025-08-01 09:12:33,706] [INFO] Epoch 1/50, ValAcc: 3.02%, TrainLoss: 3.8665, ValLoss: 3.7855, LR: 0.001
[2025-08-01 09:12:39,841] [INFO] Epoch 2/50, ValAcc: 9.85%, TrainLoss: 3.6338, ValLoss: 3.4194, LR: 0.001
[2025-08-01 09:12:45,968] [INFO] Epoch 3/50, ValAcc: 13.13%, TrainLoss: 3.3516, ValLoss: 3.1886, LR: 0.001
…
=False, device=device(type='cuda'), name='iplen_token_bigru_5000_64_50_0.001_512_256_3_0.3_256_128_100_100_2400'),0.2144,0.2150,0.2412,0.2127
[2025-08-01 09:16:29,724] [INFO] [(0.2143795141168746, 0.21496304935190738, 0.24120318907897956, 0.21270993660184953)]
[2025-08-01 09:16:29,724] [INFO] Training from 2500 to 2600 / 5000
[2025-08-01 09:16:30,651] [INFO] Feature 0 normalized using token
[2025-08-01 09:16:30,651] [INFO] Train shape: (10659, 100), Val shape: (1523, 100), Test shape: (3046, 100)
[2025-08-01 09:16:30,669] [INFO] Classifier: VRScannerModel(
  (input_modules): ModuleList(
    (0): Embedding(1370, 512)
  )
  (rnn_layers): ModuleList(
    (0): GRU(512, 256, num_layers=3, batch_first=True, dropout=0.3, bidirectional=True)
  )
  (attn_nets): ModuleList(
    (0): Sequential(
      (0): Linear(in_features=512, out_features=64, bias=True)
      (1): Tanh()
      (2): Linear(in_features=64, out_features=1, bias=True)
    )
  )
  (projection_layers): ModuleList(
    (0): Linear(in_features=512, out_features=256, bias=True)
  )
  (feature_attn_net): Sequential(
    (0): Linear(in_features=256, out_features=128, bias=True)
    (1): Tanh()
    (2): Linear(in_features=128, out_features=1, bias=True)
  )
  (fc): Sequential(
    (0): Linear(in_features=256, out_features=128, bias=True)
    (1): ReLU()
    (2): Dropout(p=0.3, inplace=False)
    (3): Linear(in_features=128, out_features=50, bias=True)
  )
)
[2025-08-01 09:16:30,669] [INFO] Training...
[2025-08-01 09:16:36,866] [INFO] Epoch 1/50, ValAcc: 4.92%, TrainLoss: 3.8284, ValLoss: 3.6770, LR: 0.001
[2025-08-01 09:16:42,938] [INFO] Epoch 2/50, ValAcc: 10.18%, TrainLoss: 3.5512, ValLoss: 3.3571, LR: 0.001
[2025-08-01 09:16:49,042] [INFO] Epoch 3/50, ValAcc: 12.74%, TrainLoss: 3.3070, ValLoss: 3.1961, LR: 0.001
…
False, device=device(type='cuda'), name='iplen_token_bigru_5000_64_50_0.001_512_256_3_0.3_256_128_100_100_2700'),0.1796,0.1828,0.2168,0.1787
[2025-08-01 09:22:25,107] [INFO] [(0.17957977675640183, 0.18281075715598946, 0.21677820835841832, 0.17865227594063882)]
[2025-08-01 09:22:25,107] [INFO] Training from 2800 to 2900 / 5000
[2025-08-01 09:22:26,043] [INFO] Feature 0 normalized using token
[2025-08-01 09:22:26,043] [INFO] Train shape: (10659, 100), Val shape: (1523, 100), Test shape: (3046, 100)
[2025-08-01 09:22:26,061] [INFO] Classifier: VRScannerModel(
  (input_modules): ModuleList(
    (0): Embedding(1369, 512)
  )
  (rnn_layers): ModuleList(
    (0): GRU(512, 256, num_layers=3, batch_first=True, dropout=0.3, bidirectional=True)
  )
  (attn_nets): ModuleList(
    (0): Sequential(
      (0): Linear(in_features=512, out_features=64, bias=True)
      (1): Tanh()
      (2): Linear(in_features=64, out_features=1, bias=True)
    )
  )
  (projection_layers): ModuleList(
    (0): Linear(in_features=512, out_features=256, bias=True)
  )
  (feature_attn_net): Sequential(
    (0): Linear(in_features=256, out_features=128, bias=True)
    (1): Tanh()
    (2): Linear(in_features=128, out_features=1, bias=True)
  )
  (fc): Sequential(
    (0): Linear(in_features=256, out_features=128, bias=True)
    (1): ReLU()
    (2): Dropout(p=0.3, inplace=False)
    (3): Linear(in_features=128, out_features=50, bias=True)
  )
)
[2025-08-01 09:22:26,061] [INFO] Training...
[2025-08-01 09:22:32,255] [INFO] Epoch 1/50, ValAcc: 4.53%, TrainLoss: 3.8554, ValLoss: 3.7301, LR: 0.001
[2025-08-01 09:22:38,393] [INFO] Epoch 2/50, ValAcc: 7.55%, TrainLoss: 3.6615, ValLoss: 3.5279, LR: 0.001
[2025-08-01 09:22:44,485] [INFO] Epoch 3/50, ValAcc: 10.64%, TrainLoss: 3.4484, ValLoss: 3.4141, LR: 0.001
…
=False, device=device(type='cuda'), name='iplen_token_bigru_5000_64_50_0.001_512_256_3_0.3_256_128_100_100_2900'),0.1566,0.1597,0.1997,0.1572
[2025-08-01 09:26:09,559] [INFO] [(0.1565988181221274, 0.15965075086840508, 0.19972290464166703, 0.15715262588984816)]
[2025-08-01 09:26:09,559] [INFO] Training from 3000 to 3100 / 5000
[2025-08-01 09:26:10,512] [INFO] Feature 0 normalized using token
[2025-08-01 09:26:10,512] [INFO] Train shape: (10659, 100), Val shape: (1523, 100), Test shape: (3046, 100)
[2025-08-01 09:26:10,531] [INFO] Classifier: VRScannerModel(
  (input_modules): ModuleList(
    (0): Embedding(1360, 512)
  )
  (rnn_layers): ModuleList(
    (0): GRU(512, 256, num_layers=3, batch_first=True, dropout=0.3, bidirectional=True)
  )
  (attn_nets): ModuleList(
    (0): Sequential(
      (0): Linear(in_features=512, out_features=64, bias=True)
      (1): Tanh()
      (2): Linear(in_features=64, out_features=1, bias=True)
    )
  )
  (projection_layers): ModuleList(
    (0): Linear(in_features=512, out_features=256, bias=True)
  )
  (feature_attn_net): Sequential(
    (0): Linear(in_features=256, out_features=128, bias=True)
    (1): Tanh()
    (2): Linear(in_features=128, out_features=1, bias=True)
  )
  (fc): Sequential(
    (0): Linear(in_features=256, out_features=128, bias=True)
    (1): ReLU()
    (2): Dropout(p=0.3, inplace=False)
    (3): Linear(in_features=128, out_features=50, bias=True)
  )
)
[2025-08-01 09:26:10,531] [INFO] Training...
[2025-08-01 09:26:16,700] [INFO] Epoch 1/50, ValAcc: 4.92%, TrainLoss: 3.8410, ValLoss: 3.7561, LR: 0.001
[2025-08-01 09:26:22,723] [INFO] Epoch 2/50, ValAcc: 7.16%, TrainLoss: 3.6923, ValLoss: 3.6434, LR: 0.001
[2025-08-01 09:26:28,859] [INFO] Epoch 3/50, ValAcc: 7.75%, TrainLoss: 3.5714, ValLoss: 3.5527, LR: 0.001
…
n=False, device=device(type='cuda'), name='iplen_token_bigru_5000_64_50_0.001_512_256_3_0.3_256_128_100_100_3000'),0.1399,0.1468,0.2027,0.1410
[2025-08-01 09:28:14,166] [INFO] [(0.13985554826001312, 0.14678561348486036, 0.2026723448377274, 0.1410392560325339)]
[2025-08-01 09:28:14,166] [INFO] Training from 3100 to 3200 / 5000
[2025-08-01 09:28:15,076] [INFO] Feature 0 normalized using token
[2025-08-01 09:28:15,076] [INFO] Train shape: (10659, 100), Val shape: (1523, 100), Test shape: (3046, 100)
[2025-08-01 09:28:15,094] [INFO] Classifier: VRScannerModel(
  (input_modules): ModuleList(
    (0): Embedding(1353, 512)
  )
  (rnn_layers): ModuleList(
    (0): GRU(512, 256, num_layers=3, batch_first=True, dropout=0.3, bidirectional=True)
  )
  (attn_nets): ModuleList(
    (0): Sequential(
      (0): Linear(in_features=512, out_features=64, bias=True)
      (1): Tanh()
      (2): Linear(in_features=64, out_features=1, bias=True)
    )
  )
  (projection_layers): ModuleList(
    (0): Linear(in_features=512, out_features=256, bias=True)
  )
  (feature_attn_net): Sequential(
    (0): Linear(in_features=256, out_features=128, bias=True)
    (1): Tanh()
    (2): Linear(in_features=128, out_features=1, bias=True)
  )
  (fc): Sequential(
    (0): Linear(in_features=256, out_features=128, bias=True)
    (1): ReLU()
    (2): Dropout(p=0.3, inplace=False)
    (3): Linear(in_features=128, out_features=50, bias=True)
  )
)
[2025-08-01 09:28:15,094] [INFO] Training...
[2025-08-01 09:28:21,280] [INFO] Epoch 1/50, ValAcc: 4.53%, TrainLoss: 3.8835, ValLoss: 3.8016, LR: 0.001
[2025-08-01 09:28:27,417] [INFO] Epoch 2/50, ValAcc: 6.30%, TrainLoss: 3.7501, ValLoss: 3.6522, LR: 0.001
[2025-08-01 09:28:33,495] [INFO] Epoch 3/50, ValAcc: 7.42%, TrainLoss: 3.6201, ValLoss: 3.5539, LR: 0.001
…
n=False, device=device(type='cuda'), name='iplen_token_bigru_5000_64_50_0.001_512_256_3_0.3_256_128_100_100_3100'),0.1152,0.1209,0.1688,0.1181
[2025-08-01 09:30:06,515] [INFO] [(0.11523309258043335, 0.12092991221843548, 0.1687597260141775, 0.1181027057852949)]
[2025-08-01 09:30:06,515] [INFO] Training from 3200 to 3300 / 5000
[2025-08-01 09:30:07,380] [INFO] Feature 0 normalized using token
[2025-08-01 09:30:07,380] [INFO] Train shape: (10659, 100), Val shape: (1523, 100), Test shape: (3046, 100)
[2025-08-01 09:30:07,399] [INFO] Classifier: VRScannerModel(
  (input_modules): ModuleList(
    (0): Embedding(1341, 512)
  )
  (rnn_layers): ModuleList(
    (0): GRU(512, 256, num_layers=3, batch_first=True, dropout=0.3, bidirectional=True)
  )
  (attn_nets): ModuleList(
    (0): Sequential(
      (0): Linear(in_features=512, out_features=64, bias=True)
      (1): Tanh()
      (2): Linear(in_features=64, out_features=1, bias=True)
    )
  )
  (projection_layers): ModuleList(
    (0): Linear(in_features=512, out_features=256, bias=True)
  )
  (feature_attn_net): Sequential(
    (0): Linear(in_features=256, out_features=128, bias=True)
    (1): Tanh()
    (2): Linear(in_features=128, out_features=1, bias=True)
  )
  (fc): Sequential(
    (0): Linear(in_features=256, out_features=128, bias=True)
    (1): ReLU()
    (2): Dropout(p=0.3, inplace=False)
    (3): Linear(in_features=128, out_features=50, bias=True)
  )
)
[2025-08-01 09:30:07,399] [INFO] Training...
[2025-08-01 09:30:13,462] [INFO] Epoch 1/50, ValAcc: 3.41%, TrainLoss: 3.8857, ValLoss: 3.8335, LR: 0.001
[2025-08-01 09:30:19,608] [INFO] Epoch 2/50, ValAcc: 4.99%, TrainLoss: 3.7748, ValLoss: 3.7151, LR: 0.001
[2025-08-01 09:30:25,745] [INFO] Epoch 3/50, ValAcc: 7.55%, TrainLoss: 3.6587, ValLoss: 3.5886, LR: 0.001
…
=False, device=device(type='cuda'), name='iplen_token_bigru_5000_64_50_0.001_512_256_3_0.3_256_128_100_100_3200'),0.1202,0.1281,0.1852,0.1239
[2025-08-01 09:32:04,872] [INFO] [(0.12015758371634931, 0.12807065352316369, 0.1852139127855537, 0.12391998534211593)]
[2025-08-01 09:32:04,872] [INFO] Training from 3300 to 3400 / 5000
[2025-08-01 09:32:05,746] [INFO] Feature 0 normalized using token
[2025-08-01 09:32:05,746] [INFO] Train shape: (10659, 100), Val shape: (1523, 100), Test shape: (3046, 100)
[2025-08-01 09:32:05,764] [INFO] Classifier: VRScannerModel(
  (input_modules): ModuleList(
    (0): Embedding(1340, 512)
  )
  (rnn_layers): ModuleList(
    (0): GRU(512, 256, num_layers=3, batch_first=True, dropout=0.3, bidirectional=True)
  )
  (attn_nets): ModuleList(
    (0): Sequential(
      (0): Linear(in_features=512, out_features=64, bias=True)
      (1): Tanh()
      (2): Linear(in_features=64, out_features=1, bias=True)
    )
  )
  (projection_layers): ModuleList(
    (0): Linear(in_features=512, out_features=256, bias=True)
  )
  (feature_attn_net): Sequential(
    (0): Linear(in_features=256, out_features=128, bias=True)
    (1): Tanh()
    (2): Linear(in_features=128, out_features=1, bias=True)
  )
  (fc): Sequential(
    (0): Linear(in_features=256, out_features=128, bias=True)
    (1): ReLU()
    (2): Dropout(p=0.3, inplace=False)
    (3): Linear(in_features=128, out_features=50, bias=True)
  )
)
[2025-08-01 09:32:05,764] [INFO] Training...
[2025-08-01 09:32:11,952] [INFO] Epoch 1/50, ValAcc: 2.82%, TrainLoss: 3.8957, ValLoss: 3.8586, LR: 0.001
[2025-08-01 09:32:18,102] [INFO] Epoch 2/50, ValAcc: 3.74%, TrainLoss: 3.8233, ValLoss: 3.7763, LR: 0.001
[2025-08-01 09:32:24,169] [INFO] Epoch 3/50, ValAcc: 4.79%, TrainLoss: 3.7482, ValLoss: 3.6915, LR: 0.001
…
False, device=device(type='cuda'), name='iplen_token_bigru_5000_64_50_0.001_512_256_3_0.3_256_128_100_100_3300'),0.0978,0.1034,0.1530,0.0997
[2025-08-01 09:34:09,360] [INFO] [(0.09783322390019698, 0.10339282485783124, 0.15303899435445786, 0.09973454344201299)]
[2025-08-01 09:34:09,360] [INFO] Training from 3400 to 3500 / 5000
[2025-08-01 09:34:10,353] [INFO] Feature 0 normalized using token
[2025-08-01 09:34:10,353] [INFO] Train shape: (10659, 100), Val shape: (1523, 100), Test shape: (3046, 100)
[2025-08-01 09:34:10,371] [INFO] Classifier: VRScannerModel(
  (input_modules): ModuleList(
    (0): Embedding(1316, 512)
  )
  (rnn_layers): ModuleList(
    (0): GRU(512, 256, num_layers=3, batch_first=True, dropout=0.3, bidirectional=True)
  )
  (attn_nets): ModuleList(
    (0): Sequential(
      (0): Linear(in_features=512, out_features=64, bias=True)
      (1): Tanh()
      (2): Linear(in_features=64, out_features=1, bias=True)
    )
  )
  (projection_layers): ModuleList(
    (0): Linear(in_features=512, out_features=256, bias=True)
  )
  (feature_attn_net): Sequential(
    (0): Linear(in_features=256, out_features=128, bias=True)
    (1): Tanh()
    (2): Linear(in_features=128, out_features=1, bias=True)
  )
  (fc): Sequential(
    (0): Linear(in_features=256, out_features=128, bias=True)
    (1): ReLU()
    (2): Dropout(p=0.3, inplace=False)
    (3): Linear(in_features=128, out_features=50, bias=True)
  )
)
[2025-08-01 09:34:10,371] [INFO] Training...
[2025-08-01 09:34:16,555] [INFO] Epoch 1/50, ValAcc: 3.55%, TrainLoss: 3.8936, ValLoss: 3.8444, LR: 0.001
[2025-08-01 09:34:22,700] [INFO] Epoch 2/50, ValAcc: 4.20%, TrainLoss: 3.8191, ValLoss: 3.7692, LR: 0.001
[2025-08-01 09:34:28,836] [INFO] Epoch 3/50, ValAcc: 5.32%, TrainLoss: 3.7510, ValLoss: 3.7105, LR: 0.001
…
False, device=device(type='cuda'), name='iplen_token_bigru_5000_64_50_0.001_512_256_3_0.3_256_128_100_100_3400'),0.1008,0.1067,0.1690,0.1022
[2025-08-01 09:35:48,228] [INFO] [(0.10078791858174656, 0.10665740757934807, 0.16902467196606497, 0.10215669433781502)]
[2025-08-01 09:35:48,228] [INFO] Training from 3500 to 3600 / 5000
[2025-08-01 09:35:49,087] [INFO] Feature 0 normalized using token
[2025-08-01 09:35:49,087] [INFO] Train shape: (10659, 100), Val shape: (1523, 100), Test shape: (3046, 100)
[2025-08-01 09:35:49,105] [INFO] Classifier: VRScannerModel(
  (input_modules): ModuleList(
    (0): Embedding(1317, 512)
  )
  (rnn_layers): ModuleList(
    (0): GRU(512, 256, num_layers=3, batch_first=True, dropout=0.3, bidirectional=True)
  )
  (attn_nets): ModuleList(
    (0): Sequential(
      (0): Linear(in_features=512, out_features=64, bias=True)
      (1): Tanh()
      (2): Linear(in_features=64, out_features=1, bias=True)
    )
  )
  (projection_layers): ModuleList(
    (0): Linear(in_features=512, out_features=256, bias=True)
  )
  (feature_attn_net): Sequential(
    (0): Linear(in_features=256, out_features=128, bias=True)
    (1): Tanh()
    (2): Linear(in_features=128, out_features=1, bias=True)
  )
  (fc): Sequential(
    (0): Linear(in_features=256, out_features=128, bias=True)
    (1): ReLU()
    (2): Dropout(p=0.3, inplace=False)
    (3): Linear(in_features=128, out_features=50, bias=True)
  )
)
[2025-08-01 09:35:49,105] [INFO] Training...
[2025-08-01 09:35:55,299] [INFO] Epoch 1/50, ValAcc: 3.15%, TrainLoss: 3.8863, ValLoss: 3.8522, LR: 0.001
[2025-08-01 09:36:01,333] [INFO] Epoch 2/50, ValAcc: 3.94%, TrainLoss: 3.8363, ValLoss: 3.7853, LR: 0.001
[2025-08-01 09:36:07,484] [INFO] Epoch 3/50, ValAcc: 5.45%, TrainLoss: 3.7772, ValLoss: 3.7317, LR: 0.001
…
=False, device=device(type='cuda'), name='iplen_token_bigru_5000_64_50_0.001_512_256_3_0.3_256_128_100_100_3500'),0.0896,0.0906,0.1488,0.0878
[2025-08-01 09:37:52,828] [INFO] [(0.0896257386736704, 0.09058811750148286, 0.14879750498664238, 0.08779384488337699)]
[2025-08-01 09:37:52,828] [INFO] Training from 3600 to 3700 / 5000
[2025-08-01 09:37:53,675] [INFO] Feature 0 normalized using token
[2025-08-01 09:37:53,675] [INFO] Train shape: (10659, 100), Val shape: (1523, 100), Test shape: (3046, 100)
[2025-08-01 09:37:53,693] [INFO] Classifier: VRScannerModel(
  (input_modules): ModuleList(
    (0): Embedding(1278, 512)
  )
  (rnn_layers): ModuleList(
    (0): GRU(512, 256, num_layers=3, batch_first=True, dropout=0.3, bidirectional=True)
  )
  (attn_nets): ModuleList(
    (0): Sequential(
      (0): Linear(in_features=512, out_features=64, bias=True)
      (1): Tanh()
      (2): Linear(in_features=64, out_features=1, bias=True)
    )
  )
  (projection_layers): ModuleList(
    (0): Linear(in_features=512, out_features=256, bias=True)
  )
  (feature_attn_net): Sequential(
    (0): Linear(in_features=256, out_features=128, bias=True)
    (1): Tanh()
    (2): Linear(in_features=128, out_features=1, bias=True)
  )
  (fc): Sequential(
    (0): Linear(in_features=256, out_features=128, bias=True)
    (1): ReLU()
    (2): Dropout(p=0.3, inplace=False)
    (3): Linear(in_features=128, out_features=50, bias=True)
  )
)
[2025-08-01 09:37:53,693] [INFO] Training...
[2025-08-01 09:37:59,894] [INFO] Epoch 1/50, ValAcc: 2.95%, TrainLoss: 3.8937, ValLoss: 3.8611, LR: 0.001
[2025-08-01 09:38:06,051] [INFO] Epoch 2/50, ValAcc: 4.46%, TrainLoss: 3.8465, ValLoss: 3.8036, LR: 0.001
[2025-08-01 09:38:12,138] [INFO] Epoch 3/50, ValAcc: 4.79%, TrainLoss: 3.7866, ValLoss: 3.7550, LR: 0.001
…
False, device=device(type='cuda'), name='iplen_token_bigru_5000_64_50_0.001_512_256_3_0.3_256_128_100_100_3600'),0.0745,0.0750,0.1506,0.0761
[2025-08-01 09:40:09,716] [INFO] [(0.07452396585686145, 0.07501852935464356, 0.15060209874148497, 0.07609003674863934)]
[2025-08-01 09:40:09,716] [INFO] Training from 3700 to 3800 / 5000
[2025-08-01 09:40:10,546] [INFO] Feature 0 normalized using token
[2025-08-01 09:40:10,547] [INFO] Train shape: (10659, 100), Val shape: (1523, 100), Test shape: (3046, 100)
[2025-08-01 09:40:10,565] [INFO] Classifier: VRScannerModel(
  (input_modules): ModuleList(
    (0): Embedding(1268, 512)
  )
  (rnn_layers): ModuleList(
    (0): GRU(512, 256, num_layers=3, batch_first=True, dropout=0.3, bidirectional=True)
  )
  (attn_nets): ModuleList(
    (0): Sequential(
      (0): Linear(in_features=512, out_features=64, bias=True)
      (1): Tanh()
      (2): Linear(in_features=64, out_features=1, bias=True)
    )
  )
  (projection_layers): ModuleList(
    (0): Linear(in_features=512, out_features=256, bias=True)
  )
  (feature_attn_net): Sequential(
    (0): Linear(in_features=256, out_features=128, bias=True)
    (1): Tanh()
    (2): Linear(in_features=128, out_features=1, bias=True)
  )
  (fc): Sequential(
    (0): Linear(in_features=256, out_features=128, bias=True)
    (1): ReLU()
    (2): Dropout(p=0.3, inplace=False)
    (3): Linear(in_features=128, out_features=50, bias=True)
  )
)
[2025-08-01 09:40:10,565] [INFO] Training...
[2025-08-01 09:40:16,752] [INFO] Epoch 1/50, ValAcc: 3.02%, TrainLoss: 3.8880, ValLoss: 3.8271, LR: 0.001
[2025-08-01 09:40:22,899] [INFO] Epoch 2/50, ValAcc: 3.74%, TrainLoss: 3.8271, ValLoss: 3.7979, LR: 0.001
[2025-08-01 09:40:28,919] [INFO] Epoch 3/50, ValAcc: 3.61%, TrainLoss: 3.7888, ValLoss: 3.7804, LR: 0.001
…
n=False, device=device(type='cuda'), name='iplen_token_bigru_5000_64_50_0.001_512_256_3_0.3_256_128_100_100_3700'),0.0689,0.0620,0.1039,0.0659
[2025-08-01 09:42:14,116] [INFO] [(0.06894287590282337, 0.06202263918150306, 0.103851502709453, 0.06591226341033753)]
[2025-08-01 09:42:14,116] [INFO] Training from 3800 to 3900 / 5000
[2025-08-01 09:42:14,928] [INFO] Feature 0 normalized using token
[2025-08-01 09:42:14,929] [INFO] Train shape: (10659, 100), Val shape: (1523, 100), Test shape: (3046, 100)
[2025-08-01 09:42:14,947] [INFO] Classifier: VRScannerModel(
  (input_modules): ModuleList(
    (0): Embedding(1208, 512)
  )
  (rnn_layers): ModuleList(
    (0): GRU(512, 256, num_layers=3, batch_first=True, dropout=0.3, bidirectional=True)
  )
  (attn_nets): ModuleList(
    (0): Sequential(
      (0): Linear(in_features=512, out_features=64, bias=True)
      (1): Tanh()
      (2): Linear(in_features=64, out_features=1, bias=True)
    )
  )
  (projection_layers): ModuleList(
    (0): Linear(in_features=512, out_features=256, bias=True)
  )
  (feature_attn_net): Sequential(
    (0): Linear(in_features=256, out_features=128, bias=True)
    (1): Tanh()
    (2): Linear(in_features=128, out_features=1, bias=True)
  )
  (fc): Sequential(
    (0): Linear(in_features=256, out_features=128, bias=True)
    (1): ReLU()
    (2): Dropout(p=0.3, inplace=False)
    (3): Linear(in_features=128, out_features=50, bias=True)
  )
)
[2025-08-01 09:42:14,947] [INFO] Training...
[2025-08-01 09:42:21,144] [INFO] Epoch 1/50, ValAcc: 2.89%, TrainLoss: 3.8859, ValLoss: 3.8507, LR: 0.001
[2025-08-01 09:42:27,276] [INFO] Epoch 2/50, ValAcc: 4.73%, TrainLoss: 3.8278, ValLoss: 3.7862, LR: 0.001
[2025-08-01 09:42:33,413] [INFO] Epoch 3/50, ValAcc: 4.01%, TrainLoss: 3.7872, ValLoss: 3.7505, LR: 0.001
…
False, device=device(type='cuda'), name='iplen_token_bigru_5000_64_50_0.001_512_256_3_0.3_256_128_100_100_3800'),0.0492,0.0453,0.0770,0.0499
[2025-08-01 09:44:06,390] [INFO] [(0.04924491135915955, 0.045282803142134904, 0.0770228258789083, 0.04993204263071562)]
[2025-08-01 09:44:06,390] [INFO] Training from 3900 to 4000 / 5000
[2025-08-01 09:44:07,174] [INFO] Feature 0 normalized using token
[2025-08-01 09:44:07,174] [INFO] Train shape: (10659, 100), Val shape: (1523, 100), Test shape: (3046, 100)
[2025-08-01 09:44:07,192] [INFO] Classifier: VRScannerModel(
  (input_modules): ModuleList(
    (0): Embedding(1170, 512)
  )
  (rnn_layers): ModuleList(
    (0): GRU(512, 256, num_layers=3, batch_first=True, dropout=0.3, bidirectional=True)
  )
  (attn_nets): ModuleList(
    (0): Sequential(
      (0): Linear(in_features=512, out_features=64, bias=True)
      (1): Tanh()
      (2): Linear(in_features=64, out_features=1, bias=True)
    )
  )
  (projection_layers): ModuleList(
    (0): Linear(in_features=512, out_features=256, bias=True)
  )
  (feature_attn_net): Sequential(
    (0): Linear(in_features=256, out_features=128, bias=True)
    (1): Tanh()
    (2): Linear(in_features=128, out_features=1, bias=True)
  )
  (fc): Sequential(
    (0): Linear(in_features=256, out_features=128, bias=True)
    (1): ReLU()
    (2): Dropout(p=0.3, inplace=False)
    (3): Linear(in_features=128, out_features=50, bias=True)
  )
)
[2025-08-01 09:44:07,192] [INFO] Training...
[2025-08-01 09:44:13,377] [INFO] Epoch 1/50, ValAcc: 3.09%, TrainLoss: 3.8837, ValLoss: 3.8641, LR: 0.001
[2025-08-01 09:44:19,403] [INFO] Epoch 2/50, ValAcc: 4.73%, TrainLoss: 3.8340, ValLoss: 3.8008, LR: 0.001
[2025-08-01 09:44:25,531] [INFO] Epoch 3/50, ValAcc: 4.20%, TrainLoss: 3.7967, ValLoss: 3.7674, LR: 0.001
…
=False, device=device(type='cuda'), name='iplen_token_bigru_5000_64_50_0.001_512_256_3_0.3_256_128_100_100_3900'),0.0637,0.0585,0.1013,0.0648
[2025-08-01 09:46:16,930] [INFO] [(0.06369008535784636, 0.0584687332104433, 0.10132581389934779, 0.06478750755149712)]
[2025-08-01 09:46:16,930] [INFO] Training from 4000 to 4100 / 5000
[2025-08-01 09:46:17,747] [INFO] Feature 0 normalized using token
[2025-08-01 09:46:17,747] [INFO] Train shape: (10659, 100), Val shape: (1523, 100), Test shape: (3046, 100)
[2025-08-01 09:46:17,766] [INFO] Classifier: VRScannerModel(
  (input_modules): ModuleList(
    (0): Embedding(1165, 512)
  )
  (rnn_layers): ModuleList(
    (0): GRU(512, 256, num_layers=3, batch_first=True, dropout=0.3, bidirectional=True)
  )
  (attn_nets): ModuleList(
    (0): Sequential(
      (0): Linear(in_features=512, out_features=64, bias=True)
      (1): Tanh()
      (2): Linear(in_features=64, out_features=1, bias=True)
    )
  )
  (projection_layers): ModuleList(
    (0): Linear(in_features=512, out_features=256, bias=True)
  )
  (feature_attn_net): Sequential(
    (0): Linear(in_features=256, out_features=128, bias=True)
    (1): Tanh()
    (2): Linear(in_features=128, out_features=1, bias=True)
  )
  (fc): Sequential(
    (0): Linear(in_features=256, out_features=128, bias=True)
    (1): ReLU()
    (2): Dropout(p=0.3, inplace=False)
    (3): Linear(in_features=128, out_features=50, bias=True)
  )
)
[2025-08-01 09:46:17,766] [INFO] Training...
[2025-08-01 09:46:23,962] [INFO] Epoch 1/50, ValAcc: 3.68%, TrainLoss: 3.8855, ValLoss: 3.8495, LR: 0.001
[2025-08-01 09:46:29,858] [INFO] Epoch 2/50, ValAcc: 3.74%, TrainLoss: 3.8397, ValLoss: 3.8180, LR: 0.001
[2025-08-01 09:46:34,105] [INFO] Epoch 3/50, ValAcc: 3.41%, TrainLoss: 3.8038, ValLoss: 3.7855, LR: 0.001
…
alse, device=device(type='cuda'), name='iplen_token_bigru_5000_64_50_0.001_512_256_3_0.3_256_128_100_100_4000'),0.0594,0.0520,0.0951,0.0593
[2025-08-01 09:47:55,834] [INFO] [(0.05942219304005253, 0.05200651371489341, 0.09507420683262677, 0.059340092392408554)]
[2025-08-01 09:47:55,834] [INFO] Training from 4100 to 4200 / 5000
[2025-08-01 09:47:56,624] [INFO] Feature 0 normalized using token
[2025-08-01 09:47:56,624] [INFO] Train shape: (10659, 100), Val shape: (1523, 100), Test shape: (3046, 100)
[2025-08-01 09:47:56,642] [INFO] Classifier: VRScannerModel(
  (input_modules): ModuleList(
    (0): Embedding(1128, 512)
  )
  (rnn_layers): ModuleList(
    (0): GRU(512, 256, num_layers=3, batch_first=True, dropout=0.3, bidirectional=True)
  )
  (attn_nets): ModuleList(
    (0): Sequential(
      (0): Linear(in_features=512, out_features=64, bias=True)
      (1): Tanh()
      (2): Linear(in_features=64, out_features=1, bias=True)
    )
  )
  (projection_layers): ModuleList(
    (0): Linear(in_features=512, out_features=256, bias=True)
  )
  (feature_attn_net): Sequential(
    (0): Linear(in_features=256, out_features=128, bias=True)
    (1): Tanh()
    (2): Linear(in_features=128, out_features=1, bias=True)
  )
  (fc): Sequential(
    (0): Linear(in_features=256, out_features=128, bias=True)
    (1): ReLU()
    (2): Dropout(p=0.3, inplace=False)
    (3): Linear(in_features=128, out_features=50, bias=True)
  )
)
[2025-08-01 09:47:56,642] [INFO] Training...
[2025-08-01 09:48:02,823] [INFO] Epoch 1/50, ValAcc: 3.55%, TrainLoss: 3.8832, ValLoss: 3.8362, LR: 0.001
[2025-08-01 09:48:08,956] [INFO] Epoch 2/50, ValAcc: 4.33%, TrainLoss: 3.8234, ValLoss: 3.8015, LR: 0.001
[2025-08-01 09:48:15,087] [INFO] Epoch 3/50, ValAcc: 4.53%, TrainLoss: 3.7833, ValLoss: 3.7794, LR: 0.001
…
alse, device=device(type='cuda'), name='iplen_token_bigru_5000_64_50_0.001_512_256_3_0.3_256_128_100_100_4100'),0.0548,0.0474,0.0906,0.0549
[2025-08-01 09:49:48,139] [INFO] [(0.054826001313197634, 0.04743597760245442, 0.09064051458373734, 0.05489410405565761)]
[2025-08-01 09:49:48,139] [INFO] Training from 4200 to 4300 / 5000
[2025-08-01 09:49:48,919] [INFO] Feature 0 normalized using token
[2025-08-01 09:49:48,919] [INFO] Train shape: (10659, 100), Val shape: (1523, 100), Test shape: (3046, 100)
[2025-08-01 09:49:48,937] [INFO] Classifier: VRScannerModel(
  (input_modules): ModuleList(
    (0): Embedding(1090, 512)
  )
  (rnn_layers): ModuleList(
    (0): GRU(512, 256, num_layers=3, batch_first=True, dropout=0.3, bidirectional=True)
  )
  (attn_nets): ModuleList(
    (0): Sequential(
      (0): Linear(in_features=512, out_features=64, bias=True)
      (1): Tanh()
      (2): Linear(in_features=64, out_features=1, bias=True)
    )
  )
  (projection_layers): ModuleList(
    (0): Linear(in_features=512, out_features=256, bias=True)
  )
  (feature_attn_net): Sequential(
    (0): Linear(in_features=256, out_features=128, bias=True)
    (1): Tanh()
    (2): Linear(in_features=128, out_features=1, bias=True)
  )
  (fc): Sequential(
    (0): Linear(in_features=256, out_features=128, bias=True)
    (1): ReLU()
    (2): Dropout(p=0.3, inplace=False)
    (3): Linear(in_features=128, out_features=50, bias=True)
  )
)
[2025-08-01 09:49:48,937] [INFO] Training...
[2025-08-01 09:49:55,130] [INFO] Epoch 1/50, ValAcc: 3.35%, TrainLoss: 3.8863, ValLoss: 3.8473, LR: 0.001
[2025-08-01 09:50:01,279] [INFO] Epoch 2/50, ValAcc: 3.94%, TrainLoss: 3.8398, ValLoss: 3.8116, LR: 0.001
[2025-08-01 09:50:07,311] [INFO] Epoch 3/50, ValAcc: 3.87%, TrainLoss: 3.7952, ValLoss: 3.7716, LR: 0.001
…
=False, device=device(type='cuda'), name='iplen_token_bigru_5000_64_50_0.001_512_256_3_0.3_256_128_100_100_4200'),0.0617,0.0573,0.1056,0.0623
[2025-08-01 09:51:46,454] [INFO] [(0.061720288903479976, 0.05726356777470782, 0.1056470990989946, 0.0623339950011005)]
[2025-08-01 09:51:46,454] [INFO] Training from 4300 to 4400 / 5000
[2025-08-01 09:51:47,231] [INFO] Feature 0 normalized using token
[2025-08-01 09:51:47,231] [INFO] Train shape: (10659, 100), Val shape: (1523, 100), Test shape: (3046, 100)
[2025-08-01 09:51:47,248] [INFO] Classifier: VRScannerModel(
  (input_modules): ModuleList(
    (0): Embedding(1054, 512)
  )
  (rnn_layers): ModuleList(
    (0): GRU(512, 256, num_layers=3, batch_first=True, dropout=0.3, bidirectional=True)
  )
  (attn_nets): ModuleList(
    (0): Sequential(
      (0): Linear(in_features=512, out_features=64, bias=True)
      (1): Tanh()
      (2): Linear(in_features=64, out_features=1, bias=True)
    )
  )
  (projection_layers): ModuleList(
    (0): Linear(in_features=512, out_features=256, bias=True)
  )
  (feature_attn_net): Sequential(
    (0): Linear(in_features=256, out_features=128, bias=True)
    (1): Tanh()
    (2): Linear(in_features=128, out_features=1, bias=True)
  )
  (fc): Sequential(
    (0): Linear(in_features=256, out_features=128, bias=True)
    (1): ReLU()
    (2): Dropout(p=0.3, inplace=False)
    (3): Linear(in_features=128, out_features=50, bias=True)
  )
)
[2025-08-01 09:51:47,249] [INFO] Training...
[2025-08-01 09:51:53,434] [INFO] Epoch 1/50, ValAcc: 3.15%, TrainLoss: 3.8768, ValLoss: 3.8384, LR: 0.001
[2025-08-01 09:51:59,577] [INFO] Epoch 2/50, ValAcc: 3.41%, TrainLoss: 3.8275, ValLoss: 3.8036, LR: 0.001
[2025-08-01 09:52:05,729] [INFO] Epoch 3/50, ValAcc: 4.14%, TrainLoss: 3.7830, ValLoss: 3.7638, LR: 0.001
…
alse, device=device(type='cuda'), name='iplen_token_bigru_5000_64_50_0.001_512_256_3_0.3_256_128_100_100_4300'),0.0617,0.0585,0.1118,0.0625
[2025-08-01 09:53:44,899] [INFO] [(0.061720288903479976, 0.05848260998008188, 0.11176602448394324, 0.06252004225116657)]
[2025-08-01 09:53:44,899] [INFO] Training from 4400 to 4500 / 5000
[2025-08-01 09:53:45,721] [INFO] Feature 0 normalized using token
[2025-08-01 09:53:45,721] [INFO] Train shape: (10659, 100), Val shape: (1523, 100), Test shape: (3046, 100)
[2025-08-01 09:53:45,739] [INFO] Classifier: VRScannerModel(
  (input_modules): ModuleList(
    (0): Embedding(1040, 512)
  )
  (rnn_layers): ModuleList(
    (0): GRU(512, 256, num_layers=3, batch_first=True, dropout=0.3, bidirectional=True)
  )
  (attn_nets): ModuleList(
    (0): Sequential(
      (0): Linear(in_features=512, out_features=64, bias=True)
      (1): Tanh()
      (2): Linear(in_features=64, out_features=1, bias=True)
    )
  )
  (projection_layers): ModuleList(
    (0): Linear(in_features=512, out_features=256, bias=True)
  )
  (feature_attn_net): Sequential(
    (0): Linear(in_features=256, out_features=128, bias=True)
    (1): Tanh()
    (2): Linear(in_features=128, out_features=1, bias=True)
  )
  (fc): Sequential(
    (0): Linear(in_features=256, out_features=128, bias=True)
    (1): ReLU()
    (2): Dropout(p=0.3, inplace=False)
    (3): Linear(in_features=128, out_features=50, bias=True)
  )
)
[2025-08-01 09:53:45,740] [INFO] Training...
[2025-08-01 09:53:51,922] [INFO] Epoch 1/50, ValAcc: 3.41%, TrainLoss: 3.8766, ValLoss: 3.8274, LR: 0.001
[2025-08-01 09:53:57,938] [INFO] Epoch 2/50, ValAcc: 3.87%, TrainLoss: 3.8260, ValLoss: 3.7902, LR: 0.001
[2025-08-01 09:54:04,088] [INFO] Epoch 3/50, ValAcc: 4.66%, TrainLoss: 3.7794, ValLoss: 3.7666, LR: 0.001
…
False, device=device(type='cuda'), name='iplen_token_bigru_5000_64_50_0.001_512_256_3_0.3_256_128_100_100_4400'),0.0575,0.0504,0.1033,0.0569
[2025-08-01 09:55:49,378] [INFO] [(0.05745239658568615, 0.05039537304334809, 0.10327435204303463, 0.05694336815377771)]
[2025-08-01 09:55:49,378] [INFO] Training from 4500 to 4600 / 5000
[2025-08-01 09:55:50,187] [INFO] Feature 0 normalized using token
[2025-08-01 09:55:50,187] [INFO] Train shape: (10659, 100), Val shape: (1523, 100), Test shape: (3046, 100)
[2025-08-01 09:55:50,205] [INFO] Classifier: VRScannerModel(
  (input_modules): ModuleList(
    (0): Embedding(1006, 512)
  )
  (rnn_layers): ModuleList(
    (0): GRU(512, 256, num_layers=3, batch_first=True, dropout=0.3, bidirectional=True)
  )
  (attn_nets): ModuleList(
    (0): Sequential(
      (0): Linear(in_features=512, out_features=64, bias=True)
      (1): Tanh()
      (2): Linear(in_features=64, out_features=1, bias=True)
    )
  )
  (projection_layers): ModuleList(
    (0): Linear(in_features=512, out_features=256, bias=True)
  )
  (feature_attn_net): Sequential(
    (0): Linear(in_features=256, out_features=128, bias=True)
    (1): Tanh()
    (2): Linear(in_features=128, out_features=1, bias=True)
  )
  (fc): Sequential(
    (0): Linear(in_features=256, out_features=128, bias=True)
    (1): ReLU()
    (2): Dropout(p=0.3, inplace=False)
    (3): Linear(in_features=128, out_features=50, bias=True)
  )
)
[2025-08-01 09:55:50,205] [INFO] Training...
[2025-08-01 09:55:56,389] [INFO] Epoch 1/50, ValAcc: 2.89%, TrainLoss: 3.8769, ValLoss: 3.8444, LR: 0.001
[2025-08-01 09:56:02,528] [INFO] Epoch 2/50, ValAcc: 3.48%, TrainLoss: 3.8256, ValLoss: 3.7944, LR: 0.001
[2025-08-01 09:56:08,548] [INFO] Epoch 3/50, ValAcc: 3.74%, TrainLoss: 3.7863, ValLoss: 3.7902, LR: 0.001
…
lse, device=device(type='cuda'), name='iplen_token_bigru_5000_64_50_0.001_512_256_3_0.3_256_128_100_100_4500'),0.0561,0.0498,0.0843,0.0572
[2025-08-01 09:57:35,515] [INFO] [(0.056139198949441894, 0.04977129002626713, 0.08430609854998494, 0.057154760661728775)]
[2025-08-01 09:57:35,515] [INFO] Training from 4600 to 4700 / 5000
[2025-08-01 09:57:36,295] [INFO] Feature 0 normalized using token
[2025-08-01 09:57:36,295] [INFO] Train shape: (10659, 100), Val shape: (1523, 100), Test shape: (3046, 100)
[2025-08-01 09:57:36,313] [INFO] Classifier: VRScannerModel(
  (input_modules): ModuleList(
    (0): Embedding(988, 512)
  )
  (rnn_layers): ModuleList(
    (0): GRU(512, 256, num_layers=3, batch_first=True, dropout=0.3, bidirectional=True)
  )
  (attn_nets): ModuleList(
    (0): Sequential(
      (0): Linear(in_features=512, out_features=64, bias=True)
      (1): Tanh()
      (2): Linear(in_features=64, out_features=1, bias=True)
    )
  )
  (projection_layers): ModuleList(
    (0): Linear(in_features=512, out_features=256, bias=True)
  )
  (feature_attn_net): Sequential(
    (0): Linear(in_features=256, out_features=128, bias=True)
    (1): Tanh()
    (2): Linear(in_features=128, out_features=1, bias=True)
  )
  (fc): Sequential(
    (0): Linear(in_features=256, out_features=128, bias=True)
    (1): ReLU()
    (2): Dropout(p=0.3, inplace=False)
    (3): Linear(in_features=128, out_features=50, bias=True)
  )
)
[2025-08-01 09:57:36,313] [INFO] Training...
[2025-08-01 09:57:42,499] [INFO] Epoch 1/50, ValAcc: 3.15%, TrainLoss: 3.8625, ValLoss: 3.8289, LR: 0.001
[2025-08-01 09:57:48,370] [INFO] Epoch 2/50, ValAcc: 4.53%, TrainLoss: 3.8085, ValLoss: 3.7850, LR: 0.001
[2025-08-01 09:57:52,355] [INFO] Epoch 3/50, ValAcc: 3.68%, TrainLoss: 3.7785, ValLoss: 3.7624, LR: 0.001
…
alse, device=device(type='cuda'), name='iplen_token_bigru_5000_64_50_0.001_512_256_3_0.3_256_128_100_100_4600'),0.0571,0.0521,0.0997,0.0575
[2025-08-01 09:59:26,975] [INFO] [(0.05712409717662508, 0.05205086988611097, 0.09972754634469559, 0.057467829797697274)]
[2025-08-01 09:59:26,975] [INFO] Training from 4700 to 4800 / 5000
[2025-08-01 09:59:27,762] [INFO] Feature 0 normalized using token
[2025-08-01 09:59:27,762] [INFO] Train shape: (10659, 100), Val shape: (1523, 100), Test shape: (3046, 100)
[2025-08-01 09:59:27,780] [INFO] Classifier: VRScannerModel(
  (input_modules): ModuleList(
    (0): Embedding(948, 512)
  )
  (rnn_layers): ModuleList(
    (0): GRU(512, 256, num_layers=3, batch_first=True, dropout=0.3, bidirectional=True)
  )
  (attn_nets): ModuleList(
    (0): Sequential(
      (0): Linear(in_features=512, out_features=64, bias=True)
      (1): Tanh()
      (2): Linear(in_features=64, out_features=1, bias=True)
    )
  )
  (projection_layers): ModuleList(
    (0): Linear(in_features=512, out_features=256, bias=True)
  )
  (feature_attn_net): Sequential(
    (0): Linear(in_features=256, out_features=128, bias=True)
    (1): Tanh()
    (2): Linear(in_features=128, out_features=1, bias=True)
  )
  (fc): Sequential(
    (0): Linear(in_features=256, out_features=128, bias=True)
    (1): ReLU()
    (2): Dropout(p=0.3, inplace=False)
    (3): Linear(in_features=128, out_features=50, bias=True)
  )
)
[2025-08-01 09:59:27,780] [INFO] Training...
[2025-08-01 09:59:33,983] [INFO] Epoch 1/50, ValAcc: 3.41%, TrainLoss: 3.8700, ValLoss: 3.8233, LR: 0.001
[2025-08-01 09:59:40,135] [INFO] Epoch 2/50, ValAcc: 3.87%, TrainLoss: 3.8203, ValLoss: 3.7955, LR: 0.001
[2025-08-01 09:59:46,146] [INFO] Epoch 3/50, ValAcc: 4.20%, TrainLoss: 3.7778, ValLoss: 3.7581, LR: 0.001
…
False, device=device(type='cuda'), name='iplen_token_bigru_5000_64_50_0.001_512_256_3_0.3_256_128_100_100_4700'),0.0522,0.0445,0.1011,0.0520
[2025-08-01 10:01:19,338] [INFO] [(0.052199606040709126, 0.0445162700026181, 0.10108055121562833, 0.05195264264222312)]
[2025-08-01 10:01:19,338] [INFO] Training from 4800 to 4900 / 5000
[2025-08-01 10:01:20,110] [INFO] Feature 0 normalized using token
[2025-08-01 10:01:20,110] [INFO] Train shape: (10659, 100), Val shape: (1523, 100), Test shape: (3046, 100)
[2025-08-01 10:01:20,128] [INFO] Classifier: VRScannerModel(
  (input_modules): ModuleList(
    (0): Embedding(954, 512)
  )
  (rnn_layers): ModuleList(
    (0): GRU(512, 256, num_layers=3, batch_first=True, dropout=0.3, bidirectional=True)
  )
  (attn_nets): ModuleList(
    (0): Sequential(
      (0): Linear(in_features=512, out_features=64, bias=True)
      (1): Tanh()
      (2): Linear(in_features=64, out_features=1, bias=True)
    )
  )
  (projection_layers): ModuleList(
    (0): Linear(in_features=512, out_features=256, bias=True)
  )
  (feature_attn_net): Sequential(
    (0): Linear(in_features=256, out_features=128, bias=True)
    (1): Tanh()
    (2): Linear(in_features=128, out_features=1, bias=True)
  )
  (fc): Sequential(
    (0): Linear(in_features=256, out_features=128, bias=True)
    (1): ReLU()
    (2): Dropout(p=0.3, inplace=False)
    (3): Linear(in_features=128, out_features=50, bias=True)
  )
)
[2025-08-01 10:01:20,128] [INFO] Training...
[2025-08-01 10:01:26,201] [INFO] Epoch 1/50, ValAcc: 3.55%, TrainLoss: 3.8724, ValLoss: 3.8212, LR: 0.001
[2025-08-01 10:01:32,344] [INFO] Epoch 2/50, ValAcc: 4.33%, TrainLoss: 3.8126, ValLoss: 3.8007, LR: 0.001
[2025-08-01 10:01:38,495] [INFO] Epoch 3/50, ValAcc: 3.87%, TrainLoss: 3.7742, ValLoss: 3.7757, LR: 0.001
…
se, device=device(type='cuda'), name='iplen_token_bigru_5000_64_50_0.001_512_256_3_0.3_256_128_100_100_4800'),0.0581,0.0513,0.0912,0.0589
[2025-08-01 10:03:29,959] [INFO] [(0.058108995403808275, 0.051307969332429454, 0.09122377770888851, 0.058857516933267656)]
[2025-08-01 10:03:29,959] [INFO] Training from 4900 to 5000 / 5000
[2025-08-01 10:03:30,735] [INFO] Feature 0 normalized using token
[2025-08-01 10:03:30,735] [INFO] Train shape: (10659, 100), Val shape: (1523, 100), Test shape: (3046, 100)
[2025-08-01 10:03:30,752] [INFO] Classifier: VRScannerModel(
  (input_modules): ModuleList(
    (0): Embedding(937, 512)
  )
  (rnn_layers): ModuleList(
    (0): GRU(512, 256, num_layers=3, batch_first=True, dropout=0.3, bidirectional=True)
  )
  (attn_nets): ModuleList(
    (0): Sequential(
      (0): Linear(in_features=512, out_features=64, bias=True)
      (1): Tanh()
      (2): Linear(in_features=64, out_features=1, bias=True)
    )
  )
  (projection_layers): ModuleList(
    (0): Linear(in_features=512, out_features=256, bias=True)
  )
  (feature_attn_net): Sequential(
    (0): Linear(in_features=256, out_features=128, bias=True)
    (1): Tanh()
    (2): Linear(in_features=128, out_features=1, bias=True)
  )
  (fc): Sequential(
    (0): Linear(in_features=256, out_features=128, bias=True)
    (1): ReLU()
    (2): Dropout(p=0.3, inplace=False)
    (3): Linear(in_features=128, out_features=50, bias=True)
  )
)
[2025-08-01 10:03:30,752] [INFO] Training...
[2025-08-01 10:03:36,802] [INFO] Epoch 1/50, ValAcc: 2.76%, TrainLoss: 3.8716, ValLoss: 3.8411, LR: 0.001
[2025-08-01 10:03:42,950] [INFO] Epoch 2/50, ValAcc: 4.27%, TrainLoss: 3.8154, ValLoss: 3.8161, LR: 0.001
[2025-08-01 10:03:49,101] [INFO] Epoch 3/50, ValAcc: 4.46%, TrainLoss: 3.7874, ValLoss: 3.7885, LR: 0.001
…
