…
[2025-08-01 13:21:59,363] [INFO] [['1281' '1281' '580' ... <NA> <NA> <NA>]
 ['65535' '65535' '256' ... <NA> <NA> <NA>]
 ['2038' '2038' '2038' ... <NA> <NA> <NA>]
 ...
 ['265' '774' '774' ... <NA> <NA> <NA>]
 ['265' '265' '332' ... <NA> <NA> <NA>]
 ['343' '761' '300' ... <NA> <NA> <NA>]]
[2025-08-01 13:21:59,654] [INFO] Training from 0 to 1000 / 5000
[2025-08-01 13:22:17,996] [INFO] Feature 0 normalized using token
[2025-08-01 13:22:17,996] [INFO] Train shape: (10659, 1000), Val shape: (1523, 1000), Test shape: (3046, 1000)
[2025-08-01 13:22:18,061] [INFO] Classifier: VRScannerModel(
  (input_modules): ModuleList(
    (0): Embedding(5137, 512)
  )
  (rnn_layers): ModuleList(
    (0): GRU(512, 256, num_layers=3, batch_first=True, dropout=0.3, bidirectional=True)
  )
  (attn_nets): ModuleList(
    (0): Sequential(
      (0): Linear(in_features=512, out_features=64, bias=True)
      (1): Tanh()
      (2): Linear(in_features=64, out_features=1, bias=True)
    )
  )
  (projection_layers): ModuleList(
    (0): Linear(in_features=512, out_features=256, bias=True)
  )
  (feature_attn_net): Sequential(
    (0): Linear(in_features=256, out_features=128, bias=True)
    (1): Tanh()
    (2): Linear(in_features=128, out_features=1, bias=True)
  )
  (fc): Sequential(
    (0): Linear(in_features=256, out_features=128, bias=True)
    (1): ReLU()
    (2): Dropout(p=0.3, inplace=False)
    (3): Linear(in_features=128, out_features=50, bias=True)
  )
)
[2025-08-01 13:22:18,062] [INFO] Training...
[2025-08-01 13:22:36,442] [INFO] Epoch 1/50, ValAcc: 51.87%, TrainLoss: 2.9333, ValLoss: 1.8442, LR: 0.001
[2025-08-01 13:22:53,297] [INFO] Epoch 2/50, ValAcc: 71.77%, TrainLoss: 1.4638, ValLoss: 1.0867, LR: 0.001
[2025-08-01 13:23:10,133] [INFO] Epoch 3/50, ValAcc: 75.84%, TrainLoss: 0.8753, ValLoss: 0.8801, LR: 0.001
…
False, device=device(type='cuda'), name='tcpwindow_token_bigru_5000_64_50_0.001_512_256_3_0.3_256_128_1000_100_0'),0.8677,0.8661,0.8677,0.8670
[2025-08-01 13:27:24,188] [INFO] [(0.8676953381483913, 0.8660864410505598, 0.8676869640464687, 0.8669677792526025)]
[2025-08-01 13:27:24,188] [INFO] Training from 100 to 1100 / 5000
[2025-08-01 13:27:42,103] [INFO] Feature 0 normalized using token
[2025-08-01 13:27:42,103] [INFO] Train shape: (10659, 1000), Val shape: (1523, 1000), Test shape: (3046, 1000)
[2025-08-01 13:27:42,133] [INFO] Classifier: VRScannerModel(
  (input_modules): ModuleList(
    (0): Embedding(5158, 512)
  )
  (rnn_layers): ModuleList(
    (0): GRU(512, 256, num_layers=3, batch_first=True, dropout=0.3, bidirectional=True)
  )
  (attn_nets): ModuleList(
    (0): Sequential(
      (0): Linear(in_features=512, out_features=64, bias=True)
      (1): Tanh()
      (2): Linear(in_features=64, out_features=1, bias=True)
    )
  )
  (projection_layers): ModuleList(
    (0): Linear(in_features=512, out_features=256, bias=True)
  )
  (feature_attn_net): Sequential(
    (0): Linear(in_features=256, out_features=128, bias=True)
    (1): Tanh()
    (2): Linear(in_features=128, out_features=1, bias=True)
  )
  (fc): Sequential(
    (0): Linear(in_features=256, out_features=128, bias=True)
    (1): ReLU()
    (2): Dropout(p=0.3, inplace=False)
    (3): Linear(in_features=128, out_features=50, bias=True)
  )
)
[2025-08-01 13:27:42,133] [INFO] Training...
[2025-08-01 13:27:58,897] [INFO] Epoch 1/50, ValAcc: 52.66%, TrainLoss: 2.9473, ValLoss: 1.7804, LR: 0.001
[2025-08-01 13:28:15,638] [INFO] Epoch 2/50, ValAcc: 71.37%, TrainLoss: 1.4698, ValLoss: 1.0090, LR: 0.001
[2025-08-01 13:28:32,399] [INFO] Epoch 3/50, ValAcc: 77.35%, TrainLoss: 0.8944, ValLoss: 0.8144, LR: 0.001
…
False, device=device(type='cuda'), name='tcpwindow_token_bigru_5000_64_50_0.001_512_256_3_0.3_256_128_1000_100_100'),0.8720,0.8702,0.8724,0.8708
[2025-08-01 13:32:29,440] [INFO] [(0.8719632304661852, 0.870153921645736, 0.8723686263770005, 0.870839704963999)]
[2025-08-01 13:32:29,440] [INFO] Training from 200 to 1200 / 5000
[2025-08-01 13:32:47,285] [INFO] Feature 0 normalized using token
[2025-08-01 13:32:47,286] [INFO] Train shape: (10659, 1000), Val shape: (1523, 1000), Test shape: (3046, 1000)
[2025-08-01 13:32:47,318] [INFO] Classifier: VRScannerModel(
  (input_modules): ModuleList(
    (0): Embedding(5186, 512)
  )
  (rnn_layers): ModuleList(
    (0): GRU(512, 256, num_layers=3, batch_first=True, dropout=0.3, bidirectional=True)
  )
  (attn_nets): ModuleList(
    (0): Sequential(
      (0): Linear(in_features=512, out_features=64, bias=True)
      (1): Tanh()
      (2): Linear(in_features=64, out_features=1, bias=True)
    )
  )
  (projection_layers): ModuleList(
    (0): Linear(in_features=512, out_features=256, bias=True)
  )
  (feature_attn_net): Sequential(
    (0): Linear(in_features=256, out_features=128, bias=True)
    (1): Tanh()
    (2): Linear(in_features=128, out_features=1, bias=True)
  )
  (fc): Sequential(
    (0): Linear(in_features=256, out_features=128, bias=True)
    (1): ReLU()
    (2): Dropout(p=0.3, inplace=False)
    (3): Linear(in_features=128, out_features=50, bias=True)
  )
)
[2025-08-01 13:32:47,318] [INFO] Training...
[2025-08-01 13:33:04,090] [INFO] Epoch 1/50, ValAcc: 51.28%, TrainLoss: 2.8758, ValLoss: 1.7996, LR: 0.001
[2025-08-01 13:33:20,841] [INFO] Epoch 2/50, ValAcc: 70.26%, TrainLoss: 1.4656, ValLoss: 1.0874, LR: 0.001
[2025-08-01 13:33:37,633] [INFO] Epoch 3/50, ValAcc: 74.85%, TrainLoss: 0.8870, ValLoss: 0.9098, LR: 0.001
…
lse, device=device(type='cuda'), name='tcpwindow_token_bigru_5000_64_50_0.001_512_256_3_0.3_256_128_1000_100_200'),0.8769,0.8741,0.8759,0.8747
[2025-08-01 13:38:25,529] [INFO] [(0.8768877216021012, 0.8741148061795506, 0.8759027313722291, 0.8747495648845846)]
[2025-08-01 13:38:25,529] [INFO] Training from 300 to 1300 / 5000
[2025-08-01 13:38:43,515] [INFO] Feature 0 normalized using token
[2025-08-01 13:38:43,515] [INFO] Train shape: (10659, 1000), Val shape: (1523, 1000), Test shape: (3046, 1000)
[2025-08-01 13:38:43,544] [INFO] Classifier: VRScannerModel(
  (input_modules): ModuleList(
    (0): Embedding(5225, 512)
  )
  (rnn_layers): ModuleList(
    (0): GRU(512, 256, num_layers=3, batch_first=True, dropout=0.3, bidirectional=True)
  )
  (attn_nets): ModuleList(
    (0): Sequential(
      (0): Linear(in_features=512, out_features=64, bias=True)
      (1): Tanh()
      (2): Linear(in_features=64, out_features=1, bias=True)
    )
  )
  (projection_layers): ModuleList(
    (0): Linear(in_features=512, out_features=256, bias=True)
  )
  (feature_attn_net): Sequential(
    (0): Linear(in_features=256, out_features=128, bias=True)
    (1): Tanh()
    (2): Linear(in_features=128, out_features=1, bias=True)
  )
  (fc): Sequential(
    (0): Linear(in_features=256, out_features=128, bias=True)
    (1): ReLU()
    (2): Dropout(p=0.3, inplace=False)
    (3): Linear(in_features=128, out_features=50, bias=True)
  )
)
[2025-08-01 13:38:43,544] [INFO] Training...
[2025-08-01 13:39:00,532] [INFO] Epoch 1/50, ValAcc: 52.27%, TrainLoss: 2.8850, ValLoss: 1.8242, LR: 0.001
[2025-08-01 13:39:17,323] [INFO] Epoch 2/50, ValAcc: 71.18%, TrainLoss: 1.4489, ValLoss: 1.0402, LR: 0.001
[2025-08-01 13:39:34,108] [INFO] Epoch 3/50, ValAcc: 75.84%, TrainLoss: 0.8623, ValLoss: 0.8968, LR: 0.001
…
alse, device=device(type='cuda'), name='tcpwindow_token_bigru_5000_64_50_0.001_512_256_3_0.3_256_128_1000_100_300'),0.8713,0.8687,0.8712,0.8700
[2025-08-01 13:43:31,708] [INFO] [(0.871306631648063, 0.8686956056563427, 0.8712316012417969, 0.8700214791042352)]
[2025-08-01 13:43:31,709] [INFO] Training from 400 to 1400 / 5000
[2025-08-01 13:43:49,611] [INFO] Feature 0 normalized using token
[2025-08-01 13:43:49,612] [INFO] Train shape: (10659, 1000), Val shape: (1523, 1000), Test shape: (3046, 1000)
[2025-08-01 13:43:49,640] [INFO] Classifier: VRScannerModel(
  (input_modules): ModuleList(
    (0): Embedding(5228, 512)
  )
  (rnn_layers): ModuleList(
    (0): GRU(512, 256, num_layers=3, batch_first=True, dropout=0.3, bidirectional=True)
  )
  (attn_nets): ModuleList(
    (0): Sequential(
      (0): Linear(in_features=512, out_features=64, bias=True)
      (1): Tanh()
      (2): Linear(in_features=64, out_features=1, bias=True)
    )
  )
  (projection_layers): ModuleList(
    (0): Linear(in_features=512, out_features=256, bias=True)
  )
  (feature_attn_net): Sequential(
    (0): Linear(in_features=256, out_features=128, bias=True)
    (1): Tanh()
    (2): Linear(in_features=128, out_features=1, bias=True)
  )
  (fc): Sequential(
    (0): Linear(in_features=256, out_features=128, bias=True)
    (1): ReLU()
    (2): Dropout(p=0.3, inplace=False)
    (3): Linear(in_features=128, out_features=50, bias=True)
  )
)
[2025-08-01 13:43:49,640] [INFO] Training...
[2025-08-01 13:44:06,436] [INFO] Epoch 1/50, ValAcc: 51.08%, TrainLoss: 2.8834, ValLoss: 1.7869, LR: 0.001
[2025-08-01 13:44:23,245] [INFO] Epoch 2/50, ValAcc: 70.52%, TrainLoss: 1.4987, ValLoss: 1.0879, LR: 0.001
[2025-08-01 13:44:40,049] [INFO] Epoch 3/50, ValAcc: 75.90%, TrainLoss: 0.8836, ValLoss: 0.8355, LR: 0.001
…
alse, device=device(type='cuda'), name='tcpwindow_token_bigru_5000_64_50_0.001_512_256_3_0.3_256_128_1000_100_400'),0.8772,0.8750,0.8773,0.8759
[2025-08-01 13:48:54,423] [INFO] [(0.8772160210111621, 0.8749890274697651, 0.877304284975984, 0.8759094588245915)]
[2025-08-01 13:48:54,423] [INFO] Training from 500 to 1500 / 5000
[2025-08-01 13:49:12,366] [INFO] Feature 0 normalized using token
[2025-08-01 13:49:12,366] [INFO] Train shape: (10659, 1000), Val shape: (1523, 1000), Test shape: (3046, 1000)
[2025-08-01 13:49:12,396] [INFO] Classifier: VRScannerModel(
  (input_modules): ModuleList(
    (0): Embedding(5239, 512)
  )
  (rnn_layers): ModuleList(
    (0): GRU(512, 256, num_layers=3, batch_first=True, dropout=0.3, bidirectional=True)
  )
  (attn_nets): ModuleList(
    (0): Sequential(
      (0): Linear(in_features=512, out_features=64, bias=True)
      (1): Tanh()
      (2): Linear(in_features=64, out_features=1, bias=True)
    )
  )
  (projection_layers): ModuleList(
    (0): Linear(in_features=512, out_features=256, bias=True)
  )
  (feature_attn_net): Sequential(
    (0): Linear(in_features=256, out_features=128, bias=True)
    (1): Tanh()
    (2): Linear(in_features=128, out_features=1, bias=True)
  )
  (fc): Sequential(
    (0): Linear(in_features=256, out_features=128, bias=True)
    (1): ReLU()
    (2): Dropout(p=0.3, inplace=False)
    (3): Linear(in_features=128, out_features=50, bias=True)
  )
)
[2025-08-01 13:49:12,397] [INFO] Training...
[2025-08-01 13:49:29,221] [INFO] Epoch 1/50, ValAcc: 49.51%, TrainLoss: 2.9404, ValLoss: 1.9128, LR: 0.001
[2025-08-01 13:49:46,004] [INFO] Epoch 2/50, ValAcc: 67.04%, TrainLoss: 1.5805, ValLoss: 1.2028, LR: 0.001
[2025-08-01 13:50:02,791] [INFO] Epoch 3/50, ValAcc: 77.28%, TrainLoss: 0.9197, ValLoss: 0.8700, LR: 0.001
…
lse, device=device(type='cuda'), name='tcpwindow_token_bigru_5000_64_50_0.001_512_256_3_0.3_256_128_1000_100_500'),0.8802,0.8778,0.8791,0.8789
[2025-08-01 13:54:16,543] [INFO] [(0.8801707156927118, 0.8777540464203318, 0.8790581183473587, 0.8788808041960208)]
[2025-08-01 13:54:16,543] [INFO] Training from 600 to 1600 / 5000
[2025-08-01 13:54:34,269] [INFO] Feature 0 normalized using token
[2025-08-01 13:54:34,269] [INFO] Train shape: (10659, 1000), Val shape: (1523, 1000), Test shape: (3046, 1000)
[2025-08-01 13:54:34,297] [INFO] Classifier: VRScannerModel(
  (input_modules): ModuleList(
    (0): Embedding(5232, 512)
  )
  (rnn_layers): ModuleList(
    (0): GRU(512, 256, num_layers=3, batch_first=True, dropout=0.3, bidirectional=True)
  )
  (attn_nets): ModuleList(
    (0): Sequential(
      (0): Linear(in_features=512, out_features=64, bias=True)
      (1): Tanh()
      (2): Linear(in_features=64, out_features=1, bias=True)
    )
  )
  (projection_layers): ModuleList(
    (0): Linear(in_features=512, out_features=256, bias=True)
  )
  (feature_attn_net): Sequential(
    (0): Linear(in_features=256, out_features=128, bias=True)
    (1): Tanh()
    (2): Linear(in_features=128, out_features=1, bias=True)
  )
  (fc): Sequential(
    (0): Linear(in_features=256, out_features=128, bias=True)
    (1): ReLU()
    (2): Dropout(p=0.3, inplace=False)
    (3): Linear(in_features=128, out_features=50, bias=True)
  )
)
[2025-08-01 13:54:34,297] [INFO] Training...
[2025-08-01 13:54:50,849] [INFO] Epoch 1/50, ValAcc: 50.62%, TrainLoss: 2.9083, ValLoss: 1.7898, LR: 0.001
[2025-08-01 13:55:07,386] [INFO] Epoch 2/50, ValAcc: 68.88%, TrainLoss: 1.4696, ValLoss: 1.1170, LR: 0.001
[2025-08-01 13:55:23,950] [INFO] Epoch 3/50, ValAcc: 75.31%, TrainLoss: 0.8741, ValLoss: 0.9055, LR: 0.001
…
alse, device=device(type='cuda'), name='tcpwindow_token_bigru_5000_64_50_0.001_512_256_3_0.3_256_128_1000_100_600'),0.8772,0.8746,0.8768,0.8752
[2025-08-01 13:59:18,106] [INFO] [(0.8772160210111621, 0.874634814197128, 0.8768180432737247, 0.8752470106488833)]
[2025-08-01 13:59:18,106] [INFO] Training from 700 to 1700 / 5000
[2025-08-01 13:59:35,722] [INFO] Feature 0 normalized using token
[2025-08-01 13:59:35,723] [INFO] Train shape: (10659, 1000), Val shape: (1523, 1000), Test shape: (3046, 1000)
[2025-08-01 13:59:35,753] [INFO] Classifier: VRScannerModel(
  (input_modules): ModuleList(
    (0): Embedding(5222, 512)
  )
  (rnn_layers): ModuleList(
    (0): GRU(512, 256, num_layers=3, batch_first=True, dropout=0.3, bidirectional=True)
  )
  (attn_nets): ModuleList(
    (0): Sequential(
      (0): Linear(in_features=512, out_features=64, bias=True)
      (1): Tanh()
      (2): Linear(in_features=64, out_features=1, bias=True)
    )
  )
  (projection_layers): ModuleList(
    (0): Linear(in_features=512, out_features=256, bias=True)
  )
  (feature_attn_net): Sequential(
    (0): Linear(in_features=256, out_features=128, bias=True)
    (1): Tanh()
    (2): Linear(in_features=128, out_features=1, bias=True)
  )
  (fc): Sequential(
    (0): Linear(in_features=256, out_features=128, bias=True)
    (1): ReLU()
    (2): Dropout(p=0.3, inplace=False)
    (3): Linear(in_features=128, out_features=50, bias=True)
  )
)
[2025-08-01 13:59:35,753] [INFO] Training...
[2025-08-01 13:59:52,325] [INFO] Epoch 1/50, ValAcc: 55.42%, TrainLoss: 2.9011, ValLoss: 1.7203, LR: 0.001
[2025-08-01 14:00:08,865] [INFO] Epoch 2/50, ValAcc: 70.98%, TrainLoss: 1.4129, ValLoss: 1.0698, LR: 0.001
[2025-08-01 14:00:25,418] [INFO] Epoch 3/50, ValAcc: 78.07%, TrainLoss: 0.8496, ValLoss: 0.8620, LR: 0.001
…
lse, device=device(type='cuda'), name='tcpwindow_token_bigru_5000_64_50_0.001_512_256_3_0.3_256_128_1000_100_700'),0.8749,0.8730,0.8748,0.8737
[2025-08-01 14:04:36,090] [INFO] [(0.8749179251477347, 0.8730461717349001, 0.8748142116504414, 0.8736674072684791)]
[2025-08-01 14:04:36,090] [INFO] Training from 800 to 1800 / 5000
[2025-08-01 14:04:54,076] [INFO] Feature 0 normalized using token
[2025-08-01 14:04:54,076] [INFO] Train shape: (10659, 1000), Val shape: (1523, 1000), Test shape: (3046, 1000)
[2025-08-01 14:04:54,104] [INFO] Classifier: VRScannerModel(
  (input_modules): ModuleList(
    (0): Embedding(5204, 512)
  )
  (rnn_layers): ModuleList(
    (0): GRU(512, 256, num_layers=3, batch_first=True, dropout=0.3, bidirectional=True)
  )
  (attn_nets): ModuleList(
    (0): Sequential(
      (0): Linear(in_features=512, out_features=64, bias=True)
      (1): Tanh()
      (2): Linear(in_features=64, out_features=1, bias=True)
    )
  )
  (projection_layers): ModuleList(
    (0): Linear(in_features=512, out_features=256, bias=True)
  )
  (feature_attn_net): Sequential(
    (0): Linear(in_features=256, out_features=128, bias=True)
    (1): Tanh()
    (2): Linear(in_features=128, out_features=1, bias=True)
  )
  (fc): Sequential(
    (0): Linear(in_features=256, out_features=128, bias=True)
    (1): ReLU()
    (2): Dropout(p=0.3, inplace=False)
    (3): Linear(in_features=128, out_features=50, bias=True)
  )
)
[2025-08-01 14:04:54,104] [INFO] Training...
[2025-08-01 14:05:10,648] [INFO] Epoch 1/50, ValAcc: 48.52%, TrainLoss: 2.8859, ValLoss: 1.9007, LR: 0.001
[2025-08-01 14:05:27,182] [INFO] Epoch 2/50, ValAcc: 67.83%, TrainLoss: 1.5415, ValLoss: 1.1387, LR: 0.001
[2025-08-01 14:05:43,726] [INFO] Epoch 3/50, ValAcc: 76.36%, TrainLoss: 0.9213, ValLoss: 0.8694, LR: 0.001
…
alse, device=device(type='cuda'), name='tcpwindow_token_bigru_5000_64_50_0.001_512_256_3_0.3_256_128_1000_100_900'),0.8661,0.8636,0.8649,0.8647
[2025-08-01 14:15:14,065] [INFO] [(0.866053841103086, 0.8636093303787622, 0.864872618414754, 0.8646995173818866)]
[2025-08-01 14:15:14,065] [INFO] Training from 1000 to 2000 / 5000
[2025-08-01 14:15:32,019] [INFO] Feature 0 normalized using token
[2025-08-01 14:15:32,019] [INFO] Train shape: (10659, 1000), Val shape: (1523, 1000), Test shape: (3046, 1000)
[2025-08-01 14:15:32,047] [INFO] Classifier: VRScannerModel(
  (input_modules): ModuleList(
    (0): Embedding(5238, 512)
  )
  (rnn_layers): ModuleList(
    (0): GRU(512, 256, num_layers=3, batch_first=True, dropout=0.3, bidirectional=True)
  )
  (attn_nets): ModuleList(
    (0): Sequential(
      (0): Linear(in_features=512, out_features=64, bias=True)
      (1): Tanh()
      (2): Linear(in_features=64, out_features=1, bias=True)
    )
  )
  (projection_layers): ModuleList(
    (0): Linear(in_features=512, out_features=256, bias=True)
  )
  (feature_attn_net): Sequential(
    (0): Linear(in_features=256, out_features=128, bias=True)
    (1): Tanh()
    (2): Linear(in_features=128, out_features=1, bias=True)
  )
  (fc): Sequential(
    (0): Linear(in_features=256, out_features=128, bias=True)
    (1): ReLU()
    (2): Dropout(p=0.3, inplace=False)
    (3): Linear(in_features=128, out_features=50, bias=True)
  )
)
[2025-08-01 14:15:32,047] [INFO] Training...
[2025-08-01 14:15:48,880] [INFO] Epoch 1/50, ValAcc: 54.17%, TrainLoss: 2.8449, ValLoss: 1.6949, LR: 0.001
[2025-08-01 14:16:05,706] [INFO] Epoch 2/50, ValAcc: 71.37%, TrainLoss: 1.3728, ValLoss: 1.0492, LR: 0.001
[2025-08-01 14:16:22,532] [INFO] Epoch 3/50, ValAcc: 78.14%, TrainLoss: 0.7969, ValLoss: 0.8344, LR: 0.001
…
se, device=device(type='cuda'), name='tcpwindow_token_bigru_5000_64_50_0.001_512_256_3_0.3_256_128_1000_100_1000'),0.8766,0.8737,0.8747,0.8746
[2025-08-01 14:20:16,081] [INFO] [(0.8765594221930401, 0.873727054829249, 0.8746537285407437, 0.8745593409530232)]
[2025-08-01 14:20:16,081] [INFO] Training from 1100 to 2100 / 5000
[2025-08-01 14:20:33,710] [INFO] Feature 0 normalized using token
[2025-08-01 14:20:33,711] [INFO] Train shape: (10659, 1000), Val shape: (1523, 1000), Test shape: (3046, 1000)
[2025-08-01 14:20:33,741] [INFO] Classifier: VRScannerModel(
  (input_modules): ModuleList(
    (0): Embedding(5220, 512)
  )
  (rnn_layers): ModuleList(
    (0): GRU(512, 256, num_layers=3, batch_first=True, dropout=0.3, bidirectional=True)
  )
  (attn_nets): ModuleList(
    (0): Sequential(
      (0): Linear(in_features=512, out_features=64, bias=True)
      (1): Tanh()
      (2): Linear(in_features=64, out_features=1, bias=True)
    )
  )
  (projection_layers): ModuleList(
    (0): Linear(in_features=512, out_features=256, bias=True)
  )
  (feature_attn_net): Sequential(
    (0): Linear(in_features=256, out_features=128, bias=True)
    (1): Tanh()
    (2): Linear(in_features=128, out_features=1, bias=True)
  )
  (fc): Sequential(
    (0): Linear(in_features=256, out_features=128, bias=True)
    (1): ReLU()
    (2): Dropout(p=0.3, inplace=False)
    (3): Linear(in_features=128, out_features=50, bias=True)
  )
)
[2025-08-01 14:20:33,741] [INFO] Training...
[2025-08-01 14:20:50,149] [INFO] Epoch 1/50, ValAcc: 50.56%, TrainLoss: 2.9636, ValLoss: 1.8890, LR: 0.001
[2025-08-01 14:21:06,537] [INFO] Epoch 2/50, ValAcc: 72.49%, TrainLoss: 1.4870, ValLoss: 1.0382, LR: 0.001
[2025-08-01 14:21:22,934] [INFO] Epoch 3/50, ValAcc: 76.56%, TrainLoss: 0.8521, ValLoss: 0.8538, LR: 0.001
…
e, device=device(type='cuda'), name='tcpwindow_token_bigru_5000_64_50_0.001_512_256_3_0.3_256_128_1000_100_1100'),0.8746,0.8714,0.8730,0.8728
[2025-08-01 14:25:25,105] [INFO] [(0.8745896257386737, 0.8713703607053377, 0.8729941982885747, 0.8727506514482228)]
[2025-08-01 14:25:25,105] [INFO] Training from 1200 to 2200 / 5000
[2025-08-01 14:25:44,767] [INFO] Feature 0 normalized using token
[2025-08-01 14:25:44,768] [INFO] Train shape: (10659, 1000), Val shape: (1523, 1000), Test shape: (3046, 1000)
[2025-08-01 14:25:44,796] [INFO] Classifier: VRScannerModel(
  (input_modules): ModuleList(
    (0): Embedding(5223, 512)
  )
  (rnn_layers): ModuleList(
    (0): GRU(512, 256, num_layers=3, batch_first=True, dropout=0.3, bidirectional=True)
  )
  (attn_nets): ModuleList(
    (0): Sequential(
      (0): Linear(in_features=512, out_features=64, bias=True)
      (1): Tanh()
      (2): Linear(in_features=64, out_features=1, bias=True)
    )
  )
  (projection_layers): ModuleList(
    (0): Linear(in_features=512, out_features=256, bias=True)
  )
  (feature_attn_net): Sequential(
    (0): Linear(in_features=256, out_features=128, bias=True)
    (1): Tanh()
    (2): Linear(in_features=128, out_features=1, bias=True)
  )
  (fc): Sequential(
    (0): Linear(in_features=256, out_features=128, bias=True)
    (1): ReLU()
    (2): Dropout(p=0.3, inplace=False)
    (3): Linear(in_features=128, out_features=50, bias=True)
  )
)
[2025-08-01 14:25:44,796] [INFO] Training...
[2025-08-01 14:26:01,659] [INFO] Epoch 1/50, ValAcc: 53.58%, TrainLoss: 2.9015, ValLoss: 1.7017, LR: 0.001
[2025-08-01 14:26:18,439] [INFO] Epoch 2/50, ValAcc: 71.50%, TrainLoss: 1.4465, ValLoss: 1.0487, LR: 0.001
[2025-08-01 14:26:35,225] [INFO] Epoch 3/50, ValAcc: 76.49%, TrainLoss: 0.8406, ValLoss: 0.8679, LR: 0.001
…
se, device=device(type='cuda'), name='tcpwindow_token_bigru_5000_64_50_0.001_512_256_3_0.3_256_128_1000_100_1200'),0.8680,0.8648,0.8657,0.8663
[2025-08-01 14:30:49,445] [INFO] [(0.8680236375574524, 0.864792052138069, 0.8657074600063859, 0.8662652815441412)]
[2025-08-01 14:30:49,445] [INFO] Training from 1300 to 2300 / 5000
[2025-08-01 14:31:07,044] [INFO] Feature 0 normalized using token
[2025-08-01 14:31:07,045] [INFO] Train shape: (10659, 1000), Val shape: (1523, 1000), Test shape: (3046, 1000)
[2025-08-01 14:31:07,073] [INFO] Classifier: VRScannerModel(
  (input_modules): ModuleList(
    (0): Embedding(5197, 512)
  )
  (rnn_layers): ModuleList(
    (0): GRU(512, 256, num_layers=3, batch_first=True, dropout=0.3, bidirectional=True)
  )
  (attn_nets): ModuleList(
    (0): Sequential(
      (0): Linear(in_features=512, out_features=64, bias=True)
      (1): Tanh()
      (2): Linear(in_features=64, out_features=1, bias=True)
    )
  )
  (projection_layers): ModuleList(
    (0): Linear(in_features=512, out_features=256, bias=True)
  )
  (feature_attn_net): Sequential(
    (0): Linear(in_features=256, out_features=128, bias=True)
    (1): Tanh()
    (2): Linear(in_features=128, out_features=1, bias=True)
  )
  (fc): Sequential(
    (0): Linear(in_features=256, out_features=128, bias=True)
    (1): ReLU()
    (2): Dropout(p=0.3, inplace=False)
    (3): Linear(in_features=128, out_features=50, bias=True)
  )
)
[2025-08-01 14:31:07,073] [INFO] Training...
[2025-08-01 14:31:23,871] [INFO] Epoch 1/50, ValAcc: 56.20%, TrainLoss: 2.8678, ValLoss: 1.6635, LR: 0.001
[2025-08-01 14:31:40,673] [INFO] Epoch 2/50, ValAcc: 72.42%, TrainLoss: 1.4104, ValLoss: 1.0112, LR: 0.001
[2025-08-01 14:31:57,474] [INFO] Epoch 3/50, ValAcc: 77.74%, TrainLoss: 0.8635, ValLoss: 0.8045, LR: 0.001
…
lse, device=device(type='cuda'), name='tcpwindow_token_bigru_5000_64_50_0.001_512_256_3_0.3_256_128_1000_100_1400'),0.8762,0.8730,0.8760,0.8751
[2025-08-01 14:41:42,636] [INFO] [(0.876231122783979, 0.8730479170363158, 0.8760037077564142, 0.875114276625681)]
[2025-08-01 14:41:42,637] [INFO] Training from 1500 to 2500 / 5000
[2025-08-01 14:42:00,282] [INFO] Feature 0 normalized using token
[2025-08-01 14:42:00,282] [INFO] Train shape: (10659, 1000), Val shape: (1523, 1000), Test shape: (3046, 1000)
[2025-08-01 14:42:00,312] [INFO] Classifier: VRScannerModel(
  (input_modules): ModuleList(
    (0): Embedding(5192, 512)
  )
  (rnn_layers): ModuleList(
    (0): GRU(512, 256, num_layers=3, batch_first=True, dropout=0.3, bidirectional=True)
  )
  (attn_nets): ModuleList(
    (0): Sequential(
      (0): Linear(in_features=512, out_features=64, bias=True)
      (1): Tanh()
      (2): Linear(in_features=64, out_features=1, bias=True)
    )
  )
  (projection_layers): ModuleList(
    (0): Linear(in_features=512, out_features=256, bias=True)
  )
  (feature_attn_net): Sequential(
    (0): Linear(in_features=256, out_features=128, bias=True)
    (1): Tanh()
    (2): Linear(in_features=128, out_features=1, bias=True)
  )
  (fc): Sequential(
    (0): Linear(in_features=256, out_features=128, bias=True)
    (1): ReLU()
    (2): Dropout(p=0.3, inplace=False)
    (3): Linear(in_features=128, out_features=50, bias=True)
  )
)
[2025-08-01 14:42:00,312] [INFO] Training...
[2025-08-01 14:42:16,896] [INFO] Epoch 1/50, ValAcc: 52.72%, TrainLoss: 2.8754, ValLoss: 1.8288, LR: 0.001
[2025-08-01 14:42:33,296] [INFO] Epoch 2/50, ValAcc: 69.34%, TrainLoss: 1.4652, ValLoss: 1.1298, LR: 0.001
[2025-08-01 14:42:49,680] [INFO] Epoch 3/50, ValAcc: 75.44%, TrainLoss: 0.9226, ValLoss: 0.9059, LR: 0.001
…
e, device=device(type='cuda'), name='tcpwindow_token_bigru_5000_64_50_0.001_512_256_3_0.3_256_128_1000_100_1500'),0.8723,0.8693,0.8712,0.8716
[2025-08-01 14:47:17,627] [INFO] [(0.8722915298752463, 0.8693150213441109, 0.8711694973902608, 0.8715576199674503)]
[2025-08-01 14:47:17,627] [INFO] Training from 1600 to 2600 / 5000
[2025-08-01 14:47:34,641] [INFO] Feature 0 normalized using token
[2025-08-01 14:47:34,641] [INFO] Train shape: (10659, 1000), Val shape: (1523, 1000), Test shape: (3046, 1000)
[2025-08-01 14:47:34,668] [INFO] Classifier: VRScannerModel(
  (input_modules): ModuleList(
    (0): Embedding(5168, 512)
  )
  (rnn_layers): ModuleList(
    (0): GRU(512, 256, num_layers=3, batch_first=True, dropout=0.3, bidirectional=True)
  )
  (attn_nets): ModuleList(
    (0): Sequential(
      (0): Linear(in_features=512, out_features=64, bias=True)
      (1): Tanh()
      (2): Linear(in_features=64, out_features=1, bias=True)
    )
  )
  (projection_layers): ModuleList(
    (0): Linear(in_features=512, out_features=256, bias=True)
  )
  (feature_attn_net): Sequential(
    (0): Linear(in_features=256, out_features=128, bias=True)
    (1): Tanh()
    (2): Linear(in_features=128, out_features=1, bias=True)
  )
  (fc): Sequential(
    (0): Linear(in_features=256, out_features=128, bias=True)
    (1): ReLU()
    (2): Dropout(p=0.3, inplace=False)
    (3): Linear(in_features=128, out_features=50, bias=True)
  )
)
[2025-08-01 14:47:34,668] [INFO] Training...
[2025-08-01 14:47:51,618] [INFO] Epoch 1/50, ValAcc: 51.02%, TrainLoss: 2.9320, ValLoss: 1.8347, LR: 0.001
[2025-08-01 14:48:08,399] [INFO] Epoch 2/50, ValAcc: 67.96%, TrainLoss: 1.5301, ValLoss: 1.1319, LR: 0.001
[2025-08-01 14:48:25,181] [INFO] Epoch 3/50, ValAcc: 76.03%, TrainLoss: 0.9656, ValLoss: 0.8468, LR: 0.001
…
e, device=device(type='cuda'), name='tcpwindow_token_bigru_5000_64_50_0.001_512_256_3_0.3_256_128_1000_100_1600'),0.8654,0.8634,0.8669,0.8649
[2025-08-01 14:52:39,413] [INFO] [(0.8653972422849638, 0.8633771575632635, 0.8669484338241071, 0.8649050244444773)]
[2025-08-01 14:52:39,413] [INFO] Training from 1700 to 2700 / 5000
[2025-08-01 14:52:56,463] [INFO] Feature 0 normalized using token
[2025-08-01 14:52:56,464] [INFO] Train shape: (10659, 1000), Val shape: (1523, 1000), Test shape: (3046, 1000)
[2025-08-01 14:52:56,493] [INFO] Classifier: VRScannerModel(
  (input_modules): ModuleList(
    (0): Embedding(5175, 512)
  )
  (rnn_layers): ModuleList(
    (0): GRU(512, 256, num_layers=3, batch_first=True, dropout=0.3, bidirectional=True)
  )
  (attn_nets): ModuleList(
    (0): Sequential(
      (0): Linear(in_features=512, out_features=64, bias=True)
      (1): Tanh()
      (2): Linear(in_features=64, out_features=1, bias=True)
    )
  )
  (projection_layers): ModuleList(
    (0): Linear(in_features=512, out_features=256, bias=True)
  )
  (feature_attn_net): Sequential(
    (0): Linear(in_features=256, out_features=128, bias=True)
    (1): Tanh()
    (2): Linear(in_features=128, out_features=1, bias=True)
  )
  (fc): Sequential(
    (0): Linear(in_features=256, out_features=128, bias=True)
    (1): ReLU()
    (2): Dropout(p=0.3, inplace=False)
    (3): Linear(in_features=128, out_features=50, bias=True)
  )
)
[2025-08-01 14:52:56,493] [INFO] Training...
[2025-08-01 14:53:13,581] [INFO] Epoch 1/50, ValAcc: 53.71%, TrainLoss: 2.8614, ValLoss: 1.7572, LR: 0.001
[2025-08-01 14:53:30,367] [INFO] Epoch 2/50, ValAcc: 71.24%, TrainLoss: 1.4498, ValLoss: 1.0192, LR: 0.001
[2025-08-01 14:53:47,138] [INFO] Epoch 3/50, ValAcc: 74.59%, TrainLoss: 0.9257, ValLoss: 0.8861, LR: 0.001
…
se, device=device(type='cuda'), name='tcpwindow_token_bigru_5000_64_50_0.001_512_256_3_0.3_256_128_1000_100_1700'),0.8559,0.8546,0.8616,0.8553
[2025-08-01 14:58:01,349] [INFO] [(0.8558765594221931, 0.854576375247921, 0.8616482169124714, 0.8553461388171283)]
[2025-08-01 14:58:01,349] [INFO] Training from 1800 to 2800 / 5000
[2025-08-01 14:58:18,020] [INFO] Feature 0 normalized using token
[2025-08-01 14:58:18,020] [INFO] Train shape: (10659, 1000), Val shape: (1523, 1000), Test shape: (3046, 1000)
[2025-08-01 14:58:18,047] [INFO] Classifier: VRScannerModel(
  (input_modules): ModuleList(
    (0): Embedding(5157, 512)
  )
  (rnn_layers): ModuleList(
    (0): GRU(512, 256, num_layers=3, batch_first=True, dropout=0.3, bidirectional=True)
  )
  (attn_nets): ModuleList(
    (0): Sequential(
      (0): Linear(in_features=512, out_features=64, bias=True)
      (1): Tanh()
      (2): Linear(in_features=64, out_features=1, bias=True)
    )
  )
  (projection_layers): ModuleList(
    (0): Linear(in_features=512, out_features=256, bias=True)
  )
  (feature_attn_net): Sequential(
    (0): Linear(in_features=256, out_features=128, bias=True)
    (1): Tanh()
    (2): Linear(in_features=128, out_features=1, bias=True)
  )
  (fc): Sequential(
    (0): Linear(in_features=256, out_features=128, bias=True)
    (1): ReLU()
    (2): Dropout(p=0.3, inplace=False)
    (3): Linear(in_features=128, out_features=50, bias=True)
  )
)
[2025-08-01 14:58:18,047] [INFO] Training...
[2025-08-01 14:58:34,948] [INFO] Epoch 1/50, ValAcc: 47.73%, TrainLoss: 2.9517, ValLoss: 1.9009, LR: 0.001
[2025-08-01 14:58:51,735] [INFO] Epoch 2/50, ValAcc: 67.89%, TrainLoss: 1.5462, ValLoss: 1.1341, LR: 0.001
[2025-08-01 14:59:08,506] [INFO] Epoch 3/50, ValAcc: 75.57%, TrainLoss: 0.9520, ValLoss: 0.8543, LR: 0.001
…
e, device=device(type='cuda'), name='tcpwindow_token_bigru_5000_64_50_0.001_512_256_3_0.3_256_128_1000_100_1800'),0.8552,0.8548,0.8631,0.8551
[2025-08-01 15:03:34,280] [INFO] [(0.8552199606040709, 0.8548280544571583, 0.8631049409380678, 0.8550612162403436)]
[2025-08-01 15:03:34,280] [INFO] Training from 1900 to 2900 / 5000
[2025-08-01 15:03:50,699] [INFO] Feature 0 normalized using token
[2025-08-01 15:03:50,700] [INFO] Train shape: (10659, 1000), Val shape: (1523, 1000), Test shape: (3046, 1000)
[2025-08-01 15:03:50,730] [INFO] Classifier: VRScannerModel(
  (input_modules): ModuleList(
    (0): Embedding(5125, 512)
  )
  (rnn_layers): ModuleList(
    (0): GRU(512, 256, num_layers=3, batch_first=True, dropout=0.3, bidirectional=True)
  )
  (attn_nets): ModuleList(
    (0): Sequential(
      (0): Linear(in_features=512, out_features=64, bias=True)
      (1): Tanh()
      (2): Linear(in_features=64, out_features=1, bias=True)
    )
  )
  (projection_layers): ModuleList(
    (0): Linear(in_features=512, out_features=256, bias=True)
  )
  (feature_attn_net): Sequential(
    (0): Linear(in_features=256, out_features=128, bias=True)
    (1): Tanh()
    (2): Linear(in_features=128, out_features=1, bias=True)
  )
  (fc): Sequential(
    (0): Linear(in_features=256, out_features=128, bias=True)
    (1): ReLU()
    (2): Dropout(p=0.3, inplace=False)
    (3): Linear(in_features=128, out_features=50, bias=True)
  )
)
[2025-08-01 15:03:50,731] [INFO] Training...
[2025-08-01 15:04:07,511] [INFO] Epoch 1/50, ValAcc: 48.33%, TrainLoss: 2.9523, ValLoss: 1.8994, LR: 0.001
[2025-08-01 15:04:24,283] [INFO] Epoch 2/50, ValAcc: 69.14%, TrainLoss: 1.5952, ValLoss: 1.1200, LR: 0.001
[2025-08-01 15:04:41,062] [INFO] Epoch 3/50, ValAcc: 73.93%, TrainLoss: 0.9812, ValLoss: 0.8906, LR: 0.001
…
e, device=device(type='cuda'), name='tcpwindow_token_bigru_5000_64_50_0.001_512_256_3_0.3_256_128_1000_100_1900'),0.8477,0.8485,0.8619,0.8473
[2025-08-01 15:09:28,767] [INFO] [(0.8476690741956664, 0.8485450945291153, 0.8618528974001061, 0.8473367722832579)]
[2025-08-01 15:09:28,767] [INFO] Training from 2000 to 3000 / 5000
[2025-08-01 15:09:45,439] [INFO] Feature 0 normalized using token
[2025-08-01 15:09:45,439] [INFO] Train shape: (10659, 1000), Val shape: (1523, 1000), Test shape: (3046, 1000)
[2025-08-01 15:09:45,467] [INFO] Classifier: VRScannerModel(
  (input_modules): ModuleList(
    (0): Embedding(5106, 512)
  )
  (rnn_layers): ModuleList(
    (0): GRU(512, 256, num_layers=3, batch_first=True, dropout=0.3, bidirectional=True)
  )
  (attn_nets): ModuleList(
    (0): Sequential(
      (0): Linear(in_features=512, out_features=64, bias=True)
      (1): Tanh()
      (2): Linear(in_features=64, out_features=1, bias=True)
    )
  )
  (projection_layers): ModuleList(
    (0): Linear(in_features=512, out_features=256, bias=True)
  )
  (feature_attn_net): Sequential(
    (0): Linear(in_features=256, out_features=128, bias=True)
    (1): Tanh()
    (2): Linear(in_features=128, out_features=1, bias=True)
  )
  (fc): Sequential(
    (0): Linear(in_features=256, out_features=128, bias=True)
    (1): ReLU()
    (2): Dropout(p=0.3, inplace=False)
    (3): Linear(in_features=128, out_features=50, bias=True)
  )
)
[2025-08-01 15:09:45,467] [INFO] Training...
[2025-08-01 15:10:02,248] [INFO] Epoch 1/50, ValAcc: 49.77%, TrainLoss: 2.9211, ValLoss: 1.9110, LR: 0.001
[2025-08-01 15:10:19,007] [INFO] Epoch 2/50, ValAcc: 66.84%, TrainLoss: 1.5165, ValLoss: 1.1946, LR: 0.001
[2025-08-01 15:10:35,768] [INFO] Epoch 3/50, ValAcc: 73.60%, TrainLoss: 0.9774, ValLoss: 0.9269, LR: 0.001
…
e, device=device(type='cuda'), name='tcpwindow_token_bigru_5000_64_50_0.001_512_256_3_0.3_256_128_1000_100_2000'),0.8464,0.8493,0.8674,0.8457
[2025-08-01 15:15:40,228] [INFO] [(0.8463558765594222, 0.8492672276101427, 0.8673814063350921, 0.8456908480233933)]
[2025-08-01 15:15:40,228] [INFO] Training from 2100 to 3100 / 5000
[2025-08-01 15:15:58,922] [INFO] Feature 0 normalized using token
[2025-08-01 15:15:58,923] [INFO] Train shape: (10659, 1000), Val shape: (1523, 1000), Test shape: (3046, 1000)
[2025-08-01 15:15:58,964] [INFO] Classifier: VRScannerModel(
  (input_modules): ModuleList(
    (0): Embedding(5098, 512)
  )
  (rnn_layers): ModuleList(
    (0): GRU(512, 256, num_layers=3, batch_first=True, dropout=0.3, bidirectional=True)
  )
  (attn_nets): ModuleList(
    (0): Sequential(
      (0): Linear(in_features=512, out_features=64, bias=True)
      (1): Tanh()
      (2): Linear(in_features=64, out_features=1, bias=True)
    )
  )
  (projection_layers): ModuleList(
    (0): Linear(in_features=512, out_features=256, bias=True)
  )
  (feature_attn_net): Sequential(
    (0): Linear(in_features=256, out_features=128, bias=True)
    (1): Tanh()
    (2): Linear(in_features=128, out_features=1, bias=True)
  )
  (fc): Sequential(
    (0): Linear(in_features=256, out_features=128, bias=True)
    (1): ReLU()
    (2): Dropout(p=0.3, inplace=False)
    (3): Linear(in_features=128, out_features=50, bias=True)
  )
)
[2025-08-01 15:15:58,965] [INFO] Training...
[2025-08-01 15:16:18,556] [INFO] Epoch 1/50, ValAcc: 49.31%, TrainLoss: 2.9038, ValLoss: 1.9072, LR: 0.001
[2025-08-01 15:16:37,951] [INFO] Epoch 2/50, ValAcc: 65.46%, TrainLoss: 1.6227, ValLoss: 1.2527, LR: 0.001
[2025-08-01 15:16:57,354] [INFO] Epoch 3/50, ValAcc: 72.16%, TrainLoss: 1.0495, ValLoss: 0.9750, LR: 0.001
…
e, device=device(type='cuda'), name='tcpwindow_token_bigru_5000_64_50_0.001_512_256_3_0.3_256_128_1000_100_2100'),0.8349,0.8381,0.8571,0.8338
[2025-08-01 15:21:51,741] [INFO] [(0.8348653972422849, 0.8381080471740002, 0.8570558108535171, 0.8338084860858593)]
[2025-08-01 15:21:51,742] [INFO] Training from 2200 to 3200 / 5000
[2025-08-01 15:22:07,894] [INFO] Feature 0 normalized using token
[2025-08-01 15:22:07,894] [INFO] Train shape: (10659, 1000), Val shape: (1523, 1000), Test shape: (3046, 1000)
[2025-08-01 15:22:07,922] [INFO] Classifier: VRScannerModel(
  (input_modules): ModuleList(
    (0): Embedding(5091, 512)
  )
  (rnn_layers): ModuleList(
    (0): GRU(512, 256, num_layers=3, batch_first=True, dropout=0.3, bidirectional=True)
  )
  (attn_nets): ModuleList(
    (0): Sequential(
      (0): Linear(in_features=512, out_features=64, bias=True)
      (1): Tanh()
      (2): Linear(in_features=64, out_features=1, bias=True)
    )
  )
  (projection_layers): ModuleList(
    (0): Linear(in_features=512, out_features=256, bias=True)
  )
  (feature_attn_net): Sequential(
    (0): Linear(in_features=256, out_features=128, bias=True)
    (1): Tanh()
    (2): Linear(in_features=128, out_features=1, bias=True)
  )
  (fc): Sequential(
    (0): Linear(in_features=256, out_features=128, bias=True)
    (1): ReLU()
    (2): Dropout(p=0.3, inplace=False)
    (3): Linear(in_features=128, out_features=50, bias=True)
  )
)
[2025-08-01 15:22:07,922] [INFO] Training...
[2025-08-01 15:22:30,570] [INFO] Epoch 1/50, ValAcc: 46.68%, TrainLoss: 3.0243, ValLoss: 2.0164, LR: 0.001
[2025-08-01 15:22:53,195] [INFO] Epoch 2/50, ValAcc: 65.79%, TrainLoss: 1.6838, ValLoss: 1.2333, LR: 0.001
[2025-08-01 15:23:15,821] [INFO] Epoch 3/50, ValAcc: 70.26%, TrainLoss: 1.0980, ValLoss: 1.0385, LR: 0.001
…
e, device=device(type='cuda'), name='tcpwindow_token_bigru_5000_64_50_0.001_512_256_3_0.3_256_128_1000_100_2200'),0.8204,0.8246,0.8455,0.8190
[2025-08-01 15:28:59,442] [INFO] [(0.8204202232435982, 0.8246316943503892, 0.8455006673545056, 0.8190263696514166)]
[2025-08-01 15:28:59,442] [INFO] Training from 2300 to 3300 / 5000
[2025-08-01 15:29:15,148] [INFO] Feature 0 normalized using token
[2025-08-01 15:29:15,148] [INFO] Train shape: (10659, 1000), Val shape: (1523, 1000), Test shape: (3046, 1000)
[2025-08-01 15:29:15,176] [INFO] Classifier: VRScannerModel(
  (input_modules): ModuleList(
    (0): Embedding(5058, 512)
  )
  (rnn_layers): ModuleList(
    (0): GRU(512, 256, num_layers=3, batch_first=True, dropout=0.3, bidirectional=True)
  )
  (attn_nets): ModuleList(
    (0): Sequential(
      (0): Linear(in_features=512, out_features=64, bias=True)
      (1): Tanh()
      (2): Linear(in_features=64, out_features=1, bias=True)
    )
  )
  (projection_layers): ModuleList(
    (0): Linear(in_features=512, out_features=256, bias=True)
  )
  (feature_attn_net): Sequential(
    (0): Linear(in_features=256, out_features=128, bias=True)
    (1): Tanh()
    (2): Linear(in_features=128, out_features=1, bias=True)
  )
  (fc): Sequential(
    (0): Linear(in_features=256, out_features=128, bias=True)
    (1): ReLU()
    (2): Dropout(p=0.3, inplace=False)
    (3): Linear(in_features=128, out_features=50, bias=True)
  )
)
[2025-08-01 15:29:15,176] [INFO] Training...
[2025-08-01 15:29:37,862] [INFO] Epoch 1/50, ValAcc: 41.83%, TrainLoss: 3.0458, ValLoss: 2.1007, LR: 0.001
[2025-08-01 15:30:00,532] [INFO] Epoch 2/50, ValAcc: 63.03%, TrainLoss: 1.6829, ValLoss: 1.3706, LR: 0.001
[2025-08-01 15:30:23,204] [INFO] Epoch 3/50, ValAcc: 70.72%, TrainLoss: 1.1122, ValLoss: 1.1015, LR: 0.001
…
se, device=device(type='cuda'), name='tcpwindow_token_bigru_5000_64_50_0.001_512_256_3_0.3_256_128_1000_100_2300'),0.8139,0.8194,0.8444,0.8119
[2025-08-01 15:36:06,829] [INFO] [(0.8138542350623769, 0.8193717526266379, 0.8443578077558607, 0.811926850129153)]
[2025-08-01 15:36:06,829] [INFO] Training from 2400 to 3400 / 5000
[2025-08-01 15:36:22,176] [INFO] Feature 0 normalized using token
[2025-08-01 15:36:22,176] [INFO] Train shape: (10659, 1000), Val shape: (1523, 1000), Test shape: (3046, 1000)
[2025-08-01 15:36:22,205] [INFO] Classifier: VRScannerModel(
  (input_modules): ModuleList(
    (0): Embedding(5035, 512)
  )
  (rnn_layers): ModuleList(
    (0): GRU(512, 256, num_layers=3, batch_first=True, dropout=0.3, bidirectional=True)
  )
  (attn_nets): ModuleList(
    (0): Sequential(
      (0): Linear(in_features=512, out_features=64, bias=True)
      (1): Tanh()
      (2): Linear(in_features=64, out_features=1, bias=True)
    )
  )
  (projection_layers): ModuleList(
    (0): Linear(in_features=512, out_features=256, bias=True)
  )
  (feature_attn_net): Sequential(
    (0): Linear(in_features=256, out_features=128, bias=True)
    (1): Tanh()
    (2): Linear(in_features=128, out_features=1, bias=True)
  )
  (fc): Sequential(
    (0): Linear(in_features=256, out_features=128, bias=True)
    (1): ReLU()
    (2): Dropout(p=0.3, inplace=False)
    (3): Linear(in_features=128, out_features=50, bias=True)
  )
)
[2025-08-01 15:36:22,205] [INFO] Training...
[2025-08-01 15:36:44,838] [INFO] Epoch 1/50, ValAcc: 43.66%, TrainLoss: 3.0413, ValLoss: 2.0697, LR: 0.001
[2025-08-01 15:37:07,472] [INFO] Epoch 2/50, ValAcc: 59.68%, TrainLoss: 1.7546, ValLoss: 1.4141, LR: 0.001
[2025-08-01 15:37:30,102] [INFO] Epoch 3/50, ValAcc: 66.05%, TrainLoss: 1.1847, ValLoss: 1.2122, LR: 0.001
…
e, device=device(type='cuda'), name='tcpwindow_token_bigru_5000_64_50_0.001_512_256_3_0.3_256_128_1000_100_2400'),0.7961,0.8057,0.8373,0.7938
[2025-08-01 15:43:36,249] [INFO] [(0.7961260669730794, 0.8057406618179134, 0.8373086040154145, 0.7937527529012693)]
[2025-08-01 15:43:36,249] [INFO] Training from 2500 to 3500 / 5000
[2025-08-01 15:43:50,937] [INFO] Feature 0 normalized using token
[2025-08-01 15:43:50,937] [INFO] Train shape: (10659, 1000), Val shape: (1523, 1000), Test shape: (3046, 1000)
[2025-08-01 15:43:50,967] [INFO] Classifier: VRScannerModel(
  (input_modules): ModuleList(
    (0): Embedding(4986, 512)
  )
  (rnn_layers): ModuleList(
    (0): GRU(512, 256, num_layers=3, batch_first=True, dropout=0.3, bidirectional=True)
  )
  (attn_nets): ModuleList(
    (0): Sequential(
      (0): Linear(in_features=512, out_features=64, bias=True)
      (1): Tanh()
      (2): Linear(in_features=64, out_features=1, bias=True)
    )
  )
  (projection_layers): ModuleList(
    (0): Linear(in_features=512, out_features=256, bias=True)
  )
  (feature_attn_net): Sequential(
    (0): Linear(in_features=256, out_features=128, bias=True)
    (1): Tanh()
    (2): Linear(in_features=128, out_features=1, bias=True)
  )
  (fc): Sequential(
    (0): Linear(in_features=256, out_features=128, bias=True)
    (1): ReLU()
    (2): Dropout(p=0.3, inplace=False)
    (3): Linear(in_features=128, out_features=50, bias=True)
  )
)
[2025-08-01 15:43:50,967] [INFO] Training...
[2025-08-01 15:44:13,615] [INFO] Epoch 1/50, ValAcc: 43.40%, TrainLoss: 3.1143, ValLoss: 2.1824, LR: 0.001
[2025-08-01 15:44:36,257] [INFO] Epoch 2/50, ValAcc: 58.50%, TrainLoss: 1.8331, ValLoss: 1.5130, LR: 0.001
[2025-08-01 15:44:58,897] [INFO] Epoch 3/50, ValAcc: 66.97%, TrainLoss: 1.2871, ValLoss: 1.2513, LR: 0.001
…
e, device=device(type='cuda'), name='tcpwindow_token_bigru_5000_64_50_0.001_512_256_3_0.3_256_128_1000_100_2500'),0.7712,0.7845,0.8222,0.7698
[2025-08-01 15:50:19,267] [INFO] [(0.7711753118844387, 0.7845103510129329, 0.8222208026053989, 0.7698013192242078)]
[2025-08-01 15:50:19,267] [INFO] Training from 2600 to 3600 / 5000
[2025-08-01 15:50:33,746] [INFO] Feature 0 normalized using token
[2025-08-01 15:50:33,746] [INFO] Train shape: (10659, 1000), Val shape: (1523, 1000), Test shape: (3046, 1000)
[2025-08-01 15:50:33,773] [INFO] Classifier: VRScannerModel(
  (input_modules): ModuleList(
    (0): Embedding(4926, 512)
  )
  (rnn_layers): ModuleList(
    (0): GRU(512, 256, num_layers=3, batch_first=True, dropout=0.3, bidirectional=True)
  )
  (attn_nets): ModuleList(
    (0): Sequential(
      (0): Linear(in_features=512, out_features=64, bias=True)
      (1): Tanh()
      (2): Linear(in_features=64, out_features=1, bias=True)
    )
  )
  (projection_layers): ModuleList(
    (0): Linear(in_features=512, out_features=256, bias=True)
  )
  (feature_attn_net): Sequential(
    (0): Linear(in_features=256, out_features=128, bias=True)
    (1): Tanh()
    (2): Linear(in_features=128, out_features=1, bias=True)
  )
  (fc): Sequential(
    (0): Linear(in_features=256, out_features=128, bias=True)
    (1): ReLU()
    (2): Dropout(p=0.3, inplace=False)
    (3): Linear(in_features=128, out_features=50, bias=True)
  )
)
[2025-08-01 15:50:33,773] [INFO] Training...
[2025-08-01 15:50:56,424] [INFO] Epoch 1/50, ValAcc: 38.87%, TrainLoss: 3.1426, ValLoss: 2.2790, LR: 0.001
[2025-08-01 15:51:19,067] [INFO] Epoch 2/50, ValAcc: 53.05%, TrainLoss: 1.9693, ValLoss: 1.6635, LR: 0.001
[2025-08-01 15:51:41,709] [INFO] Epoch 3/50, ValAcc: 60.74%, TrainLoss: 1.4826, ValLoss: 1.3970, LR: 0.001
…
e, device=device(type='cuda'), name='tcpwindow_token_bigru_5000_64_50_0.001_512_256_3_0.3_256_128_1000_100_2600'),0.7351,0.7573,0.8102,0.7327
[2025-08-01 15:57:24,753] [INFO] [(0.7350623768877216, 0.7573225373965906, 0.8101565940887135, 0.7327066681353267)]
[2025-08-01 15:57:24,753] [INFO] Training from 2700 to 3700 / 5000
[2025-08-01 15:57:38,625] [INFO] Feature 0 normalized using token
[2025-08-01 15:57:38,625] [INFO] Train shape: (10659, 1000), Val shape: (1523, 1000), Test shape: (3046, 1000)
[2025-08-01 15:57:38,653] [INFO] Classifier: VRScannerModel(
  (input_modules): ModuleList(
    (0): Embedding(4868, 512)
  )
  (rnn_layers): ModuleList(
    (0): GRU(512, 256, num_layers=3, batch_first=True, dropout=0.3, bidirectional=True)
  )
  (attn_nets): ModuleList(
    (0): Sequential(
      (0): Linear(in_features=512, out_features=64, bias=True)
      (1): Tanh()
      (2): Linear(in_features=64, out_features=1, bias=True)
    )
  )
  (projection_layers): ModuleList(
    (0): Linear(in_features=512, out_features=256, bias=True)
  )
  (feature_attn_net): Sequential(
    (0): Linear(in_features=256, out_features=128, bias=True)
    (1): Tanh()
    (2): Linear(in_features=128, out_features=1, bias=True)
  )
  (fc): Sequential(
    (0): Linear(in_features=256, out_features=128, bias=True)
    (1): ReLU()
    (2): Dropout(p=0.3, inplace=False)
    (3): Linear(in_features=128, out_features=50, bias=True)
  )
)
[2025-08-01 15:57:38,653] [INFO] Training...
[2025-08-01 15:58:01,442] [INFO] Epoch 1/50, ValAcc: 35.78%, TrainLoss: 3.1644, ValLoss: 2.4136, LR: 0.001
[2025-08-01 15:58:24,079] [INFO] Epoch 2/50, ValAcc: 51.81%, TrainLoss: 2.0795, ValLoss: 1.8207, LR: 0.001
[2025-08-01 15:58:46,748] [INFO] Epoch 3/50, ValAcc: 56.60%, TrainLoss: 1.5612, ValLoss: 1.5971, LR: 0.001
…
lse, device=device(type='cuda'), name='tcpwindow_token_bigru_5000_64_50_0.001_512_256_3_0.3_256_128_1000_100_2700'),0.7072,0.7349,0.8023,0.7055
[2025-08-01 16:04:52,602] [INFO] [(0.7071569271175312, 0.7348999460484432, 0.80226863090013, 0.7054787364732859)]
[2025-08-01 16:04:52,602] [INFO] Training from 2800 to 3800 / 5000
[2025-08-01 16:05:06,011] [INFO] Feature 0 normalized using token
[2025-08-01 16:05:06,011] [INFO] Train shape: (10659, 1000), Val shape: (1523, 1000), Test shape: (3046, 1000)
[2025-08-01 16:05:06,041] [INFO] Classifier: VRScannerModel(
  (input_modules): ModuleList(
    (0): Embedding(4792, 512)
  )
  (rnn_layers): ModuleList(
    (0): GRU(512, 256, num_layers=3, batch_first=True, dropout=0.3, bidirectional=True)
  )
  (attn_nets): ModuleList(
    (0): Sequential(
      (0): Linear(in_features=512, out_features=64, bias=True)
      (1): Tanh()
      (2): Linear(in_features=64, out_features=1, bias=True)
    )
  )
  (projection_layers): ModuleList(
    (0): Linear(in_features=512, out_features=256, bias=True)
  )
  (feature_attn_net): Sequential(
    (0): Linear(in_features=256, out_features=128, bias=True)
    (1): Tanh()
    (2): Linear(in_features=128, out_features=1, bias=True)
  )
  (fc): Sequential(
    (0): Linear(in_features=256, out_features=128, bias=True)
    (1): ReLU()
    (2): Dropout(p=0.3, inplace=False)
    (3): Linear(in_features=128, out_features=50, bias=True)
  )
)
[2025-08-01 16:05:06,041] [INFO] Training...
[2025-08-01 16:05:28,703] [INFO] Epoch 1/50, ValAcc: 34.41%, TrainLoss: 3.3092, ValLoss: 2.5232, LR: 0.001
[2025-08-01 16:05:51,360] [INFO] Epoch 2/50, ValAcc: 49.38%, TrainLoss: 2.2321, ValLoss: 1.9036, LR: 0.001
[2025-08-01 16:06:14,007] [INFO] Epoch 3/50, ValAcc: 54.56%, TrainLoss: 1.7051, ValLoss: 1.6989, LR: 0.001
…
se, device=device(type='cuda'), name='tcpwindow_token_bigru_5000_64_50_0.001_512_256_3_0.3_256_128_1000_100_2800'),0.6756,0.7162,0.7976,0.6744
[2025-08-01 16:12:19,892] [INFO] [(0.6756401838476691, 0.7161934499062432, 0.797587316992854, 0.6743625226191896)]
[2025-08-01 16:12:19,892] [INFO] Training from 2900 to 3900 / 5000
[2025-08-01 16:12:32,899] [INFO] Feature 0 normalized using token
[2025-08-01 16:12:32,899] [INFO] Train shape: (10659, 1000), Val shape: (1523, 1000), Test shape: (3046, 1000)
[2025-08-01 16:12:32,927] [INFO] Classifier: VRScannerModel(
  (input_modules): ModuleList(
    (0): Embedding(4703, 512)
  )
  (rnn_layers): ModuleList(
    (0): GRU(512, 256, num_layers=3, batch_first=True, dropout=0.3, bidirectional=True)
  )
  (attn_nets): ModuleList(
    (0): Sequential(
      (0): Linear(in_features=512, out_features=64, bias=True)
      (1): Tanh()
      (2): Linear(in_features=64, out_features=1, bias=True)
    )
  )
  (projection_layers): ModuleList(
    (0): Linear(in_features=512, out_features=256, bias=True)
  )
  (feature_attn_net): Sequential(
    (0): Linear(in_features=256, out_features=128, bias=True)
    (1): Tanh()
    (2): Linear(in_features=128, out_features=1, bias=True)
  )
  (fc): Sequential(
    (0): Linear(in_features=256, out_features=128, bias=True)
    (1): ReLU()
    (2): Dropout(p=0.3, inplace=False)
    (3): Linear(in_features=128, out_features=50, bias=True)
  )
)
[2025-08-01 16:12:32,927] [INFO] Training...
[2025-08-01 16:12:55,599] [INFO] Epoch 1/50, ValAcc: 33.03%, TrainLoss: 3.3223, ValLoss: 2.5658, LR: 0.001
[2025-08-01 16:13:18,253] [INFO] Epoch 2/50, ValAcc: 44.52%, TrainLoss: 2.3465, ValLoss: 2.0297, LR: 0.001
[2025-08-01 16:13:40,917] [INFO] Epoch 3/50, ValAcc: 51.87%, TrainLoss: 1.8772, ValLoss: 1.8415, LR: 0.001
…
e, device=device(type='cuda'), name='tcpwindow_token_bigru_5000_64_50_0.001_512_256_3_0.3_256_128_1000_100_2900'),0.6376,0.6886,0.7912,0.6396
[2025-08-01 16:20:09,417] [INFO] [(0.6375574523965857, 0.6885664515004914, 0.7911877721782468, 0.6396273186677949)]
[2025-08-01 16:20:09,417] [INFO] Training from 3000 to 4000 / 5000
[2025-08-01 16:20:21,997] [INFO] Feature 0 normalized using token
[2025-08-01 16:20:21,998] [INFO] Train shape: (10659, 1000), Val shape: (1523, 1000), Test shape: (3046, 1000)
[2025-08-01 16:20:22,025] [INFO] Classifier: VRScannerModel(
  (input_modules): ModuleList(
    (0): Embedding(4618, 512)
  )
  (rnn_layers): ModuleList(
    (0): GRU(512, 256, num_layers=3, batch_first=True, dropout=0.3, bidirectional=True)
  )
  (attn_nets): ModuleList(
    (0): Sequential(
      (0): Linear(in_features=512, out_features=64, bias=True)
      (1): Tanh()
      (2): Linear(in_features=64, out_features=1, bias=True)
    )
  )
  (projection_layers): ModuleList(
    (0): Linear(in_features=512, out_features=256, bias=True)
  )
  (feature_attn_net): Sequential(
    (0): Linear(in_features=256, out_features=128, bias=True)
    (1): Tanh()
    (2): Linear(in_features=128, out_features=1, bias=True)
  )
  (fc): Sequential(
    (0): Linear(in_features=256, out_features=128, bias=True)
    (1): ReLU()
    (2): Dropout(p=0.3, inplace=False)
    (3): Linear(in_features=128, out_features=50, bias=True)
  )
)
[2025-08-01 16:20:22,025] [INFO] Training...
[2025-08-01 16:20:44,727] [INFO] Epoch 1/50, ValAcc: 26.72%, TrainLoss: 3.3688, ValLoss: 2.7313, LR: 0.001
[2025-08-01 16:21:07,420] [INFO] Epoch 2/50, ValAcc: 41.76%, TrainLoss: 2.4991, ValLoss: 2.2196, LR: 0.001
[2025-08-01 16:21:30,122] [INFO] Epoch 3/50, ValAcc: 46.36%, TrainLoss: 2.0650, ValLoss: 2.0124, LR: 0.001
…
se, device=device(type='cuda'), name='tcpwindow_token_bigru_5000_64_50_0.001_512_256_3_0.3_256_128_1000_100_3000'),0.5670,0.6248,0.7468,0.5685
[2025-08-01 16:27:14,009] [INFO] [(0.566973079448457, 0.6247929916653977, 0.7467687937710891, 0.5685441549687791)]
[2025-08-01 16:27:14,009] [INFO] Training from 3100 to 4100 / 5000
[2025-08-01 16:27:26,054] [INFO] Feature 0 normalized using token
[2025-08-01 16:27:26,054] [INFO] Train shape: (10659, 1000), Val shape: (1523, 1000), Test shape: (3046, 1000)
[2025-08-01 16:27:26,081] [INFO] Classifier: VRScannerModel(
  (input_modules): ModuleList(
    (0): Embedding(4497, 512)
  )
  (rnn_layers): ModuleList(
    (0): GRU(512, 256, num_layers=3, batch_first=True, dropout=0.3, bidirectional=True)
  )
  (attn_nets): ModuleList(
    (0): Sequential(
      (0): Linear(in_features=512, out_features=64, bias=True)
      (1): Tanh()
      (2): Linear(in_features=64, out_features=1, bias=True)
    )
  )
  (projection_layers): ModuleList(
    (0): Linear(in_features=512, out_features=256, bias=True)
  )
  (feature_attn_net): Sequential(
    (0): Linear(in_features=256, out_features=128, bias=True)
    (1): Tanh()
    (2): Linear(in_features=128, out_features=1, bias=True)
  )
  (fc): Sequential(
    (0): Linear(in_features=256, out_features=128, bias=True)
    (1): ReLU()
    (2): Dropout(p=0.3, inplace=False)
    (3): Linear(in_features=128, out_features=50, bias=True)
  )
)
[2025-08-01 16:27:26,082] [INFO] Training...
[2025-08-01 16:27:48,789] [INFO] Epoch 1/50, ValAcc: 23.83%, TrainLoss: 3.4347, ValLoss: 2.8749, LR: 0.001
[2025-08-01 16:28:11,477] [INFO] Epoch 2/50, ValAcc: 37.95%, TrainLoss: 2.6296, ValLoss: 2.3503, LR: 0.001
[2025-08-01 16:28:34,166] [INFO] Epoch 3/50, ValAcc: 41.96%, TrainLoss: 2.2049, ValLoss: 2.1887, LR: 0.001
…
e, device=device(type='cuda'), name='tcpwindow_token_bigru_5000_64_50_0.001_512_256_3_0.3_256_128_1000_100_3100'),0.5187,0.5851,0.7234,0.5214
[2025-08-01 16:34:18,100] [INFO] [(0.5187130663164806, 0.5850691438944666, 0.7234499736844358, 0.5214416861332672)]
[2025-08-01 16:34:18,100] [INFO] Training from 3200 to 4200 / 5000
[2025-08-01 16:34:29,837] [INFO] Feature 0 normalized using token
[2025-08-01 16:34:29,837] [INFO] Train shape: (10659, 1000), Val shape: (1523, 1000), Test shape: (3046, 1000)
[2025-08-01 16:34:29,864] [INFO] Classifier: VRScannerModel(
  (input_modules): ModuleList(
    (0): Embedding(4362, 512)
  )
  (rnn_layers): ModuleList(
    (0): GRU(512, 256, num_layers=3, batch_first=True, dropout=0.3, bidirectional=True)
  )
  (attn_nets): ModuleList(
    (0): Sequential(
      (0): Linear(in_features=512, out_features=64, bias=True)
      (1): Tanh()
      (2): Linear(in_features=64, out_features=1, bias=True)
    )
  )
  (projection_layers): ModuleList(
    (0): Linear(in_features=512, out_features=256, bias=True)
  )
  (feature_attn_net): Sequential(
    (0): Linear(in_features=256, out_features=128, bias=True)
    (1): Tanh()
    (2): Linear(in_features=128, out_features=1, bias=True)
  )
  (fc): Sequential(
    (0): Linear(in_features=256, out_features=128, bias=True)
    (1): ReLU()
    (2): Dropout(p=0.3, inplace=False)
    (3): Linear(in_features=128, out_features=50, bias=True)
  )
)
[2025-08-01 16:34:29,864] [INFO] Training...
[2025-08-01 16:34:52,568] [INFO] Epoch 1/50, ValAcc: 25.54%, TrainLoss: 3.4744, ValLoss: 2.9465, LR: 0.001
[2025-08-01 16:35:15,269] [INFO] Epoch 2/50, ValAcc: 33.36%, TrainLoss: 2.7251, ValLoss: 2.5166, LR: 0.001
[2025-08-01 16:35:37,983] [INFO] Epoch 3/50, ValAcc: 37.62%, TrainLoss: 2.3604, ValLoss: 2.3951, LR: 0.001
…
e, device=device(type='cuda'), name='tcpwindow_token_bigru_5000_64_50_0.001_512_256_3_0.3_256_128_1000_100_3200'),0.4898,0.5671,0.7360,0.4929
[2025-08-01 16:41:44,673] [INFO] [(0.489822718319107, 0.5670882861458159, 0.7359782950239261, 0.49294094459532384)]
[2025-08-01 16:41:44,673] [INFO] Training from 3300 to 4300 / 5000
[2025-08-01 16:41:56,023] [INFO] Feature 0 normalized using token
[2025-08-01 16:41:56,023] [INFO] Train shape: (10659, 1000), Val shape: (1523, 1000), Test shape: (3046, 1000)
[2025-08-01 16:41:56,049] [INFO] Classifier: VRScannerModel(
  (input_modules): ModuleList(
    (0): Embedding(4248, 512)
  )
  (rnn_layers): ModuleList(
    (0): GRU(512, 256, num_layers=3, batch_first=True, dropout=0.3, bidirectional=True)
  )
  (attn_nets): ModuleList(
    (0): Sequential(
      (0): Linear(in_features=512, out_features=64, bias=True)
      (1): Tanh()
      (2): Linear(in_features=64, out_features=1, bias=True)
    )
  )
  (projection_layers): ModuleList(
    (0): Linear(in_features=512, out_features=256, bias=True)
  )
  (feature_attn_net): Sequential(
    (0): Linear(in_features=256, out_features=128, bias=True)
    (1): Tanh()
    (2): Linear(in_features=128, out_features=1, bias=True)
  )
  (fc): Sequential(
    (0): Linear(in_features=256, out_features=128, bias=True)
    (1): ReLU()
    (2): Dropout(p=0.3, inplace=False)
    (3): Linear(in_features=128, out_features=50, bias=True)
  )
)
[2025-08-01 16:41:56,049] [INFO] Training...
[2025-08-01 16:42:18,862] [INFO] Epoch 1/50, ValAcc: 19.76%, TrainLoss: 3.5623, ValLoss: 3.0893, LR: 0.001
[2025-08-01 16:42:41,565] [INFO] Epoch 2/50, ValAcc: 31.85%, TrainLoss: 2.8620, ValLoss: 2.6480, LR: 0.001
[2025-08-01 16:43:04,269] [INFO] Epoch 3/50, ValAcc: 35.13%, TrainLoss: 2.5230, ValLoss: 2.4837, LR: 0.001
…
e, device=device(type='cuda'), name='tcpwindow_token_bigru_5000_64_50_0.001_512_256_3_0.3_256_128_1000_100_3300'),0.4350,0.5097,0.6992,0.4369
[2025-08-01 16:48:48,250] [INFO] [(0.4349967170059094, 0.5097449811866501, 0.6991657450108534, 0.4369388238117681)]
[2025-08-01 16:48:48,250] [INFO] Training from 3400 to 4400 / 5000
[2025-08-01 16:48:59,680] [INFO] Feature 0 normalized using token
[2025-08-01 16:48:59,680] [INFO] Train shape: (10659, 1000), Val shape: (1523, 1000), Test shape: (3046, 1000)
[2025-08-01 16:48:59,709] [INFO] Classifier: VRScannerModel(
  (input_modules): ModuleList(
    (0): Embedding(4115, 512)
  )
  (rnn_layers): ModuleList(
    (0): GRU(512, 256, num_layers=3, batch_first=True, dropout=0.3, bidirectional=True)
  )
  (attn_nets): ModuleList(
    (0): Sequential(
      (0): Linear(in_features=512, out_features=64, bias=True)
      (1): Tanh()
      (2): Linear(in_features=64, out_features=1, bias=True)
    )
  )
  (projection_layers): ModuleList(
    (0): Linear(in_features=512, out_features=256, bias=True)
  )
  (feature_attn_net): Sequential(
    (0): Linear(in_features=256, out_features=128, bias=True)
    (1): Tanh()
    (2): Linear(in_features=128, out_features=1, bias=True)
  )
  (fc): Sequential(
    (0): Linear(in_features=256, out_features=128, bias=True)
    (1): ReLU()
    (2): Dropout(p=0.3, inplace=False)
    (3): Linear(in_features=128, out_features=50, bias=True)
  )
)
[2025-08-01 16:48:59,709] [INFO] Training...
[2025-08-01 16:49:22,424] [INFO] Epoch 1/50, ValAcc: 15.43%, TrainLoss: 3.6161, ValLoss: 3.3087, LR: 0.001
[2025-08-01 16:49:45,139] [INFO] Epoch 2/50, ValAcc: 24.75%, TrainLoss: 3.0717, ValLoss: 2.8896, LR: 0.001
[2025-08-01 16:50:07,840] [INFO] Epoch 3/50, ValAcc: 28.96%, TrainLoss: 2.7386, ValLoss: 2.7103, LR: 0.001
…
e, device=device(type='cuda'), name='tcpwindow_token_bigru_5000_64_50_0.001_512_256_3_0.3_256_128_1000_100_3400'),0.3963,0.4738,0.6852,0.3957
[2025-08-01 16:55:52,098] [INFO] [(0.39625738673670385, 0.4738146729477317, 0.685180023425374, 0.3956836006344915)]
[2025-08-01 16:55:52,098] [INFO] Training from 3500 to 4500 / 5000
[2025-08-01 16:56:02,967] [INFO] Feature 0 normalized using token
[2025-08-01 16:56:02,967] [INFO] Train shape: (10659, 1000), Val shape: (1523, 1000), Test shape: (3046, 1000)
[2025-08-01 16:56:02,994] [INFO] Classifier: VRScannerModel(
  (input_modules): ModuleList(
    (0): Embedding(3985, 512)
  )
  (rnn_layers): ModuleList(
    (0): GRU(512, 256, num_layers=3, batch_first=True, dropout=0.3, bidirectional=True)
  )
  (attn_nets): ModuleList(
    (0): Sequential(
      (0): Linear(in_features=512, out_features=64, bias=True)
      (1): Tanh()
      (2): Linear(in_features=64, out_features=1, bias=True)
    )
  )
  (projection_layers): ModuleList(
    (0): Linear(in_features=512, out_features=256, bias=True)
  )
  (feature_attn_net): Sequential(
    (0): Linear(in_features=256, out_features=128, bias=True)
    (1): Tanh()
    (2): Linear(in_features=128, out_features=1, bias=True)
  )
  (fc): Sequential(
    (0): Linear(in_features=256, out_features=128, bias=True)
    (1): ReLU()
    (2): Dropout(p=0.3, inplace=False)
    (3): Linear(in_features=128, out_features=50, bias=True)
  )
)
[2025-08-01 16:56:02,994] [INFO] Training...
[2025-08-01 16:56:25,733] [INFO] Epoch 1/50, ValAcc: 15.23%, TrainLoss: 3.6547, ValLoss: 3.3006, LR: 0.001
[2025-08-01 16:56:48,461] [INFO] Epoch 2/50, ValAcc: 21.47%, TrainLoss: 3.1416, ValLoss: 2.9912, LR: 0.001
[2025-08-01 16:57:11,187] [INFO] Epoch 3/50, ValAcc: 27.05%, TrainLoss: 2.8391, ValLoss: 2.8003, LR: 0.001
…
, device=device(type='cuda'), name='tcpwindow_token_bigru_5000_64_50_0.001_512_256_3_0.3_256_128_1000_100_3500'),0.3529,0.4297,0.6638,0.3527
[2025-08-01 17:02:55,295] [INFO] [(0.35292186474064347, 0.4296701664181783, 0.6638488484503882, 0.3526661613012122)]
[2025-08-01 17:02:55,295] [INFO] Training from 3600 to 4600 / 5000
[2025-08-01 17:03:05,831] [INFO] Feature 0 normalized using token
[2025-08-01 17:03:05,831] [INFO] Train shape: (10659, 1000), Val shape: (1523, 1000), Test shape: (3046, 1000)
[2025-08-01 17:03:05,857] [INFO] Classifier: VRScannerModel(
  (input_modules): ModuleList(
    (0): Embedding(3853, 512)
  )
  (rnn_layers): ModuleList(
    (0): GRU(512, 256, num_layers=3, batch_first=True, dropout=0.3, bidirectional=True)
  )
  (attn_nets): ModuleList(
    (0): Sequential(
      (0): Linear(in_features=512, out_features=64, bias=True)
      (1): Tanh()
      (2): Linear(in_features=64, out_features=1, bias=True)
    )
  )
  (projection_layers): ModuleList(
    (0): Linear(in_features=512, out_features=256, bias=True)
  )
  (feature_attn_net): Sequential(
    (0): Linear(in_features=256, out_features=128, bias=True)
    (1): Tanh()
    (2): Linear(in_features=128, out_features=1, bias=True)
  )
  (fc): Sequential(
    (0): Linear(in_features=256, out_features=128, bias=True)
    (1): ReLU()
    (2): Dropout(p=0.3, inplace=False)
    (3): Linear(in_features=128, out_features=50, bias=True)
  )
)
[2025-08-01 17:03:05,857] [INFO] Training...
[2025-08-01 17:03:28,586] [INFO] Epoch 1/50, ValAcc: 13.46%, TrainLoss: 3.6722, ValLoss: 3.3597, LR: 0.001
[2025-08-01 17:03:51,294] [INFO] Epoch 2/50, ValAcc: 20.22%, TrainLoss: 3.2176, ValLoss: 3.0747, LR: 0.001
[2025-08-01 17:04:14,000] [INFO] Epoch 3/50, ValAcc: 23.83%, TrainLoss: 2.9245, ValLoss: 2.9072, LR: 0.001
…
, device=device(type='cuda'), name='tcpwindow_token_bigru_5000_64_50_0.001_512_256_3_0.3_256_128_1000_100_3600'),0.3267,0.4074,0.6821,0.3258
[2025-08-01 17:10:20,897] [INFO] [(0.3266579120157584, 0.40743224294937136, 0.6821068656140352, 0.3258251235932091)]
[2025-08-01 17:10:20,897] [INFO] Training from 3700 to 4700 / 5000
[2025-08-01 17:10:31,351] [INFO] Feature 0 normalized using token
[2025-08-01 17:10:31,351] [INFO] Train shape: (10659, 1000), Val shape: (1523, 1000), Test shape: (3046, 1000)
[2025-08-01 17:10:31,377] [INFO] Classifier: VRScannerModel(
  (input_modules): ModuleList(
    (0): Embedding(3735, 512)
  )
  (rnn_layers): ModuleList(
    (0): GRU(512, 256, num_layers=3, batch_first=True, dropout=0.3, bidirectional=True)
  )
  (attn_nets): ModuleList(
    (0): Sequential(
      (0): Linear(in_features=512, out_features=64, bias=True)
      (1): Tanh()
      (2): Linear(in_features=64, out_features=1, bias=True)
    )
  )
  (projection_layers): ModuleList(
    (0): Linear(in_features=512, out_features=256, bias=True)
  )
  (feature_attn_net): Sequential(
    (0): Linear(in_features=256, out_features=128, bias=True)
    (1): Tanh()
    (2): Linear(in_features=128, out_features=1, bias=True)
  )
  (fc): Sequential(
    (0): Linear(in_features=256, out_features=128, bias=True)
    (1): ReLU()
    (2): Dropout(p=0.3, inplace=False)
    (3): Linear(in_features=128, out_features=50, bias=True)
  )
)
[2025-08-01 17:10:31,377] [INFO] Training...
[2025-08-01 17:10:54,114] [INFO] Epoch 1/50, ValAcc: 11.88%, TrainLoss: 3.7082, ValLoss: 3.4402, LR: 0.001
[2025-08-01 17:11:16,839] [INFO] Epoch 2/50, ValAcc: 19.83%, TrainLoss: 3.3174, ValLoss: 3.1235, LR: 0.001
[2025-08-01 17:11:39,565] [INFO] Epoch 3/50, ValAcc: 22.32%, TrainLoss: 3.0592, ValLoss: 3.0248, LR: 0.001
…
se, device=device(type='cuda'), name='tcpwindow_token_bigru_5000_64_50_0.001_512_256_3_0.3_256_128_1000_100_3700'),0.2974,0.3780,0.6702,0.2974
[2025-08-01 17:17:23,820] [INFO] [(0.2974392646093237, 0.3780347080189048, 0.670228123431216, 0.2973940538963292)]
[2025-08-01 17:17:23,820] [INFO] Training from 3800 to 4800 / 5000
[2025-08-01 17:17:34,155] [INFO] Feature 0 normalized using token
[2025-08-01 17:17:34,155] [INFO] Train shape: (10659, 1000), Val shape: (1523, 1000), Test shape: (3046, 1000)
[2025-08-01 17:17:34,180] [INFO] Classifier: VRScannerModel(
  (input_modules): ModuleList(
    (0): Embedding(3636, 512)
  )
  (rnn_layers): ModuleList(
    (0): GRU(512, 256, num_layers=3, batch_first=True, dropout=0.3, bidirectional=True)
  )
  (attn_nets): ModuleList(
    (0): Sequential(
      (0): Linear(in_features=512, out_features=64, bias=True)
      (1): Tanh()
      (2): Linear(in_features=64, out_features=1, bias=True)
    )
  )
  (projection_layers): ModuleList(
    (0): Linear(in_features=512, out_features=256, bias=True)
  )
  (feature_attn_net): Sequential(
    (0): Linear(in_features=256, out_features=128, bias=True)
    (1): Tanh()
    (2): Linear(in_features=128, out_features=1, bias=True)
  )
  (fc): Sequential(
    (0): Linear(in_features=256, out_features=128, bias=True)
    (1): ReLU()
    (2): Dropout(p=0.3, inplace=False)
    (3): Linear(in_features=128, out_features=50, bias=True)
  )
)
[2025-08-01 17:17:34,180] [INFO] Training...
[2025-08-01 17:17:56,914] [INFO] Epoch 1/50, ValAcc: 9.06%, TrainLoss: 3.7622, ValLoss: 3.5475, LR: 0.001
[2025-08-01 17:18:19,632] [INFO] Epoch 2/50, ValAcc: 13.13%, TrainLoss: 3.4631, ValLoss: 3.3344, LR: 0.001
[2025-08-01 17:18:42,339] [INFO] Epoch 3/50, ValAcc: 17.01%, TrainLoss: 3.2624, ValLoss: 3.2101, LR: 0.001
…
 device=device(type='cuda'), name='tcpwindow_token_bigru_5000_64_50_0.001_512_256_3_0.3_256_128_1000_100_3800'),0.2636,0.3392,0.6332,0.2659
[2025-08-01 17:25:11,989] [INFO] [(0.26362442547603415, 0.33917868016224134, 0.6331594034071357, 0.2659404267520166)]
[2025-08-01 17:25:11,989] [INFO] Training from 3900 to 4900 / 5000
[2025-08-01 17:25:21,841] [INFO] Feature 0 normalized using token
[2025-08-01 17:25:21,841] [INFO] Train shape: (10659, 1000), Val shape: (1523, 1000), Test shape: (3046, 1000)
[2025-08-01 17:25:21,867] [INFO] Classifier: VRScannerModel(
  (input_modules): ModuleList(
    (0): Embedding(3513, 512)
  )
  (rnn_layers): ModuleList(
    (0): GRU(512, 256, num_layers=3, batch_first=True, dropout=0.3, bidirectional=True)
  )
  (attn_nets): ModuleList(
    (0): Sequential(
      (0): Linear(in_features=512, out_features=64, bias=True)
      (1): Tanh()
      (2): Linear(in_features=64, out_features=1, bias=True)
    )
  )
  (projection_layers): ModuleList(
    (0): Linear(in_features=512, out_features=256, bias=True)
  )
  (feature_attn_net): Sequential(
    (0): Linear(in_features=256, out_features=128, bias=True)
    (1): Tanh()
    (2): Linear(in_features=128, out_features=1, bias=True)
  )
  (fc): Sequential(
    (0): Linear(in_features=256, out_features=128, bias=True)
    (1): ReLU()
    (2): Dropout(p=0.3, inplace=False)
    (3): Linear(in_features=128, out_features=50, bias=True)
  )
)
[2025-08-01 17:25:21,867] [INFO] Training...
[2025-08-01 17:25:44,605] [INFO] Epoch 1/50, ValAcc: 9.91%, TrainLoss: 3.7571, ValLoss: 3.5529, LR: 0.001
[2025-08-01 17:26:07,325] [INFO] Epoch 2/50, ValAcc: 13.99%, TrainLoss: 3.4468, ValLoss: 3.3133, LR: 0.001
[2025-08-01 17:26:30,045] [INFO] Epoch 3/50, ValAcc: 18.65%, TrainLoss: 3.2367, ValLoss: 3.1751, LR: 0.001
…
e, device=device(type='cuda'), name='tcpwindow_token_bigru_5000_64_50_0.001_512_256_3_0.3_256_128_1000_100_3900'),0.2485,0.3208,0.6048,0.2498
[2025-08-01 17:32:14,194] [INFO] [(0.2485226526592252, 0.3208049296282869, 0.6047807028185855, 0.2497944747734556)]
[2025-08-01 17:32:14,194] [INFO] Training from 4000 to 5000 / 5000
[2025-08-01 17:32:23,911] [INFO] Feature 0 normalized using token
[2025-08-01 17:32:23,911] [INFO] Train shape: (10659, 1000), Val shape: (1523, 1000), Test shape: (3046, 1000)
[2025-08-01 17:32:23,936] [INFO] Classifier: VRScannerModel(
  (input_modules): ModuleList(
    (0): Embedding(3443, 512)
  )
  (rnn_layers): ModuleList(
    (0): GRU(512, 256, num_layers=3, batch_first=True, dropout=0.3, bidirectional=True)
  )
  (attn_nets): ModuleList(
    (0): Sequential(
      (0): Linear(in_features=512, out_features=64, bias=True)
      (1): Tanh()
      (2): Linear(in_features=64, out_features=1, bias=True)
    )
  )
  (projection_layers): ModuleList(
    (0): Linear(in_features=512, out_features=256, bias=True)
  )
  (feature_attn_net): Sequential(
    (0): Linear(in_features=256, out_features=128, bias=True)
    (1): Tanh()
    (2): Linear(in_features=128, out_features=1, bias=True)
  )
  (fc): Sequential(
    (0): Linear(in_features=256, out_features=128, bias=True)
    (1): ReLU()
    (2): Dropout(p=0.3, inplace=False)
    (3): Linear(in_features=128, out_features=50, bias=True)
  )
)
[2025-08-01 17:32:23,936] [INFO] Training...
[2025-08-01 17:32:46,648] [INFO] Epoch 1/50, ValAcc: 8.47%, TrainLoss: 3.7707, ValLoss: 3.5695, LR: 0.001
[2025-08-01 17:33:09,367] [INFO] Epoch 2/50, ValAcc: 12.74%, TrainLoss: 3.4843, ValLoss: 3.3593, LR: 0.001
[2025-08-01 17:33:32,087] [INFO] Epoch 3/50, ValAcc: 15.89%, TrainLoss: 3.2895, ValLoss: 3.2555, LR: 0.001
…
