…
[2026-01-30 04:21:14,230] [INFO] [['656' '94' '52' ... '181' '52' '52']
 ['423' '87' '52' ... '60' '60' '52']
 ['423' '87' '52' ... '1432' '52' '1432']
 ...
 ['242' '87' '52' ... '424' '700' '52']
 ['60' '60' '52' ... '143' '52' '355']
 ['64' '52' '52' ... '91' '52' '91']]
[2026-01-30 04:21:14,560] [INFO] Training Fold 1/5
[2026-01-30 04:22:50,188] [INFO] Feature 0 normalized using token
[2026-01-30 04:22:50,189] [INFO] Train shape: (59143, 1000), Val shape: (8450, 1000), Test shape: (16899, 1000)
[2026-01-30 04:22:50,245] [INFO] Classifier: VRScannerModel(
  (input_modules): ModuleList(
    (0): Embedding(1386, 512)
  )
  (sequence_encoders): ModuleList(
    (0): Sequential(
      (0): Conv1d(512, 256, kernel_size=(3,), stride=(1,), padding=(1,))
      (1): ReLU()
      (2): Dropout(p=0.3, inplace=False)
      (3): Conv1d(256, 256, kernel_size=(3,), stride=(1,), padding=(1,))
      (4): ReLU()
      (5): Dropout(p=0.3, inplace=False)
    )
  )
  (transformer_input_proj): ModuleList(
    (0): Identity()
  )
  (attn_nets): ModuleList(
    (0): Sequential(
      (0): Linear(in_features=256, out_features=64, bias=True)
      (1): Tanh()
      (2): Linear(in_features=64, out_features=1, bias=True)
    )
  )
  (projection_layers): ModuleList(
    (0): Linear(in_features=256, out_features=256, bias=True)
  )
  (feature_attn_net): Sequential(
    (0): Linear(in_features=256, out_features=128, bias=True)
    (1): Tanh()
    (2): Linear(in_features=128, out_features=1, bias=True)
  )
  (fc): Sequential(
    (0): Linear(in_features=256, out_features=128, bias=True)
    (1): ReLU()
    (2): Dropout(p=0.3, inplace=False)
    (3): Linear(in_features=128, out_features=91, bias=True)
  )
)
[2026-01-30 04:22:50,245] [INFO] Training...
[2026-01-30 04:22:58,217] [INFO] Epoch 1/50, ValAcc: 51.38%, TrainLoss: 3.2518, ValLoss: 1.6278, LR: 0.001
[2026-01-30 04:23:05,160] [INFO] Epoch 2/50, ValAcc: 73.53%, TrainLoss: 1.4084, ValLoss: 0.9846, LR: 0.001
[2026-01-30 04:23:12,336] [INFO] Epoch 3/50, ValAcc: 83.75%, TrainLoss: 0.9182, ValLoss: 0.6577, LR: 0.001
…
