…
[2026-01-31 08:19:09,734] [INFO] [['656' '94' '52' ... '181' '52' '52']
 ['423' '87' '52' ... '60' '60' '52']
 ['423' '87' '52' ... '1432' '52' '1432']
 ...
 ['242' '87' '52' ... '424' '700' '52']
 ['60' '60' '52' ... '143' '52' '355']
 ['64' '52' '52' ... '91' '52' '91']]
[2026-01-31 08:19:10,069] [INFO] Training Fold 1/5
[2026-01-31 08:20:45,230] [INFO] Feature 0 normalized using token
[2026-01-31 08:20:45,230] [INFO] Train shape: (59143, 1000), Val shape: (8450, 1000), Test shape: (16899, 1000)
[2026-01-31 08:20:45,373] [INFO] Classifier: VRScannerModel(
  (input_modules): ModuleList(
    (0): Embedding(1386, 512)
  )
  (sequence_encoders): ModuleList(
    (0): TransformerEncoder(
      (layers): ModuleList(
        (0-1): 2 x TransformerEncoderLayer(
          (self_attn): MultiheadAttention(
            (out_proj): NonDynamicallyQuantizableLinear(in_features=256, out_features=256, bias=True)
          )
          (linear1): Linear(in_features=256, out_features=512, bias=True)
          (dropout): Dropout(p=0.1, inplace=False)
          (linear2): Linear(in_features=512, out_features=256, bias=True)
          (norm1): LayerNorm((256,), eps=1e-05, elementwise_affine=True)
          (norm2): LayerNorm((256,), eps=1e-05, elementwise_affine=True)
          (dropout1): Dropout(p=0.1, inplace=False)
          (dropout2): Dropout(p=0.1, inplace=False)
        )
      )
    )
  )
  (transformer_input_proj): ModuleList(
    (0): Linear(in_features=512, out_features=256, bias=True)
  )
  (attn_nets): ModuleList(
    (0): Sequential(
      (0): Linear(in_features=256, out_features=64, bias=True)
      (1): Tanh()
      (2): Linear(in_features=64, out_features=1, bias=True)
    )
  )
  (projection_layers): ModuleList(
    (0): Linear(in_features=256, out_features=256, bias=True)
  )
  (feature_attn_net): Sequential(
    (0): Linear(in_features=256, out_features=128, bias=True)
    (1): Tanh()
    (2): Linear(in_features=128, out_features=1, bias=True)
  )
  (fc): Sequential(
    (0): Linear(in_features=256, out_features=128, bias=True)
    (1): ReLU()
    (2): Dropout(p=0.3, inplace=False)
    (3): Linear(in_features=128, out_features=91, bias=True)
  )
)
[2026-01-31 08:20:45,374] [INFO] Training...
[2026-01-31 08:21:34,906] [INFO] Epoch 1/50, ValAcc: 12.32%, TrainLoss: 4.2584, ValLoss: 3.4930, LR: 0.0001
[2026-01-31 08:22:24,651] [INFO] Epoch 2/50, ValAcc: 65.66%, TrainLoss: 2.7524, ValLoss: 1.5079, LR: 0.0001
[2026-01-31 08:23:14,491] [INFO] Epoch 3/50, ValAcc: 82.60%, TrainLoss: 1.2154, ValLoss: 0.7490, LR: 0.0001
…
