…
 ['38587' '60137' '38776' ... '34662' '34661' '34660']
 ['38403' '51344' '38410' ... '21415' '21414' '7363']
 ['15327' '15338' '15337' ... '16489' '65416' '37810']]
[2025-07-24 07:48:02,179] [INFO] Feature 0 normalized using none
[2025-07-24 07:48:02,180] [INFO] Train shape: (59143, 500), Val shape: (8450, 500), Test shape: (16899, 500)
[2025-07-24 07:48:02,216] [INFO] Classifier: VRScannerModel(
  (input_modules): ModuleList(
    (0): Identity()
  )
  (rnn_layers): ModuleList(
    (0): GRU(1, 128, num_layers=3, batch_first=True, dropout=0.3)
  )
  (attn_nets): ModuleList(
    (0): Sequential(
      (0): Linear(in_features=128, out_features=64, bias=True)
      (1): Tanh()
      (2): Linear(in_features=64, out_features=1, bias=True)
    )
  )
  (projection_layers): ModuleList(
    (0): Linear(in_features=128, out_features=128, bias=True)
  )
  (feature_attn_net): Sequential(
    (0): Linear(in_features=128, out_features=128, bias=True)
    (1): Tanh()
    (2): Linear(in_features=128, out_features=1, bias=True)
  )
  (fc): Sequential(
    (0): Linear(in_features=128, out_features=128, bias=True)
    (1): ReLU()
    (2): Dropout(p=0.3, inplace=False)
    (3): Linear(in_features=128, out_features=91, bias=True)
  )
)
[2025-07-24 07:48:02,216] [INFO] Training...
[2025-07-24 07:48:25,214] [INFO] Epoch 1/5, ValAcc: 0.98%, TrainLoss: 4.5128, ValLoss: 4.5118, LR: 0.001
[2025-07-24 07:48:42,349] [INFO] Epoch 2/5, ValAcc: 0.98%, TrainLoss: 4.5112, ValLoss: 4.5120, LR: 0.001
[2025-07-24 07:48:54,529] [INFO] Epoch 3/5, ValAcc: 0.98%, TrainLoss: 4.5111, ValLoss: 4.5122, LR: 0.001
…
ug', leaderboard_path='output/meta-free-apps/step1/step1_meta_ip_chksum.csv', step1=True, step2=False, step3=False, train=False, longitudinal_evaluation=False, openworld_evaluation=False, device=device(type='cuda'), metadata='chksum', name='ipchksum_none_gru_500_32_5_0.001_128_128_3_0.3_128_128'),0.0102,0.0002,0.0001,0.0110
[2025-07-24 07:49:43,684] [INFO] Feature 0 normalized using minmax
[2025-07-24 07:49:43,684] [INFO] Train shape: (59143, 500), Val shape: (8450, 500), Test shape: (16899, 500)
[2025-07-24 07:49:43,711] [INFO] Classifier: VRScannerModel(
  (input_modules): ModuleList(
    (0): Linear(in_features=1, out_features=128, bias=True)
  )
  (rnn_layers): ModuleList(
    (0): GRU(128, 128, num_layers=3, batch_first=True, dropout=0.3)
  )
  (attn_nets): ModuleList(
    (0): Sequential(
      (0): Linear(in_features=128, out_features=64, bias=True)
      (1): Tanh()
      (2): Linear(in_features=64, out_features=1, bias=True)
    )
  )
  (projection_layers): ModuleList(
    (0): Linear(in_features=128, out_features=128, bias=True)
  )
  (feature_attn_net): Sequential(
    (0): Linear(in_features=128, out_features=128, bias=True)
    (1): Tanh()
    (2): Linear(in_features=128, out_features=1, bias=True)
  )
  (fc): Sequential(
    (0): Linear(in_features=128, out_features=128, bias=True)
    (1): ReLU()
    (2): Dropout(p=0.3, inplace=False)
    (3): Linear(in_features=128, out_features=91, bias=True)
  )
)
[2025-07-24 07:49:43,711] [INFO] Training...
[2025-07-24 07:49:58,004] [INFO] Epoch 1/5, ValAcc: 1.07%, TrainLoss: 4.5130, ValLoss: 4.5118, LR: 0.001
[2025-07-24 07:50:20,244] [INFO] Epoch 2/5, ValAcc: 0.98%, TrainLoss: 4.5113, ValLoss: 4.5120, LR: 0.001
[2025-07-24 07:50:42,188] [INFO] Epoch 3/5, ValAcc: 0.98%, TrainLoss: 4.5111, ValLoss: 4.5122, LR: 0.001
…
g', leaderboard_path='output/meta-free-apps/step1/step1_meta_ip_chksum.csv', step1=True, step2=False, step3=False, train=False, longitudinal_evaluation=False, openworld_evaluation=False, device=device(type='cuda'), metadata='chksum', name='ipchksum_zscore_gru_500_32_5_0.001_128_128_3_0.3_128_128'),0.0102,0.0002,0.0001,0.0110
[2025-07-24 07:54:37,316] [INFO] Feature 0 normalized using token
[2025-07-24 07:54:37,316] [INFO] Train shape: (59143, 500), Val shape: (8450, 500), Test shape: (16899, 500)
[2025-07-24 07:54:37,378] [INFO] Classifier: VRScannerModel(
  (input_modules): ModuleList(
    (0): Embedding(65536, 128)
  )
  (rnn_layers): ModuleList(
    (0): GRU(128, 128, num_layers=3, batch_first=True, dropout=0.3)
  )
  (attn_nets): ModuleList(
    (0): Sequential(
      (0): Linear(in_features=128, out_features=64, bias=True)
      (1): Tanh()
      (2): Linear(in_features=64, out_features=1, bias=True)
    )
  )
  (projection_layers): ModuleList(
    (0): Linear(in_features=128, out_features=128, bias=True)
  )
  (feature_attn_net): Sequential(
    (0): Linear(in_features=128, out_features=128, bias=True)
    (1): Tanh()
    (2): Linear(in_features=128, out_features=1, bias=True)
  )
  (fc): Sequential(
    (0): Linear(in_features=128, out_features=128, bias=True)
    (1): ReLU()
    (2): Dropout(p=0.3, inplace=False)
    (3): Linear(in_features=128, out_features=91, bias=True)
  )
)
[2025-07-24 07:54:37,378] [INFO] Training...
[2025-07-24 07:54:58,543] [INFO] Epoch 1/5, ValAcc: 2.27%, TrainLoss: 4.4931, ValLoss: 4.4104, LR: 0.001
[2025-07-24 07:55:22,674] [INFO] Epoch 2/5, ValAcc: 4.71%, TrainLoss: 4.2433, ValLoss: 4.1402, LR: 0.001
[2025-07-24 07:55:47,194] [INFO] Epoch 3/5, ValAcc: 6.65%, TrainLoss: 4.0057, ValLoss: 3.9862, LR: 0.001
…
