…
 ['423' '-87' '52' ... '52' '-40' '-40']
 ...
 ['242' '-87' '52' ... '1432' '1432' '1432']
 ['60' '-60' '52' ... '1432' '1432' '-52']
 ['64' '52' '52' ... '52' '355' '-87']]
[2025-07-24 01:08:01,844] [INFO] Feature 0 normalized using none
[2025-07-24 01:08:01,844] [INFO] Train shape: (59143, 500), Val shape: (8450, 500), Test shape: (16899, 500)
[2025-07-24 01:08:01,882] [INFO] Classifier: VRScannerModel(
  (input_modules): ModuleList(
    (0): Identity()
  )
  (rnn_layers): ModuleList(
    (0): GRU(1, 128, num_layers=3, batch_first=True, dropout=0.3)
  )
  (attn_nets): ModuleList(
    (0): Sequential(
      (0): Linear(in_features=128, out_features=64, bias=True)
      (1): Tanh()
      (2): Linear(in_features=64, out_features=1, bias=True)
    )
  )
  (projection_layers): ModuleList(
    (0): Linear(in_features=128, out_features=128, bias=True)
  )
  (feature_attn_net): Sequential(
    (0): Linear(in_features=128, out_features=128, bias=True)
    (1): Tanh()
    (2): Linear(in_features=128, out_features=1, bias=True)
  )
  (fc): Sequential(
    (0): Linear(in_features=128, out_features=128, bias=True)
    (1): ReLU()
    (2): Dropout(p=0.3, inplace=False)
    (3): Linear(in_features=128, out_features=91, bias=True)
  )
)
[2025-07-24 01:08:01,882] [INFO] Training...
[2025-07-24 01:08:20,214] [INFO] Epoch 1/5, ValAcc: 35.07%, TrainLoss: 3.5941, ValLoss: 2.4050, LR: 0.001
[2025-07-24 01:08:34,578] [INFO] Epoch 2/5, ValAcc: 54.33%, TrainLoss: 2.2119, ValLoss: 1.6722, LR: 0.001
[2025-07-24 01:08:56,451] [INFO] Epoch 3/5, ValAcc: 38.88%, TrainLoss: 1.7532, ValLoss: 2.0792, LR: 0.001
…
', leaderboard_path='output/meta-free-apps/step1/step1_meta_pkt_dirlen.csv', step1=True, step2=False, step3=False, train=False, longitudinal_evaluation=False, openworld_evaluation=False, device=device(type='cuda'), metadata='dirlen', name='pktdirlen_none_gru_500_32_5_0.001_128_128_3_0.3_128_128'),0.6126,0.6159,0.6931,0.6095
[2025-07-24 01:10:01,390] [INFO] Feature 0 normalized using minmax
[2025-07-24 01:10:01,391] [INFO] Train shape: (59143, 500), Val shape: (8450, 500), Test shape: (16899, 500)
[2025-07-24 01:10:01,416] [INFO] Classifier: VRScannerModel(
  (input_modules): ModuleList(
    (0): Linear(in_features=1, out_features=128, bias=True)
  )
  (rnn_layers): ModuleList(
    (0): GRU(128, 128, num_layers=3, batch_first=True, dropout=0.3)
  )
  (attn_nets): ModuleList(
    (0): Sequential(
      (0): Linear(in_features=128, out_features=64, bias=True)
      (1): Tanh()
      (2): Linear(in_features=64, out_features=1, bias=True)
    )
  )
  (projection_layers): ModuleList(
    (0): Linear(in_features=128, out_features=128, bias=True)
  )
  (feature_attn_net): Sequential(
    (0): Linear(in_features=128, out_features=128, bias=True)
    (1): Tanh()
    (2): Linear(in_features=128, out_features=1, bias=True)
  )
  (fc): Sequential(
    (0): Linear(in_features=128, out_features=128, bias=True)
    (1): ReLU()
    (2): Dropout(p=0.3, inplace=False)
    (3): Linear(in_features=128, out_features=91, bias=True)
  )
)
[2025-07-24 01:10:01,416] [INFO] Training...
[2025-07-24 01:10:21,755] [INFO] Epoch 1/5, ValAcc: 24.00%, TrainLoss: 3.7349, ValLoss: 2.7826, LR: 0.001
[2025-07-24 01:10:43,196] [INFO] Epoch 2/5, ValAcc: 64.28%, TrainLoss: 2.1868, ValLoss: 1.3584, LR: 0.001
[2025-07-24 01:11:06,571] [INFO] Epoch 3/5, ValAcc: 72.20%, TrainLoss: 1.3875, ValLoss: 1.0582, LR: 0.001
…
, leaderboard_path='output/meta-free-apps/step1/step1_meta_pkt_dirlen.csv', step1=True, step2=False, step3=False, train=False, longitudinal_evaluation=False, openworld_evaluation=False, device=device(type='cuda'), metadata='dirlen', name='pktdirlen_zscore_gru_500_32_5_0.001_128_128_3_0.3_128_128'),0.7281,0.7318,0.7721,0.7280
[2025-07-24 01:14:37,458] [INFO] Feature 0 normalized using token
[2025-07-24 01:14:37,458] [INFO] Train shape: (59143, 500), Val shape: (8450, 500), Test shape: (16899, 500)
[2025-07-24 01:14:37,509] [INFO] Classifier: VRScannerModel(
  (input_modules): ModuleList(
    (0): Embedding(2768, 128)
  )
  (rnn_layers): ModuleList(
    (0): GRU(128, 128, num_layers=3, batch_first=True, dropout=0.3)
  )
  (attn_nets): ModuleList(
    (0): Sequential(
      (0): Linear(in_features=128, out_features=64, bias=True)
      (1): Tanh()
      (2): Linear(in_features=64, out_features=1, bias=True)
    )
  )
  (projection_layers): ModuleList(
    (0): Linear(in_features=128, out_features=128, bias=True)
  )
  (feature_attn_net): Sequential(
    (0): Linear(in_features=128, out_features=128, bias=True)
    (1): Tanh()
    (2): Linear(in_features=128, out_features=1, bias=True)
  )
  (fc): Sequential(
    (0): Linear(in_features=128, out_features=128, bias=True)
    (1): ReLU()
    (2): Dropout(p=0.3, inplace=False)
    (3): Linear(in_features=128, out_features=91, bias=True)
  )
)
[2025-07-24 01:14:37,509] [INFO] Training...
[2025-07-24 01:15:01,102] [INFO] Epoch 1/5, ValAcc: 86.00%, TrainLoss: 2.2075, ValLoss: 0.6167, LR: 0.001
[2025-07-24 01:15:23,569] [INFO] Epoch 2/5, ValAcc: 89.02%, TrainLoss: 0.5404, ValLoss: 0.4272, LR: 0.001
[2025-07-24 01:15:46,746] [INFO] Epoch 3/5, ValAcc: 90.57%, TrainLoss: 0.4107, ValLoss: 0.4023, LR: 0.001
…
ir.debug', leaderboard_path='output/meta-free-apps/step1/step1_meta_pkt_dir.csv', step1=True, step2=False, step3=False, train=False, longitudinal_evaluation=False, openworld_evaluation=False, device=device(type='cuda'), metadata='dir', name='pktdir_zscore_gru_500_32_5_0.001_128_128_3_0.3_128_128'),0.2740,0.2479,0.2981,0.2746
[2025-07-24 01:44:47,769] [INFO] Feature 0 normalized using token
[2025-07-24 01:44:47,770] [INFO] Train shape: (59143, 500), Val shape: (8450, 500), Test shape: (16899, 500)
[2025-07-24 01:44:47,919] [INFO] Classifier: VRScannerModel(
  (input_modules): ModuleList(
    (0): Embedding(3, 128)
  )
  (rnn_layers): ModuleList(
    (0): GRU(128, 128, num_layers=3, batch_first=True, dropout=0.3)
  )
  (attn_nets): ModuleList(
    (0): Sequential(
      (0): Linear(in_features=128, out_features=64, bias=True)
      (1): Tanh()
      (2): Linear(in_features=64, out_features=1, bias=True)
    )
  )
  (projection_layers): ModuleList(
    (0): Linear(in_features=128, out_features=128, bias=True)
  )
  (feature_attn_net): Sequential(
    (0): Linear(in_features=128, out_features=128, bias=True)
    (1): Tanh()
    (2): Linear(in_features=128, out_features=1, bias=True)
  )
  (fc): Sequential(
    (0): Linear(in_features=128, out_features=128, bias=True)
    (1): ReLU()
    (2): Dropout(p=0.3, inplace=False)
    (3): Linear(in_features=128, out_features=91, bias=True)
  )
)
[2025-07-24 01:44:47,919] [INFO] Training...
[2025-07-24 01:45:03,536] [INFO] Epoch 1/5, ValAcc: 9.73%, TrainLoss: 3.9915, ValLoss: 3.4466, LR: 0.001
[2025-07-24 01:45:19,282] [INFO] Epoch 2/5, ValAcc: 16.12%, TrainLoss: 3.3038, ValLoss: 3.1017, LR: 0.001
[2025-07-24 01:45:35,419] [INFO] Epoch 3/5, ValAcc: 17.10%, TrainLoss: 3.0932, ValLoss: 2.9776, LR: 0.001
…
bug', leaderboard_path='output/meta-free-apps/step1/step1_meta_pkt_ts_rel.csv', step1=True, step2=False, step3=False, train=False, longitudinal_evaluation=False, openworld_evaluation=False, device=device(type='cuda'), metadata='rel', name='pkttsrel_zscore_gru_500_32_5_0.001_128_128_3_0.3_128_128'),0.3063,0.2957,0.3464,0.3062
[2025-07-24 02:19:20,638] [INFO] Feature 0 normalized using token
[2025-07-24 02:19:20,638] [INFO] Train shape: (59143, 500), Val shape: (8450, 500), Test shape: (16899, 500)
[2025-07-24 02:19:38,315] [INFO] Classifier: VRScannerModel(
  (input_modules): ModuleList(
    (0): Embedding(12034852, 128)
  )
  (rnn_layers): ModuleList(
    (0): GRU(128, 128, num_layers=3, batch_first=True, dropout=0.3)
  )
  (attn_nets): ModuleList(
    (0): Sequential(
      (0): Linear(in_features=128, out_features=64, bias=True)
      (1): Tanh()
      (2): Linear(in_features=64, out_features=1, bias=True)
    )
  )
  (projection_layers): ModuleList(
    (0): Linear(in_features=128, out_features=128, bias=True)
  )
  (feature_attn_net): Sequential(
    (0): Linear(in_features=128, out_features=128, bias=True)
    (1): Tanh()
    (2): Linear(in_features=128, out_features=1, bias=True)
  )
  (fc): Sequential(
    (0): Linear(in_features=128, out_features=128, bias=True)
    (1): ReLU()
    (2): Dropout(p=0.3, inplace=False)
    (3): Linear(in_features=128, out_features=91, bias=True)
  )
)
[2025-07-24 02:19:38,316] [INFO] Training...
[2025-07-24 02:26:29,569] [INFO] Epoch 1/5, ValAcc: 1.01%, TrainLoss: 4.5125, ValLoss: 4.5191, LR: 0.001
[2025-07-24 02:33:18,633] [INFO] Epoch 2/5, ValAcc: 1.08%, TrainLoss: 4.5110, ValLoss: 5.0553, LR: 0.001
[2025-07-24 02:40:07,153] [INFO] Epoch 3/5, ValAcc: 1.30%, TrainLoss: 4.3633, ValLoss: 7.0019, LR: 0.001
…
', leaderboard_path='output/meta-free-apps/step1/step1_meta_pkt_ts_diff.csv', step1=True, step2=False, step3=False, train=False, longitudinal_evaluation=False, openworld_evaluation=False, device=device(type='cuda'), metadata='diff', name='pkttsdiff_zscore_gru_500_32_5_0.001_128_128_3_0.3_128_128'),0.4553,0.4535,0.5031,0.4555
[2025-07-24 03:23:46,628] [INFO] Feature 0 normalized using token
[2025-07-24 03:23:46,629] [INFO] Train shape: (59143, 500), Val shape: (8450, 500), Test shape: (16899, 500)
[2025-07-24 03:23:47,790] [INFO] Classifier: VRScannerModel(
  (input_modules): ModuleList(
    (0): Embedding(820606, 128)
  )
  (rnn_layers): ModuleList(
    (0): GRU(128, 128, num_layers=3, batch_first=True, dropout=0.3)
  )
  (attn_nets): ModuleList(
    (0): Sequential(
      (0): Linear(in_features=128, out_features=64, bias=True)
      (1): Tanh()
      (2): Linear(in_features=64, out_features=1, bias=True)
    )
  )
  (projection_layers): ModuleList(
    (0): Linear(in_features=128, out_features=128, bias=True)
  )
  (feature_attn_net): Sequential(
    (0): Linear(in_features=128, out_features=128, bias=True)
    (1): Tanh()
    (2): Linear(in_features=128, out_features=1, bias=True)
  )
  (fc): Sequential(
    (0): Linear(in_features=128, out_features=128, bias=True)
    (1): ReLU()
    (2): Dropout(p=0.3, inplace=False)
    (3): Linear(in_features=128, out_features=91, bias=True)
  )
)
[2025-07-24 03:23:47,790] [INFO] Training...
[2025-07-24 03:24:30,007] [INFO] Epoch 1/5, ValAcc: 8.45%, TrainLoss: 4.1767, ValLoss: 3.5992, LR: 0.001
[2025-07-24 03:25:12,303] [INFO] Epoch 2/5, ValAcc: 14.99%, TrainLoss: 3.4037, ValLoss: 3.1506, LR: 0.001
[2025-07-24 03:25:54,430] [INFO] Epoch 3/5, ValAcc: 21.86%, TrainLoss: 3.0286, ValLoss: 2.8206, LR: 0.001
…
 leaderboard_path='output/meta-free-apps/step1/step1_meta_ip_version.csv', step1=True, step2=False, step3=False, train=False, longitudinal_evaluation=False, openworld_evaluation=False, device=device(type='cuda'), metadata='version', name='ipversion_zscore_gru_500_32_5_0.001_128_128_3_0.3_128_128'),0.0102,0.0002,0.0001,0.0110
[2025-07-24 03:51:14,650] [INFO] Feature 0 normalized using token
[2025-07-24 03:51:14,651] [INFO] Train shape: (59143, 500), Val shape: (8450, 500), Test shape: (16899, 500)
[2025-07-24 03:51:14,725] [INFO] Classifier: VRScannerModel(
  (input_modules): ModuleList(
    (0): Embedding(2, 128)
  )
  (rnn_layers): ModuleList(
    (0): GRU(128, 128, num_layers=3, batch_first=True, dropout=0.3)
  )
  (attn_nets): ModuleList(
    (0): Sequential(
      (0): Linear(in_features=128, out_features=64, bias=True)
      (1): Tanh()
      (2): Linear(in_features=64, out_features=1, bias=True)
    )
  )
  (projection_layers): ModuleList(
    (0): Linear(in_features=128, out_features=128, bias=True)
  )
  (feature_attn_net): Sequential(
    (0): Linear(in_features=128, out_features=128, bias=True)
    (1): Tanh()
    (2): Linear(in_features=128, out_features=1, bias=True)
  )
  (fc): Sequential(
    (0): Linear(in_features=128, out_features=128, bias=True)
    (1): ReLU()
    (2): Dropout(p=0.3, inplace=False)
    (3): Linear(in_features=128, out_features=91, bias=True)
  )
)
[2025-07-24 03:51:14,725] [INFO] Training...
[2025-07-24 03:51:30,396] [INFO] Epoch 1/5, ValAcc: 1.04%, TrainLoss: 4.5126, ValLoss: 4.5117, LR: 0.001
[2025-07-24 03:51:48,434] [INFO] Epoch 2/5, ValAcc: 1.04%, TrainLoss: 4.5112, ValLoss: 4.5121, LR: 0.001
[2025-07-24 03:52:02,931] [INFO] Epoch 3/5, ValAcc: 0.98%, TrainLoss: 4.5111, ValLoss: 4.5124, LR: 0.001
…
_ttl.debug', leaderboard_path='output/meta-free-apps/step1/step1_meta_ip_ttl.csv', step1=True, step2=False, step3=False, train=False, longitudinal_evaluation=False, openworld_evaluation=False, device=device(type='cuda'), metadata='ttl', name='ipttl_zscore_gru_500_32_5_0.001_128_128_3_0.3_128_128'),0.0102,0.0002,0.0001,0.0110
[2025-07-24 04:44:01,243] [INFO] Feature 0 normalized using token
[2025-07-24 04:44:01,244] [INFO] Train shape: (59143, 500), Val shape: (8450, 500), Test shape: (16899, 500)
[2025-07-24 04:44:01,375] [INFO] Classifier: VRScannerModel(
  (input_modules): ModuleList(
    (0): Embedding(18, 128)
  )
  (rnn_layers): ModuleList(
    (0): GRU(128, 128, num_layers=3, batch_first=True, dropout=0.3)
  )
  (attn_nets): ModuleList(
    (0): Sequential(
      (0): Linear(in_features=128, out_features=64, bias=True)
      (1): Tanh()
      (2): Linear(in_features=64, out_features=1, bias=True)
    )
  )
  (projection_layers): ModuleList(
    (0): Linear(in_features=128, out_features=128, bias=True)
  )
  (feature_attn_net): Sequential(
    (0): Linear(in_features=128, out_features=128, bias=True)
    (1): Tanh()
    (2): Linear(in_features=128, out_features=1, bias=True)
  )
  (fc): Sequential(
    (0): Linear(in_features=128, out_features=128, bias=True)
    (1): ReLU()
    (2): Dropout(p=0.3, inplace=False)
    (3): Linear(in_features=128, out_features=91, bias=True)
  )
)
[2025-07-24 04:44:01,391] [INFO] Training...
[2025-07-24 04:44:16,154] [INFO] Epoch 1/5, ValAcc: 9.51%, TrainLoss: 3.9715, ValLoss: 3.4664, LR: 0.001
[2025-07-24 04:44:31,131] [INFO] Epoch 2/5, ValAcc: 14.92%, TrainLoss: 3.2869, ValLoss: 3.0953, LR: 0.001
[2025-07-24 04:44:46,560] [INFO] Epoch 3/5, ValAcc: 18.80%, TrainLoss: 3.0319, ValLoss: 2.8782, LR: 0.001
…
_tos.debug', leaderboard_path='output/meta-free-apps/step1/step1_meta_ip_tos.csv', step1=True, step2=False, step3=False, train=False, longitudinal_evaluation=False, openworld_evaluation=False, device=device(type='cuda'), metadata='tos', name='iptos_zscore_gru_500_32_5_0.001_128_128_3_0.3_128_128'),0.0102,0.0002,0.0001,0.0110
[2025-07-24 05:12:30,419] [INFO] Feature 0 normalized using token
[2025-07-24 05:12:30,420] [INFO] Train shape: (59143, 500), Val shape: (8450, 500), Test shape: (16899, 500)
[2025-07-24 05:12:30,558] [INFO] Classifier: VRScannerModel(
  (input_modules): ModuleList(
    (0): Embedding(4, 128)
  )
  (rnn_layers): ModuleList(
    (0): GRU(128, 128, num_layers=3, batch_first=True, dropout=0.3)
  )
  (attn_nets): ModuleList(
    (0): Sequential(
      (0): Linear(in_features=128, out_features=64, bias=True)
      (1): Tanh()
      (2): Linear(in_features=64, out_features=1, bias=True)
    )
  )
  (projection_layers): ModuleList(
    (0): Linear(in_features=128, out_features=128, bias=True)
  )
  (feature_attn_net): Sequential(
    (0): Linear(in_features=128, out_features=128, bias=True)
    (1): Tanh()
    (2): Linear(in_features=128, out_features=1, bias=True)
  )
  (fc): Sequential(
    (0): Linear(in_features=128, out_features=128, bias=True)
    (1): ReLU()
    (2): Dropout(p=0.3, inplace=False)
    (3): Linear(in_features=128, out_features=91, bias=True)
  )
)
[2025-07-24 05:12:30,558] [INFO] Training...
[2025-07-24 05:12:45,631] [INFO] Epoch 1/5, ValAcc: 0.91%, TrainLoss: 4.5127, ValLoss: 4.5118, LR: 0.001
[2025-07-24 05:13:01,095] [INFO] Epoch 2/5, ValAcc: 0.91%, TrainLoss: 4.5113, ValLoss: 4.5122, LR: 0.001
[2025-07-24 05:13:16,276] [INFO] Epoch 3/5, ValAcc: 0.91%, TrainLoss: 4.5111, ValLoss: 4.5126, LR: 0.001
…
 ['10.0.0.4' '157.240.215.51' '10.0.0.4' ... '10.0.0.4' '157.240.215.51'
  '157.240.215.51']
 ...
 ['10.0.1.8' '157.240.215.51' '10.0.1.8' ... '10.0.1.8' '10.0.1.8'
  '10.0.1.8']
 ['10.0.1.8' '157.240.215.51' '10.0.1.8' ... '10.0.1.8' '10.0.1.8'
  '157.240.215.16']
 ['10.0.1.8' '10.0.1.8' '10.0.1.8' ... '10.0.1.8' '10.0.1.8'
  '157.240.215.51']]
[2025-07-24 05:36:24,587] [INFO] Feature 0 normalized using token
[2025-07-24 05:36:24,587] [INFO] Train shape: (59143, 500), Val shape: (8450, 500), Test shape: (16899, 500)
[2025-07-24 05:36:24,632] [INFO] Classifier: VRScannerModel(
  (input_modules): ModuleList(
    (0): Embedding(102, 128)
  )
  (rnn_layers): ModuleList(
    (0): GRU(128, 128, num_layers=3, batch_first=True, dropout=0.3)
  )
  (attn_nets): ModuleList(
    (0): Sequential(
      (0): Linear(in_features=128, out_features=64, bias=True)
      (1): Tanh()
      (2): Linear(in_features=64, out_features=1, bias=True)
    )
  )
  (projection_layers): ModuleList(
    (0): Linear(in_features=128, out_features=128, bias=True)
  )
  (feature_attn_net): Sequential(
    (0): Linear(in_features=128, out_features=128, bias=True)
    (1): Tanh()
    (2): Linear(in_features=128, out_features=1, bias=True)
  )
  (fc): Sequential(
    (0): Linear(in_features=128, out_features=128, bias=True)
    (1): ReLU()
    (2): Dropout(p=0.3, inplace=False)
    (3): Linear(in_features=128, out_features=91, bias=True)
  )
)
[2025-07-24 05:36:24,632] [INFO] Training...
[2025-07-24 05:36:40,612] [INFO] Epoch 1/5, ValAcc: 24.02%, TrainLoss: 3.6149, ValLoss: 2.8151, LR: 0.001
[2025-07-24 05:37:03,928] [INFO] Epoch 2/5, ValAcc: 39.44%, TrainLoss: 2.5059, ValLoss: 2.0831, LR: 0.001
[2025-07-24 05:37:27,779] [INFO] Epoch 3/5, ValAcc: 46.21%, TrainLoss: 2.0673, ValLoss: 1.7916, LR: 0.001
…
_len.debug', leaderboard_path='output/meta-free-apps/step1/step1_meta_ip_len.csv', step1=True, step2=False, step3=False, train=False, longitudinal_evaluation=False, openworld_evaluation=False, device=device(type='cuda'), metadata='len', name='iplen_zscore_gru_500_32_5_0.001_128_128_3_0.3_128_128'),0.7325,0.7556,0.8079,0.7323
[2025-07-24 06:23:05,571] [INFO] Feature 0 normalized using token
[2025-07-24 06:23:05,572] [INFO] Train shape: (59143, 500), Val shape: (8450, 500), Test shape: (16899, 500)
[2025-07-24 06:23:05,592] [INFO] Classifier: VRScannerModel(
  (input_modules): ModuleList(
    (0): Embedding(1385, 128)
  )
  (rnn_layers): ModuleList(
    (0): GRU(128, 128, num_layers=3, batch_first=True, dropout=0.3)
  )
  (attn_nets): ModuleList(
    (0): Sequential(
      (0): Linear(in_features=128, out_features=64, bias=True)
      (1): Tanh()
      (2): Linear(in_features=64, out_features=1, bias=True)
    )
  )
  (projection_layers): ModuleList(
    (0): Linear(in_features=128, out_features=128, bias=True)
  )
  (feature_attn_net): Sequential(
    (0): Linear(in_features=128, out_features=128, bias=True)
    (1): Tanh()
    (2): Linear(in_features=128, out_features=1, bias=True)
  )
  (fc): Sequential(
    (0): Linear(in_features=128, out_features=128, bias=True)
    (1): ReLU()
    (2): Dropout(p=0.3, inplace=False)
    (3): Linear(in_features=128, out_features=91, bias=True)
  )
)
[2025-07-24 06:23:05,592] [INFO] Training...
[2025-07-24 06:23:28,949] [INFO] Epoch 1/5, ValAcc: 86.46%, TrainLoss: 2.4727, ValLoss: 0.5888, LR: 0.001
[2025-07-24 06:23:44,173] [INFO] Epoch 2/5, ValAcc: 89.83%, TrainLoss: 0.5252, ValLoss: 0.4291, LR: 0.001
[2025-07-24 06:24:07,706] [INFO] Epoch 3/5, ValAcc: 90.41%, TrainLoss: 0.4127, ValLoss: 0.4109, LR: 0.001
…
a_ip_id.debug', leaderboard_path='output/meta-free-apps/step1/step1_meta_ip_id.csv', step1=True, step2=False, step3=False, train=False, longitudinal_evaluation=False, openworld_evaluation=False, device=device(type='cuda'), metadata='id', name='ipid_zscore_gru_500_32_5_0.001_128_128_3_0.3_128_128'),0.1417,0.1192,0.1520,0.1416
[2025-07-24 06:53:38,207] [INFO] Feature 0 normalized using token
[2025-07-24 06:53:38,207] [INFO] Train shape: (59143, 500), Val shape: (8450, 500), Test shape: (16899, 500)
[2025-07-24 06:53:38,304] [INFO] Classifier: VRScannerModel(
  (input_modules): ModuleList(
    (0): Embedding(65537, 128)
  )
  (rnn_layers): ModuleList(
    (0): GRU(128, 128, num_layers=3, batch_first=True, dropout=0.3)
  )
  (attn_nets): ModuleList(
    (0): Sequential(
      (0): Linear(in_features=128, out_features=64, bias=True)
      (1): Tanh()
      (2): Linear(in_features=64, out_features=1, bias=True)
    )
  )
  (projection_layers): ModuleList(
    (0): Linear(in_features=128, out_features=128, bias=True)
  )
  (feature_attn_net): Sequential(
    (0): Linear(in_features=128, out_features=128, bias=True)
    (1): Tanh()
    (2): Linear(in_features=128, out_features=1, bias=True)
  )
  (fc): Sequential(
    (0): Linear(in_features=128, out_features=128, bias=True)
    (1): ReLU()
    (2): Dropout(p=0.3, inplace=False)
    (3): Linear(in_features=128, out_features=91, bias=True)
  )
)
[2025-07-24 06:53:38,305] [INFO] Training...
[2025-07-24 06:54:02,477] [INFO] Epoch 1/5, ValAcc: 3.08%, TrainLoss: 4.4442, ValLoss: 4.3676, LR: 0.001
[2025-07-24 06:54:26,293] [INFO] Epoch 2/5, ValAcc: 5.46%, TrainLoss: 4.3163, ValLoss: 4.2173, LR: 0.001
[2025-07-24 06:54:41,444] [INFO] Epoch 3/5, ValAcc: 8.77%, TrainLoss: 4.0892, ValLoss: 4.0198, LR: 0.001
…
g', leaderboard_path='output/meta-free-apps/step1/step1_meta_ip_chksum.csv', step1=True, step2=False, step3=False, train=False, longitudinal_evaluation=False, openworld_evaluation=False, device=device(type='cuda'), metadata='chksum', name='ipchksum_zscore_gru_500_32_5_0.001_128_128_3_0.3_128_128'),0.0102,0.0002,0.0001,0.0110
[2025-07-24 07:54:37,316] [INFO] Feature 0 normalized using token
[2025-07-24 07:54:37,316] [INFO] Train shape: (59143, 500), Val shape: (8450, 500), Test shape: (16899, 500)
[2025-07-24 07:54:37,378] [INFO] Classifier: VRScannerModel(
  (input_modules): ModuleList(
    (0): Embedding(65536, 128)
  )
  (rnn_layers): ModuleList(
    (0): GRU(128, 128, num_layers=3, batch_first=True, dropout=0.3)
  )
  (attn_nets): ModuleList(
    (0): Sequential(
      (0): Linear(in_features=128, out_features=64, bias=True)
      (1): Tanh()
      (2): Linear(in_features=64, out_features=1, bias=True)
    )
  )
  (projection_layers): ModuleList(
    (0): Linear(in_features=128, out_features=128, bias=True)
  )
  (feature_attn_net): Sequential(
    (0): Linear(in_features=128, out_features=128, bias=True)
    (1): Tanh()
    (2): Linear(in_features=128, out_features=1, bias=True)
  )
  (fc): Sequential(
    (0): Linear(in_features=128, out_features=128, bias=True)
    (1): ReLU()
    (2): Dropout(p=0.3, inplace=False)
    (3): Linear(in_features=128, out_features=91, bias=True)
  )
)
[2025-07-24 07:54:37,378] [INFO] Training...
[2025-07-24 07:54:58,543] [INFO] Epoch 1/5, ValAcc: 2.27%, TrainLoss: 4.4931, ValLoss: 4.4104, LR: 0.001
[2025-07-24 07:55:22,674] [INFO] Epoch 2/5, ValAcc: 4.71%, TrainLoss: 4.2433, ValLoss: 4.1402, LR: 0.001
[2025-07-24 07:55:47,194] [INFO] Epoch 3/5, ValAcc: 6.65%, TrainLoss: 4.0057, ValLoss: 3.9862, LR: 0.001
…
, leaderboard_path='output/meta-free-apps/step1/step1_meta_tcp_window.csv', step1=True, step2=False, step3=False, train=False, longitudinal_evaluation=False, openworld_evaluation=False, device=device(type='cuda'), metadata='window', name='tcpwindow_zscore_gru_500_32_5_0.001_128_128_3_0.3_128_128'),0.4508,0.4490,0.5077,0.4515
[2025-07-24 08:27:47,103] [INFO] Feature 0 normalized using token
[2025-07-24 08:27:47,103] [INFO] Train shape: (59143, 500), Val shape: (8450, 500), Test shape: (16899, 500)
[2025-07-24 08:27:47,227] [INFO] Classifier: VRScannerModel(
  (input_modules): ModuleList(
    (0): Embedding(5813, 128)
  )
  (rnn_layers): ModuleList(
    (0): GRU(128, 128, num_layers=3, batch_first=True, dropout=0.3)
  )
  (attn_nets): ModuleList(
    (0): Sequential(
      (0): Linear(in_features=128, out_features=64, bias=True)
      (1): Tanh()
      (2): Linear(in_features=64, out_features=1, bias=True)
    )
  )
  (projection_layers): ModuleList(
    (0): Linear(in_features=128, out_features=128, bias=True)
  )
  (feature_attn_net): Sequential(
    (0): Linear(in_features=128, out_features=128, bias=True)
    (1): Tanh()
    (2): Linear(in_features=128, out_features=1, bias=True)
  )
  (fc): Sequential(
    (0): Linear(in_features=128, out_features=128, bias=True)
    (1): ReLU()
    (2): Dropout(p=0.3, inplace=False)
    (3): Linear(in_features=128, out_features=91, bias=True)
  )
)
[2025-07-24 08:27:47,227] [INFO] Training...
[2025-07-24 08:28:01,899] [INFO] Epoch 1/5, ValAcc: 34.30%, TrainLoss: 3.4176, ValLoss: 2.4561, LR: 0.001
[2025-07-24 08:28:17,115] [INFO] Epoch 2/5, ValAcc: 49.05%, TrainLoss: 2.1585, ValLoss: 1.8005, LR: 0.001
[2025-07-24 08:28:31,499] [INFO] Epoch 3/5, ValAcc: 57.31%, TrainLoss: 1.7569, ValLoss: 1.5214, LR: 0.001
…
ug', leaderboard_path='output/meta-free-apps/step1/step1_meta_tcp_sport.csv', step1=True, step2=False, step3=False, train=False, longitudinal_evaluation=False, openworld_evaluation=False, device=device(type='cuda'), metadata='sport', name='tcpsport_zscore_gru_500_32_5_0.001_128_128_3_0.3_128_128'),0.0102,0.0002,0.0001,0.0110
[2025-07-24 09:21:20,620] [INFO] Feature 0 normalized using token
[2025-07-24 09:21:20,620] [INFO] Train shape: (59143, 500), Val shape: (8450, 500), Test shape: (16899, 500)
[2025-07-24 09:21:20,655] [INFO] Classifier: VRScannerModel(
  (input_modules): ModuleList(
    (0): Embedding(14119, 128)
  )
  (rnn_layers): ModuleList(
    (0): GRU(128, 128, num_layers=3, batch_first=True, dropout=0.3)
  )
  (attn_nets): ModuleList(
    (0): Sequential(
      (0): Linear(in_features=128, out_features=64, bias=True)
      (1): Tanh()
      (2): Linear(in_features=64, out_features=1, bias=True)
    )
  )
  (projection_layers): ModuleList(
    (0): Linear(in_features=128, out_features=128, bias=True)
  )
  (feature_attn_net): Sequential(
    (0): Linear(in_features=128, out_features=128, bias=True)
    (1): Tanh()
    (2): Linear(in_features=128, out_features=1, bias=True)
  )
  (fc): Sequential(
    (0): Linear(in_features=128, out_features=128, bias=True)
    (1): ReLU()
    (2): Dropout(p=0.3, inplace=False)
    (3): Linear(in_features=128, out_features=91, bias=True)
  )
)
[2025-07-24 09:21:20,655] [INFO] Training...
[2025-07-24 09:21:38,033] [INFO] Epoch 1/5, ValAcc: 3.95%, TrainLoss: 4.4378, ValLoss: 4.0560, LR: 0.001
[2025-07-24 09:21:54,331] [INFO] Epoch 2/5, ValAcc: 11.23%, TrainLoss: 3.6746, ValLoss: 3.4176, LR: 0.001
[2025-07-24 09:22:10,452] [INFO] Epoch 3/5, ValAcc: 13.56%, TrainLoss: 3.3297, ValLoss: 3.3391, LR: 0.001
…
ug', leaderboard_path='output/meta-free-apps/step1/step1_meta_tcp_dport.csv', step1=True, step2=False, step3=False, train=False, longitudinal_evaluation=False, openworld_evaluation=False, device=device(type='cuda'), metadata='dport', name='tcpdport_zscore_gru_500_32_5_0.001_128_128_3_0.3_128_128'),0.2523,0.2067,0.2284,0.2517
[2025-07-24 09:50:28,321] [INFO] Feature 0 normalized using token
[2025-07-24 09:50:28,321] [INFO] Train shape: (59143, 500), Val shape: (8450, 500), Test shape: (16899, 500)
[2025-07-24 09:50:28,483] [INFO] Classifier: VRScannerModel(
  (input_modules): ModuleList(
    (0): Embedding(14120, 128)
  )
  (rnn_layers): ModuleList(
    (0): GRU(128, 128, num_layers=3, batch_first=True, dropout=0.3)
  )
  (attn_nets): ModuleList(
    (0): Sequential(
      (0): Linear(in_features=128, out_features=64, bias=True)
      (1): Tanh()
      (2): Linear(in_features=64, out_features=1, bias=True)
    )
  )
  (projection_layers): ModuleList(
    (0): Linear(in_features=128, out_features=128, bias=True)
  )
  (feature_attn_net): Sequential(
    (0): Linear(in_features=128, out_features=128, bias=True)
    (1): Tanh()
    (2): Linear(in_features=128, out_features=1, bias=True)
  )
  (fc): Sequential(
    (0): Linear(in_features=128, out_features=128, bias=True)
    (1): ReLU()
    (2): Dropout(p=0.3, inplace=False)
    (3): Linear(in_features=128, out_features=91, bias=True)
  )
)
[2025-07-24 09:50:28,483] [INFO] Training...
[2025-07-24 09:50:43,703] [INFO] Epoch 1/5, ValAcc: 8.98%, TrainLoss: 4.2156, ValLoss: 3.5802, LR: 0.001
[2025-07-24 09:50:58,803] [INFO] Epoch 2/5, ValAcc: 15.50%, TrainLoss: 3.4099, ValLoss: 3.1122, LR: 0.001
[2025-07-24 09:51:14,597] [INFO] Epoch 3/5, ValAcc: 20.83%, TrainLoss: 3.1131, ValLoss: 2.8586, LR: 0.001
…
eq.debug', leaderboard_path='output/meta-free-apps/step1/step1_meta_tcp_seq.csv', step1=True, step2=False, step3=False, train=False, longitudinal_evaluation=False, openworld_evaluation=False, device=device(type='cuda'), metadata='seq', name='tcpseq_zscore_gru_500_32_5_0.001_128_128_3_0.3_128_128'),0.0102,0.0002,0.0001,0.0110
[2025-07-24 10:24:44,064] [INFO] Feature 0 normalized using token
[2025-07-24 10:24:44,065] [INFO] Train shape: (59143, 500), Val shape: (8450, 500), Test shape: (16899, 500)
[2025-07-24 10:25:03,013] [INFO] Classifier: VRScannerModel(
  (input_modules): ModuleList(
    (0): Embedding(19690845, 128)
  )
  (rnn_layers): ModuleList(
    (0): GRU(128, 128, num_layers=3, batch_first=True, dropout=0.3)
  )
  (attn_nets): ModuleList(
    (0): Sequential(
      (0): Linear(in_features=128, out_features=64, bias=True)
      (1): Tanh()
      (2): Linear(in_features=64, out_features=1, bias=True)
    )
  )
  (projection_layers): ModuleList(
    (0): Linear(in_features=128, out_features=128, bias=True)
  )
  (feature_attn_net): Sequential(
    (0): Linear(in_features=128, out_features=128, bias=True)
    (1): Tanh()
    (2): Linear(in_features=128, out_features=1, bias=True)
  )
  (fc): Sequential(
    (0): Linear(in_features=128, out_features=128, bias=True)
    (1): ReLU()
    (2): Dropout(p=0.3, inplace=False)
    (3): Linear(in_features=128, out_features=91, bias=True)
  )
)
Running: python vrscanner.py --step1 --path meta-free-apps/meta-tcp_ack/meta-tcp_ack.csv --debug_path output/meta-free-apps/step1/step1_meta_tcp_ack.debug --leaderboard_path output/meta-free-apps/step1/step1_meta_tcp_ack.csv
[2025-07-24 10:25:14,226] [INFO] Namespace(path=['meta-free-apps/meta-tcp_ack/meta-tcp_ack.csv'], pktcount=500, importance=F
…
ck.debug', leaderboard_path='output/meta-free-apps/step1/step1_meta_tcp_ack.csv', step1=True, step2=False, step3=False, train=False, longitudinal_evaluation=False, openworld_evaluation=False, device=device(type='cuda'), metadata='ack', name='tcpack_zscore_gru_500_32_5_0.001_128_128_3_0.3_128_128'),0.0438,0.0195,0.0328,0.0439
[2025-07-24 10:43:42,078] [INFO] Feature 0 normalized using token
[2025-07-24 10:43:42,079] [INFO] Train shape: (59143, 500), Val shape: (8450, 500), Test shape: (16899, 500)
[2025-07-24 10:44:01,210] [INFO] Classifier: VRScannerModel(
  (input_modules): ModuleList(
    (0): Embedding(12378502, 128)
  )
  (rnn_layers): ModuleList(
    (0): GRU(128, 128, num_layers=3, batch_first=True, dropout=0.3)
  )
  (attn_nets): ModuleList(
    (0): Sequential(
      (0): Linear(in_features=128, out_features=64, bias=True)
      (1): Tanh()
      (2): Linear(in_features=64, out_features=1, bias=True)
    )
  )
  (projection_layers): ModuleList(
    (0): Linear(in_features=128, out_features=128, bias=True)
  )
  (feature_attn_net): Sequential(
    (0): Linear(in_features=128, out_features=128, bias=True)
    (1): Tanh()
    (2): Linear(in_features=128, out_features=1, bias=True)
  )
  (fc): Sequential(
    (0): Linear(in_features=128, out_features=128, bias=True)
    (1): ReLU()
    (2): Dropout(p=0.3, inplace=False)
    (3): Linear(in_features=128, out_features=91, bias=True)
  )
)
[2025-07-24 10:44:01,211] [INFO] Training...
[2025-07-24 10:51:03,102] [INFO] Epoch 1/5, ValAcc: 0.97%, TrainLoss: 4.5120, ValLoss: 4.5530, LR: 0.001
[2025-07-24 10:58:02,277] [INFO] Epoch 2/5, ValAcc: 1.01%, TrainLoss: 4.4797, ValLoss: 4.9087, LR: 0.001
[2025-07-24 11:05:01,890] [INFO] Epoch 3/5, ValAcc: 1.31%, TrainLoss: 4.3326, ValLoss: 11.1342, LR: 0.001
…
[2025-07-24 12:09:22,460] [INFO] Processed data from meta-free-apps/meta-tcp_flags/meta-tcp_flags.csv:
[2025-07-24 12:09:22,460] [INFO] (84492, 500)
[2025-07-24 12:09:22,461] [INFO] [['PA' 'PA' 'A' ... 'A' 'A' 'A']
 ['PA' 'PA' 'A' ... 'A' 'A' 'PA']
 ['PA' 'PA' 'A' ... 'FA' 'R' 'R']
 ...
 ['PA' 'PA' 'A' ... 'A' 'A' 'A']
 ['S' 'SA' 'A' ... 'A' 'A' 'A']
 ['A' 'A' 'A' ... 'A' 'PA' 'PA']]
[2025-07-24 12:09:56,598] [INFO] Feature 0 normalized using token
[2025-07-24 12:09:56,598] [INFO] Train shape: (59143, 500), Val shape: (8450, 500), Test shape: (16899, 500)
[2025-07-24 12:09:56,649] [INFO] Classifier: VRScannerModel(
  (input_modules): ModuleList(
    (0): Embedding(9, 128)
  )
  (rnn_layers): ModuleList(
    (0): GRU(128, 128, num_layers=3, batch_first=True, dropout=0.3)
  )
  (attn_nets): ModuleList(
    (0): Sequential(
      (0): Linear(in_features=128, out_features=64, bias=True)
      (1): Tanh()
      (2): Linear(in_features=64, out_features=1, bias=True)
    )
  )
  (projection_layers): ModuleList(
    (0): Linear(in_features=128, out_features=128, bias=True)
  )
  (feature_attn_net): Sequential(
    (0): Linear(in_features=128, out_features=128, bias=True)
    (1): Tanh()
    (2): Linear(in_features=128, out_features=1, bias=True)
  )
  (fc): Sequential(
    (0): Linear(in_features=128, out_features=128, bias=True)
    (1): ReLU()
    (2): Dropout(p=0.3, inplace=False)
    (3): Linear(in_features=128, out_features=91, bias=True)
  )
)
[2025-07-24 12:09:56,650] [INFO] Training...
[2025-07-24 12:10:11,839] [INFO] Epoch 1/5, ValAcc: 20.08%, TrainLoss: 4.0454, ValLoss: 3.1732, LR: 0.001
[2025-07-24 12:10:26,431] [INFO] Epoch 2/5, ValAcc: 35.14%, TrainLoss: 2.8412, ValLoss: 2.4085, LR: 0.001
[2025-07-24 12:10:40,556] [INFO] Epoch 3/5, ValAcc: 41.05%, TrainLoss: 2.3764, ValLoss: 2.1172, LR: 0.001
…
eaderboard_path='output/meta-free-apps/step1/step1_meta_tcp_dataofs.csv', step1=True, step2=False, step3=False, train=False, longitudinal_evaluation=False, openworld_evaluation=False, device=device(type='cuda'), metadata='dataofs', name='tcpdataofs_zscore_gru_500_32_5_0.001_128_128_3_0.3_128_128'),0.2131,0.1996,0.2374,0.2139
[2025-07-24 12:22:58,109] [INFO] Feature 0 normalized using token
[2025-07-24 12:22:58,110] [INFO] Train shape: (59143, 500), Val shape: (8450, 500), Test shape: (16899, 500)
[2025-07-24 12:22:58,226] [INFO] Classifier: VRScannerModel(
  (input_modules): ModuleList(
    (0): Embedding(7, 128)
  )
  (rnn_layers): ModuleList(
    (0): GRU(128, 128, num_layers=3, batch_first=True, dropout=0.3)
  )
  (attn_nets): ModuleList(
    (0): Sequential(
      (0): Linear(in_features=128, out_features=64, bias=True)
      (1): Tanh()
      (2): Linear(in_features=64, out_features=1, bias=True)
    )
  )
  (projection_layers): ModuleList(
    (0): Linear(in_features=128, out_features=128, bias=True)
  )
  (feature_attn_net): Sequential(
    (0): Linear(in_features=128, out_features=128, bias=True)
    (1): Tanh()
    (2): Linear(in_features=128, out_features=1, bias=True)
  )
  (fc): Sequential(
    (0): Linear(in_features=128, out_features=128, bias=True)
    (1): ReLU()
    (2): Dropout(p=0.3, inplace=False)
    (3): Linear(in_features=128, out_features=91, bias=True)
  )
)
[2025-07-24 12:22:58,227] [INFO] Training...
[2025-07-24 12:23:12,582] [INFO] Epoch 1/5, ValAcc: 8.63%, TrainLoss: 4.2921, ValLoss: 4.0069, LR: 0.001
[2025-07-24 12:23:26,579] [INFO] Epoch 2/5, ValAcc: 16.37%, TrainLoss: 3.7871, ValLoss: 3.5527, LR: 0.001
[2025-07-24 12:23:41,380] [INFO] Epoch 3/5, ValAcc: 19.56%, TrainLoss: 3.4961, ValLoss: 3.3458, LR: 0.001
…
