…
 ['0' '0' '0' ... '0' '0' '0']
 ['0' '0' '0' ... '0' '0' '0']
 ...
 ['0' '0' '0' ... '0' '0' '0']
 ['0' '0' '0' ... '0' '0' '0']
 ['0' '0' '0' ... '0' '0' '0']]
[2025-07-24 11:42:21,442] [INFO] Feature 0 normalized using none
[2025-07-24 11:42:21,443] [INFO] Train shape: (59143, 500), Val shape: (8450, 500), Test shape: (16899, 500)
[2025-07-24 11:42:21,662] [INFO] Classifier: VRScannerModel(
  (input_modules): ModuleList(
    (0): Identity()
  )
  (rnn_layers): ModuleList(
    (0): GRU(1, 128, num_layers=3, batch_first=True, dropout=0.3)
  )
  (attn_nets): ModuleList(
    (0): Sequential(
      (0): Linear(in_features=128, out_features=64, bias=True)
      (1): Tanh()
      (2): Linear(in_features=64, out_features=1, bias=True)
    )
  )
  (projection_layers): ModuleList(
    (0): Linear(in_features=128, out_features=128, bias=True)
  )
  (feature_attn_net): Sequential(
    (0): Linear(in_features=128, out_features=128, bias=True)
    (1): Tanh()
    (2): Linear(in_features=128, out_features=1, bias=True)
  )
  (fc): Sequential(
    (0): Linear(in_features=128, out_features=128, bias=True)
    (1): ReLU()
    (2): Dropout(p=0.3, inplace=False)
    (3): Linear(in_features=128, out_features=91, bias=True)
  )
)
[2025-07-24 11:42:21,662] [INFO] Training...
[2025-07-24 11:42:38,098] [INFO] Epoch 1/5, ValAcc: 0.95%, TrainLoss: 4.5124, ValLoss: 4.5129, LR: 0.001
[2025-07-24 11:42:52,383] [INFO] Epoch 2/5, ValAcc: 0.98%, TrainLoss: 4.5115, ValLoss: 4.5119, LR: 0.001
[2025-07-24 11:43:06,078] [INFO] Epoch 3/5, ValAcc: 1.04%, TrainLoss: 4.5112, ValLoss: 4.5122, LR: 0.001
…
derboard_path='output/meta-free-apps/step1/step1_meta_tcp_reserved.csv', step1=True, step2=False, step3=False, train=False, longitudinal_evaluation=False, openworld_evaluation=False, device=device(type='cuda'), metadata='reserved', name='tcpreserved_none_gru_500_32_5_0.001_128_128_3_0.3_128_128'),0.0100,0.0002,0.0001,0.0110
[2025-07-24 11:44:13,294] [INFO] Feature 0 normalized using minmax
[2025-07-24 11:44:13,295] [INFO] Train shape: (59143, 500), Val shape: (8450, 500), Test shape: (16899, 500)
[2025-07-24 11:44:13,448] [INFO] Classifier: VRScannerModel(
  (input_modules): ModuleList(
    (0): Linear(in_features=1, out_features=128, bias=True)
  )
  (rnn_layers): ModuleList(
    (0): GRU(128, 128, num_layers=3, batch_first=True, dropout=0.3)
  )
  (attn_nets): ModuleList(
    (0): Sequential(
      (0): Linear(in_features=128, out_features=64, bias=True)
      (1): Tanh()
      (2): Linear(in_features=64, out_features=1, bias=True)
    )
  )
  (projection_layers): ModuleList(
    (0): Linear(in_features=128, out_features=128, bias=True)
  )
  (feature_attn_net): Sequential(
    (0): Linear(in_features=128, out_features=128, bias=True)
    (1): Tanh()
    (2): Linear(in_features=128, out_features=1, bias=True)
  )
  (fc): Sequential(
    (0): Linear(in_features=128, out_features=128, bias=True)
    (1): ReLU()
    (2): Dropout(p=0.3, inplace=False)
    (3): Linear(in_features=128, out_features=91, bias=True)
  )
)
[2025-07-24 11:44:13,448] [INFO] Training...
[2025-07-24 11:44:28,747] [INFO] Epoch 1/5, ValAcc: 0.99%, TrainLoss: 4.5127, ValLoss: 4.5121, LR: 0.001
[2025-07-24 11:44:43,187] [INFO] Epoch 2/5, ValAcc: 0.98%, TrainLoss: 4.5113, ValLoss: 4.5119, LR: 0.001
[2025-07-24 11:44:57,768] [INFO] Epoch 3/5, ValAcc: 0.98%, TrainLoss: 4.5111, ValLoss: 4.5123, LR: 0.001
…
erboard_path='output/meta-free-apps/step1/step1_meta_tcp_reserved.csv', step1=True, step2=False, step3=False, train=False, longitudinal_evaluation=False, openworld_evaluation=False, device=device(type='cuda'), metadata='reserved', name='tcpreserved_zscore_gru_500_32_5_0.001_128_128_3_0.3_128_128'),0.0102,0.0002,0.0001,0.0110
[2025-07-24 11:47:33,739] [INFO] Feature 0 normalized using token
[2025-07-24 11:47:33,740] [INFO] Train shape: (59143, 500), Val shape: (8450, 500), Test shape: (16899, 500)
[2025-07-24 11:47:33,856] [INFO] Classifier: VRScannerModel(
  (input_modules): ModuleList(
    (0): Embedding(2, 128)
  )
  (rnn_layers): ModuleList(
    (0): GRU(128, 128, num_layers=3, batch_first=True, dropout=0.3)
  )
  (attn_nets): ModuleList(
    (0): Sequential(
      (0): Linear(in_features=128, out_features=64, bias=True)
      (1): Tanh()
      (2): Linear(in_features=64, out_features=1, bias=True)
    )
  )
  (projection_layers): ModuleList(
    (0): Linear(in_features=128, out_features=128, bias=True)
  )
  (feature_attn_net): Sequential(
    (0): Linear(in_features=128, out_features=128, bias=True)
    (1): Tanh()
    (2): Linear(in_features=128, out_features=1, bias=True)
  )
  (fc): Sequential(
    (0): Linear(in_features=128, out_features=128, bias=True)
    (1): ReLU()
    (2): Dropout(p=0.3, inplace=False)
    (3): Linear(in_features=128, out_features=91, bias=True)
  )
)
[2025-07-24 11:47:33,856] [INFO] Training...
[2025-07-24 11:47:49,085] [INFO] Epoch 1/5, ValAcc: 1.91%, TrainLoss: 4.5016, ValLoss: 4.4902, LR: 0.001
[2025-07-24 11:48:04,337] [INFO] Epoch 2/5, ValAcc: 1.81%, TrainLoss: 4.4962, ValLoss: 4.4847, LR: 0.001
[2025-07-24 11:48:19,542] [INFO] Epoch 3/5, ValAcc: 1.82%, TrainLoss: 4.5000, ValLoss: 4.4908, LR: 0.001
…
