…
 ['0.000000' '0.005527' '0.034811' ... '0.000004' '0.000001' '0.000001']
 ['0.000000' '0.004883' '0.005023' ... '0.000003' '0.000002' '0.000362']
 ['0.000000' '0.000003' '0.002247' ... '0.002964' '0.047872' '0.005306']]
[2025-07-24 03:17:38,964] [INFO] Feature 0 normalized using none
[2025-07-24 03:17:38,965] [INFO] Train shape: (59143, 500), Val shape: (8450, 500), Test shape: (16899, 500)
[2025-07-24 03:17:39,020] [INFO] Classifier: VRScannerModel(
  (input_modules): ModuleList(
    (0): Identity()
  )
  (rnn_layers): ModuleList(
    (0): GRU(1, 128, num_layers=3, batch_first=True, dropout=0.3)
  )
  (attn_nets): ModuleList(
    (0): Sequential(
      (0): Linear(in_features=128, out_features=64, bias=True)
      (1): Tanh()
      (2): Linear(in_features=64, out_features=1, bias=True)
    )
  )
  (projection_layers): ModuleList(
    (0): Linear(in_features=128, out_features=128, bias=True)
  )
  (feature_attn_net): Sequential(
    (0): Linear(in_features=128, out_features=128, bias=True)
    (1): Tanh()
    (2): Linear(in_features=128, out_features=1, bias=True)
  )
  (fc): Sequential(
    (0): Linear(in_features=128, out_features=128, bias=True)
    (1): ReLU()
    (2): Dropout(p=0.3, inplace=False)
    (3): Linear(in_features=128, out_features=91, bias=True)
  )
)
[2025-07-24 03:17:39,020] [INFO] Training...
[2025-07-24 03:17:52,919] [INFO] Epoch 1/5, ValAcc: 1.55%, TrainLoss: 4.4892, ValLoss: 4.4764, LR: 0.001
[2025-07-24 03:18:06,085] [INFO] Epoch 2/5, ValAcc: 7.44%, TrainLoss: 4.3032, ValLoss: 3.9281, LR: 0.001
[2025-07-24 03:18:20,155] [INFO] Epoch 3/5, ValAcc: 15.47%, TrainLoss: 3.9114, ValLoss: 3.4495, LR: 0.001
…
g', leaderboard_path='output/meta-free-apps/step1/step1_meta_pkt_ts_diff.csv', step1=True, step2=False, step3=False, train=False, longitudinal_evaluation=False, openworld_evaluation=False, device=device(type='cuda'), metadata='diff', name='pkttsdiff_none_gru_500_32_5_0.001_128_128_3_0.3_128_128'),0.3058,0.2937,0.3349,0.3046
[2025-07-24 03:19:21,394] [INFO] Feature 0 normalized using minmax
[2025-07-24 03:19:21,394] [INFO] Train shape: (59143, 500), Val shape: (8450, 500), Test shape: (16899, 500)
[2025-07-24 03:19:21,556] [INFO] Classifier: VRScannerModel(
  (input_modules): ModuleList(
    (0): Linear(in_features=1, out_features=128, bias=True)
  )
  (rnn_layers): ModuleList(
    (0): GRU(128, 128, num_layers=3, batch_first=True, dropout=0.3)
  )
  (attn_nets): ModuleList(
    (0): Sequential(
      (0): Linear(in_features=128, out_features=64, bias=True)
      (1): Tanh()
      (2): Linear(in_features=64, out_features=1, bias=True)
    )
  )
  (projection_layers): ModuleList(
    (0): Linear(in_features=128, out_features=128, bias=True)
  )
  (feature_attn_net): Sequential(
    (0): Linear(in_features=128, out_features=128, bias=True)
    (1): Tanh()
    (2): Linear(in_features=128, out_features=1, bias=True)
  )
  (fc): Sequential(
    (0): Linear(in_features=128, out_features=128, bias=True)
    (1): ReLU()
    (2): Dropout(p=0.3, inplace=False)
    (3): Linear(in_features=128, out_features=91, bias=True)
  )
)
[2025-07-24 03:19:21,560] [INFO] Training...
[2025-07-24 03:19:36,505] [INFO] Epoch 1/5, ValAcc: 0.99%, TrainLoss: 4.5127, ValLoss: 4.5119, LR: 0.001
[2025-07-24 03:19:50,630] [INFO] Epoch 2/5, ValAcc: 1.04%, TrainLoss: 4.5112, ValLoss: 4.5120, LR: 0.001
[2025-07-24 03:20:04,408] [INFO] Epoch 3/5, ValAcc: 0.98%, TrainLoss: 4.5111, ValLoss: 4.5122, LR: 0.001
…
', leaderboard_path='output/meta-free-apps/step1/step1_meta_pkt_ts_diff.csv', step1=True, step2=False, step3=False, train=False, longitudinal_evaluation=False, openworld_evaluation=False, device=device(type='cuda'), metadata='diff', name='pkttsdiff_zscore_gru_500_32_5_0.001_128_128_3_0.3_128_128'),0.4553,0.4535,0.5031,0.4555
[2025-07-24 03:23:46,628] [INFO] Feature 0 normalized using token
[2025-07-24 03:23:46,629] [INFO] Train shape: (59143, 500), Val shape: (8450, 500), Test shape: (16899, 500)
[2025-07-24 03:23:47,790] [INFO] Classifier: VRScannerModel(
  (input_modules): ModuleList(
    (0): Embedding(820606, 128)
  )
  (rnn_layers): ModuleList(
    (0): GRU(128, 128, num_layers=3, batch_first=True, dropout=0.3)
  )
  (attn_nets): ModuleList(
    (0): Sequential(
      (0): Linear(in_features=128, out_features=64, bias=True)
      (1): Tanh()
      (2): Linear(in_features=64, out_features=1, bias=True)
    )
  )
  (projection_layers): ModuleList(
    (0): Linear(in_features=128, out_features=128, bias=True)
  )
  (feature_attn_net): Sequential(
    (0): Linear(in_features=128, out_features=128, bias=True)
    (1): Tanh()
    (2): Linear(in_features=128, out_features=1, bias=True)
  )
  (fc): Sequential(
    (0): Linear(in_features=128, out_features=128, bias=True)
    (1): ReLU()
    (2): Dropout(p=0.3, inplace=False)
    (3): Linear(in_features=128, out_features=91, bias=True)
  )
)
[2025-07-24 03:23:47,790] [INFO] Training...
[2025-07-24 03:24:30,007] [INFO] Epoch 1/5, ValAcc: 8.45%, TrainLoss: 4.1767, ValLoss: 3.5992, LR: 0.001
[2025-07-24 03:25:12,303] [INFO] Epoch 2/5, ValAcc: 14.99%, TrainLoss: 3.4037, ValLoss: 3.1506, LR: 0.001
[2025-07-24 03:25:54,430] [INFO] Epoch 3/5, ValAcc: 21.86%, TrainLoss: 3.0286, ValLoss: 2.8206, LR: 0.001
…
