…
 ['87' '240' '106' ... '141' '91' '52']
 ...
 ['87' '653' '52' ... '64' '64' '52']
 ['60' '52' '270' ... '225' '146' '60']
 ['52' '223' '126' ... '52' '52' '60']]
[2025-07-29 06:43:41,964] [INFO] Feature 0 normalized using none
[2025-07-29 06:43:41,965] [INFO] Train shape: (59143, 500), Val shape: (8450, 500), Test shape: (16899, 500)
[2025-07-29 06:43:42,006] [INFO] Classifier: VRScannerModel(
  (input_modules): ModuleList(
    (0): Identity()
  )
  (rnn_layers): ModuleList(
    (0): GRU(1, 128, num_layers=3, batch_first=True, dropout=0.3)
  )
  (attn_nets): ModuleList(
    (0): Sequential(
      (0): Linear(in_features=128, out_features=64, bias=True)
      (1): Tanh()
      (2): Linear(in_features=64, out_features=1, bias=True)
    )
  )
  (projection_layers): ModuleList(
    (0): Linear(in_features=128, out_features=128, bias=True)
  )
  (feature_attn_net): Sequential(
    (0): Linear(in_features=128, out_features=128, bias=True)
    (1): Tanh()
    (2): Linear(in_features=128, out_features=1, bias=True)
  )
  (fc): Sequential(
    (0): Linear(in_features=128, out_features=128, bias=True)
    (1): ReLU()
    (2): Dropout(p=0.3, inplace=False)
    (3): Linear(in_features=128, out_features=91, bias=True)
  )
)
[2025-07-29 06:43:42,006] [INFO] Training...
[2025-07-29 06:43:54,952] [INFO] Epoch 1/5, ValAcc: 14.71%, TrainLoss: 3.8469, ValLoss: 3.2732, LR: 0.001
[2025-07-29 06:44:05,663] [INFO] Epoch 2/5, ValAcc: 19.49%, TrainLoss: 3.0068, ValLoss: 2.8087, LR: 0.001
[2025-07-29 06:44:17,581] [INFO] Epoch 3/5, ValAcc: 40.85%, TrainLoss: 2.5713, ValLoss: 2.0536, LR: 0.001
…
debug', leaderboard_path='output/meta-free-apps/step1/step1_meta_ip_inlen.csv', step1=True, step2=False, step3=False, train=False, longitudinal_evaluation=False, openworld_evaluation=False, device=device(type='cuda'), metadata='inlen', name='ipinlen_none_gru_500_32_5_0.001_128_128_3_0.3_128_128'),0.5083,0.4943,0.5456,0.5080
[2025-07-29 06:44:57,857] [INFO] Feature 0 normalized using minmax
[2025-07-29 06:44:57,858] [INFO] Train shape: (59143, 500), Val shape: (8450, 500), Test shape: (16899, 500)
[2025-07-29 06:44:57,869] [INFO] Classifier: VRScannerModel(
  (input_modules): ModuleList(
    (0): Linear(in_features=1, out_features=128, bias=True)
  )
  (rnn_layers): ModuleList(
    (0): GRU(128, 128, num_layers=3, batch_first=True, dropout=0.3)
  )
  (attn_nets): ModuleList(
    (0): Sequential(
      (0): Linear(in_features=128, out_features=64, bias=True)
      (1): Tanh()
      (2): Linear(in_features=64, out_features=1, bias=True)
    )
  )
  (projection_layers): ModuleList(
    (0): Linear(in_features=128, out_features=128, bias=True)
  )
  (feature_attn_net): Sequential(
    (0): Linear(in_features=128, out_features=128, bias=True)
    (1): Tanh()
    (2): Linear(in_features=128, out_features=1, bias=True)
  )
  (fc): Sequential(
    (0): Linear(in_features=128, out_features=128, bias=True)
    (1): ReLU()
    (2): Dropout(p=0.3, inplace=False)
    (3): Linear(in_features=128, out_features=91, bias=True)
  )
)
[2025-07-29 06:44:57,869] [INFO] Training...
[2025-07-29 06:45:09,945] [INFO] Epoch 1/5, ValAcc: 15.18%, TrainLoss: 3.5424, ValLoss: 2.8098, LR: 0.001
[2025-07-29 06:45:22,037] [INFO] Epoch 2/5, ValAcc: 52.20%, TrainLoss: 2.4857, ValLoss: 1.6882, LR: 0.001
[2025-07-29 06:45:34,116] [INFO] Epoch 3/5, ValAcc: 69.02%, TrainLoss: 1.5713, ValLoss: 1.2116, LR: 0.001
…
ebug', leaderboard_path='output/meta-free-apps/step1/step1_meta_ip_inlen.csv', step1=True, step2=False, step3=False, train=False, longitudinal_evaluation=False, openworld_evaluation=False, device=device(type='cuda'), metadata='inlen', name='ipinlen_zscore_gru_500_32_5_0.001_128_128_3_0.3_128_128'),0.5635,0.5645,0.6314,0.5654
[2025-07-29 06:47:58,806] [INFO] Feature 0 normalized using token
[2025-07-29 06:47:58,806] [INFO] Train shape: (59143, 500), Val shape: (8450, 500), Test shape: (16899, 500)
[2025-07-29 06:47:58,821] [INFO] Classifier: VRScannerModel(
  (input_modules): ModuleList(
    (0): Embedding(1385, 128)
  )
  (rnn_layers): ModuleList(
    (0): GRU(128, 128, num_layers=3, batch_first=True, dropout=0.3)
  )
  (attn_nets): ModuleList(
    (0): Sequential(
      (0): Linear(in_features=128, out_features=64, bias=True)
      (1): Tanh()
      (2): Linear(in_features=64, out_features=1, bias=True)
    )
  )
  (projection_layers): ModuleList(
    (0): Linear(in_features=128, out_features=128, bias=True)
  )
  (feature_attn_net): Sequential(
    (0): Linear(in_features=128, out_features=128, bias=True)
    (1): Tanh()
    (2): Linear(in_features=128, out_features=1, bias=True)
  )
  (fc): Sequential(
    (0): Linear(in_features=128, out_features=128, bias=True)
    (1): ReLU()
    (2): Dropout(p=0.3, inplace=False)
    (3): Linear(in_features=128, out_features=91, bias=True)
  )
)
[2025-07-29 06:47:58,822] [INFO] Training...
[2025-07-29 06:48:11,091] [INFO] Epoch 1/5, ValAcc: 76.98%, TrainLoss: 2.6278, ValLoss: 0.9385, LR: 0.001
[2025-07-29 06:48:23,249] [INFO] Epoch 2/5, ValAcc: 89.27%, TrainLoss: 0.6865, ValLoss: 0.4738, LR: 0.001
[2025-07-29 06:48:35,428] [INFO] Epoch 3/5, ValAcc: 90.31%, TrainLoss: 0.4696, ValLoss: 0.4286, LR: 0.001
…
