…
 ['19379' '32169' '5845' ... '55570' '63296' '13801']
 ['49176' '41396' '53038' ... '5044' '53168' '61622']
 ['41597' '62950' '62451' ... '57283' '29685' '32759']]
[2025-07-24 12:47:22,180] [INFO] Feature 0 normalized using none
[2025-07-24 12:47:22,180] [INFO] Train shape: (59143, 500), Val shape: (8450, 500), Test shape: (16899, 500)
[2025-07-24 12:47:22,240] [INFO] Classifier: VRScannerModel(
  (input_modules): ModuleList(
    (0): Identity()
  )
  (rnn_layers): ModuleList(
    (0): GRU(1, 128, num_layers=3, batch_first=True, dropout=0.3)
  )
  (attn_nets): ModuleList(
    (0): Sequential(
      (0): Linear(in_features=128, out_features=64, bias=True)
      (1): Tanh()
      (2): Linear(in_features=64, out_features=1, bias=True)
    )
  )
  (projection_layers): ModuleList(
    (0): Linear(in_features=128, out_features=128, bias=True)
  )
  (feature_attn_net): Sequential(
    (0): Linear(in_features=128, out_features=128, bias=True)
    (1): Tanh()
    (2): Linear(in_features=128, out_features=1, bias=True)
  )
  (fc): Sequential(
    (0): Linear(in_features=128, out_features=128, bias=True)
    (1): ReLU()
    (2): Dropout(p=0.3, inplace=False)
    (3): Linear(in_features=128, out_features=91, bias=True)
  )
)
[2025-07-24 12:47:22,240] [INFO] Training...
[2025-07-24 12:47:37,272] [INFO] Epoch 1/5, ValAcc: 1.92%, TrainLoss: 4.5023, ValLoss: 4.4959, LR: 0.001
[2025-07-24 12:47:50,642] [INFO] Epoch 2/5, ValAcc: 1.69%, TrainLoss: 4.4967, ValLoss: 4.4919, LR: 0.001
[2025-07-24 12:48:04,562] [INFO] Epoch 3/5, ValAcc: 1.60%, TrainLoss: 4.4927, ValLoss: 4.4850, LR: 0.001
…
', leaderboard_path='output/meta-free-apps/step1/step1_meta_tcp_chksum.csv', step1=True, step2=False, step3=False, train=False, longitudinal_evaluation=False, openworld_evaluation=False, device=device(type='cuda'), metadata='chksum', name='tcpchksum_none_gru_500_32_5_0.001_128_128_3_0.3_128_128'),0.0202,0.0033,0.0034,0.0193
[2025-07-24 12:48:54,495] [INFO] Feature 0 normalized using minmax
[2025-07-24 12:48:54,495] [INFO] Train shape: (59143, 500), Val shape: (8450, 500), Test shape: (16899, 500)
[2025-07-24 12:48:54,518] [INFO] Classifier: VRScannerModel(
  (input_modules): ModuleList(
    (0): Linear(in_features=1, out_features=128, bias=True)
  )
  (rnn_layers): ModuleList(
    (0): GRU(128, 128, num_layers=3, batch_first=True, dropout=0.3)
  )
  (attn_nets): ModuleList(
    (0): Sequential(
      (0): Linear(in_features=128, out_features=64, bias=True)
      (1): Tanh()
      (2): Linear(in_features=64, out_features=1, bias=True)
    )
  )
  (projection_layers): ModuleList(
    (0): Linear(in_features=128, out_features=128, bias=True)
  )
  (feature_attn_net): Sequential(
    (0): Linear(in_features=128, out_features=128, bias=True)
    (1): Tanh()
    (2): Linear(in_features=128, out_features=1, bias=True)
  )
  (fc): Sequential(
    (0): Linear(in_features=128, out_features=128, bias=True)
    (1): ReLU()
    (2): Dropout(p=0.3, inplace=False)
    (3): Linear(in_features=128, out_features=91, bias=True)
  )
)
[2025-07-24 12:48:54,518] [INFO] Training...
[2025-07-24 12:49:18,355] [INFO] Epoch 1/5, ValAcc: 0.95%, TrainLoss: 4.5126, ValLoss: 4.5119, LR: 0.001
[2025-07-24 12:49:32,417] [INFO] Epoch 2/5, ValAcc: 1.04%, TrainLoss: 4.5112, ValLoss: 4.5123, LR: 0.001
[2025-07-24 12:49:46,103] [INFO] Epoch 3/5, ValAcc: 0.98%, TrainLoss: 4.5111, ValLoss: 4.5121, LR: 0.001
…
, leaderboard_path='output/meta-free-apps/step1/step1_meta_tcp_chksum.csv', step1=True, step2=False, step3=False, train=False, longitudinal_evaluation=False, openworld_evaluation=False, device=device(type='cuda'), metadata='chksum', name='tcpchksum_zscore_gru_500_32_5_0.001_128_128_3_0.3_128_128'),0.0102,0.0002,0.0001,0.0110
[2025-07-24 12:55:04,635] [INFO] Feature 0 normalized using token
[2025-07-24 12:55:04,635] [INFO] Train shape: (59143, 500), Val shape: (8450, 500), Test shape: (16899, 500)
[2025-07-24 12:55:04,847] [INFO] Classifier: VRScannerModel(
  (input_modules): ModuleList(
    (0): Embedding(65537, 128)
  )
  (rnn_layers): ModuleList(
    (0): GRU(128, 128, num_layers=3, batch_first=True, dropout=0.3)
  )
  (attn_nets): ModuleList(
    (0): Sequential(
      (0): Linear(in_features=128, out_features=64, bias=True)
      (1): Tanh()
      (2): Linear(in_features=64, out_features=1, bias=True)
    )
  )
  (projection_layers): ModuleList(
    (0): Linear(in_features=128, out_features=128, bias=True)
  )
  (feature_attn_net): Sequential(
    (0): Linear(in_features=128, out_features=128, bias=True)
    (1): Tanh()
    (2): Linear(in_features=128, out_features=1, bias=True)
  )
  (fc): Sequential(
    (0): Linear(in_features=128, out_features=128, bias=True)
    (1): ReLU()
    (2): Dropout(p=0.3, inplace=False)
    (3): Linear(in_features=128, out_features=91, bias=True)
  )
)
[2025-07-24 12:55:04,847] [INFO] Training...
[2025-07-24 12:55:21,892] [INFO] Epoch 1/5, ValAcc: 1.91%, TrainLoss: 4.5000, ValLoss: 4.4850, LR: 0.001
[2025-07-24 12:55:39,311] [INFO] Epoch 2/5, ValAcc: 1.89%, TrainLoss: 4.4897, ValLoss: 4.4814, LR: 0.001
[2025-07-24 12:55:56,531] [INFO] Epoch 3/5, ValAcc: 2.00%, TrainLoss: 4.4746, ValLoss: 4.4880, LR: 0.001
…
