…
 ['55810' '443' '55810' ... '50002' '50002' '50002']
 ['60006' '443' '60006' ... '43894' '43894' '443']
 ['57406' '57406' '57406' ... '41738' '58350' '443']]
[2025-07-24 09:15:03,113] [INFO] Feature 0 normalized using none
[2025-07-24 09:15:03,113] [INFO] Train shape: (59143, 500), Val shape: (8450, 500), Test shape: (16899, 500)
[2025-07-24 09:15:03,188] [INFO] Classifier: VRScannerModel(
  (input_modules): ModuleList(
    (0): Identity()
  )
  (rnn_layers): ModuleList(
    (0): GRU(1, 128, num_layers=3, batch_first=True, dropout=0.3)
  )
  (attn_nets): ModuleList(
    (0): Sequential(
      (0): Linear(in_features=128, out_features=64, bias=True)
      (1): Tanh()
      (2): Linear(in_features=64, out_features=1, bias=True)
    )
  )
  (projection_layers): ModuleList(
    (0): Linear(in_features=128, out_features=128, bias=True)
  )
  (feature_attn_net): Sequential(
    (0): Linear(in_features=128, out_features=128, bias=True)
    (1): Tanh()
    (2): Linear(in_features=128, out_features=1, bias=True)
  )
  (fc): Sequential(
    (0): Linear(in_features=128, out_features=128, bias=True)
    (1): ReLU()
    (2): Dropout(p=0.3, inplace=False)
    (3): Linear(in_features=128, out_features=91, bias=True)
  )
)
[2025-07-24 09:15:03,188] [INFO] Training...
[2025-07-24 09:15:17,739] [INFO] Epoch 1/5, ValAcc: 1.93%, TrainLoss: 4.5029, ValLoss: 4.4894, LR: 0.001
[2025-07-24 09:15:31,748] [INFO] Epoch 2/5, ValAcc: 1.94%, TrainLoss: 4.4958, ValLoss: 4.4887, LR: 0.001
[2025-07-24 09:15:45,516] [INFO] Epoch 3/5, ValAcc: 1.03%, TrainLoss: 4.5037, ValLoss: 4.5125, LR: 0.001
…
bug', leaderboard_path='output/meta-free-apps/step1/step1_meta_tcp_sport.csv', step1=True, step2=False, step3=False, train=False, longitudinal_evaluation=False, openworld_evaluation=False, device=device(type='cuda'), metadata='sport', name='tcpsport_none_gru_500_32_5_0.001_128_128_3_0.3_128_128'),0.0101,0.0002,0.0001,0.0109
[2025-07-24 09:16:51,050] [INFO] Feature 0 normalized using minmax
[2025-07-24 09:16:51,050] [INFO] Train shape: (59143, 500), Val shape: (8450, 500), Test shape: (16899, 500)
[2025-07-24 09:16:51,190] [INFO] Classifier: VRScannerModel(
  (input_modules): ModuleList(
    (0): Linear(in_features=1, out_features=128, bias=True)
  )
  (rnn_layers): ModuleList(
    (0): GRU(128, 128, num_layers=3, batch_first=True, dropout=0.3)
  )
  (attn_nets): ModuleList(
    (0): Sequential(
      (0): Linear(in_features=128, out_features=64, bias=True)
      (1): Tanh()
      (2): Linear(in_features=64, out_features=1, bias=True)
    )
  )
  (projection_layers): ModuleList(
    (0): Linear(in_features=128, out_features=128, bias=True)
  )
  (feature_attn_net): Sequential(
    (0): Linear(in_features=128, out_features=128, bias=True)
    (1): Tanh()
    (2): Linear(in_features=128, out_features=1, bias=True)
  )
  (fc): Sequential(
    (0): Linear(in_features=128, out_features=128, bias=True)
    (1): ReLU()
    (2): Dropout(p=0.3, inplace=False)
    (3): Linear(in_features=128, out_features=91, bias=True)
  )
)
[2025-07-24 09:16:51,204] [INFO] Training...
[2025-07-24 09:17:05,843] [INFO] Epoch 1/5, ValAcc: 1.01%, TrainLoss: 4.5128, ValLoss: 4.5124, LR: 0.001
[2025-07-24 09:17:20,574] [INFO] Epoch 2/5, ValAcc: 1.02%, TrainLoss: 4.5112, ValLoss: 4.5116, LR: 0.001
[2025-07-24 09:17:35,049] [INFO] Epoch 3/5, ValAcc: 1.04%, TrainLoss: 4.5101, ValLoss: 4.5100, LR: 0.001
…
ug', leaderboard_path='output/meta-free-apps/step1/step1_meta_tcp_sport.csv', step1=True, step2=False, step3=False, train=False, longitudinal_evaluation=False, openworld_evaluation=False, device=device(type='cuda'), metadata='sport', name='tcpsport_zscore_gru_500_32_5_0.001_128_128_3_0.3_128_128'),0.0102,0.0002,0.0001,0.0110
[2025-07-24 09:21:20,620] [INFO] Feature 0 normalized using token
[2025-07-24 09:21:20,620] [INFO] Train shape: (59143, 500), Val shape: (8450, 500), Test shape: (16899, 500)
[2025-07-24 09:21:20,655] [INFO] Classifier: VRScannerModel(
  (input_modules): ModuleList(
    (0): Embedding(14119, 128)
  )
  (rnn_layers): ModuleList(
    (0): GRU(128, 128, num_layers=3, batch_first=True, dropout=0.3)
  )
  (attn_nets): ModuleList(
    (0): Sequential(
      (0): Linear(in_features=128, out_features=64, bias=True)
      (1): Tanh()
      (2): Linear(in_features=64, out_features=1, bias=True)
    )
  )
  (projection_layers): ModuleList(
    (0): Linear(in_features=128, out_features=128, bias=True)
  )
  (feature_attn_net): Sequential(
    (0): Linear(in_features=128, out_features=128, bias=True)
    (1): Tanh()
    (2): Linear(in_features=128, out_features=1, bias=True)
  )
  (fc): Sequential(
    (0): Linear(in_features=128, out_features=128, bias=True)
    (1): ReLU()
    (2): Dropout(p=0.3, inplace=False)
    (3): Linear(in_features=128, out_features=91, bias=True)
  )
)
[2025-07-24 09:21:20,655] [INFO] Training...
[2025-07-24 09:21:38,033] [INFO] Epoch 1/5, ValAcc: 3.95%, TrainLoss: 4.4378, ValLoss: 4.0560, LR: 0.001
[2025-07-24 09:21:54,331] [INFO] Epoch 2/5, ValAcc: 11.23%, TrainLoss: 3.6746, ValLoss: 3.4176, LR: 0.001
[2025-07-24 09:22:10,452] [INFO] Epoch 3/5, ValAcc: 13.56%, TrainLoss: 3.3297, ValLoss: 3.3391, LR: 0.001
…
