…
 ['423' '52' '52' ... '76' '52' '83']
 ...
 ['242' '52' '76' ... '610' '52' '52']
 ['60' '52' '569' ... '1432' '1432' '1432']
 ['64' '52' '52' ... '91' '355' '91']]
[2025-07-29 07:01:26,761] [INFO] Feature 0 normalized using none
[2025-07-29 07:01:26,762] [INFO] Train shape: (59143, 500), Val shape: (8450, 500), Test shape: (16899, 500)
[2025-07-29 07:01:26,803] [INFO] Classifier: VRScannerModel(
  (input_modules): ModuleList(
    (0): Identity()
  )
  (rnn_layers): ModuleList(
    (0): GRU(1, 128, num_layers=3, batch_first=True, dropout=0.3)
  )
  (attn_nets): ModuleList(
    (0): Sequential(
      (0): Linear(in_features=128, out_features=64, bias=True)
      (1): Tanh()
      (2): Linear(in_features=64, out_features=1, bias=True)
    )
  )
  (projection_layers): ModuleList(
    (0): Linear(in_features=128, out_features=128, bias=True)
  )
  (feature_attn_net): Sequential(
    (0): Linear(in_features=128, out_features=128, bias=True)
    (1): Tanh()
    (2): Linear(in_features=128, out_features=1, bias=True)
  )
  (fc): Sequential(
    (0): Linear(in_features=128, out_features=128, bias=True)
    (1): ReLU()
    (2): Dropout(p=0.3, inplace=False)
    (3): Linear(in_features=128, out_features=91, bias=True)
  )
)
[2025-07-29 07:01:26,803] [INFO] Training...
[2025-07-29 07:01:39,564] [INFO] Epoch 1/5, ValAcc: 0.99%, TrainLoss: 4.5091, ValLoss: 4.5120, LR: 0.001
[2025-07-29 07:01:50,227] [INFO] Epoch 2/5, ValAcc: 0.98%, TrainLoss: 4.5114, ValLoss: 4.5122, LR: 0.001
[2025-07-29 07:02:02,183] [INFO] Epoch 3/5, ValAcc: 0.98%, TrainLoss: 4.5111, ValLoss: 4.5123, LR: 0.001
…
ug', leaderboard_path='output/meta-free-apps/step1/step1_meta_ip_outlen.csv', step1=True, step2=False, step3=False, train=False, longitudinal_evaluation=False, openworld_evaluation=False, device=device(type='cuda'), metadata='outlen', name='ipoutlen_none_gru_500_32_5_0.001_128_128_3_0.3_128_128'),0.0102,0.0002,0.0001,0.0110
[2025-07-29 07:02:41,029] [INFO] Feature 0 normalized using minmax
[2025-07-29 07:02:41,029] [INFO] Train shape: (59143, 500), Val shape: (8450, 500), Test shape: (16899, 500)
[2025-07-29 07:02:41,038] [INFO] Classifier: VRScannerModel(
  (input_modules): ModuleList(
    (0): Linear(in_features=1, out_features=128, bias=True)
  )
  (rnn_layers): ModuleList(
    (0): GRU(128, 128, num_layers=3, batch_first=True, dropout=0.3)
  )
  (attn_nets): ModuleList(
    (0): Sequential(
      (0): Linear(in_features=128, out_features=64, bias=True)
      (1): Tanh()
      (2): Linear(in_features=64, out_features=1, bias=True)
    )
  )
  (projection_layers): ModuleList(
    (0): Linear(in_features=128, out_features=128, bias=True)
  )
  (feature_attn_net): Sequential(
    (0): Linear(in_features=128, out_features=128, bias=True)
    (1): Tanh()
    (2): Linear(in_features=128, out_features=1, bias=True)
  )
  (fc): Sequential(
    (0): Linear(in_features=128, out_features=128, bias=True)
    (1): ReLU()
    (2): Dropout(p=0.3, inplace=False)
    (3): Linear(in_features=128, out_features=91, bias=True)
  )
)
[2025-07-29 07:02:41,038] [INFO] Training...
[2025-07-29 07:02:53,172] [INFO] Epoch 1/5, ValAcc: 11.10%, TrainLoss: 4.2855, ValLoss: 3.5545, LR: 0.001
[2025-07-29 07:03:05,305] [INFO] Epoch 2/5, ValAcc: 39.72%, TrainLoss: 2.9071, ValLoss: 2.2306, LR: 0.001
[2025-07-29 07:03:17,366] [INFO] Epoch 3/5, ValAcc: 47.12%, TrainLoss: 2.1794, ValLoss: 1.9495, LR: 0.001
…
g', leaderboard_path='output/meta-free-apps/step1/step1_meta_ip_outlen.csv', step1=True, step2=False, step3=False, train=False, longitudinal_evaluation=False, openworld_evaluation=False, device=device(type='cuda'), metadata='outlen', name='ipoutlen_zscore_gru_500_32_5_0.001_128_128_3_0.3_128_128'),0.5297,0.5349,0.5848,0.5307
[2025-07-29 07:05:34,252] [INFO] Feature 0 normalized using token
[2025-07-29 07:05:34,252] [INFO] Train shape: (59143, 500), Val shape: (8450, 500), Test shape: (16899, 500)
[2025-07-29 07:05:34,276] [INFO] Classifier: VRScannerModel(
  (input_modules): ModuleList(
    (0): Embedding(1384, 128)
  )
  (rnn_layers): ModuleList(
    (0): GRU(128, 128, num_layers=3, batch_first=True, dropout=0.3)
  )
  (attn_nets): ModuleList(
    (0): Sequential(
      (0): Linear(in_features=128, out_features=64, bias=True)
      (1): Tanh()
      (2): Linear(in_features=64, out_features=1, bias=True)
    )
  )
  (projection_layers): ModuleList(
    (0): Linear(in_features=128, out_features=128, bias=True)
  )
  (feature_attn_net): Sequential(
    (0): Linear(in_features=128, out_features=128, bias=True)
    (1): Tanh()
    (2): Linear(in_features=128, out_features=1, bias=True)
  )
  (fc): Sequential(
    (0): Linear(in_features=128, out_features=128, bias=True)
    (1): ReLU()
    (2): Dropout(p=0.3, inplace=False)
    (3): Linear(in_features=128, out_features=91, bias=True)
  )
)
[2025-07-29 07:05:34,276] [INFO] Training...
[2025-07-29 07:05:46,513] [INFO] Epoch 1/5, ValAcc: 61.73%, TrainLoss: 2.8346, ValLoss: 1.3873, LR: 0.001
[2025-07-29 07:05:58,770] [INFO] Epoch 2/5, ValAcc: 69.04%, TrainLoss: 1.3028, ValLoss: 1.1316, LR: 0.001
[2025-07-29 07:06:11,021] [INFO] Epoch 3/5, ValAcc: 71.51%, TrainLoss: 1.1165, ValLoss: 1.0122, LR: 0.001
…
