…
 ['6' '6' '6' ... '6' '6' '6']
 ['6' '6' '6' ... '6' '6' '6']
 ...
 ['6' '6' '6' ... '6' '6' '6']
 ['6' '6' '6' ... '6' '6' '6']
 ['6' '6' '6' ... '6' '6' '6']]
[2025-07-24 05:48:34,757] [INFO] Feature 0 normalized using none
[2025-07-24 05:48:34,757] [INFO] Train shape: (59143, 500), Val shape: (8450, 500), Test shape: (16899, 500)
[2025-07-24 05:48:34,792] [INFO] Classifier: VRScannerModel(
  (input_modules): ModuleList(
    (0): Identity()
  )
  (rnn_layers): ModuleList(
    (0): GRU(1, 128, num_layers=3, batch_first=True, dropout=0.3)
  )
  (attn_nets): ModuleList(
    (0): Sequential(
      (0): Linear(in_features=128, out_features=64, bias=True)
      (1): Tanh()
      (2): Linear(in_features=64, out_features=1, bias=True)
    )
  )
  (projection_layers): ModuleList(
    (0): Linear(in_features=128, out_features=128, bias=True)
  )
  (feature_attn_net): Sequential(
    (0): Linear(in_features=128, out_features=128, bias=True)
    (1): Tanh()
    (2): Linear(in_features=128, out_features=1, bias=True)
  )
  (fc): Sequential(
    (0): Linear(in_features=128, out_features=128, bias=True)
    (1): ReLU()
    (2): Dropout(p=0.3, inplace=False)
    (3): Linear(in_features=128, out_features=91, bias=True)
  )
)
[2025-07-24 05:48:34,793] [INFO] Training...
[2025-07-24 05:48:57,286] [INFO] Epoch 1/5, ValAcc: 1.04%, TrainLoss: 4.5124, ValLoss: 4.5120, LR: 0.001
[2025-07-24 05:49:09,147] [INFO] Epoch 2/5, ValAcc: 0.98%, TrainLoss: 4.5112, ValLoss: 4.5122, LR: 0.001
[2025-07-24 05:49:23,211] [INFO] Epoch 3/5, ValAcc: 0.98%, TrainLoss: 4.5111, ValLoss: 4.5126, LR: 0.001
…
debug', leaderboard_path='output/meta-free-apps/step1/step1_meta_ip_proto.csv', step1=True, step2=False, step3=False, train=False, longitudinal_evaluation=False, openworld_evaluation=False, device=device(type='cuda'), metadata='proto', name='ipproto_none_gru_500_32_5_0.001_128_128_3_0.3_128_128'),0.0102,0.0002,0.0001,0.0110
[2025-07-24 05:50:22,558] [INFO] Feature 0 normalized using minmax
[2025-07-24 05:50:22,558] [INFO] Train shape: (59143, 500), Val shape: (8450, 500), Test shape: (16899, 500)
[2025-07-24 05:50:22,575] [INFO] Classifier: VRScannerModel(
  (input_modules): ModuleList(
    (0): Linear(in_features=1, out_features=128, bias=True)
  )
  (rnn_layers): ModuleList(
    (0): GRU(128, 128, num_layers=3, batch_first=True, dropout=0.3)
  )
  (attn_nets): ModuleList(
    (0): Sequential(
      (0): Linear(in_features=128, out_features=64, bias=True)
      (1): Tanh()
      (2): Linear(in_features=64, out_features=1, bias=True)
    )
  )
  (projection_layers): ModuleList(
    (0): Linear(in_features=128, out_features=128, bias=True)
  )
  (feature_attn_net): Sequential(
    (0): Linear(in_features=128, out_features=128, bias=True)
    (1): Tanh()
    (2): Linear(in_features=128, out_features=1, bias=True)
  )
  (fc): Sequential(
    (0): Linear(in_features=128, out_features=128, bias=True)
    (1): ReLU()
    (2): Dropout(p=0.3, inplace=False)
    (3): Linear(in_features=128, out_features=91, bias=True)
  )
)
[2025-07-24 05:50:22,575] [INFO] Training...
[2025-07-24 05:50:45,875] [INFO] Epoch 1/5, ValAcc: 1.94%, TrainLoss: 4.5120, ValLoss: 4.4950, LR: 0.001
[2025-07-24 05:51:02,295] [INFO] Epoch 2/5, ValAcc: 1.92%, TrainLoss: 4.4955, ValLoss: 4.4838, LR: 0.001
[2025-07-24 05:51:24,994] [INFO] Epoch 3/5, ValAcc: 0.98%, TrainLoss: 4.5092, ValLoss: 4.5131, LR: 0.001
…
ebug', leaderboard_path='output/meta-free-apps/step1/step1_meta_ip_proto.csv', step1=True, step2=False, step3=False, train=False, longitudinal_evaluation=False, openworld_evaluation=False, device=device(type='cuda'), metadata='proto', name='ipproto_zscore_gru_500_32_5_0.001_128_128_3_0.3_128_128'),0.0102,0.0002,0.0001,0.0110
[2025-07-24 05:54:43,304] [INFO] Feature 0 normalized using token
[2025-07-24 05:54:43,304] [INFO] Train shape: (59143, 500), Val shape: (8450, 500), Test shape: (16899, 500)
[2025-07-24 05:54:43,364] [INFO] Classifier: VRScannerModel(
  (input_modules): ModuleList(
    (0): Embedding(4, 128)
  )
  (rnn_layers): ModuleList(
    (0): GRU(128, 128, num_layers=3, batch_first=True, dropout=0.3)
  )
  (attn_nets): ModuleList(
    (0): Sequential(
      (0): Linear(in_features=128, out_features=64, bias=True)
      (1): Tanh()
      (2): Linear(in_features=64, out_features=1, bias=True)
    )
  )
  (projection_layers): ModuleList(
    (0): Linear(in_features=128, out_features=128, bias=True)
  )
  (feature_attn_net): Sequential(
    (0): Linear(in_features=128, out_features=128, bias=True)
    (1): Tanh()
    (2): Linear(in_features=128, out_features=1, bias=True)
  )
  (fc): Sequential(
    (0): Linear(in_features=128, out_features=128, bias=True)
    (1): ReLU()
    (2): Dropout(p=0.3, inplace=False)
    (3): Linear(in_features=128, out_features=91, bias=True)
  )
)
[2025-07-24 05:54:43,364] [INFO] Training...
[2025-07-24 05:55:06,844] [INFO] Epoch 1/5, ValAcc: 2.04%, TrainLoss: 4.4999, ValLoss: 4.4844, LR: 0.001
[2025-07-24 05:55:30,363] [INFO] Epoch 2/5, ValAcc: 1.98%, TrainLoss: 4.4881, ValLoss: 4.4825, LR: 0.001
[2025-07-24 05:55:53,811] [INFO] Epoch 3/5, ValAcc: 1.70%, TrainLoss: 4.4864, ValLoss: 4.4861, LR: 0.001
…
