…
 ['64' '49' '64' ... '64' '49' '49']
 ['64' '49' '64' ... '64' '49' '49']
 ...
 ['64' '50' '64' ... '64' '64' '64']
 ['64' '50' '64' ... '64' '64' '48']
 ['64' '64' '64' ... '64' '64' '48']]
[2025-07-24 04:38:22,502] [INFO] Feature 0 normalized using none
[2025-07-24 04:38:22,503] [INFO] Train shape: (59143, 500), Val shape: (8450, 500), Test shape: (16899, 500)
[2025-07-24 04:38:22,859] [INFO] Classifier: VRScannerModel(
  (input_modules): ModuleList(
    (0): Identity()
  )
  (rnn_layers): ModuleList(
    (0): GRU(1, 128, num_layers=3, batch_first=True, dropout=0.3)
  )
  (attn_nets): ModuleList(
    (0): Sequential(
      (0): Linear(in_features=128, out_features=64, bias=True)
      (1): Tanh()
      (2): Linear(in_features=64, out_features=1, bias=True)
    )
  )
  (projection_layers): ModuleList(
    (0): Linear(in_features=128, out_features=128, bias=True)
  )
  (feature_attn_net): Sequential(
    (0): Linear(in_features=128, out_features=128, bias=True)
    (1): Tanh()
    (2): Linear(in_features=128, out_features=1, bias=True)
  )
  (fc): Sequential(
    (0): Linear(in_features=128, out_features=128, bias=True)
    (1): ReLU()
    (2): Dropout(p=0.3, inplace=False)
    (3): Linear(in_features=128, out_features=91, bias=True)
  )
)
[2025-07-24 04:38:22,859] [INFO] Training...
[2025-07-24 04:38:38,760] [INFO] Epoch 1/5, ValAcc: 0.98%, TrainLoss: 4.5128, ValLoss: 4.5117, LR: 0.001
[2025-07-24 04:38:52,473] [INFO] Epoch 2/5, ValAcc: 0.98%, TrainLoss: 4.5113, ValLoss: 4.5121, LR: 0.001
[2025-07-24 04:39:05,700] [INFO] Epoch 3/5, ValAcc: 0.98%, TrainLoss: 4.5111, ValLoss: 4.5123, LR: 0.001
…
p_ttl.debug', leaderboard_path='output/meta-free-apps/step1/step1_meta_ip_ttl.csv', step1=True, step2=False, step3=False, train=False, longitudinal_evaluation=False, openworld_evaluation=False, device=device(type='cuda'), metadata='ttl', name='ipttl_none_gru_500_32_5_0.001_128_128_3_0.3_128_128'),0.0102,0.0002,0.0001,0.0110
[2025-07-24 04:39:59,293] [INFO] Feature 0 normalized using minmax
[2025-07-24 04:39:59,293] [INFO] Train shape: (59143, 500), Val shape: (8450, 500), Test shape: (16899, 500)
[2025-07-24 04:39:59,360] [INFO] Classifier: VRScannerModel(
  (input_modules): ModuleList(
    (0): Linear(in_features=1, out_features=128, bias=True)
  )
  (rnn_layers): ModuleList(
    (0): GRU(128, 128, num_layers=3, batch_first=True, dropout=0.3)
  )
  (attn_nets): ModuleList(
    (0): Sequential(
      (0): Linear(in_features=128, out_features=64, bias=True)
      (1): Tanh()
      (2): Linear(in_features=64, out_features=1, bias=True)
    )
  )
  (projection_layers): ModuleList(
    (0): Linear(in_features=128, out_features=128, bias=True)
  )
  (feature_attn_net): Sequential(
    (0): Linear(in_features=128, out_features=128, bias=True)
    (1): Tanh()
    (2): Linear(in_features=128, out_features=1, bias=True)
  )
  (fc): Sequential(
    (0): Linear(in_features=128, out_features=128, bias=True)
    (1): ReLU()
    (2): Dropout(p=0.3, inplace=False)
    (3): Linear(in_features=128, out_features=91, bias=True)
  )
)
[2025-07-24 04:39:59,360] [INFO] Training...
[2025-07-24 04:40:13,229] [INFO] Epoch 1/5, ValAcc: 1.03%, TrainLoss: 4.5124, ValLoss: 4.5118, LR: 0.001
[2025-07-24 04:40:27,051] [INFO] Epoch 2/5, ValAcc: 0.91%, TrainLoss: 4.5113, ValLoss: 4.5121, LR: 0.001
[2025-07-24 04:40:40,855] [INFO] Epoch 3/5, ValAcc: 0.98%, TrainLoss: 4.5111, ValLoss: 4.5123, LR: 0.001
…
_ttl.debug', leaderboard_path='output/meta-free-apps/step1/step1_meta_ip_ttl.csv', step1=True, step2=False, step3=False, train=False, longitudinal_evaluation=False, openworld_evaluation=False, device=device(type='cuda'), metadata='ttl', name='ipttl_zscore_gru_500_32_5_0.001_128_128_3_0.3_128_128'),0.0102,0.0002,0.0001,0.0110
[2025-07-24 04:44:01,243] [INFO] Feature 0 normalized using token
[2025-07-24 04:44:01,244] [INFO] Train shape: (59143, 500), Val shape: (8450, 500), Test shape: (16899, 500)
[2025-07-24 04:44:01,375] [INFO] Classifier: VRScannerModel(
  (input_modules): ModuleList(
    (0): Embedding(18, 128)
  )
  (rnn_layers): ModuleList(
    (0): GRU(128, 128, num_layers=3, batch_first=True, dropout=0.3)
  )
  (attn_nets): ModuleList(
    (0): Sequential(
      (0): Linear(in_features=128, out_features=64, bias=True)
      (1): Tanh()
      (2): Linear(in_features=64, out_features=1, bias=True)
    )
  )
  (projection_layers): ModuleList(
    (0): Linear(in_features=128, out_features=128, bias=True)
  )
  (feature_attn_net): Sequential(
    (0): Linear(in_features=128, out_features=128, bias=True)
    (1): Tanh()
    (2): Linear(in_features=128, out_features=1, bias=True)
  )
  (fc): Sequential(
    (0): Linear(in_features=128, out_features=128, bias=True)
    (1): ReLU()
    (2): Dropout(p=0.3, inplace=False)
    (3): Linear(in_features=128, out_features=91, bias=True)
  )
)
[2025-07-24 04:44:01,391] [INFO] Training...
[2025-07-24 04:44:16,154] [INFO] Epoch 1/5, ValAcc: 9.51%, TrainLoss: 3.9715, ValLoss: 3.4664, LR: 0.001
[2025-07-24 04:44:31,131] [INFO] Epoch 2/5, ValAcc: 14.92%, TrainLoss: 3.2869, ValLoss: 3.0953, LR: 0.001
[2025-07-24 04:44:46,560] [INFO] Epoch 3/5, ValAcc: 18.80%, TrainLoss: 3.0319, ValLoss: 2.8782, LR: 0.001
…
