…
 ['443' '47326' '443' ... '443' '47338' '47338']
 ...
 ['443' '55810' '443' ... '443' '443' '443']
 ['443' '60006' '443' ... '443' '443' '43894']
 ['443' '443' '443' ... '443' '443' '58350']]
[2025-07-24 09:44:37,104] [INFO] Feature 0 normalized using none
[2025-07-24 09:44:37,105] [INFO] Train shape: (59143, 500), Val shape: (8450, 500), Test shape: (16899, 500)
[2025-07-24 09:44:37,182] [INFO] Classifier: VRScannerModel(
  (input_modules): ModuleList(
    (0): Identity()
  )
  (rnn_layers): ModuleList(
    (0): GRU(1, 128, num_layers=3, batch_first=True, dropout=0.3)
  )
  (attn_nets): ModuleList(
    (0): Sequential(
      (0): Linear(in_features=128, out_features=64, bias=True)
      (1): Tanh()
      (2): Linear(in_features=64, out_features=1, bias=True)
    )
  )
  (projection_layers): ModuleList(
    (0): Linear(in_features=128, out_features=128, bias=True)
  )
  (feature_attn_net): Sequential(
    (0): Linear(in_features=128, out_features=128, bias=True)
    (1): Tanh()
    (2): Linear(in_features=128, out_features=1, bias=True)
  )
  (fc): Sequential(
    (0): Linear(in_features=128, out_features=128, bias=True)
    (1): ReLU()
    (2): Dropout(p=0.3, inplace=False)
    (3): Linear(in_features=128, out_features=91, bias=True)
  )
)
[2025-07-24 09:44:37,183] [INFO] Training...
[2025-07-24 09:44:52,193] [INFO] Epoch 1/5, ValAcc: 2.06%, TrainLoss: 4.5020, ValLoss: 4.4840, LR: 0.001
[2025-07-24 09:45:06,334] [INFO] Epoch 2/5, ValAcc: 1.99%, TrainLoss: 4.4847, ValLoss: 4.4687, LR: 0.001
[2025-07-24 09:45:20,208] [INFO] Epoch 3/5, ValAcc: 2.33%, TrainLoss: 4.4765, ValLoss: 4.4616, LR: 0.001
…
bug', leaderboard_path='output/meta-free-apps/step1/step1_meta_tcp_dport.csv', step1=True, step2=False, step3=False, train=False, longitudinal_evaluation=False, openworld_evaluation=False, device=device(type='cuda'), metadata='dport', name='tcpdport_none_gru_500_32_5_0.001_128_128_3_0.3_128_128'),0.0217,0.0060,0.0091,0.0202
[2025-07-24 09:46:20,323] [INFO] Feature 0 normalized using minmax
[2025-07-24 09:46:20,323] [INFO] Train shape: (59143, 500), Val shape: (8450, 500), Test shape: (16899, 500)
[2025-07-24 09:46:20,422] [INFO] Classifier: VRScannerModel(
  (input_modules): ModuleList(
    (0): Linear(in_features=1, out_features=128, bias=True)
  )
  (rnn_layers): ModuleList(
    (0): GRU(128, 128, num_layers=3, batch_first=True, dropout=0.3)
  )
  (attn_nets): ModuleList(
    (0): Sequential(
      (0): Linear(in_features=128, out_features=64, bias=True)
      (1): Tanh()
      (2): Linear(in_features=64, out_features=1, bias=True)
    )
  )
  (projection_layers): ModuleList(
    (0): Linear(in_features=128, out_features=128, bias=True)
  )
  (feature_attn_net): Sequential(
    (0): Linear(in_features=128, out_features=128, bias=True)
    (1): Tanh()
    (2): Linear(in_features=128, out_features=1, bias=True)
  )
  (fc): Sequential(
    (0): Linear(in_features=128, out_features=128, bias=True)
    (1): ReLU()
    (2): Dropout(p=0.3, inplace=False)
    (3): Linear(in_features=128, out_features=91, bias=True)
  )
)
[2025-07-24 09:46:20,422] [INFO] Training...
[2025-07-24 09:46:35,060] [INFO] Epoch 1/5, ValAcc: 10.95%, TrainLoss: 4.0253, ValLoss: 3.3673, LR: 0.001
[2025-07-24 09:46:49,819] [INFO] Epoch 2/5, ValAcc: 15.28%, TrainLoss: 3.3251, ValLoss: 3.0878, LR: 0.001
[2025-07-24 09:47:04,944] [INFO] Epoch 3/5, ValAcc: 18.57%, TrainLoss: 3.0872, ValLoss: 2.8688, LR: 0.001
…
ug', leaderboard_path='output/meta-free-apps/step1/step1_meta_tcp_dport.csv', step1=True, step2=False, step3=False, train=False, longitudinal_evaluation=False, openworld_evaluation=False, device=device(type='cuda'), metadata='dport', name='tcpdport_zscore_gru_500_32_5_0.001_128_128_3_0.3_128_128'),0.2523,0.2067,0.2284,0.2517
[2025-07-24 09:50:28,321] [INFO] Feature 0 normalized using token
[2025-07-24 09:50:28,321] [INFO] Train shape: (59143, 500), Val shape: (8450, 500), Test shape: (16899, 500)
[2025-07-24 09:50:28,483] [INFO] Classifier: VRScannerModel(
  (input_modules): ModuleList(
    (0): Embedding(14120, 128)
  )
  (rnn_layers): ModuleList(
    (0): GRU(128, 128, num_layers=3, batch_first=True, dropout=0.3)
  )
  (attn_nets): ModuleList(
    (0): Sequential(
      (0): Linear(in_features=128, out_features=64, bias=True)
      (1): Tanh()
      (2): Linear(in_features=64, out_features=1, bias=True)
    )
  )
  (projection_layers): ModuleList(
    (0): Linear(in_features=128, out_features=128, bias=True)
  )
  (feature_attn_net): Sequential(
    (0): Linear(in_features=128, out_features=128, bias=True)
    (1): Tanh()
    (2): Linear(in_features=128, out_features=1, bias=True)
  )
  (fc): Sequential(
    (0): Linear(in_features=128, out_features=128, bias=True)
    (1): ReLU()
    (2): Dropout(p=0.3, inplace=False)
    (3): Linear(in_features=128, out_features=91, bias=True)
  )
)
[2025-07-24 09:50:28,483] [INFO] Training...
[2025-07-24 09:50:43,703] [INFO] Epoch 1/5, ValAcc: 8.98%, TrainLoss: 4.2156, ValLoss: 3.5802, LR: 0.001
[2025-07-24 09:50:58,803] [INFO] Epoch 2/5, ValAcc: 15.50%, TrainLoss: 3.4099, ValLoss: 3.1122, LR: 0.001
[2025-07-24 09:51:14,597] [INFO] Epoch 3/5, ValAcc: 20.83%, TrainLoss: 3.1131, ValLoss: 2.8586, LR: 0.001
…
