…
 ['423' '-87' '52' ... '52' '-40' '-40']
 ...
 ['242' '-87' '52' ... '1432' '1432' '1432']
 ['60' '-60' '52' ... '1432' '1432' '-52']
 ['64' '52' '52' ... '52' '355' '-87']]
[2025-07-24 01:08:01,844] [INFO] Feature 0 normalized using none
[2025-07-24 01:08:01,844] [INFO] Train shape: (59143, 500), Val shape: (8450, 500), Test shape: (16899, 500)
[2025-07-24 01:08:01,882] [INFO] Classifier: VRScannerModel(
  (input_modules): ModuleList(
    (0): Identity()
  )
  (rnn_layers): ModuleList(
    (0): GRU(1, 128, num_layers=3, batch_first=True, dropout=0.3)
  )
  (attn_nets): ModuleList(
    (0): Sequential(
      (0): Linear(in_features=128, out_features=64, bias=True)
      (1): Tanh()
      (2): Linear(in_features=64, out_features=1, bias=True)
    )
  )
  (projection_layers): ModuleList(
    (0): Linear(in_features=128, out_features=128, bias=True)
  )
  (feature_attn_net): Sequential(
    (0): Linear(in_features=128, out_features=128, bias=True)
    (1): Tanh()
    (2): Linear(in_features=128, out_features=1, bias=True)
  )
  (fc): Sequential(
    (0): Linear(in_features=128, out_features=128, bias=True)
    (1): ReLU()
    (2): Dropout(p=0.3, inplace=False)
    (3): Linear(in_features=128, out_features=91, bias=True)
  )
)
[2025-07-24 01:08:01,882] [INFO] Training...
[2025-07-24 01:08:20,214] [INFO] Epoch 1/5, ValAcc: 35.07%, TrainLoss: 3.5941, ValLoss: 2.4050, LR: 0.001
[2025-07-24 01:08:34,578] [INFO] Epoch 2/5, ValAcc: 54.33%, TrainLoss: 2.2119, ValLoss: 1.6722, LR: 0.001
[2025-07-24 01:08:56,451] [INFO] Epoch 3/5, ValAcc: 38.88%, TrainLoss: 1.7532, ValLoss: 2.0792, LR: 0.001
…
', leaderboard_path='output/meta-free-apps/step1/step1_meta_pkt_dirlen.csv', step1=True, step2=False, step3=False, train=False, longitudinal_evaluation=False, openworld_evaluation=False, device=device(type='cuda'), metadata='dirlen', name='pktdirlen_none_gru_500_32_5_0.001_128_128_3_0.3_128_128'),0.6126,0.6159,0.6931,0.6095
[2025-07-24 01:10:01,390] [INFO] Feature 0 normalized using minmax
[2025-07-24 01:10:01,391] [INFO] Train shape: (59143, 500), Val shape: (8450, 500), Test shape: (16899, 500)
[2025-07-24 01:10:01,416] [INFO] Classifier: VRScannerModel(
  (input_modules): ModuleList(
    (0): Linear(in_features=1, out_features=128, bias=True)
  )
  (rnn_layers): ModuleList(
    (0): GRU(128, 128, num_layers=3, batch_first=True, dropout=0.3)
  )
  (attn_nets): ModuleList(
    (0): Sequential(
      (0): Linear(in_features=128, out_features=64, bias=True)
      (1): Tanh()
      (2): Linear(in_features=64, out_features=1, bias=True)
    )
  )
  (projection_layers): ModuleList(
    (0): Linear(in_features=128, out_features=128, bias=True)
  )
  (feature_attn_net): Sequential(
    (0): Linear(in_features=128, out_features=128, bias=True)
    (1): Tanh()
    (2): Linear(in_features=128, out_features=1, bias=True)
  )
  (fc): Sequential(
    (0): Linear(in_features=128, out_features=128, bias=True)
    (1): ReLU()
    (2): Dropout(p=0.3, inplace=False)
    (3): Linear(in_features=128, out_features=91, bias=True)
  )
)
[2025-07-24 01:10:01,416] [INFO] Training...
[2025-07-24 01:10:21,755] [INFO] Epoch 1/5, ValAcc: 24.00%, TrainLoss: 3.7349, ValLoss: 2.7826, LR: 0.001
[2025-07-24 01:10:43,196] [INFO] Epoch 2/5, ValAcc: 64.28%, TrainLoss: 2.1868, ValLoss: 1.3584, LR: 0.001
[2025-07-24 01:11:06,571] [INFO] Epoch 3/5, ValAcc: 72.20%, TrainLoss: 1.3875, ValLoss: 1.0582, LR: 0.001
…
, leaderboard_path='output/meta-free-apps/step1/step1_meta_pkt_dirlen.csv', step1=True, step2=False, step3=False, train=False, longitudinal_evaluation=False, openworld_evaluation=False, device=device(type='cuda'), metadata='dirlen', name='pktdirlen_zscore_gru_500_32_5_0.001_128_128_3_0.3_128_128'),0.7281,0.7318,0.7721,0.7280
[2025-07-24 01:14:37,458] [INFO] Feature 0 normalized using token
[2025-07-24 01:14:37,458] [INFO] Train shape: (59143, 500), Val shape: (8450, 500), Test shape: (16899, 500)
[2025-07-24 01:14:37,509] [INFO] Classifier: VRScannerModel(
  (input_modules): ModuleList(
    (0): Embedding(2768, 128)
  )
  (rnn_layers): ModuleList(
    (0): GRU(128, 128, num_layers=3, batch_first=True, dropout=0.3)
  )
  (attn_nets): ModuleList(
    (0): Sequential(
      (0): Linear(in_features=128, out_features=64, bias=True)
      (1): Tanh()
      (2): Linear(in_features=64, out_features=1, bias=True)
    )
  )
  (projection_layers): ModuleList(
    (0): Linear(in_features=128, out_features=128, bias=True)
  )
  (feature_attn_net): Sequential(
    (0): Linear(in_features=128, out_features=128, bias=True)
    (1): Tanh()
    (2): Linear(in_features=128, out_features=1, bias=True)
  )
  (fc): Sequential(
    (0): Linear(in_features=128, out_features=128, bias=True)
    (1): ReLU()
    (2): Dropout(p=0.3, inplace=False)
    (3): Linear(in_features=128, out_features=91, bias=True)
  )
)
[2025-07-24 01:14:37,509] [INFO] Training...
[2025-07-24 01:15:01,102] [INFO] Epoch 1/5, ValAcc: 86.00%, TrainLoss: 2.2075, ValLoss: 0.6167, LR: 0.001
[2025-07-24 01:15:23,569] [INFO] Epoch 2/5, ValAcc: 89.02%, TrainLoss: 0.5404, ValLoss: 0.4272, LR: 0.001
[2025-07-24 01:15:46,746] [INFO] Epoch 3/5, ValAcc: 90.57%, TrainLoss: 0.4107, ValLoss: 0.4023, LR: 0.001
…
