…
 ['307' '307' '307' ... '310' '0' '0']
 ...
 ['774' '1301' '774' ... '300' '300' '300']
 ['65535' '65535' '256' ... '300' '300' '1030']
 ['267' '278' '289' ... '1119' '1539' '2631']]
[2025-07-24 08:21:18,762] [INFO] Feature 0 normalized using none
[2025-07-24 08:21:18,763] [INFO] Train shape: (59143, 500), Val shape: (8450, 500), Test shape: (16899, 500)
[2025-07-24 08:21:18,963] [INFO] Classifier: VRScannerModel(
  (input_modules): ModuleList(
    (0): Identity()
  )
  (rnn_layers): ModuleList(
    (0): GRU(1, 128, num_layers=3, batch_first=True, dropout=0.3)
  )
  (attn_nets): ModuleList(
    (0): Sequential(
      (0): Linear(in_features=128, out_features=64, bias=True)
      (1): Tanh()
      (2): Linear(in_features=64, out_features=1, bias=True)
    )
  )
  (projection_layers): ModuleList(
    (0): Linear(in_features=128, out_features=128, bias=True)
  )
  (feature_attn_net): Sequential(
    (0): Linear(in_features=128, out_features=128, bias=True)
    (1): Tanh()
    (2): Linear(in_features=128, out_features=1, bias=True)
  )
  (fc): Sequential(
    (0): Linear(in_features=128, out_features=128, bias=True)
    (1): ReLU()
    (2): Dropout(p=0.3, inplace=False)
    (3): Linear(in_features=128, out_features=91, bias=True)
  )
)
[2025-07-24 08:21:18,963] [INFO] Training...
[2025-07-24 08:21:34,425] [INFO] Epoch 1/5, ValAcc: 2.30%, TrainLoss: 4.4960, ValLoss: 4.4700, LR: 0.001
[2025-07-24 08:21:47,482] [INFO] Epoch 2/5, ValAcc: 2.82%, TrainLoss: 4.4514, ValLoss: 4.4304, LR: 0.001
[2025-07-24 08:22:01,363] [INFO] Epoch 3/5, ValAcc: 5.33%, TrainLoss: 4.2803, ValLoss: 4.1332, LR: 0.001
…
', leaderboard_path='output/meta-free-apps/step1/step1_meta_tcp_window.csv', step1=True, step2=False, step3=False, train=False, longitudinal_evaluation=False, openworld_evaluation=False, device=device(type='cuda'), metadata='window', name='tcpwindow_none_gru_500_32_5_0.001_128_128_3_0.3_128_128'),0.1658,0.1540,0.2087,0.1676
[2025-07-24 08:23:02,115] [INFO] Feature 0 normalized using minmax
[2025-07-24 08:23:02,115] [INFO] Train shape: (59143, 500), Val shape: (8450, 500), Test shape: (16899, 500)
[2025-07-24 08:23:02,188] [INFO] Classifier: VRScannerModel(
  (input_modules): ModuleList(
    (0): Linear(in_features=1, out_features=128, bias=True)
  )
  (rnn_layers): ModuleList(
    (0): GRU(128, 128, num_layers=3, batch_first=True, dropout=0.3)
  )
  (attn_nets): ModuleList(
    (0): Sequential(
      (0): Linear(in_features=128, out_features=64, bias=True)
      (1): Tanh()
      (2): Linear(in_features=64, out_features=1, bias=True)
    )
  )
  (projection_layers): ModuleList(
    (0): Linear(in_features=128, out_features=128, bias=True)
  )
  (feature_attn_net): Sequential(
    (0): Linear(in_features=128, out_features=128, bias=True)
    (1): Tanh()
    (2): Linear(in_features=128, out_features=1, bias=True)
  )
  (fc): Sequential(
    (0): Linear(in_features=128, out_features=128, bias=True)
    (1): ReLU()
    (2): Dropout(p=0.3, inplace=False)
    (3): Linear(in_features=128, out_features=91, bias=True)
  )
)
[2025-07-24 08:23:02,190] [INFO] Training...
[2025-07-24 08:23:16,457] [INFO] Epoch 1/5, ValAcc: 5.55%, TrainLoss: 4.3742, ValLoss: 4.2005, LR: 0.001
[2025-07-24 08:23:31,067] [INFO] Epoch 2/5, ValAcc: 12.37%, TrainLoss: 4.0065, ValLoss: 3.7976, LR: 0.001
[2025-07-24 08:23:45,942] [INFO] Epoch 3/5, ValAcc: 17.48%, TrainLoss: 3.7213, ValLoss: 3.5519, LR: 0.001
…
, leaderboard_path='output/meta-free-apps/step1/step1_meta_tcp_window.csv', step1=True, step2=False, step3=False, train=False, longitudinal_evaluation=False, openworld_evaluation=False, device=device(type='cuda'), metadata='window', name='tcpwindow_zscore_gru_500_32_5_0.001_128_128_3_0.3_128_128'),0.4508,0.4490,0.5077,0.4515
[2025-07-24 08:27:47,103] [INFO] Feature 0 normalized using token
[2025-07-24 08:27:47,103] [INFO] Train shape: (59143, 500), Val shape: (8450, 500), Test shape: (16899, 500)
[2025-07-24 08:27:47,227] [INFO] Classifier: VRScannerModel(
  (input_modules): ModuleList(
    (0): Embedding(5813, 128)
  )
  (rnn_layers): ModuleList(
    (0): GRU(128, 128, num_layers=3, batch_first=True, dropout=0.3)
  )
  (attn_nets): ModuleList(
    (0): Sequential(
      (0): Linear(in_features=128, out_features=64, bias=True)
      (1): Tanh()
      (2): Linear(in_features=64, out_features=1, bias=True)
    )
  )
  (projection_layers): ModuleList(
    (0): Linear(in_features=128, out_features=128, bias=True)
  )
  (feature_attn_net): Sequential(
    (0): Linear(in_features=128, out_features=128, bias=True)
    (1): Tanh()
    (2): Linear(in_features=128, out_features=1, bias=True)
  )
  (fc): Sequential(
    (0): Linear(in_features=128, out_features=128, bias=True)
    (1): ReLU()
    (2): Dropout(p=0.3, inplace=False)
    (3): Linear(in_features=128, out_features=91, bias=True)
  )
)
[2025-07-24 08:27:47,227] [INFO] Training...
[2025-07-24 08:28:01,899] [INFO] Epoch 1/5, ValAcc: 34.30%, TrainLoss: 3.4176, ValLoss: 2.4561, LR: 0.001
[2025-07-24 08:28:17,115] [INFO] Epoch 2/5, ValAcc: 49.05%, TrainLoss: 2.1585, ValLoss: 1.8005, LR: 0.001
[2025-07-24 08:28:31,499] [INFO] Epoch 3/5, ValAcc: 57.31%, TrainLoss: 1.7569, ValLoss: 1.5214, LR: 0.001
…
