…
 ['0' '0' '0' ... '0' '0' '0']
 ['0' '0' '0' ... '0' '0' '0']
 ...
 ['0' '0' '0' ... '0' '0' '0']
 ['0' '0' '0' ... '0' '0' '0']
 ['0' '0' '0' ... '0' '0' '0']]
[2025-07-24 07:14:49,545] [INFO] Feature 0 normalized using none
[2025-07-24 07:14:49,546] [INFO] Train shape: (59143, 500), Val shape: (8450, 500), Test shape: (16899, 500)
[2025-07-24 07:14:49,581] [INFO] Classifier: VRScannerModel(
  (input_modules): ModuleList(
    (0): Identity()
  )
  (rnn_layers): ModuleList(
    (0): GRU(1, 128, num_layers=3, batch_first=True, dropout=0.3)
  )
  (attn_nets): ModuleList(
    (0): Sequential(
      (0): Linear(in_features=128, out_features=64, bias=True)
      (1): Tanh()
      (2): Linear(in_features=64, out_features=1, bias=True)
    )
  )
  (projection_layers): ModuleList(
    (0): Linear(in_features=128, out_features=128, bias=True)
  )
  (feature_attn_net): Sequential(
    (0): Linear(in_features=128, out_features=128, bias=True)
    (1): Tanh()
    (2): Linear(in_features=128, out_features=1, bias=True)
  )
  (fc): Sequential(
    (0): Linear(in_features=128, out_features=128, bias=True)
    (1): ReLU()
    (2): Dropout(p=0.3, inplace=False)
    (3): Linear(in_features=128, out_features=91, bias=True)
  )
)
[2025-07-24 07:14:49,581] [INFO] Training...
[2025-07-24 07:15:10,908] [INFO] Epoch 1/5, ValAcc: 1.05%, TrainLoss: 4.5126, ValLoss: 4.5109, LR: 0.001
[2025-07-24 07:15:27,980] [INFO] Epoch 2/5, ValAcc: 0.98%, TrainLoss: 4.5113, ValLoss: 4.5118, LR: 0.001
[2025-07-24 07:15:50,294] [INFO] Epoch 3/5, ValAcc: 0.98%, TrainLoss: 4.5111, ValLoss: 4.5121, LR: 0.001
…
ag.debug', leaderboard_path='output/meta-free-apps/step1/step1_meta_ip_frag.csv', step1=True, step2=False, step3=False, train=False, longitudinal_evaluation=False, openworld_evaluation=False, device=device(type='cuda'), metadata='frag', name='ipfrag_none_gru_500_32_5_0.001_128_128_3_0.3_128_128'),0.0102,0.0002,0.0001,0.0110
[2025-07-24 07:16:51,349] [INFO] Feature 0 normalized using minmax
[2025-07-24 07:16:51,349] [INFO] Train shape: (59143, 500), Val shape: (8450, 500), Test shape: (16899, 500)
[2025-07-24 07:16:51,383] [INFO] Classifier: VRScannerModel(
  (input_modules): ModuleList(
    (0): Linear(in_features=1, out_features=128, bias=True)
  )
  (rnn_layers): ModuleList(
    (0): GRU(128, 128, num_layers=3, batch_first=True, dropout=0.3)
  )
  (attn_nets): ModuleList(
    (0): Sequential(
      (0): Linear(in_features=128, out_features=64, bias=True)
      (1): Tanh()
      (2): Linear(in_features=64, out_features=1, bias=True)
    )
  )
  (projection_layers): ModuleList(
    (0): Linear(in_features=128, out_features=128, bias=True)
  )
  (feature_attn_net): Sequential(
    (0): Linear(in_features=128, out_features=128, bias=True)
    (1): Tanh()
    (2): Linear(in_features=128, out_features=1, bias=True)
  )
  (fc): Sequential(
    (0): Linear(in_features=128, out_features=128, bias=True)
    (1): ReLU()
    (2): Dropout(p=0.3, inplace=False)
    (3): Linear(in_features=128, out_features=91, bias=True)
  )
)
[2025-07-24 07:16:51,383] [INFO] Training...
[2025-07-24 07:17:14,656] [INFO] Epoch 1/5, ValAcc: 1.07%, TrainLoss: 4.5128, ValLoss: 4.5118, LR: 0.001
[2025-07-24 07:17:37,547] [INFO] Epoch 2/5, ValAcc: 0.98%, TrainLoss: 4.5112, ValLoss: 4.5122, LR: 0.001
[2025-07-24 07:18:01,214] [INFO] Epoch 3/5, ValAcc: 0.98%, TrainLoss: 4.5111, ValLoss: 4.5123, LR: 0.001
…
g.debug', leaderboard_path='output/meta-free-apps/step1/step1_meta_ip_frag.csv', step1=True, step2=False, step3=False, train=False, longitudinal_evaluation=False, openworld_evaluation=False, device=device(type='cuda'), metadata='frag', name='ipfrag_zscore_gru_500_32_5_0.001_128_128_3_0.3_128_128'),0.0102,0.0002,0.0001,0.0110
[2025-07-24 07:20:08,969] [INFO] Feature 0 normalized using token
[2025-07-24 07:20:08,969] [INFO] Train shape: (59143, 500), Val shape: (8450, 500), Test shape: (16899, 500)
[2025-07-24 07:20:08,995] [INFO] Classifier: VRScannerModel(
  (input_modules): ModuleList(
    (0): Embedding(2, 128)
  )
  (rnn_layers): ModuleList(
    (0): GRU(128, 128, num_layers=3, batch_first=True, dropout=0.3)
  )
  (attn_nets): ModuleList(
    (0): Sequential(
      (0): Linear(in_features=128, out_features=64, bias=True)
      (1): Tanh()
      (2): Linear(in_features=64, out_features=1, bias=True)
    )
  )
  (projection_layers): ModuleList(
    (0): Linear(in_features=128, out_features=128, bias=True)
  )
  (feature_attn_net): Sequential(
    (0): Linear(in_features=128, out_features=128, bias=True)
    (1): Tanh()
    (2): Linear(in_features=128, out_features=1, bias=True)
  )
  (fc): Sequential(
    (0): Linear(in_features=128, out_features=128, bias=True)
    (1): ReLU()
    (2): Dropout(p=0.3, inplace=False)
    (3): Linear(in_features=128, out_features=91, bias=True)
  )
)
[2025-07-24 07:20:08,995] [INFO] Training...
[2025-07-24 07:20:32,674] [INFO] Epoch 1/5, ValAcc: 0.99%, TrainLoss: 4.5120, ValLoss: 4.5124, LR: 0.001
[2025-07-24 07:20:55,414] [INFO] Epoch 2/5, ValAcc: 1.04%, TrainLoss: 4.5112, ValLoss: 4.5123, LR: 0.001
[2025-07-24 07:21:19,024] [INFO] Epoch 3/5, ValAcc: 0.98%, TrainLoss: 4.5112, ValLoss: 4.5124, LR: 0.001
…
