…
 ['0' '0' '0' ... '0' '0' '0']
 ['0' '0' '0' ... '0' '0' '0']
 ...
 ['0' '0' '0' ... '0' '0' '0']
 ['0' '0' '0' ... '0' '0' '0']
 ['0' '0' '0' ... '0' '0' '0']]
[2025-07-24 05:06:54,122] [INFO] Feature 0 normalized using none
[2025-07-24 05:06:54,123] [INFO] Train shape: (59143, 500), Val shape: (8450, 500), Test shape: (16899, 500)
[2025-07-24 05:06:54,282] [INFO] Classifier: VRScannerModel(
  (input_modules): ModuleList(
    (0): Identity()
  )
  (rnn_layers): ModuleList(
    (0): GRU(1, 128, num_layers=3, batch_first=True, dropout=0.3)
  )
  (attn_nets): ModuleList(
    (0): Sequential(
      (0): Linear(in_features=128, out_features=64, bias=True)
      (1): Tanh()
      (2): Linear(in_features=64, out_features=1, bias=True)
    )
  )
  (projection_layers): ModuleList(
    (0): Linear(in_features=128, out_features=128, bias=True)
  )
  (feature_attn_net): Sequential(
    (0): Linear(in_features=128, out_features=128, bias=True)
    (1): Tanh()
    (2): Linear(in_features=128, out_features=1, bias=True)
  )
  (fc): Sequential(
    (0): Linear(in_features=128, out_features=128, bias=True)
    (1): ReLU()
    (2): Dropout(p=0.3, inplace=False)
    (3): Linear(in_features=128, out_features=91, bias=True)
  )
)
[2025-07-24 05:06:54,296] [INFO] Training...
[2025-07-24 05:07:10,748] [INFO] Epoch 1/5, ValAcc: 0.91%, TrainLoss: 4.5123, ValLoss: 4.5118, LR: 0.001
[2025-07-24 05:07:25,466] [INFO] Epoch 2/5, ValAcc: 0.91%, TrainLoss: 4.5112, ValLoss: 4.5121, LR: 0.001
[2025-07-24 05:07:39,364] [INFO] Epoch 3/5, ValAcc: 0.98%, TrainLoss: 4.5111, ValLoss: 4.5122, LR: 0.001
…
p_tos.debug', leaderboard_path='output/meta-free-apps/step1/step1_meta_ip_tos.csv', step1=True, step2=False, step3=False, train=False, longitudinal_evaluation=False, openworld_evaluation=False, device=device(type='cuda'), metadata='tos', name='iptos_none_gru_500_32_5_0.001_128_128_3_0.3_128_128'),0.0102,0.0002,0.0001,0.0110
[2025-07-24 05:08:46,001] [INFO] Feature 0 normalized using minmax
[2025-07-24 05:08:46,001] [INFO] Train shape: (59143, 500), Val shape: (8450, 500), Test shape: (16899, 500)
[2025-07-24 05:08:46,134] [INFO] Classifier: VRScannerModel(
  (input_modules): ModuleList(
    (0): Linear(in_features=1, out_features=128, bias=True)
  )
  (rnn_layers): ModuleList(
    (0): GRU(128, 128, num_layers=3, batch_first=True, dropout=0.3)
  )
  (attn_nets): ModuleList(
    (0): Sequential(
      (0): Linear(in_features=128, out_features=64, bias=True)
      (1): Tanh()
      (2): Linear(in_features=64, out_features=1, bias=True)
    )
  )
  (projection_layers): ModuleList(
    (0): Linear(in_features=128, out_features=128, bias=True)
  )
  (feature_attn_net): Sequential(
    (0): Linear(in_features=128, out_features=128, bias=True)
    (1): Tanh()
    (2): Linear(in_features=128, out_features=1, bias=True)
  )
  (fc): Sequential(
    (0): Linear(in_features=128, out_features=128, bias=True)
    (1): ReLU()
    (2): Dropout(p=0.3, inplace=False)
    (3): Linear(in_features=128, out_features=91, bias=True)
  )
)
[2025-07-24 05:08:46,135] [INFO] Training...
[2025-07-24 05:09:01,193] [INFO] Epoch 1/5, ValAcc: 0.98%, TrainLoss: 4.5124, ValLoss: 4.5120, LR: 0.001
[2025-07-24 05:09:15,737] [INFO] Epoch 2/5, ValAcc: 0.98%, TrainLoss: 4.5111, ValLoss: 4.5122, LR: 0.001
[2025-07-24 05:09:30,311] [INFO] Epoch 3/5, ValAcc: 0.98%, TrainLoss: 4.5111, ValLoss: 4.5122, LR: 0.001
…
_tos.debug', leaderboard_path='output/meta-free-apps/step1/step1_meta_ip_tos.csv', step1=True, step2=False, step3=False, train=False, longitudinal_evaluation=False, openworld_evaluation=False, device=device(type='cuda'), metadata='tos', name='iptos_zscore_gru_500_32_5_0.001_128_128_3_0.3_128_128'),0.0102,0.0002,0.0001,0.0110
[2025-07-24 05:12:30,419] [INFO] Feature 0 normalized using token
[2025-07-24 05:12:30,420] [INFO] Train shape: (59143, 500), Val shape: (8450, 500), Test shape: (16899, 500)
[2025-07-24 05:12:30,558] [INFO] Classifier: VRScannerModel(
  (input_modules): ModuleList(
    (0): Embedding(4, 128)
  )
  (rnn_layers): ModuleList(
    (0): GRU(128, 128, num_layers=3, batch_first=True, dropout=0.3)
  )
  (attn_nets): ModuleList(
    (0): Sequential(
      (0): Linear(in_features=128, out_features=64, bias=True)
      (1): Tanh()
      (2): Linear(in_features=64, out_features=1, bias=True)
    )
  )
  (projection_layers): ModuleList(
    (0): Linear(in_features=128, out_features=128, bias=True)
  )
  (feature_attn_net): Sequential(
    (0): Linear(in_features=128, out_features=128, bias=True)
    (1): Tanh()
    (2): Linear(in_features=128, out_features=1, bias=True)
  )
  (fc): Sequential(
    (0): Linear(in_features=128, out_features=128, bias=True)
    (1): ReLU()
    (2): Dropout(p=0.3, inplace=False)
    (3): Linear(in_features=128, out_features=91, bias=True)
  )
)
[2025-07-24 05:12:30,558] [INFO] Training...
[2025-07-24 05:12:45,631] [INFO] Epoch 1/5, ValAcc: 0.91%, TrainLoss: 4.5127, ValLoss: 4.5118, LR: 0.001
[2025-07-24 05:13:01,095] [INFO] Epoch 2/5, ValAcc: 0.91%, TrainLoss: 4.5113, ValLoss: 4.5122, LR: 0.001
[2025-07-24 05:13:16,276] [INFO] Epoch 3/5, ValAcc: 0.91%, TrainLoss: 4.5111, ValLoss: 4.5126, LR: 0.001
…
