…
 ['423' '87' '52' ... '52' '40' '40']
 ...
 ['242' '87' '52' ... '1432' '1432' '1432']
 ['60' '60' '52' ... '1432' '1432' '52']
 ['64' '52' '52' ... '52' '355' '87']]
[2025-07-24 06:16:20,597] [INFO] Feature 0 normalized using none
[2025-07-24 06:16:20,598] [INFO] Train shape: (59143, 500), Val shape: (8450, 500), Test shape: (16899, 500)
[2025-07-24 06:16:20,633] [INFO] Classifier: VRScannerModel(
  (input_modules): ModuleList(
    (0): Identity()
  )
  (rnn_layers): ModuleList(
    (0): GRU(1, 128, num_layers=3, batch_first=True, dropout=0.3)
  )
  (attn_nets): ModuleList(
    (0): Sequential(
      (0): Linear(in_features=128, out_features=64, bias=True)
      (1): Tanh()
      (2): Linear(in_features=64, out_features=1, bias=True)
    )
  )
  (projection_layers): ModuleList(
    (0): Linear(in_features=128, out_features=128, bias=True)
  )
  (feature_attn_net): Sequential(
    (0): Linear(in_features=128, out_features=128, bias=True)
    (1): Tanh()
    (2): Linear(in_features=128, out_features=1, bias=True)
  )
  (fc): Sequential(
    (0): Linear(in_features=128, out_features=128, bias=True)
    (1): ReLU()
    (2): Dropout(p=0.3, inplace=False)
    (3): Linear(in_features=128, out_features=91, bias=True)
  )
)
[2025-07-24 06:16:20,633] [INFO] Training...
[2025-07-24 06:16:40,215] [INFO] Epoch 1/5, ValAcc: 0.91%, TrainLoss: 4.5127, ValLoss: 4.5118, LR: 0.001
[2025-07-24 06:16:59,168] [INFO] Epoch 2/5, ValAcc: 0.91%, TrainLoss: 4.5112, ValLoss: 4.5120, LR: 0.001
[2025-07-24 06:17:19,887] [INFO] Epoch 3/5, ValAcc: 0.91%, TrainLoss: 4.5117, ValLoss: 4.5125, LR: 0.001
…
p_len.debug', leaderboard_path='output/meta-free-apps/step1/step1_meta_ip_len.csv', step1=True, step2=False, step3=False, train=False, longitudinal_evaluation=False, openworld_evaluation=False, device=device(type='cuda'), metadata='len', name='iplen_none_gru_500_32_5_0.001_128_128_3_0.3_128_128'),0.0102,0.0002,0.0001,0.0110
[2025-07-24 06:18:22,260] [INFO] Feature 0 normalized using minmax
[2025-07-24 06:18:22,260] [INFO] Train shape: (59143, 500), Val shape: (8450, 500), Test shape: (16899, 500)
[2025-07-24 06:18:22,289] [INFO] Classifier: VRScannerModel(
  (input_modules): ModuleList(
    (0): Linear(in_features=1, out_features=128, bias=True)
  )
  (rnn_layers): ModuleList(
    (0): GRU(128, 128, num_layers=3, batch_first=True, dropout=0.3)
  )
  (attn_nets): ModuleList(
    (0): Sequential(
      (0): Linear(in_features=128, out_features=64, bias=True)
      (1): Tanh()
      (2): Linear(in_features=64, out_features=1, bias=True)
    )
  )
  (projection_layers): ModuleList(
    (0): Linear(in_features=128, out_features=128, bias=True)
  )
  (feature_attn_net): Sequential(
    (0): Linear(in_features=128, out_features=128, bias=True)
    (1): Tanh()
    (2): Linear(in_features=128, out_features=1, bias=True)
  )
  (fc): Sequential(
    (0): Linear(in_features=128, out_features=128, bias=True)
    (1): ReLU()
    (2): Dropout(p=0.3, inplace=False)
    (3): Linear(in_features=128, out_features=91, bias=True)
  )
)
[2025-07-24 06:18:22,289] [INFO] Training...
[2025-07-24 06:18:43,476] [INFO] Epoch 1/5, ValAcc: 17.29%, TrainLoss: 4.2508, ValLoss: 3.2813, LR: 0.001
[2025-07-24 06:19:06,414] [INFO] Epoch 2/5, ValAcc: 54.91%, TrainLoss: 2.5186, ValLoss: 1.6563, LR: 0.001
[2025-07-24 06:19:29,701] [INFO] Epoch 3/5, ValAcc: 70.93%, TrainLoss: 1.4910, ValLoss: 1.0480, LR: 0.001
…
_len.debug', leaderboard_path='output/meta-free-apps/step1/step1_meta_ip_len.csv', step1=True, step2=False, step3=False, train=False, longitudinal_evaluation=False, openworld_evaluation=False, device=device(type='cuda'), metadata='len', name='iplen_zscore_gru_500_32_5_0.001_128_128_3_0.3_128_128'),0.7325,0.7556,0.8079,0.7323
[2025-07-24 06:23:05,571] [INFO] Feature 0 normalized using token
[2025-07-24 06:23:05,572] [INFO] Train shape: (59143, 500), Val shape: (8450, 500), Test shape: (16899, 500)
[2025-07-24 06:23:05,592] [INFO] Classifier: VRScannerModel(
  (input_modules): ModuleList(
    (0): Embedding(1385, 128)
  )
  (rnn_layers): ModuleList(
    (0): GRU(128, 128, num_layers=3, batch_first=True, dropout=0.3)
  )
  (attn_nets): ModuleList(
    (0): Sequential(
      (0): Linear(in_features=128, out_features=64, bias=True)
      (1): Tanh()
      (2): Linear(in_features=64, out_features=1, bias=True)
    )
  )
  (projection_layers): ModuleList(
    (0): Linear(in_features=128, out_features=128, bias=True)
  )
  (feature_attn_net): Sequential(
    (0): Linear(in_features=128, out_features=128, bias=True)
    (1): Tanh()
    (2): Linear(in_features=128, out_features=1, bias=True)
  )
  (fc): Sequential(
    (0): Linear(in_features=128, out_features=128, bias=True)
    (1): ReLU()
    (2): Dropout(p=0.3, inplace=False)
    (3): Linear(in_features=128, out_features=91, bias=True)
  )
)
[2025-07-24 06:23:05,592] [INFO] Training...
[2025-07-24 06:23:28,949] [INFO] Epoch 1/5, ValAcc: 86.46%, TrainLoss: 2.4727, ValLoss: 0.5888, LR: 0.001
[2025-07-24 06:23:44,173] [INFO] Epoch 2/5, ValAcc: 89.83%, TrainLoss: 0.5252, ValLoss: 0.4291, LR: 0.001
[2025-07-24 06:24:07,706] [INFO] Epoch 3/5, ValAcc: 90.41%, TrainLoss: 0.4127, ValLoss: 0.4109, LR: 0.001
…
