…
 ['8' '8' '8' ... '8' '8' '8']
 ['8' '8' '8' ... '8' '5' '5']
 ...
 ['8' '8' '8' ... '8' '8' '8']
 ['10' '10' '8' ... '8' '8' '8']
 ['11' '8' '8' ... '8' '8' '8']]
[2025-07-24 12:17:38,859] [INFO] Feature 0 normalized using none
[2025-07-24 12:17:38,860] [INFO] Train shape: (59143, 500), Val shape: (8450, 500), Test shape: (16899, 500)
[2025-07-24 12:17:38,928] [INFO] Classifier: VRScannerModel(
  (input_modules): ModuleList(
    (0): Identity()
  )
  (rnn_layers): ModuleList(
    (0): GRU(1, 128, num_layers=3, batch_first=True, dropout=0.3)
  )
  (attn_nets): ModuleList(
    (0): Sequential(
      (0): Linear(in_features=128, out_features=64, bias=True)
      (1): Tanh()
      (2): Linear(in_features=64, out_features=1, bias=True)
    )
  )
  (projection_layers): ModuleList(
    (0): Linear(in_features=128, out_features=128, bias=True)
  )
  (feature_attn_net): Sequential(
    (0): Linear(in_features=128, out_features=128, bias=True)
    (1): Tanh()
    (2): Linear(in_features=128, out_features=1, bias=True)
  )
  (fc): Sequential(
    (0): Linear(in_features=128, out_features=128, bias=True)
    (1): ReLU()
    (2): Dropout(p=0.3, inplace=False)
    (3): Linear(in_features=128, out_features=91, bias=True)
  )
)
[2025-07-24 12:17:38,928] [INFO] Training...
[2025-07-24 12:17:54,833] [INFO] Epoch 1/5, ValAcc: 0.99%, TrainLoss: 4.5126, ValLoss: 4.5120, LR: 0.001
[2025-07-24 12:18:08,647] [INFO] Epoch 2/5, ValAcc: 0.98%, TrainLoss: 4.5112, ValLoss: 4.5121, LR: 0.001
[2025-07-24 12:18:22,692] [INFO] Epoch 3/5, ValAcc: 0.98%, TrainLoss: 4.5111, ValLoss: 4.5123, LR: 0.001
…
leaderboard_path='output/meta-free-apps/step1/step1_meta_tcp_dataofs.csv', step1=True, step2=False, step3=False, train=False, longitudinal_evaluation=False, openworld_evaluation=False, device=device(type='cuda'), metadata='dataofs', name='tcpdataofs_none_gru_500_32_5_0.001_128_128_3_0.3_128_128'),0.0102,0.0002,0.0001,0.0110
[2025-07-24 12:19:13,583] [INFO] Feature 0 normalized using minmax
[2025-07-24 12:19:13,583] [INFO] Train shape: (59143, 500), Val shape: (8450, 500), Test shape: (16899, 500)
[2025-07-24 12:19:13,607] [INFO] Classifier: VRScannerModel(
  (input_modules): ModuleList(
    (0): Linear(in_features=1, out_features=128, bias=True)
  )
  (rnn_layers): ModuleList(
    (0): GRU(128, 128, num_layers=3, batch_first=True, dropout=0.3)
  )
  (attn_nets): ModuleList(
    (0): Sequential(
      (0): Linear(in_features=128, out_features=64, bias=True)
      (1): Tanh()
      (2): Linear(in_features=64, out_features=1, bias=True)
    )
  )
  (projection_layers): ModuleList(
    (0): Linear(in_features=128, out_features=128, bias=True)
  )
  (feature_attn_net): Sequential(
    (0): Linear(in_features=128, out_features=128, bias=True)
    (1): Tanh()
    (2): Linear(in_features=128, out_features=1, bias=True)
  )
  (fc): Sequential(
    (0): Linear(in_features=128, out_features=128, bias=True)
    (1): ReLU()
    (2): Dropout(p=0.3, inplace=False)
    (3): Linear(in_features=128, out_features=91, bias=True)
  )
)
[2025-07-24 12:19:13,607] [INFO] Training...
[2025-07-24 12:19:35,310] [INFO] Epoch 1/5, ValAcc: 0.98%, TrainLoss: 4.5129, ValLoss: 4.5120, LR: 0.001
[2025-07-24 12:19:51,544] [INFO] Epoch 2/5, ValAcc: 0.98%, TrainLoss: 4.5112, ValLoss: 4.5121, LR: 0.001
[2025-07-24 12:20:07,279] [INFO] Epoch 3/5, ValAcc: 0.98%, TrainLoss: 4.5111, ValLoss: 4.5124, LR: 0.001
…
eaderboard_path='output/meta-free-apps/step1/step1_meta_tcp_dataofs.csv', step1=True, step2=False, step3=False, train=False, longitudinal_evaluation=False, openworld_evaluation=False, device=device(type='cuda'), metadata='dataofs', name='tcpdataofs_zscore_gru_500_32_5_0.001_128_128_3_0.3_128_128'),0.2131,0.1996,0.2374,0.2139
[2025-07-24 12:22:58,109] [INFO] Feature 0 normalized using token
[2025-07-24 12:22:58,110] [INFO] Train shape: (59143, 500), Val shape: (8450, 500), Test shape: (16899, 500)
[2025-07-24 12:22:58,226] [INFO] Classifier: VRScannerModel(
  (input_modules): ModuleList(
    (0): Embedding(7, 128)
  )
  (rnn_layers): ModuleList(
    (0): GRU(128, 128, num_layers=3, batch_first=True, dropout=0.3)
  )
  (attn_nets): ModuleList(
    (0): Sequential(
      (0): Linear(in_features=128, out_features=64, bias=True)
      (1): Tanh()
      (2): Linear(in_features=64, out_features=1, bias=True)
    )
  )
  (projection_layers): ModuleList(
    (0): Linear(in_features=128, out_features=128, bias=True)
  )
  (feature_attn_net): Sequential(
    (0): Linear(in_features=128, out_features=128, bias=True)
    (1): Tanh()
    (2): Linear(in_features=128, out_features=1, bias=True)
  )
  (fc): Sequential(
    (0): Linear(in_features=128, out_features=128, bias=True)
    (1): ReLU()
    (2): Dropout(p=0.3, inplace=False)
    (3): Linear(in_features=128, out_features=91, bias=True)
  )
)
[2025-07-24 12:22:58,227] [INFO] Training...
[2025-07-24 12:23:12,582] [INFO] Epoch 1/5, ValAcc: 8.63%, TrainLoss: 4.2921, ValLoss: 4.0069, LR: 0.001
[2025-07-24 12:23:26,579] [INFO] Epoch 2/5, ValAcc: 16.37%, TrainLoss: 3.7871, ValLoss: 3.5527, LR: 0.001
[2025-07-24 12:23:41,380] [INFO] Epoch 3/5, ValAcc: 19.56%, TrainLoss: 3.4961, ValLoss: 3.3458, LR: 0.001
…
