…
 ['4' '4' '4' ... '4' '4' '4']
 ['4' '4' '4' ... '4' '4' '4']
 ...
 ['4' '4' '4' ... '4' '4' '4']
 ['4' '4' '4' ... '4' '4' '4']
 ['4' '4' '4' ... '4' '4' '4']]
[2025-07-24 03:45:57,540] [INFO] Feature 0 normalized using none
[2025-07-24 03:45:57,540] [INFO] Train shape: (59143, 500), Val shape: (8450, 500), Test shape: (16899, 500)
[2025-07-24 03:45:57,929] [INFO] Classifier: VRScannerModel(
  (input_modules): ModuleList(
    (0): Identity()
  )
  (rnn_layers): ModuleList(
    (0): GRU(1, 128, num_layers=3, batch_first=True, dropout=0.3)
  )
  (attn_nets): ModuleList(
    (0): Sequential(
      (0): Linear(in_features=128, out_features=64, bias=True)
      (1): Tanh()
      (2): Linear(in_features=64, out_features=1, bias=True)
    )
  )
  (projection_layers): ModuleList(
    (0): Linear(in_features=128, out_features=128, bias=True)
  )
  (feature_attn_net): Sequential(
    (0): Linear(in_features=128, out_features=128, bias=True)
    (1): Tanh()
    (2): Linear(in_features=128, out_features=1, bias=True)
  )
  (fc): Sequential(
    (0): Linear(in_features=128, out_features=128, bias=True)
    (1): ReLU()
    (2): Dropout(p=0.3, inplace=False)
    (3): Linear(in_features=128, out_features=91, bias=True)
  )
)
[2025-07-24 03:45:57,930] [INFO] Training...
[2025-07-24 03:46:14,785] [INFO] Epoch 1/5, ValAcc: 0.95%, TrainLoss: 4.5124, ValLoss: 4.5121, LR: 0.001
[2025-07-24 03:46:29,875] [INFO] Epoch 2/5, ValAcc: 0.98%, TrainLoss: 4.5112, ValLoss: 4.5121, LR: 0.001
[2025-07-24 03:46:44,231] [INFO] Epoch 3/5, ValAcc: 0.98%, TrainLoss: 4.5111, ValLoss: 4.5125, LR: 0.001
…
, leaderboard_path='output/meta-free-apps/step1/step1_meta_ip_version.csv', step1=True, step2=False, step3=False, train=False, longitudinal_evaluation=False, openworld_evaluation=False, device=device(type='cuda'), metadata='version', name='ipversion_none_gru_500_32_5_0.001_128_128_3_0.3_128_128'),0.0102,0.0002,0.0001,0.0110
[2025-07-24 03:47:48,771] [INFO] Feature 0 normalized using minmax
[2025-07-24 03:47:48,772] [INFO] Train shape: (59143, 500), Val shape: (8450, 500), Test shape: (16899, 500)
[2025-07-24 03:47:48,886] [INFO] Classifier: VRScannerModel(
  (input_modules): ModuleList(
    (0): Linear(in_features=1, out_features=128, bias=True)
  )
  (rnn_layers): ModuleList(
    (0): GRU(128, 128, num_layers=3, batch_first=True, dropout=0.3)
  )
  (attn_nets): ModuleList(
    (0): Sequential(
      (0): Linear(in_features=128, out_features=64, bias=True)
      (1): Tanh()
      (2): Linear(in_features=64, out_features=1, bias=True)
    )
  )
  (projection_layers): ModuleList(
    (0): Linear(in_features=128, out_features=128, bias=True)
  )
  (feature_attn_net): Sequential(
    (0): Linear(in_features=128, out_features=128, bias=True)
    (1): Tanh()
    (2): Linear(in_features=128, out_features=1, bias=True)
  )
  (fc): Sequential(
    (0): Linear(in_features=128, out_features=128, bias=True)
    (1): ReLU()
    (2): Dropout(p=0.3, inplace=False)
    (3): Linear(in_features=128, out_features=91, bias=True)
  )
)
[2025-07-24 03:47:48,896] [INFO] Training...
[2025-07-24 03:48:03,407] [INFO] Epoch 1/5, ValAcc: 0.98%, TrainLoss: 4.5124, ValLoss: 4.5124, LR: 0.001
[2025-07-24 03:48:17,721] [INFO] Epoch 2/5, ValAcc: 0.98%, TrainLoss: 4.5112, ValLoss: 4.5124, LR: 0.001
[2025-07-24 03:48:31,771] [INFO] Epoch 3/5, ValAcc: 0.98%, TrainLoss: 4.5111, ValLoss: 4.5124, LR: 0.001
…
 leaderboard_path='output/meta-free-apps/step1/step1_meta_ip_version.csv', step1=True, step2=False, step3=False, train=False, longitudinal_evaluation=False, openworld_evaluation=False, device=device(type='cuda'), metadata='version', name='ipversion_zscore_gru_500_32_5_0.001_128_128_3_0.3_128_128'),0.0102,0.0002,0.0001,0.0110
[2025-07-24 03:51:14,650] [INFO] Feature 0 normalized using token
[2025-07-24 03:51:14,651] [INFO] Train shape: (59143, 500), Val shape: (8450, 500), Test shape: (16899, 500)
[2025-07-24 03:51:14,725] [INFO] Classifier: VRScannerModel(
  (input_modules): ModuleList(
    (0): Embedding(2, 128)
  )
  (rnn_layers): ModuleList(
    (0): GRU(128, 128, num_layers=3, batch_first=True, dropout=0.3)
  )
  (attn_nets): ModuleList(
    (0): Sequential(
      (0): Linear(in_features=128, out_features=64, bias=True)
      (1): Tanh()
      (2): Linear(in_features=64, out_features=1, bias=True)
    )
  )
  (projection_layers): ModuleList(
    (0): Linear(in_features=128, out_features=128, bias=True)
  )
  (feature_attn_net): Sequential(
    (0): Linear(in_features=128, out_features=128, bias=True)
    (1): Tanh()
    (2): Linear(in_features=128, out_features=1, bias=True)
  )
  (fc): Sequential(
    (0): Linear(in_features=128, out_features=128, bias=True)
    (1): ReLU()
    (2): Dropout(p=0.3, inplace=False)
    (3): Linear(in_features=128, out_features=91, bias=True)
  )
)
[2025-07-24 03:51:14,725] [INFO] Training...
[2025-07-24 03:51:30,396] [INFO] Epoch 1/5, ValAcc: 1.04%, TrainLoss: 4.5126, ValLoss: 4.5117, LR: 0.001
[2025-07-24 03:51:48,434] [INFO] Epoch 2/5, ValAcc: 1.04%, TrainLoss: 4.5112, ValLoss: 4.5121, LR: 0.001
[2025-07-24 03:52:02,931] [INFO] Epoch 3/5, ValAcc: 0.98%, TrainLoss: 4.5111, ValLoss: 4.5124, LR: 0.001
…
