…
  '10.430346']
 ['0.000000' '0.004883' '0.009906' ... '10.663809' '10.663811'
  '10.664173']
 ['0.000000' '0.000003' '0.002250' ... '2.632245' '2.680117' '2.685423']]
[2025-07-24 02:11:18,342] [INFO] Feature 0 normalized using none
[2025-07-24 02:11:18,343] [INFO] Train shape: (59143, 500), Val shape: (8450, 500), Test shape: (16899, 500)
[2025-07-24 02:11:18,512] [INFO] Classifier: VRScannerModel(
  (input_modules): ModuleList(
    (0): Identity()
  )
  (rnn_layers): ModuleList(
    (0): GRU(1, 128, num_layers=3, batch_first=True, dropout=0.3)
  )
  (attn_nets): ModuleList(
    (0): Sequential(
      (0): Linear(in_features=128, out_features=64, bias=True)
      (1): Tanh()
      (2): Linear(in_features=64, out_features=1, bias=True)
    )
  )
  (projection_layers): ModuleList(
    (0): Linear(in_features=128, out_features=128, bias=True)
  )
  (feature_attn_net): Sequential(
    (0): Linear(in_features=128, out_features=128, bias=True)
    (1): Tanh()
    (2): Linear(in_features=128, out_features=1, bias=True)
  )
  (fc): Sequential(
    (0): Linear(in_features=128, out_features=128, bias=True)
    (1): ReLU()
    (2): Dropout(p=0.3, inplace=False)
    (3): Linear(in_features=128, out_features=91, bias=True)
  )
)
[2025-07-24 02:11:18,512] [INFO] Training...
[2025-07-24 02:11:35,334] [INFO] Epoch 1/5, ValAcc: 13.40%, TrainLoss: 3.9765, ValLoss: 3.5682, LR: 0.001
[2025-07-24 02:11:49,345] [INFO] Epoch 2/5, ValAcc: 21.59%, TrainLoss: 3.4004, ValLoss: 3.1550, LR: 0.001
[2025-07-24 02:12:03,685] [INFO] Epoch 3/5, ValAcc: 28.07%, TrainLoss: 3.0759, ValLoss: 2.8377, LR: 0.001
…
ebug', leaderboard_path='output/meta-free-apps/step1/step1_meta_pkt_ts_rel.csv', step1=True, step2=False, step3=False, train=False, longitudinal_evaluation=False, openworld_evaluation=False, device=device(type='cuda'), metadata='rel', name='pkttsrel_none_gru_500_32_5_0.001_128_128_3_0.3_128_128'),0.3106,0.2974,0.3375,0.3115
[2025-07-24 02:13:07,970] [INFO] Feature 0 normalized using minmax
[2025-07-24 02:13:07,970] [INFO] Train shape: (59143, 500), Val shape: (8450, 500), Test shape: (16899, 500)
[2025-07-24 02:13:08,125] [INFO] Classifier: VRScannerModel(
  (input_modules): ModuleList(
    (0): Linear(in_features=1, out_features=128, bias=True)
  )
  (rnn_layers): ModuleList(
    (0): GRU(128, 128, num_layers=3, batch_first=True, dropout=0.3)
  )
  (attn_nets): ModuleList(
    (0): Sequential(
      (0): Linear(in_features=128, out_features=64, bias=True)
      (1): Tanh()
      (2): Linear(in_features=64, out_features=1, bias=True)
    )
  )
  (projection_layers): ModuleList(
    (0): Linear(in_features=128, out_features=128, bias=True)
  )
  (feature_attn_net): Sequential(
    (0): Linear(in_features=128, out_features=128, bias=True)
    (1): Tanh()
    (2): Linear(in_features=128, out_features=1, bias=True)
  )
  (fc): Sequential(
    (0): Linear(in_features=128, out_features=128, bias=True)
    (1): ReLU()
    (2): Dropout(p=0.3, inplace=False)
    (3): Linear(in_features=128, out_features=91, bias=True)
  )
)
[2025-07-24 02:13:08,130] [INFO] Training...
[2025-07-24 02:13:23,417] [INFO] Epoch 1/5, ValAcc: 1.11%, TrainLoss: 4.5129, ValLoss: 4.5114, LR: 0.001
[2025-07-24 02:13:38,097] [INFO] Epoch 2/5, ValAcc: 0.91%, TrainLoss: 4.5113, ValLoss: 4.5121, LR: 0.001
[2025-07-24 02:13:52,540] [INFO] Epoch 3/5, ValAcc: 0.98%, TrainLoss: 4.5111, ValLoss: 4.5123, LR: 0.001
…
bug', leaderboard_path='output/meta-free-apps/step1/step1_meta_pkt_ts_rel.csv', step1=True, step2=False, step3=False, train=False, longitudinal_evaluation=False, openworld_evaluation=False, device=device(type='cuda'), metadata='rel', name='pkttsrel_zscore_gru_500_32_5_0.001_128_128_3_0.3_128_128'),0.3063,0.2957,0.3464,0.3062
[2025-07-24 02:19:20,638] [INFO] Feature 0 normalized using token
[2025-07-24 02:19:20,638] [INFO] Train shape: (59143, 500), Val shape: (8450, 500), Test shape: (16899, 500)
[2025-07-24 02:19:38,315] [INFO] Classifier: VRScannerModel(
  (input_modules): ModuleList(
    (0): Embedding(12034852, 128)
  )
  (rnn_layers): ModuleList(
    (0): GRU(128, 128, num_layers=3, batch_first=True, dropout=0.3)
  )
  (attn_nets): ModuleList(
    (0): Sequential(
      (0): Linear(in_features=128, out_features=64, bias=True)
      (1): Tanh()
      (2): Linear(in_features=64, out_features=1, bias=True)
    )
  )
  (projection_layers): ModuleList(
    (0): Linear(in_features=128, out_features=128, bias=True)
  )
  (feature_attn_net): Sequential(
    (0): Linear(in_features=128, out_features=128, bias=True)
    (1): Tanh()
    (2): Linear(in_features=128, out_features=1, bias=True)
  )
  (fc): Sequential(
    (0): Linear(in_features=128, out_features=128, bias=True)
    (1): ReLU()
    (2): Dropout(p=0.3, inplace=False)
    (3): Linear(in_features=128, out_features=91, bias=True)
  )
)
[2025-07-24 02:19:38,316] [INFO] Training...
[2025-07-24 02:26:29,569] [INFO] Epoch 1/5, ValAcc: 1.01%, TrainLoss: 4.5125, ValLoss: 4.5191, LR: 0.001
[2025-07-24 02:33:18,633] [INFO] Epoch 2/5, ValAcc: 1.08%, TrainLoss: 4.5110, ValLoss: 5.0553, LR: 0.001
[2025-07-24 02:40:07,153] [INFO] Epoch 3/5, ValAcc: 1.30%, TrainLoss: 4.3633, ValLoss: 7.0019, LR: 0.001
…
