…
 ['0' '1950926063' '921263050' ... '1045777300' '1045777300' '4018850944']
 ['2911133304' '2911136064' '2911136549' ... '3588866530' '2310297835'
  '3271261036']]
[2025-07-24 10:35:37,310] [INFO] Feature 0 normalized using none
[2025-07-24 10:35:37,311] [INFO] Train shape: (59143, 500), Val shape: (8450, 500), Test shape: (16899, 500)
[2025-07-24 10:35:37,463] [INFO] Classifier: VRScannerModel(
  (input_modules): ModuleList(
    (0): Identity()
  )
  (rnn_layers): ModuleList(
    (0): GRU(1, 128, num_layers=3, batch_first=True, dropout=0.3)
  )
  (attn_nets): ModuleList(
    (0): Sequential(
      (0): Linear(in_features=128, out_features=64, bias=True)
      (1): Tanh()
      (2): Linear(in_features=64, out_features=1, bias=True)
    )
  )
  (projection_layers): ModuleList(
    (0): Linear(in_features=128, out_features=128, bias=True)
  )
  (feature_attn_net): Sequential(
    (0): Linear(in_features=128, out_features=128, bias=True)
    (1): Tanh()
    (2): Linear(in_features=128, out_features=1, bias=True)
  )
  (fc): Sequential(
    (0): Linear(in_features=128, out_features=128, bias=True)
    (1): ReLU()
    (2): Dropout(p=0.3, inplace=False)
    (3): Linear(in_features=128, out_features=91, bias=True)
  )
)
[2025-07-24 10:35:37,464] [INFO] Training...
[2025-07-24 10:35:53,423] [INFO] Epoch 1/5, ValAcc: 5.01%, TrainLoss: 4.4012, ValLoss: 4.2109, LR: 0.001
[2025-07-24 10:36:07,933] [INFO] Epoch 2/5, ValAcc: 13.48%, TrainLoss: 3.9597, ValLoss: 3.7333, LR: 0.001
[2025-07-24 10:36:22,743] [INFO] Epoch 3/5, ValAcc: 14.71%, TrainLoss: 3.7157, ValLoss: 3.6337, LR: 0.001
…
ack.debug', leaderboard_path='output/meta-free-apps/step1/step1_meta_tcp_ack.csv', step1=True, step2=False, step3=False, train=False, longitudinal_evaluation=False, openworld_evaluation=False, device=device(type='cuda'), metadata='ack', name='tcpack_none_gru_500_32_5_0.001_128_128_3_0.3_128_128'),0.1684,0.1467,0.1670,0.1687
[2025-07-24 10:37:46,861] [INFO] Feature 0 normalized using minmax
[2025-07-24 10:37:46,862] [INFO] Train shape: (59143, 500), Val shape: (8450, 500), Test shape: (16899, 500)
[2025-07-24 10:37:47,006] [INFO] Classifier: VRScannerModel(
  (input_modules): ModuleList(
    (0): Linear(in_features=1, out_features=128, bias=True)
  )
  (rnn_layers): ModuleList(
    (0): GRU(128, 128, num_layers=3, batch_first=True, dropout=0.3)
  )
  (attn_nets): ModuleList(
    (0): Sequential(
      (0): Linear(in_features=128, out_features=64, bias=True)
      (1): Tanh()
      (2): Linear(in_features=64, out_features=1, bias=True)
    )
  )
  (projection_layers): ModuleList(
    (0): Linear(in_features=128, out_features=128, bias=True)
  )
  (feature_attn_net): Sequential(
    (0): Linear(in_features=128, out_features=128, bias=True)
    (1): Tanh()
    (2): Linear(in_features=128, out_features=1, bias=True)
  )
  (fc): Sequential(
    (0): Linear(in_features=128, out_features=128, bias=True)
    (1): ReLU()
    (2): Dropout(p=0.3, inplace=False)
    (3): Linear(in_features=128, out_features=91, bias=True)
  )
)
[2025-07-24 10:37:47,007] [INFO] Training...
[2025-07-24 10:38:01,928] [INFO] Epoch 1/5, ValAcc: 0.98%, TrainLoss: 4.5125, ValLoss: 4.5120, LR: 0.001
[2025-07-24 10:38:16,809] [INFO] Epoch 2/5, ValAcc: 0.98%, TrainLoss: 4.5112, ValLoss: 4.5121, LR: 0.001
[2025-07-24 10:38:31,580] [INFO] Epoch 3/5, ValAcc: 0.98%, TrainLoss: 4.5111, ValLoss: 4.5122, LR: 0.001
…
ck.debug', leaderboard_path='output/meta-free-apps/step1/step1_meta_tcp_ack.csv', step1=True, step2=False, step3=False, train=False, longitudinal_evaluation=False, openworld_evaluation=False, device=device(type='cuda'), metadata='ack', name='tcpack_zscore_gru_500_32_5_0.001_128_128_3_0.3_128_128'),0.0438,0.0195,0.0328,0.0439
[2025-07-24 10:43:42,078] [INFO] Feature 0 normalized using token
[2025-07-24 10:43:42,079] [INFO] Train shape: (59143, 500), Val shape: (8450, 500), Test shape: (16899, 500)
[2025-07-24 10:44:01,210] [INFO] Classifier: VRScannerModel(
  (input_modules): ModuleList(
    (0): Embedding(12378502, 128)
  )
  (rnn_layers): ModuleList(
    (0): GRU(128, 128, num_layers=3, batch_first=True, dropout=0.3)
  )
  (attn_nets): ModuleList(
    (0): Sequential(
      (0): Linear(in_features=128, out_features=64, bias=True)
      (1): Tanh()
      (2): Linear(in_features=64, out_features=1, bias=True)
    )
  )
  (projection_layers): ModuleList(
    (0): Linear(in_features=128, out_features=128, bias=True)
  )
  (feature_attn_net): Sequential(
    (0): Linear(in_features=128, out_features=128, bias=True)
    (1): Tanh()
    (2): Linear(in_features=128, out_features=1, bias=True)
  )
  (fc): Sequential(
    (0): Linear(in_features=128, out_features=128, bias=True)
    (1): ReLU()
    (2): Dropout(p=0.3, inplace=False)
    (3): Linear(in_features=128, out_features=91, bias=True)
  )
)
[2025-07-24 10:44:01,211] [INFO] Training...
[2025-07-24 10:51:03,102] [INFO] Epoch 1/5, ValAcc: 0.97%, TrainLoss: 4.5120, ValLoss: 4.5530, LR: 0.001
[2025-07-24 10:58:02,277] [INFO] Epoch 2/5, ValAcc: 1.01%, TrainLoss: 4.4797, ValLoss: 4.9087, LR: 0.001
[2025-07-24 11:05:01,890] [INFO] Epoch 3/5, ValAcc: 1.31%, TrainLoss: 4.3326, ValLoss: 11.1342, LR: 0.001
…
