…
 ['8991' '56715' '8992' ... '11761' '11762' '11763']
 ['9357' '0' '9358' ... '25008' '25009' '44536']
 ['32464' '32465' '32466' ... '31279' '47584' '14019']]
[2025-07-24 06:46:08,822] [INFO] Feature 0 normalized using none
[2025-07-24 06:46:08,822] [INFO] Train shape: (59143, 500), Val shape: (8450, 500), Test shape: (16899, 500)
[2025-07-24 06:46:08,880] [INFO] Classifier: VRScannerModel(
  (input_modules): ModuleList(
    (0): Identity()
  )
  (rnn_layers): ModuleList(
    (0): GRU(1, 128, num_layers=3, batch_first=True, dropout=0.3)
  )
  (attn_nets): ModuleList(
    (0): Sequential(
      (0): Linear(in_features=128, out_features=64, bias=True)
      (1): Tanh()
      (2): Linear(in_features=64, out_features=1, bias=True)
    )
  )
  (projection_layers): ModuleList(
    (0): Linear(in_features=128, out_features=128, bias=True)
  )
  (feature_attn_net): Sequential(
    (0): Linear(in_features=128, out_features=128, bias=True)
    (1): Tanh()
    (2): Linear(in_features=128, out_features=1, bias=True)
  )
  (fc): Sequential(
    (0): Linear(in_features=128, out_features=128, bias=True)
    (1): ReLU()
    (2): Dropout(p=0.3, inplace=False)
    (3): Linear(in_features=128, out_features=91, bias=True)
  )
)
[2025-07-24 06:46:08,880] [INFO] Training...
[2025-07-24 06:46:32,212] [INFO] Epoch 1/5, ValAcc: 1.68%, TrainLoss: 4.5045, ValLoss: 4.4962, LR: 0.001
[2025-07-24 06:46:53,382] [INFO] Epoch 2/5, ValAcc: 3.22%, TrainLoss: 4.4675, ValLoss: 4.4120, LR: 0.001
[2025-07-24 06:47:15,090] [INFO] Epoch 3/5, ValAcc: 9.79%, TrainLoss: 4.1012, ValLoss: 3.8904, LR: 0.001
…
ta_ip_id.debug', leaderboard_path='output/meta-free-apps/step1/step1_meta_ip_id.csv', step1=True, step2=False, step3=False, train=False, longitudinal_evaluation=False, openworld_evaluation=False, device=device(type='cuda'), metadata='id', name='ipid_none_gru_500_32_5_0.001_128_128_3_0.3_128_128'),0.1462,0.1365,0.1654,0.1465
[2025-07-24 06:48:23,788] [INFO] Feature 0 normalized using minmax
[2025-07-24 06:48:23,788] [INFO] Train shape: (59143, 500), Val shape: (8450, 500), Test shape: (16899, 500)
[2025-07-24 06:48:23,808] [INFO] Classifier: VRScannerModel(
  (input_modules): ModuleList(
    (0): Linear(in_features=1, out_features=128, bias=True)
  )
  (rnn_layers): ModuleList(
    (0): GRU(128, 128, num_layers=3, batch_first=True, dropout=0.3)
  )
  (attn_nets): ModuleList(
    (0): Sequential(
      (0): Linear(in_features=128, out_features=64, bias=True)
      (1): Tanh()
      (2): Linear(in_features=64, out_features=1, bias=True)
    )
  )
  (projection_layers): ModuleList(
    (0): Linear(in_features=128, out_features=128, bias=True)
  )
  (feature_attn_net): Sequential(
    (0): Linear(in_features=128, out_features=128, bias=True)
    (1): Tanh()
    (2): Linear(in_features=128, out_features=1, bias=True)
  )
  (fc): Sequential(
    (0): Linear(in_features=128, out_features=128, bias=True)
    (1): ReLU()
    (2): Dropout(p=0.3, inplace=False)
    (3): Linear(in_features=128, out_features=91, bias=True)
  )
)
[2025-07-24 06:48:23,808] [INFO] Training...
[2025-07-24 06:48:46,440] [INFO] Epoch 1/5, ValAcc: 1.14%, TrainLoss: 4.5129, ValLoss: 4.5117, LR: 0.001
[2025-07-24 06:49:07,712] [INFO] Epoch 2/5, ValAcc: 0.98%, TrainLoss: 4.5112, ValLoss: 4.5121, LR: 0.001
[2025-07-24 06:49:31,225] [INFO] Epoch 3/5, ValAcc: 1.04%, TrainLoss: 4.5111, ValLoss: 4.5123, LR: 0.001
…
a_ip_id.debug', leaderboard_path='output/meta-free-apps/step1/step1_meta_ip_id.csv', step1=True, step2=False, step3=False, train=False, longitudinal_evaluation=False, openworld_evaluation=False, device=device(type='cuda'), metadata='id', name='ipid_zscore_gru_500_32_5_0.001_128_128_3_0.3_128_128'),0.1417,0.1192,0.1520,0.1416
[2025-07-24 06:53:38,207] [INFO] Feature 0 normalized using token
[2025-07-24 06:53:38,207] [INFO] Train shape: (59143, 500), Val shape: (8450, 500), Test shape: (16899, 500)
[2025-07-24 06:53:38,304] [INFO] Classifier: VRScannerModel(
  (input_modules): ModuleList(
    (0): Embedding(65537, 128)
  )
  (rnn_layers): ModuleList(
    (0): GRU(128, 128, num_layers=3, batch_first=True, dropout=0.3)
  )
  (attn_nets): ModuleList(
    (0): Sequential(
      (0): Linear(in_features=128, out_features=64, bias=True)
      (1): Tanh()
      (2): Linear(in_features=64, out_features=1, bias=True)
    )
  )
  (projection_layers): ModuleList(
    (0): Linear(in_features=128, out_features=128, bias=True)
  )
  (feature_attn_net): Sequential(
    (0): Linear(in_features=128, out_features=128, bias=True)
    (1): Tanh()
    (2): Linear(in_features=128, out_features=1, bias=True)
  )
  (fc): Sequential(
    (0): Linear(in_features=128, out_features=128, bias=True)
    (1): ReLU()
    (2): Dropout(p=0.3, inplace=False)
    (3): Linear(in_features=128, out_features=91, bias=True)
  )
)
[2025-07-24 06:53:38,305] [INFO] Training...
[2025-07-24 06:54:02,477] [INFO] Epoch 1/5, ValAcc: 3.08%, TrainLoss: 4.4442, ValLoss: 4.3676, LR: 0.001
[2025-07-24 06:54:26,293] [INFO] Epoch 2/5, ValAcc: 5.46%, TrainLoss: 4.3163, ValLoss: 4.2173, LR: 0.001
[2025-07-24 06:54:41,444] [INFO] Epoch 3/5, ValAcc: 8.77%, TrainLoss: 4.0892, ValLoss: 4.0198, LR: 0.001
…
