…
 ['5' '5' '5' ... '5' '5' '5']
 ['5' '5' '5' ... '5' '5' '5']
 ...
 ['5' '5' '5' ... '5' '5' '5']
 ['5' '5' '5' ... '5' '5' '5']
 ['5' '5' '5' ... '5' '5' '5']]
[2025-07-24 04:12:41,399] [INFO] Feature 0 normalized using none
[2025-07-24 04:12:41,400] [INFO] Train shape: (59143, 500), Val shape: (8450, 500), Test shape: (16899, 500)
[2025-07-24 04:12:41,549] [INFO] Classifier: VRScannerModel(
  (input_modules): ModuleList(
    (0): Identity()
  )
  (rnn_layers): ModuleList(
    (0): GRU(1, 128, num_layers=3, batch_first=True, dropout=0.3)
  )
  (attn_nets): ModuleList(
    (0): Sequential(
      (0): Linear(in_features=128, out_features=64, bias=True)
      (1): Tanh()
      (2): Linear(in_features=64, out_features=1, bias=True)
    )
  )
  (projection_layers): ModuleList(
    (0): Linear(in_features=128, out_features=128, bias=True)
  )
  (feature_attn_net): Sequential(
    (0): Linear(in_features=128, out_features=128, bias=True)
    (1): Tanh()
    (2): Linear(in_features=128, out_features=1, bias=True)
  )
  (fc): Sequential(
    (0): Linear(in_features=128, out_features=128, bias=True)
    (1): ReLU()
    (2): Dropout(p=0.3, inplace=False)
    (3): Linear(in_features=128, out_features=91, bias=True)
  )
)
[2025-07-24 04:12:41,549] [INFO] Training...
[2025-07-24 04:12:57,788] [INFO] Epoch 1/5, ValAcc: 0.98%, TrainLoss: 4.5123, ValLoss: 4.5122, LR: 0.001
[2025-07-24 04:13:12,103] [INFO] Epoch 2/5, ValAcc: 0.98%, TrainLoss: 4.5112, ValLoss: 4.5123, LR: 0.001
[2025-07-24 04:13:26,266] [INFO] Epoch 3/5, ValAcc: 0.98%, TrainLoss: 4.5111, ValLoss: 4.5123, LR: 0.001
…
p_ihl.debug', leaderboard_path='output/meta-free-apps/step1/step1_meta_ip_ihl.csv', step1=True, step2=False, step3=False, train=False, longitudinal_evaluation=False, openworld_evaluation=False, device=device(type='cuda'), metadata='ihl', name='ipihl_none_gru_500_32_5_0.001_128_128_3_0.3_128_128'),0.0102,0.0002,0.0001,0.0110
[2025-07-24 04:14:29,388] [INFO] Feature 0 normalized using minmax
[2025-07-24 04:14:29,388] [INFO] Train shape: (59143, 500), Val shape: (8450, 500), Test shape: (16899, 500)
[2025-07-24 04:14:29,496] [INFO] Classifier: VRScannerModel(
  (input_modules): ModuleList(
    (0): Linear(in_features=1, out_features=128, bias=True)
  )
  (rnn_layers): ModuleList(
    (0): GRU(128, 128, num_layers=3, batch_first=True, dropout=0.3)
  )
  (attn_nets): ModuleList(
    (0): Sequential(
      (0): Linear(in_features=128, out_features=64, bias=True)
      (1): Tanh()
      (2): Linear(in_features=64, out_features=1, bias=True)
    )
  )
  (projection_layers): ModuleList(
    (0): Linear(in_features=128, out_features=128, bias=True)
  )
  (feature_attn_net): Sequential(
    (0): Linear(in_features=128, out_features=128, bias=True)
    (1): Tanh()
    (2): Linear(in_features=128, out_features=1, bias=True)
  )
  (fc): Sequential(
    (0): Linear(in_features=128, out_features=128, bias=True)
    (1): ReLU()
    (2): Dropout(p=0.3, inplace=False)
    (3): Linear(in_features=128, out_features=91, bias=True)
  )
)
[2025-07-24 04:14:29,501] [INFO] Training...
[2025-07-24 04:14:44,441] [INFO] Epoch 1/5, ValAcc: 1.04%, TrainLoss: 4.5126, ValLoss: 4.5122, LR: 0.001
[2025-07-24 04:14:58,915] [INFO] Epoch 2/5, ValAcc: 1.04%, TrainLoss: 4.5112, ValLoss: 4.5121, LR: 0.001
[2025-07-24 04:15:14,398] [INFO] Epoch 3/5, ValAcc: 1.04%, TrainLoss: 4.5111, ValLoss: 4.5122, LR: 0.001
…
_ihl.debug', leaderboard_path='output/meta-free-apps/step1/step1_meta_ip_ihl.csv', step1=True, step2=False, step3=False, train=False, longitudinal_evaluation=False, openworld_evaluation=False, device=device(type='cuda'), metadata='ihl', name='ipihl_zscore_gru_500_32_5_0.001_128_128_3_0.3_128_128'),0.0103,0.0004,0.0005,0.0111
[2025-07-24 04:18:13,983] [INFO] Feature 0 normalized using token
[2025-07-24 04:18:13,984] [INFO] Train shape: (59143, 500), Val shape: (8450, 500), Test shape: (16899, 500)
[2025-07-24 04:18:14,059] [INFO] Classifier: VRScannerModel(
  (input_modules): ModuleList(
    (0): Embedding(2, 128)
  )
  (rnn_layers): ModuleList(
    (0): GRU(128, 128, num_layers=3, batch_first=True, dropout=0.3)
  )
  (attn_nets): ModuleList(
    (0): Sequential(
      (0): Linear(in_features=128, out_features=64, bias=True)
      (1): Tanh()
      (2): Linear(in_features=64, out_features=1, bias=True)
    )
  )
  (projection_layers): ModuleList(
    (0): Linear(in_features=128, out_features=128, bias=True)
  )
  (feature_attn_net): Sequential(
    (0): Linear(in_features=128, out_features=128, bias=True)
    (1): Tanh()
    (2): Linear(in_features=128, out_features=1, bias=True)
  )
  (fc): Sequential(
    (0): Linear(in_features=128, out_features=128, bias=True)
    (1): ReLU()
    (2): Dropout(p=0.3, inplace=False)
    (3): Linear(in_features=128, out_features=91, bias=True)
  )
)
[2025-07-24 04:18:14,059] [INFO] Training...
[2025-07-24 04:18:29,516] [INFO] Epoch 1/5, ValAcc: 0.98%, TrainLoss: 4.5126, ValLoss: 4.5120, LR: 0.001
[2025-07-24 04:18:44,543] [INFO] Epoch 2/5, ValAcc: 0.98%, TrainLoss: 4.5112, ValLoss: 4.5122, LR: 0.001
[2025-07-24 04:18:59,820] [INFO] Epoch 3/5, ValAcc: 1.04%, TrainLoss: 4.5111, ValLoss: 4.5124, LR: 0.001
…
