…
 ['1' '-1' '1' ... '1' '-1' '-1']
 ['1' '-1' '1' ... '1' '-1' '-1']
 ...
 ['1' '-1' '1' ... '1' '1' '1']
 ['1' '-1' '1' ... '1' '1' '-1']
 ['1' '1' '1' ... '1' '1' '-1']]
[2025-07-24 01:39:04,153] [INFO] Feature 0 normalized using none
[2025-07-24 01:39:04,153] [INFO] Train shape: (59143, 500), Val shape: (8450, 500), Test shape: (16899, 500)
[2025-07-24 01:39:04,219] [INFO] Classifier: VRScannerModel(
  (input_modules): ModuleList(
    (0): Identity()
  )
  (rnn_layers): ModuleList(
    (0): GRU(1, 128, num_layers=3, batch_first=True, dropout=0.3)
  )
  (attn_nets): ModuleList(
    (0): Sequential(
      (0): Linear(in_features=128, out_features=64, bias=True)
      (1): Tanh()
      (2): Linear(in_features=64, out_features=1, bias=True)
    )
  )
  (projection_layers): ModuleList(
    (0): Linear(in_features=128, out_features=128, bias=True)
  )
  (feature_attn_net): Sequential(
    (0): Linear(in_features=128, out_features=128, bias=True)
    (1): Tanh()
    (2): Linear(in_features=128, out_features=1, bias=True)
  )
  (fc): Sequential(
    (0): Linear(in_features=128, out_features=128, bias=True)
    (1): ReLU()
    (2): Dropout(p=0.3, inplace=False)
    (3): Linear(in_features=128, out_features=91, bias=True)
  )
)
[2025-07-24 01:39:04,220] [INFO] Training...
[2025-07-24 01:39:19,313] [INFO] Epoch 1/5, ValAcc: 7.20%, TrainLoss: 4.0907, ValLoss: 3.5536, LR: 0.001
[2025-07-24 01:39:33,682] [INFO] Epoch 2/5, ValAcc: 13.68%, TrainLoss: 3.2921, ValLoss: 3.1169, LR: 0.001
[2025-07-24 01:39:47,733] [INFO] Epoch 3/5, ValAcc: 20.34%, TrainLoss: 3.0579, ValLoss: 2.8854, LR: 0.001
…
dir.debug', leaderboard_path='output/meta-free-apps/step1/step1_meta_pkt_dir.csv', step1=True, step2=False, step3=False, train=False, longitudinal_evaluation=False, openworld_evaluation=False, device=device(type='cuda'), metadata='dir', name='pktdir_none_gru_500_32_5_0.001_128_128_3_0.3_128_128'),0.2725,0.2374,0.2922,0.2716
[2025-07-24 01:40:52,983] [INFO] Feature 0 normalized using minmax
[2025-07-24 01:40:52,984] [INFO] Train shape: (59143, 500), Val shape: (8450, 500), Test shape: (16899, 500)
[2025-07-24 01:40:53,071] [INFO] Classifier: VRScannerModel(
  (input_modules): ModuleList(
    (0): Linear(in_features=1, out_features=128, bias=True)
  )
  (rnn_layers): ModuleList(
    (0): GRU(128, 128, num_layers=3, batch_first=True, dropout=0.3)
  )
  (attn_nets): ModuleList(
    (0): Sequential(
      (0): Linear(in_features=128, out_features=64, bias=True)
      (1): Tanh()
      (2): Linear(in_features=64, out_features=1, bias=True)
    )
  )
  (projection_layers): ModuleList(
    (0): Linear(in_features=128, out_features=128, bias=True)
  )
  (feature_attn_net): Sequential(
    (0): Linear(in_features=128, out_features=128, bias=True)
    (1): Tanh()
    (2): Linear(in_features=128, out_features=1, bias=True)
  )
  (fc): Sequential(
    (0): Linear(in_features=128, out_features=128, bias=True)
    (1): ReLU()
    (2): Dropout(p=0.3, inplace=False)
    (3): Linear(in_features=128, out_features=91, bias=True)
  )
)
[2025-07-24 01:40:53,076] [INFO] Training...
[2025-07-24 01:41:07,855] [INFO] Epoch 1/5, ValAcc: 9.73%, TrainLoss: 4.0452, ValLoss: 3.4375, LR: 0.001
[2025-07-24 01:41:22,316] [INFO] Epoch 2/5, ValAcc: 11.40%, TrainLoss: 3.2885, ValLoss: 3.1534, LR: 0.001
[2025-07-24 01:41:37,266] [INFO] Epoch 3/5, ValAcc: 21.47%, TrainLoss: 3.0288, ValLoss: 2.7940, LR: 0.001
…
ir.debug', leaderboard_path='output/meta-free-apps/step1/step1_meta_pkt_dir.csv', step1=True, step2=False, step3=False, train=False, longitudinal_evaluation=False, openworld_evaluation=False, device=device(type='cuda'), metadata='dir', name='pktdir_zscore_gru_500_32_5_0.001_128_128_3_0.3_128_128'),0.2740,0.2479,0.2981,0.2746
[2025-07-24 01:44:47,769] [INFO] Feature 0 normalized using token
[2025-07-24 01:44:47,770] [INFO] Train shape: (59143, 500), Val shape: (8450, 500), Test shape: (16899, 500)
[2025-07-24 01:44:47,919] [INFO] Classifier: VRScannerModel(
  (input_modules): ModuleList(
    (0): Embedding(3, 128)
  )
  (rnn_layers): ModuleList(
    (0): GRU(128, 128, num_layers=3, batch_first=True, dropout=0.3)
  )
  (attn_nets): ModuleList(
    (0): Sequential(
      (0): Linear(in_features=128, out_features=64, bias=True)
      (1): Tanh()
      (2): Linear(in_features=64, out_features=1, bias=True)
    )
  )
  (projection_layers): ModuleList(
    (0): Linear(in_features=128, out_features=128, bias=True)
  )
  (feature_attn_net): Sequential(
    (0): Linear(in_features=128, out_features=128, bias=True)
    (1): Tanh()
    (2): Linear(in_features=128, out_features=1, bias=True)
  )
  (fc): Sequential(
    (0): Linear(in_features=128, out_features=128, bias=True)
    (1): ReLU()
    (2): Dropout(p=0.3, inplace=False)
    (3): Linear(in_features=128, out_features=91, bias=True)
  )
)
[2025-07-24 01:44:47,919] [INFO] Training...
[2025-07-24 01:45:03,536] [INFO] Epoch 1/5, ValAcc: 9.73%, TrainLoss: 3.9915, ValLoss: 3.4466, LR: 0.001
[2025-07-24 01:45:19,282] [INFO] Epoch 2/5, ValAcc: 16.12%, TrainLoss: 3.3038, ValLoss: 3.1017, LR: 0.001
[2025-07-24 01:45:35,419] [INFO] Epoch 3/5, ValAcc: 17.10%, TrainLoss: 3.0932, ValLoss: 2.9776, LR: 0.001
…
