…
 ['265' '774' '774' ... '300' '300' '300']
 ['265' '265' '332' ... '289' '289' '289']
 ['343' '761' '300' ... '774' '5404' '5404']]
[2025-07-25 23:43:10,459] [INFO] Training Fold 1/5
[2025-07-25 23:43:25,605] [INFO] Feature 0 normalized using token
[2025-07-25 23:43:25,606] [INFO] Train shape: (10659, 1000), Val shape: (1523, 1000), Test shape: (3046, 1000)
[2025-07-25 23:43:42,855] [INFO] Feature 1 normalized using token
[2025-07-25 23:43:42,855] [INFO] Train shape: (10659, 1000), Val shape: (1523, 1000), Test shape: (3046, 1000)
[2025-07-25 23:43:42,955] [INFO] Classifier: VRScannerModel(
  (input_modules): ModuleList(
    (0): Embedding(1385, 512)
    (1): Embedding(5120, 512)
  )
  (rnn_layers): ModuleList(
    (0-1): 2 x GRU(512, 256, num_layers=3, batch_first=True, dropout=0.3, bidirectional=True)
  )
  (attn_nets): ModuleList(
    (0-1): 2 x Sequential(
      (0): Linear(in_features=512, out_features=64, bias=True)
      (1): Tanh()
      (2): Linear(in_features=64, out_features=1, bias=True)
    )
  )
  (projection_layers): ModuleList(
    (0-1): 2 x Linear(in_features=512, out_features=256, bias=True)
  )
  (feature_attn_net): Sequential(
    (0): Linear(in_features=256, out_features=128, bias=True)
    (1): Tanh()
    (2): Linear(in_features=128, out_features=1, bias=True)
  )
  (fc): Sequential(
    (0): Linear(in_features=256, out_features=128, bias=True)
    (1): ReLU()
    (2): Dropout(p=0.3, inplace=False)
    (3): Linear(in_features=128, out_features=50, bias=True)
  )
)
[2025-07-25 23:43:42,955] [INFO] Training...
[2025-07-25 23:44:25,464] [INFO] Epoch 1/50, ValAcc: 49.97%, TrainLoss: 2.8802, ValLoss: 1.7656, LR: 0.001
[2025-07-25 23:45:07,454] [INFO] Epoch 2/50, ValAcc: 68.88%, TrainLoss: 1.4496, ValLoss: 1.0959, LR: 0.001
[2025-07-25 23:45:48,454] [INFO] Epoch 3/50, ValAcc: 75.84%, TrainLoss: 0.8835, ValLoss: 0.8844, LR: 0.001
…
dow_token-token_bigru-bigru_1000_64_50_0.001_512_256_3_0.3_256_128'),0.8664,0.8637,0.8657,0.8641
[2025-07-25 23:56:51,184] [INFO] Training Fold 2/5
[2025-07-25 23:57:07,248] [INFO] Feature 0 normalized using token
[2025-07-25 23:57:07,248] [INFO] Train shape: (10659, 1000), Val shape: (1523, 1000), Test shape: (3046, 1000)
[2025-07-25 23:57:23,327] [INFO] Feature 1 normalized using token
[2025-07-25 23:57:23,327] [INFO] Train shape: (10659, 1000), Val shape: (1523, 1000), Test shape: (3046, 1000)
[2025-07-25 23:57:23,414] [INFO] Classifier: VRScannerModel(
  (input_modules): ModuleList(
    (0): Embedding(1385, 512)
    (1): Embedding(5091, 512)
  )
  (rnn_layers): ModuleList(
    (0-1): 2 x GRU(512, 256, num_layers=3, batch_first=True, dropout=0.3, bidirectional=True)
  )
  (attn_nets): ModuleList(
    (0-1): 2 x Sequential(
      (0): Linear(in_features=512, out_features=64, bias=True)
      (1): Tanh()
      (2): Linear(in_features=64, out_features=1, bias=True)
    )
  )
  (projection_layers): ModuleList(
    (0-1): 2 x Linear(in_features=512, out_features=256, bias=True)
  )
  (feature_attn_net): Sequential(
    (0): Linear(in_features=256, out_features=128, bias=True)
    (1): Tanh()
    (2): Linear(in_features=128, out_features=1, bias=True)
  )
  (fc): Sequential(
    (0): Linear(in_features=256, out_features=128, bias=True)
    (1): ReLU()
    (2): Dropout(p=0.3, inplace=False)
    (3): Linear(in_features=128, out_features=50, bias=True)
  )
)
[2025-07-25 23:57:23,414] [INFO] Training...
[2025-07-25 23:58:04,785] [INFO] Epoch 1/50, ValAcc: 55.75%, TrainLoss: 2.8320, ValLoss: 1.6789, LR: 0.001
[2025-07-25 23:58:46,000] [INFO] Epoch 2/50, ValAcc: 69.40%, TrainLoss: 1.3593, ValLoss: 1.1263, LR: 0.001
[2025-07-25 23:59:27,124] [INFO] Epoch 3/50, ValAcc: 75.64%, TrainLoss: 0.8594, ValLoss: 0.8666, LR: 0.001
…
dow_token-token_bigru-bigru_1000_64_50_0.001_512_256_3_0.3_256_128'),0.8529,0.8562,0.8578,0.8585
[2025-07-26 00:11:09,586] [INFO] Training Fold 3/5
[2025-07-26 00:11:25,177] [INFO] Feature 0 normalized using token
[2025-07-26 00:11:25,177] [INFO] Train shape: (10659, 1000), Val shape: (1523, 1000), Test shape: (3046, 1000)
[2025-07-26 00:11:40,939] [INFO] Feature 1 normalized using token
[2025-07-26 00:11:40,939] [INFO] Train shape: (10659, 1000), Val shape: (1523, 1000), Test shape: (3046, 1000)
[2025-07-26 00:11:41,041] [INFO] Classifier: VRScannerModel(
  (input_modules): ModuleList(
    (0): Embedding(1385, 512)
    (1): Embedding(5118, 512)
  )
  (rnn_layers): ModuleList(
    (0-1): 2 x GRU(512, 256, num_layers=3, batch_first=True, dropout=0.3, bidirectional=True)
  )
  (attn_nets): ModuleList(
    (0-1): 2 x Sequential(
      (0): Linear(in_features=512, out_features=64, bias=True)
      (1): Tanh()
      (2): Linear(in_features=64, out_features=1, bias=True)
    )
  )
  (projection_layers): ModuleList(
    (0-1): 2 x Linear(in_features=512, out_features=256, bias=True)
  )
  (feature_attn_net): Sequential(
    (0): Linear(in_features=256, out_features=128, bias=True)
    (1): Tanh()
    (2): Linear(in_features=128, out_features=1, bias=True)
  )
  (fc): Sequential(
    (0): Linear(in_features=256, out_features=128, bias=True)
    (1): ReLU()
    (2): Dropout(p=0.3, inplace=False)
    (3): Linear(in_features=128, out_features=50, bias=True)
  )
)
[2025-07-26 00:11:41,042] [INFO] Training...
[2025-07-26 00:12:22,308] [INFO] Epoch 1/50, ValAcc: 51.61%, TrainLoss: 2.8277, ValLoss: 1.7189, LR: 0.001
[2025-07-26 00:13:03,348] [INFO] Epoch 2/50, ValAcc: 69.86%, TrainLoss: 1.3900, ValLoss: 1.0621, LR: 0.001
[2025-07-26 00:13:44,499] [INFO] Epoch 3/50, ValAcc: 76.36%, TrainLoss: 0.8375, ValLoss: 0.8880, LR: 0.001
…
dow_token-token_bigru-bigru_1000_64_50_0.001_512_256_3_0.3_256_128'),0.8605,0.8616,0.8650,0.8620
[2025-07-26 00:25:30,222] [INFO] Training Fold 4/5
[2025-07-26 00:25:46,069] [INFO] Feature 0 normalized using token
[2025-07-26 00:25:46,069] [INFO] Train shape: (10660, 1000), Val shape: (1523, 1000), Test shape: (3045, 1000)
[2025-07-26 00:26:02,638] [INFO] Feature 1 normalized using token
[2025-07-26 00:26:02,639] [INFO] Train shape: (10660, 1000), Val shape: (1523, 1000), Test shape: (3045, 1000)
[2025-07-26 00:26:02,722] [INFO] Classifier: VRScannerModel(
  (input_modules): ModuleList(
    (0): Embedding(1385, 512)
    (1): Embedding(5144, 512)
  )
  (rnn_layers): ModuleList(
    (0-1): 2 x GRU(512, 256, num_layers=3, batch_first=True, dropout=0.3, bidirectional=True)
  )
  (attn_nets): ModuleList(
    (0-1): 2 x Sequential(
      (0): Linear(in_features=512, out_features=64, bias=True)
      (1): Tanh()
      (2): Linear(in_features=64, out_features=1, bias=True)
    )
  )
  (projection_layers): ModuleList(
    (0-1): 2 x Linear(in_features=512, out_features=256, bias=True)
  )
  (feature_attn_net): Sequential(
    (0): Linear(in_features=256, out_features=128, bias=True)
    (1): Tanh()
    (2): Linear(in_features=128, out_features=1, bias=True)
  )
  (fc): Sequential(
    (0): Linear(in_features=256, out_features=128, bias=True)
    (1): ReLU()
    (2): Dropout(p=0.3, inplace=False)
    (3): Linear(in_features=128, out_features=50, bias=True)
  )
)
[2025-07-26 00:26:02,722] [INFO] Training...
[2025-07-26 00:26:43,893] [INFO] Epoch 1/50, ValAcc: 46.09%, TrainLoss: 2.9592, ValLoss: 1.9623, LR: 0.001
[2025-07-26 00:27:25,087] [INFO] Epoch 2/50, ValAcc: 70.85%, TrainLoss: 1.5158, ValLoss: 1.1031, LR: 0.001
[2025-07-26 00:28:06,328] [INFO] Epoch 3/50, ValAcc: 77.28%, TrainLoss: 0.8849, ValLoss: 0.8497, LR: 0.001
…
dow_token-token_bigru-bigru_1000_64_50_0.001_512_256_3_0.3_256_128'),0.8667,0.8640,0.8658,0.8652
[2025-07-26 00:38:27,165] [INFO] Training Fold 5/5
[2025-07-26 00:38:42,693] [INFO] Feature 0 normalized using token
[2025-07-26 00:38:42,693] [INFO] Train shape: (10660, 1000), Val shape: (1523, 1000), Test shape: (3045, 1000)
[2025-07-26 00:38:58,982] [INFO] Feature 1 normalized using token
[2025-07-26 00:38:58,982] [INFO] Train shape: (10660, 1000), Val shape: (1523, 1000), Test shape: (3045, 1000)
[2025-07-26 00:38:59,062] [INFO] Classifier: VRScannerModel(
  (input_modules): ModuleList(
    (0): Embedding(1385, 512)
    (1): Embedding(5138, 512)
  )
  (rnn_layers): ModuleList(
    (0-1): 2 x GRU(512, 256, num_layers=3, batch_first=True, dropout=0.3, bidirectional=True)
  )
  (attn_nets): ModuleList(
    (0-1): 2 x Sequential(
      (0): Linear(in_features=512, out_features=64, bias=True)
      (1): Tanh()
      (2): Linear(in_features=64, out_features=1, bias=True)
    )
  )
  (projection_layers): ModuleList(
    (0-1): 2 x Linear(in_features=512, out_features=256, bias=True)
  )
  (feature_attn_net): Sequential(
    (0): Linear(in_features=256, out_features=128, bias=True)
    (1): Tanh()
    (2): Linear(in_features=128, out_features=1, bias=True)
  )
  (fc): Sequential(
    (0): Linear(in_features=256, out_features=128, bias=True)
    (1): ReLU()
    (2): Dropout(p=0.3, inplace=False)
    (3): Linear(in_features=128, out_features=50, bias=True)
  )
)
[2025-07-26 00:38:59,062] [INFO] Training...
[2025-07-26 00:39:40,574] [INFO] Epoch 1/50, ValAcc: 51.48%, TrainLoss: 2.9020, ValLoss: 1.8281, LR: 0.001
[2025-07-26 00:40:22,103] [INFO] Epoch 2/50, ValAcc: 67.96%, TrainLoss: 1.5255, ValLoss: 1.1103, LR: 0.001
[2025-07-26 00:41:03,616] [INFO] Epoch 3/50, ValAcc: 76.82%, TrainLoss: 0.9129, ValLoss: 0.8373, LR: 0.001
…
