…
[2025-07-30 07:44:13,919] [INFO] [['1281' '1281' '580' ... '291' '291' '291']
 ['65535' '65535' '256' ... '291' '291' '1540']
 ['2038' '2038' '2038' ... '534' '534' '310']
 ...
 ['265' '774' '774' ... '300' '300' '300']
 ['265' '265' '332' ... '289' '289' '289']
 ['343' '761' '300' ... '774' '5404' '5404']]
[2025-07-30 07:44:13,974] [INFO] Training Fold 1/5
[2025-07-30 07:44:27,774] [INFO] Feature 0 normalized using token
[2025-07-30 07:44:27,774] [INFO] Train shape: (10659, 1000), Val shape: (1523, 1000), Test shape: (3046, 1000)
[2025-07-30 07:44:27,834] [INFO] Classifier: VRScannerModel(
  (input_modules): ModuleList(
    (0): Embedding(5120, 512)
  )
  (rnn_layers): ModuleList(
    (0): GRU(512, 256, num_layers=3, batch_first=True, dropout=0.3, bidirectional=True)
  )
  (attn_nets): ModuleList(
    (0): Sequential(
      (0): Linear(in_features=512, out_features=64, bias=True)
      (1): Tanh()
      (2): Linear(in_features=64, out_features=1, bias=True)
    )
  )
  (projection_layers): ModuleList(
    (0): Linear(in_features=512, out_features=256, bias=True)
  )
  (feature_attn_net): Sequential(
    (0): Linear(in_features=256, out_features=128, bias=True)
    (1): Tanh()
    (2): Linear(in_features=128, out_features=1, bias=True)
  )
  (fc): Sequential(
    (0): Linear(in_features=256, out_features=128, bias=True)
    (1): ReLU()
    (2): Dropout(p=0.3, inplace=False)
    (3): Linear(in_features=128, out_features=50, bias=True)
  )
)
[2025-07-30 07:44:27,834] [INFO] Training...
[2025-07-30 07:44:47,416] [INFO] Epoch 1/50, ValAcc: 55.22%, TrainLoss: 2.8463, ValLoss: 1.6969, LR: 0.001
[2025-07-30 07:45:05,754] [INFO] Epoch 2/50, ValAcc: 71.24%, TrainLoss: 1.4410, ValLoss: 1.0924, LR: 0.001
[2025-07-30 07:45:24,085] [INFO] Epoch 3/50, ValAcc: 74.72%, TrainLoss: 0.9030, ValLoss: 0.9169, LR: 0.001
…
_1753861418.csv', step1=False, step2=False, step3=False, train=True, train_sliding=False, longitudinal_evaluation=False, openworld_evaluation=False, device=device(type='cuda'), name='tcpwindow_token_bigru_1000_64_50_0.001_512_256_3_0.3_256_128'),0.8592,0.8575,0.8601,0.8583
[2025-07-30 07:50:19,124] [INFO] Training Fold 2/5
[2025-07-30 07:50:32,497] [INFO] Feature 0 normalized using token
[2025-07-30 07:50:32,497] [INFO] Train shape: (10659, 1000), Val shape: (1523, 1000), Test shape: (3046, 1000)
[2025-07-30 07:50:32,529] [INFO] Classifier: VRScannerModel(
  (input_modules): ModuleList(
    (0): Embedding(5091, 512)
  )
  (rnn_layers): ModuleList(
    (0): GRU(512, 256, num_layers=3, batch_first=True, dropout=0.3, bidirectional=True)
  )
  (attn_nets): ModuleList(
    (0): Sequential(
      (0): Linear(in_features=512, out_features=64, bias=True)
      (1): Tanh()
      (2): Linear(in_features=64, out_features=1, bias=True)
    )
  )
  (projection_layers): ModuleList(
    (0): Linear(in_features=512, out_features=256, bias=True)
  )
  (feature_attn_net): Sequential(
    (0): Linear(in_features=256, out_features=128, bias=True)
    (1): Tanh()
    (2): Linear(in_features=128, out_features=1, bias=True)
  )
  (fc): Sequential(
    (0): Linear(in_features=256, out_features=128, bias=True)
    (1): ReLU()
    (2): Dropout(p=0.3, inplace=False)
    (3): Linear(in_features=128, out_features=50, bias=True)
  )
)
[2025-07-30 07:50:32,529] [INFO] Training...
[2025-07-30 07:50:50,878] [INFO] Epoch 1/50, ValAcc: 50.82%, TrainLoss: 2.8973, ValLoss: 1.7728, LR: 0.001
[2025-07-30 07:51:09,208] [INFO] Epoch 2/50, ValAcc: 69.34%, TrainLoss: 1.4792, ValLoss: 1.0791, LR: 0.001
[2025-07-30 07:51:27,529] [INFO] Epoch 3/50, ValAcc: 74.39%, TrainLoss: 0.9079, ValLoss: 0.9125, LR: 0.001
…
_1753861418.csv', step1=False, step2=False, step3=False, train=True, train_sliding=False, longitudinal_evaluation=False, openworld_evaluation=False, device=device(type='cuda'), name='tcpwindow_token_bigru_1000_64_50_0.001_512_256_3_0.3_256_128'),0.8414,0.8444,0.8459,0.8456
[2025-07-30 07:56:22,639] [INFO] Training Fold 3/5
[2025-07-30 07:56:36,475] [INFO] Feature 0 normalized using token
[2025-07-30 07:56:36,476] [INFO] Train shape: (10659, 1000), Val shape: (1523, 1000), Test shape: (3046, 1000)
[2025-07-30 07:56:36,510] [INFO] Classifier: VRScannerModel(
  (input_modules): ModuleList(
    (0): Embedding(5118, 512)
  )
  (rnn_layers): ModuleList(
    (0): GRU(512, 256, num_layers=3, batch_first=True, dropout=0.3, bidirectional=True)
  )
  (attn_nets): ModuleList(
    (0): Sequential(
      (0): Linear(in_features=512, out_features=64, bias=True)
      (1): Tanh()
      (2): Linear(in_features=64, out_features=1, bias=True)
    )
  )
  (projection_layers): ModuleList(
    (0): Linear(in_features=512, out_features=256, bias=True)
  )
  (feature_attn_net): Sequential(
    (0): Linear(in_features=256, out_features=128, bias=True)
    (1): Tanh()
    (2): Linear(in_features=128, out_features=1, bias=True)
  )
  (fc): Sequential(
    (0): Linear(in_features=256, out_features=128, bias=True)
    (1): ReLU()
    (2): Dropout(p=0.3, inplace=False)
    (3): Linear(in_features=128, out_features=50, bias=True)
  )
)
[2025-07-30 07:56:36,510] [INFO] Training...
[2025-07-30 07:56:54,834] [INFO] Epoch 1/50, ValAcc: 49.70%, TrainLoss: 2.9234, ValLoss: 1.8528, LR: 0.001
[2025-07-30 07:57:13,149] [INFO] Epoch 2/50, ValAcc: 68.81%, TrainLoss: 1.4869, ValLoss: 1.1232, LR: 0.001
[2025-07-30 07:57:31,462] [INFO] Epoch 3/50, ValAcc: 75.64%, TrainLoss: 0.9100, ValLoss: 0.9137, LR: 0.001
…
_1753861418.csv', step1=False, step2=False, step3=False, train=True, train_sliding=False, longitudinal_evaluation=False, openworld_evaluation=False, device=device(type='cuda'), name='tcpwindow_token_bigru_1000_64_50_0.001_512_256_3_0.3_256_128'),0.8654,0.8661,0.8692,0.8667
[2025-07-30 08:02:08,052] [INFO] Training Fold 4/5
[2025-07-30 08:02:21,895] [INFO] Feature 0 normalized using token
[2025-07-30 08:02:21,895] [INFO] Train shape: (10660, 1000), Val shape: (1523, 1000), Test shape: (3045, 1000)
[2025-07-30 08:02:21,928] [INFO] Classifier: VRScannerModel(
  (input_modules): ModuleList(
    (0): Embedding(5144, 512)
  )
  (rnn_layers): ModuleList(
    (0): GRU(512, 256, num_layers=3, batch_first=True, dropout=0.3, bidirectional=True)
  )
  (attn_nets): ModuleList(
    (0): Sequential(
      (0): Linear(in_features=512, out_features=64, bias=True)
      (1): Tanh()
      (2): Linear(in_features=64, out_features=1, bias=True)
    )
  )
  (projection_layers): ModuleList(
    (0): Linear(in_features=512, out_features=256, bias=True)
  )
  (feature_attn_net): Sequential(
    (0): Linear(in_features=256, out_features=128, bias=True)
    (1): Tanh()
    (2): Linear(in_features=128, out_features=1, bias=True)
  )
  (fc): Sequential(
    (0): Linear(in_features=256, out_features=128, bias=True)
    (1): ReLU()
    (2): Dropout(p=0.3, inplace=False)
    (3): Linear(in_features=128, out_features=50, bias=True)
  )
)
[2025-07-30 08:02:21,928] [INFO] Training...
[2025-07-30 08:02:40,247] [INFO] Epoch 1/50, ValAcc: 53.12%, TrainLoss: 2.8217, ValLoss: 1.7112, LR: 0.001
[2025-07-30 08:02:58,556] [INFO] Epoch 2/50, ValAcc: 70.65%, TrainLoss: 1.4423, ValLoss: 1.0815, LR: 0.001
[2025-07-30 08:03:16,884] [INFO] Epoch 3/50, ValAcc: 75.44%, TrainLoss: 0.8651, ValLoss: 0.9025, LR: 0.001
…
_1753861418.csv', step1=False, step2=False, step3=False, train=True, train_sliding=False, longitudinal_evaluation=False, openworld_evaluation=False, device=device(type='cuda'), name='tcpwindow_token_bigru_1000_64_50_0.001_512_256_3_0.3_256_128'),0.8680,0.8662,0.8683,0.8679
[2025-07-30 08:07:53,598] [INFO] Training Fold 5/5
[2025-07-30 08:08:07,498] [INFO] Feature 0 normalized using token
[2025-07-30 08:08:07,498] [INFO] Train shape: (10660, 1000), Val shape: (1523, 1000), Test shape: (3045, 1000)
[2025-07-30 08:08:07,535] [INFO] Classifier: VRScannerModel(
  (input_modules): ModuleList(
    (0): Embedding(5138, 512)
  )
  (rnn_layers): ModuleList(
    (0): GRU(512, 256, num_layers=3, batch_first=True, dropout=0.3, bidirectional=True)
  )
  (attn_nets): ModuleList(
    (0): Sequential(
      (0): Linear(in_features=512, out_features=64, bias=True)
      (1): Tanh()
      (2): Linear(in_features=64, out_features=1, bias=True)
    )
  )
  (projection_layers): ModuleList(
    (0): Linear(in_features=512, out_features=256, bias=True)
  )
  (feature_attn_net): Sequential(
    (0): Linear(in_features=256, out_features=128, bias=True)
    (1): Tanh()
    (2): Linear(in_features=128, out_features=1, bias=True)
  )
  (fc): Sequential(
    (0): Linear(in_features=256, out_features=128, bias=True)
    (1): ReLU()
    (2): Dropout(p=0.3, inplace=False)
    (3): Linear(in_features=128, out_features=50, bias=True)
  )
)
[2025-07-30 08:08:07,535] [INFO] Training...
[2025-07-30 08:08:25,855] [INFO] Epoch 1/50, ValAcc: 51.74%, TrainLoss: 2.9094, ValLoss: 1.7362, LR: 0.001
[2025-07-30 08:08:44,220] [INFO] Epoch 2/50, ValAcc: 71.96%, TrainLoss: 1.4478, ValLoss: 1.0374, LR: 0.001
[2025-07-30 08:09:02,598] [INFO] Epoch 3/50, ValAcc: 78.20%, TrainLoss: 0.8737, ValLoss: 0.7843, LR: 0.001
…
