…
 ['265' '774' '774' ... '268' '268' '310']
 ['265' '265' '332' ... '282' '282' '310']
 ['343' '761' '300' ... '774' '65535' '65535']]
[2025-07-26 00:53:37,213] [INFO] Training Fold 1/5
[2025-07-26 00:54:12,455] [INFO] Feature 0 normalized using token
[2025-07-26 00:54:12,455] [INFO] Train shape: (10659, 2000), Val shape: (1523, 2000), Test shape: (3046, 2000)
[2025-07-26 00:54:47,696] [INFO] Feature 1 normalized using token
[2025-07-26 00:54:47,696] [INFO] Train shape: (10659, 2000), Val shape: (1523, 2000), Test shape: (3046, 2000)
[2025-07-26 00:54:47,809] [INFO] Classifier: VRScannerModel(
  (input_modules): ModuleList(
    (0): Embedding(1385, 512)
    (1): Embedding(5717, 512)
  )
  (rnn_layers): ModuleList(
    (0-1): 2 x GRU(512, 256, num_layers=3, batch_first=True, dropout=0.3, bidirectional=True)
  )
  (attn_nets): ModuleList(
    (0-1): 2 x Sequential(
      (0): Linear(in_features=512, out_features=64, bias=True)
      (1): Tanh()
      (2): Linear(in_features=64, out_features=1, bias=True)
    )
  )
  (projection_layers): ModuleList(
    (0-1): 2 x Linear(in_features=512, out_features=256, bias=True)
  )
  (feature_attn_net): Sequential(
    (0): Linear(in_features=256, out_features=128, bias=True)
    (1): Tanh()
    (2): Linear(in_features=128, out_features=1, bias=True)
  )
  (fc): Sequential(
    (0): Linear(in_features=256, out_features=128, bias=True)
    (1): ReLU()
    (2): Dropout(p=0.3, inplace=False)
    (3): Linear(in_features=128, out_features=50, bias=True)
  )
)
[2025-07-26 00:54:47,809] [INFO] Training...
[2025-07-26 00:56:12,769] [INFO] Epoch 1/50, ValAcc: 49.70%, TrainLoss: 2.9420, ValLoss: 1.8607, LR: 0.001
[2025-07-26 00:57:36,670] [INFO] Epoch 2/50, ValAcc: 69.34%, TrainLoss: 1.4792, ValLoss: 1.0593, LR: 0.001
[2025-07-26 00:59:00,815] [INFO] Epoch 3/50, ValAcc: 80.24%, TrainLoss: 0.8706, ValLoss: 0.7216, LR: 0.001
…
dow_token-token_bigru-bigru_2000_64_50_0.001_512_256_3_0.3_256_128'),0.9012,0.8990,0.8997,0.9000
[2025-07-26 01:21:31,973] [INFO] Training Fold 2/5
[2025-07-26 01:22:07,142] [INFO] Feature 0 normalized using token
[2025-07-26 01:22:07,143] [INFO] Train shape: (10659, 2000), Val shape: (1523, 2000), Test shape: (3046, 2000)
[2025-07-26 01:22:42,094] [INFO] Feature 1 normalized using token
[2025-07-26 01:22:42,094] [INFO] Train shape: (10659, 2000), Val shape: (1523, 2000), Test shape: (3046, 2000)
[2025-07-26 01:22:42,201] [INFO] Classifier: VRScannerModel(
  (input_modules): ModuleList(
    (0): Embedding(1385, 512)
    (1): Embedding(5660, 512)
  )
  (rnn_layers): ModuleList(
    (0-1): 2 x GRU(512, 256, num_layers=3, batch_first=True, dropout=0.3, bidirectional=True)
  )
  (attn_nets): ModuleList(
    (0-1): 2 x Sequential(
      (0): Linear(in_features=512, out_features=64, bias=True)
      (1): Tanh()
      (2): Linear(in_features=64, out_features=1, bias=True)
    )
  )
  (projection_layers): ModuleList(
    (0-1): 2 x Linear(in_features=512, out_features=256, bias=True)
  )
  (feature_attn_net): Sequential(
    (0): Linear(in_features=256, out_features=128, bias=True)
    (1): Tanh()
    (2): Linear(in_features=128, out_features=1, bias=True)
  )
  (fc): Sequential(
    (0): Linear(in_features=256, out_features=128, bias=True)
    (1): ReLU()
    (2): Dropout(p=0.3, inplace=False)
    (3): Linear(in_features=128, out_features=50, bias=True)
  )
)
[2025-07-26 01:22:42,201] [INFO] Training...
[2025-07-26 01:24:05,857] [INFO] Epoch 1/50, ValAcc: 53.45%, TrainLoss: 2.8129, ValLoss: 1.6767, LR: 0.001
[2025-07-26 01:25:29,458] [INFO] Epoch 2/50, ValAcc: 73.74%, TrainLoss: 1.2796, ValLoss: 0.9831, LR: 0.001
[2025-07-26 01:26:53,141] [INFO] Epoch 3/50, ValAcc: 78.86%, TrainLoss: 0.7581, ValLoss: 0.7379, LR: 0.001
…
dow_token-token_bigru-bigru_2000_64_50_0.001_512_256_3_0.3_256_128'),0.8743,0.8767,0.8769,0.8791
[2025-07-26 01:47:59,673] [INFO] Training Fold 3/5
[2025-07-26 01:48:34,193] [INFO] Feature 0 normalized using token
[2025-07-26 01:48:34,193] [INFO] Train shape: (10659, 2000), Val shape: (1523, 2000), Test shape: (3046, 2000)
[2025-07-26 01:49:08,557] [INFO] Feature 1 normalized using token
[2025-07-26 01:49:08,557] [INFO] Train shape: (10659, 2000), Val shape: (1523, 2000), Test shape: (3046, 2000)
[2025-07-26 01:49:08,664] [INFO] Classifier: VRScannerModel(
  (input_modules): ModuleList(
    (0): Embedding(1385, 512)
    (1): Embedding(5654, 512)
  )
  (rnn_layers): ModuleList(
    (0-1): 2 x GRU(512, 256, num_layers=3, batch_first=True, dropout=0.3, bidirectional=True)
  )
  (attn_nets): ModuleList(
    (0-1): 2 x Sequential(
      (0): Linear(in_features=512, out_features=64, bias=True)
      (1): Tanh()
      (2): Linear(in_features=64, out_features=1, bias=True)
    )
  )
  (projection_layers): ModuleList(
    (0-1): 2 x Linear(in_features=512, out_features=256, bias=True)
  )
  (feature_attn_net): Sequential(
    (0): Linear(in_features=256, out_features=128, bias=True)
    (1): Tanh()
    (2): Linear(in_features=128, out_features=1, bias=True)
  )
  (fc): Sequential(
    (0): Linear(in_features=256, out_features=128, bias=True)
    (1): ReLU()
    (2): Dropout(p=0.3, inplace=False)
    (3): Linear(in_features=128, out_features=50, bias=True)
  )
)
[2025-07-26 01:49:08,665] [INFO] Training...
[2025-07-26 01:50:32,576] [INFO] Epoch 1/50, ValAcc: 57.85%, TrainLoss: 2.8345, ValLoss: 1.6347, LR: 0.001
[2025-07-26 01:51:56,452] [INFO] Epoch 2/50, ValAcc: 74.98%, TrainLoss: 1.2889, ValLoss: 0.8824, LR: 0.001
[2025-07-26 01:53:20,327] [INFO] Epoch 3/50, ValAcc: 80.70%, TrainLoss: 0.7137, ValLoss: 0.6795, LR: 0.001
…
dow_token-token_bigru-bigru_2000_64_50_0.001_512_256_3_0.3_256_128'),0.9018,0.9023,0.9049,0.9023
[2025-07-26 02:15:50,084] [INFO] Training Fold 4/5
[2025-07-26 02:16:24,754] [INFO] Feature 0 normalized using token
[2025-07-26 02:16:24,754] [INFO] Train shape: (10660, 2000), Val shape: (1523, 2000), Test shape: (3045, 2000)
[2025-07-26 02:16:59,228] [INFO] Feature 1 normalized using token
[2025-07-26 02:16:59,229] [INFO] Train shape: (10660, 2000), Val shape: (1523, 2000), Test shape: (3045, 2000)
[2025-07-26 02:16:59,337] [INFO] Classifier: VRScannerModel(
  (input_modules): ModuleList(
    (0): Embedding(1385, 512)
    (1): Embedding(5720, 512)
  )
  (rnn_layers): ModuleList(
    (0-1): 2 x GRU(512, 256, num_layers=3, batch_first=True, dropout=0.3, bidirectional=True)
  )
  (attn_nets): ModuleList(
    (0-1): 2 x Sequential(
      (0): Linear(in_features=512, out_features=64, bias=True)
      (1): Tanh()
      (2): Linear(in_features=64, out_features=1, bias=True)
    )
  )
  (projection_layers): ModuleList(
    (0-1): 2 x Linear(in_features=512, out_features=256, bias=True)
  )
  (feature_attn_net): Sequential(
    (0): Linear(in_features=256, out_features=128, bias=True)
    (1): Tanh()
    (2): Linear(in_features=128, out_features=1, bias=True)
  )
  (fc): Sequential(
    (0): Linear(in_features=256, out_features=128, bias=True)
    (1): ReLU()
    (2): Dropout(p=0.3, inplace=False)
    (3): Linear(in_features=128, out_features=50, bias=True)
  )
)
[2025-07-26 02:16:59,337] [INFO] Training...
[2025-07-26 02:18:23,003] [INFO] Epoch 1/50, ValAcc: 57.39%, TrainLoss: 2.8367, ValLoss: 1.6396, LR: 0.001
[2025-07-26 02:19:46,842] [INFO] Epoch 2/50, ValAcc: 73.67%, TrainLoss: 1.3471, ValLoss: 0.9435, LR: 0.001
[2025-07-26 02:21:10,587] [INFO] Epoch 3/50, ValAcc: 79.91%, TrainLoss: 0.7743, ValLoss: 0.7020, LR: 0.001
…
dow_token-token_bigru-bigru_2000_64_50_0.001_512_256_3_0.3_256_128'),0.9064,0.9046,0.9053,0.9061
[2025-07-26 02:42:15,331] [INFO] Training Fold 5/5
[2025-07-26 02:42:49,843] [INFO] Feature 0 normalized using token
[2025-07-26 02:42:49,843] [INFO] Train shape: (10660, 2000), Val shape: (1523, 2000), Test shape: (3045, 2000)
[2025-07-26 02:43:24,402] [INFO] Feature 1 normalized using token
[2025-07-26 02:43:24,402] [INFO] Train shape: (10660, 2000), Val shape: (1523, 2000), Test shape: (3045, 2000)
[2025-07-26 02:43:24,509] [INFO] Classifier: VRScannerModel(
  (input_modules): ModuleList(
    (0): Embedding(1385, 512)
    (1): Embedding(5707, 512)
  )
  (rnn_layers): ModuleList(
    (0-1): 2 x GRU(512, 256, num_layers=3, batch_first=True, dropout=0.3, bidirectional=True)
  )
  (attn_nets): ModuleList(
    (0-1): 2 x Sequential(
      (0): Linear(in_features=512, out_features=64, bias=True)
      (1): Tanh()
      (2): Linear(in_features=64, out_features=1, bias=True)
    )
  )
  (projection_layers): ModuleList(
    (0-1): 2 x Linear(in_features=512, out_features=256, bias=True)
  )
  (feature_attn_net): Sequential(
    (0): Linear(in_features=256, out_features=128, bias=True)
    (1): Tanh()
    (2): Linear(in_features=128, out_features=1, bias=True)
  )
  (fc): Sequential(
    (0): Linear(in_features=256, out_features=128, bias=True)
    (1): ReLU()
    (2): Dropout(p=0.3, inplace=False)
    (3): Linear(in_features=128, out_features=50, bias=True)
  )
)
[2025-07-26 02:43:24,509] [INFO] Training...
[2025-07-26 02:44:48,509] [INFO] Epoch 1/50, ValAcc: 57.45%, TrainLoss: 2.7940, ValLoss: 1.6371, LR: 0.001
[2025-07-26 02:46:12,362] [INFO] Epoch 2/50, ValAcc: 73.08%, TrainLoss: 1.3115, ValLoss: 0.9457, LR: 0.001
[2025-07-26 02:47:36,252] [INFO] Epoch 3/50, ValAcc: 77.81%, TrainLoss: 0.7839, ValLoss: 0.7746, LR: 0.001
…
