…
 ['2038' '2038' '2038' ... '3064' '1224' '1224']
 ...
 ['265' '774' '774' ... '774' '1523' '310']
 ['265' '265' '332' ... '774' '774' '5404']
 ['343' '761' '300' ... '825' '300' '300']]
[2025-07-25 10:14:15,749] [INFO] Feature 0 normalized using token
[2025-07-25 10:14:15,749] [INFO] Train shape: (10659, 10), Val shape: (1523, 10), Test shape: (3046, 10)
[2025-07-25 10:14:15,824] [INFO] Feature 1 normalized using token
[2025-07-25 10:14:15,824] [INFO] Train shape: (10659, 10), Val shape: (1523, 10), Test shape: (3046, 10)
[2025-07-25 10:14:15,897] [INFO] Classifier: VRScannerModel(
  (input_modules): ModuleList(
    (0): Embedding(969, 512)
    (1): Embedding(2108, 512)
  )
  (rnn_layers): ModuleList(
    (0-1): 2 x GRU(512, 256, num_layers=3, batch_first=True, dropout=0.3, bidirectional=True)
  )
  (attn_nets): ModuleList(
    (0-1): 2 x Sequential(
      (0): Linear(in_features=512, out_features=64, bias=True)
      (1): Tanh()
      (2): Linear(in_features=64, out_features=1, bias=True)
    )
  )
  (projection_layers): ModuleList(
    (0-1): 2 x Linear(in_features=512, out_features=256, bias=True)
  )
  (feature_attn_net): Sequential(
    (0): Linear(in_features=256, out_features=128, bias=True)
    (1): Tanh()
    (2): Linear(in_features=128, out_features=1, bias=True)
  )
  (fc): Sequential(
    (0): Linear(in_features=256, out_features=128, bias=True)
    (1): ReLU()
    (2): Dropout(p=0.3, inplace=False)
    (3): Linear(in_features=128, out_features=50, bias=True)
  )
)
[2025-07-25 10:14:15,897] [INFO] Training...
[2025-07-25 10:14:21,686] [INFO] Epoch 1/50, ValAcc: 12.02%, TrainLoss: 3.7926, ValLoss: 3.5802, LR: 0.001
[2025-07-25 10:14:25,140] [INFO] Epoch 2/50, ValAcc: 18.32%, TrainLoss: 3.4288, ValLoss: 3.3073, LR: 0.001
[2025-07-25 10:14:30,160] [INFO] Epoch 3/50, ValAcc: 19.44%, TrainLoss: 3.1165, ValLoss: 3.2666, LR: 0.001
…
 ['2038' '2038' '2038' ... '1540' '1540' '1540']
 ...
 ['265' '774' '774' ... '0' '5404' '5404']
 ['265' '265' '332' ... '774' '5404' '774']
 ['343' '761' '300' ... '300' '890' '300']]
[2025-07-25 10:17:05,649] [INFO] Feature 0 normalized using token
[2025-07-25 10:17:05,649] [INFO] Train shape: (10659, 20), Val shape: (1523, 20), Test shape: (3046, 20)
[2025-07-25 10:17:05,811] [INFO] Feature 1 normalized using token
[2025-07-25 10:17:05,811] [INFO] Train shape: (10659, 20), Val shape: (1523, 20), Test shape: (3046, 20)
[2025-07-25 10:17:05,893] [INFO] Classifier: VRScannerModel(
  (input_modules): ModuleList(
    (0): Embedding(1079, 512)
    (1): Embedding(2554, 512)
  )
  (rnn_layers): ModuleList(
    (0-1): 2 x GRU(512, 256, num_layers=3, batch_first=True, dropout=0.3, bidirectional=True)
  )
  (attn_nets): ModuleList(
    (0-1): 2 x Sequential(
      (0): Linear(in_features=512, out_features=64, bias=True)
      (1): Tanh()
      (2): Linear(in_features=64, out_features=1, bias=True)
    )
  )
  (projection_layers): ModuleList(
    (0-1): 2 x Linear(in_features=512, out_features=256, bias=True)
  )
  (feature_attn_net): Sequential(
    (0): Linear(in_features=256, out_features=128, bias=True)
    (1): Tanh()
    (2): Linear(in_features=128, out_features=1, bias=True)
  )
  (fc): Sequential(
    (0): Linear(in_features=256, out_features=128, bias=True)
    (1): ReLU()
    (2): Dropout(p=0.3, inplace=False)
    (3): Linear(in_features=128, out_features=50, bias=True)
  )
)
[2025-07-25 10:17:05,893] [INFO] Training...
[2025-07-25 10:17:12,400] [INFO] Epoch 1/50, ValAcc: 18.32%, TrainLoss: 3.6899, ValLoss: 3.3549, LR: 0.001
[2025-07-25 10:17:18,278] [INFO] Epoch 2/50, ValAcc: 26.85%, TrainLoss: 3.1335, ValLoss: 2.9625, LR: 0.001
[2025-07-25 10:17:23,975] [INFO] Epoch 3/50, ValAcc: 30.53%, TrainLoss: 2.7318, ValLoss: 2.8280, LR: 0.001
…
 ['2038' '2038' '2038' ... '1540' '2038' '2038']
 ...
 ['265' '774' '774' ... '5404' '261' '261']
 ['265' '265' '332' ... '2038' '2038' '3081']
 ['343' '761' '300' ... '300' '300' '933']]
[2025-07-25 10:20:12,997] [INFO] Feature 0 normalized using token
[2025-07-25 10:20:12,998] [INFO] Train shape: (10659, 30), Val shape: (1523, 30), Test shape: (3046, 30)
[2025-07-25 10:20:13,250] [INFO] Feature 1 normalized using token
[2025-07-25 10:20:13,250] [INFO] Train shape: (10659, 30), Val shape: (1523, 30), Test shape: (3046, 30)
[2025-07-25 10:20:13,321] [INFO] Classifier: VRScannerModel(
  (input_modules): ModuleList(
    (0): Embedding(1157, 512)
    (1): Embedding(2772, 512)
  )
  (rnn_layers): ModuleList(
    (0-1): 2 x GRU(512, 256, num_layers=3, batch_first=True, dropout=0.3, bidirectional=True)
  )
  (attn_nets): ModuleList(
    (0-1): 2 x Sequential(
      (0): Linear(in_features=512, out_features=64, bias=True)
      (1): Tanh()
      (2): Linear(in_features=64, out_features=1, bias=True)
    )
  )
  (projection_layers): ModuleList(
    (0-1): 2 x Linear(in_features=512, out_features=256, bias=True)
  )
  (feature_attn_net): Sequential(
    (0): Linear(in_features=256, out_features=128, bias=True)
    (1): Tanh()
    (2): Linear(in_features=128, out_features=1, bias=True)
  )
  (fc): Sequential(
    (0): Linear(in_features=256, out_features=128, bias=True)
    (1): ReLU()
    (2): Dropout(p=0.3, inplace=False)
    (3): Linear(in_features=128, out_features=50, bias=True)
  )
)
[2025-07-25 10:20:13,321] [INFO] Training...
[2025-07-25 10:20:17,504] [INFO] Epoch 1/50, ValAcc: 23.11%, TrainLoss: 3.5778, ValLoss: 3.0747, LR: 0.001
[2025-07-25 10:20:23,681] [INFO] Epoch 2/50, ValAcc: 29.22%, TrainLoss: 2.9194, ValLoss: 2.7352, LR: 0.001
[2025-07-25 10:20:29,615] [INFO] Epoch 3/50, ValAcc: 33.62%, TrainLoss: 2.5149, ValLoss: 2.6146, LR: 0.001
…
 ['2038' '2038' '2038' ... '774' '774' '774']
 ...
 ['265' '774' '774' ... '65535' '256' '256']
 ['265' '265' '332' ... '271' '282' '300']
 ['343' '761' '300' ... '0' '300' '300']]
[2025-07-25 10:23:24,571] [INFO] Feature 0 normalized using token
[2025-07-25 10:23:24,571] [INFO] Train shape: (10659, 50), Val shape: (1523, 50), Test shape: (3046, 50)
[2025-07-25 10:23:25,019] [INFO] Feature 1 normalized using token
[2025-07-25 10:23:25,019] [INFO] Train shape: (10659, 50), Val shape: (1523, 50), Test shape: (3046, 50)
[2025-07-25 10:23:25,094] [INFO] Classifier: VRScannerModel(
  (input_modules): ModuleList(
    (0): Embedding(1306, 512)
    (1): Embedding(2997, 512)
  )
  (rnn_layers): ModuleList(
    (0-1): 2 x GRU(512, 256, num_layers=3, batch_first=True, dropout=0.3, bidirectional=True)
  )
  (attn_nets): ModuleList(
    (0-1): 2 x Sequential(
      (0): Linear(in_features=512, out_features=64, bias=True)
      (1): Tanh()
      (2): Linear(in_features=64, out_features=1, bias=True)
    )
  )
  (projection_layers): ModuleList(
    (0-1): 2 x Linear(in_features=512, out_features=256, bias=True)
  )
  (feature_attn_net): Sequential(
    (0): Linear(in_features=256, out_features=128, bias=True)
    (1): Tanh()
    (2): Linear(in_features=128, out_features=1, bias=True)
  )
  (fc): Sequential(
    (0): Linear(in_features=256, out_features=128, bias=True)
    (1): ReLU()
    (2): Dropout(p=0.3, inplace=False)
    (3): Linear(in_features=128, out_features=50, bias=True)
  )
)
[2025-07-25 10:23:25,094] [INFO] Training...
[2025-07-25 10:23:33,588] [INFO] Epoch 1/50, ValAcc: 22.85%, TrainLoss: 3.5434, ValLoss: 3.0444, LR: 0.001
[2025-07-25 10:23:41,640] [INFO] Epoch 2/50, ValAcc: 32.96%, TrainLoss: 2.8370, ValLoss: 2.6097, LR: 0.001
[2025-07-25 10:23:49,616] [INFO] Epoch 3/50, ValAcc: 37.62%, TrainLoss: 2.3980, ValLoss: 2.4146, LR: 0.001
…
 ['2038' '2038' '2038' ... '256' '261' '261']
 ...
 ['265' '774' '774' ... '300' '282' '300']
 ['265' '265' '332' ... '284' '407' '418']
 ['343' '761' '300' ... '300' '300' '300']]
[2025-07-25 10:27:03,038] [INFO] Feature 0 normalized using token
[2025-07-25 10:27:03,039] [INFO] Train shape: (10659, 70), Val shape: (1523, 70), Test shape: (3046, 70)
[2025-07-25 10:27:03,708] [INFO] Feature 1 normalized using token
[2025-07-25 10:27:03,708] [INFO] Train shape: (10659, 70), Val shape: (1523, 70), Test shape: (3046, 70)
[2025-07-25 10:27:03,782] [INFO] Classifier: VRScannerModel(
  (input_modules): ModuleList(
    (0): Embedding(1339, 512)
    (1): Embedding(3098, 512)
  )
  (rnn_layers): ModuleList(
    (0-1): 2 x GRU(512, 256, num_layers=3, batch_first=True, dropout=0.3, bidirectional=True)
  )
  (attn_nets): ModuleList(
    (0-1): 2 x Sequential(
      (0): Linear(in_features=512, out_features=64, bias=True)
      (1): Tanh()
      (2): Linear(in_features=64, out_features=1, bias=True)
    )
  )
  (projection_layers): ModuleList(
    (0-1): 2 x Linear(in_features=512, out_features=256, bias=True)
  )
  (feature_attn_net): Sequential(
    (0): Linear(in_features=256, out_features=128, bias=True)
    (1): Tanh()
    (2): Linear(in_features=128, out_features=1, bias=True)
  )
  (fc): Sequential(
    (0): Linear(in_features=256, out_features=128, bias=True)
    (1): ReLU()
    (2): Dropout(p=0.3, inplace=False)
    (3): Linear(in_features=128, out_features=50, bias=True)
  )
)
[2025-07-25 10:27:03,782] [INFO] Training...
[2025-07-25 10:27:10,690] [INFO] Epoch 1/50, ValAcc: 25.67%, TrainLoss: 3.5502, ValLoss: 3.0078, LR: 0.001
[2025-07-25 10:27:19,066] [INFO] Epoch 2/50, ValAcc: 36.18%, TrainLoss: 2.7815, ValLoss: 2.5284, LR: 0.001
[2025-07-25 10:27:27,315] [INFO] Epoch 3/50, ValAcc: 40.51%, TrainLoss: 2.3196, ValLoss: 2.3290, LR: 0.001
…
 ['2038' '2038' '2038' ... '300' '300' '271']
 ...
 ['265' '774' '774' ... '429' '267' '300']
 ['265' '265' '332' ... '5404' '774' '5404']
 ['343' '761' '300' ... '1214' '300' '300']]
[2025-07-25 10:30:54,104] [INFO] Feature 0 normalized using token
[2025-07-25 10:30:54,105] [INFO] Train shape: (10659, 100), Val shape: (1523, 100), Test shape: (3046, 100)
[2025-07-25 10:30:55,181] [INFO] Feature 1 normalized using token
[2025-07-25 10:30:55,181] [INFO] Train shape: (10659, 100), Val shape: (1523, 100), Test shape: (3046, 100)
[2025-07-25 10:30:55,256] [INFO] Classifier: VRScannerModel(
  (input_modules): ModuleList(
    (0): Embedding(1366, 512)
    (1): Embedding(3279, 512)
  )
  (rnn_layers): ModuleList(
    (0-1): 2 x GRU(512, 256, num_layers=3, batch_first=True, dropout=0.3, bidirectional=True)
  )
  (attn_nets): ModuleList(
    (0-1): 2 x Sequential(
      (0): Linear(in_features=512, out_features=64, bias=True)
      (1): Tanh()
      (2): Linear(in_features=64, out_features=1, bias=True)
    )
  )
  (projection_layers): ModuleList(
    (0-1): 2 x Linear(in_features=512, out_features=256, bias=True)
  )
  (feature_attn_net): Sequential(
    (0): Linear(in_features=256, out_features=128, bias=True)
    (1): Tanh()
    (2): Linear(in_features=128, out_features=1, bias=True)
  )
  (fc): Sequential(
    (0): Linear(in_features=256, out_features=128, bias=True)
    (1): ReLU()
    (2): Dropout(p=0.3, inplace=False)
    (3): Linear(in_features=128, out_features=50, bias=True)
  )
)
[2025-07-25 10:30:55,256] [INFO] Training...
[2025-07-25 10:31:02,097] [INFO] Epoch 1/50, ValAcc: 21.47%, TrainLoss: 3.5276, ValLoss: 3.1376, LR: 0.001
[2025-07-25 10:31:08,577] [INFO] Epoch 2/50, ValAcc: 36.64%, TrainLoss: 2.7876, ValLoss: 2.4697, LR: 0.001
[2025-07-25 10:31:17,691] [INFO] Epoch 3/50, ValAcc: 41.30%, TrainLoss: 2.3089, ValLoss: 2.2721, LR: 0.001
…
 ['2038' '2038' '2038' ... '1046' '774' '2566']
 ...
 ['265' '774' '774' ... '300' '300' '588']
 ['265' '265' '332' ... '300' '300' '300']
 ['343' '761' '300' ... '5404' '343' '5404']]
[2025-07-25 10:35:04,992] [INFO] Feature 0 normalized using token
[2025-07-25 10:35:04,992] [INFO] Train shape: (10659, 200), Val shape: (1523, 200), Test shape: (3046, 200)
[2025-07-25 10:35:07,490] [INFO] Feature 1 normalized using token
[2025-07-25 10:35:07,490] [INFO] Train shape: (10659, 200), Val shape: (1523, 200), Test shape: (3046, 200)
[2025-07-25 10:35:07,565] [INFO] Classifier: VRScannerModel(
  (input_modules): ModuleList(
    (0): Embedding(1384, 512)
    (1): Embedding(3683, 512)
  )
  (rnn_layers): ModuleList(
    (0-1): 2 x GRU(512, 256, num_layers=3, batch_first=True, dropout=0.3, bidirectional=True)
  )
  (attn_nets): ModuleList(
    (0-1): 2 x Sequential(
      (0): Linear(in_features=512, out_features=64, bias=True)
      (1): Tanh()
      (2): Linear(in_features=64, out_features=1, bias=True)
    )
  )
  (projection_layers): ModuleList(
    (0-1): 2 x Linear(in_features=512, out_features=256, bias=True)
  )
  (feature_attn_net): Sequential(
    (0): Linear(in_features=256, out_features=128, bias=True)
    (1): Tanh()
    (2): Linear(in_features=128, out_features=1, bias=True)
  )
  (fc): Sequential(
    (0): Linear(in_features=256, out_features=128, bias=True)
    (1): ReLU()
    (2): Dropout(p=0.3, inplace=False)
    (3): Linear(in_features=128, out_features=50, bias=True)
  )
)
[2025-07-25 10:35:07,566] [INFO] Training...
[2025-07-25 10:35:20,068] [INFO] Epoch 1/50, ValAcc: 30.40%, TrainLoss: 3.3953, ValLoss: 2.7470, LR: 0.001
[2025-07-25 10:35:31,669] [INFO] Epoch 2/50, ValAcc: 43.01%, TrainLoss: 2.4816, ValLoss: 2.1715, LR: 0.001
[2025-07-25 10:35:43,248] [INFO] Epoch 3/50, ValAcc: 47.87%, TrainLoss: 1.9735, ValLoss: 1.9930, LR: 0.001
…
 ['2038' '2038' '2038' ... '300' '300' '300']
 ...
 ['265' '774' '774' ... '2038' '2038' '3081']
 ['265' '265' '332' ... '1613' '1634' '1650']
 ['343' '761' '300' ... '407' '418' '284']]
[2025-07-25 10:40:08,982] [INFO] Feature 0 normalized using token
[2025-07-25 10:40:08,982] [INFO] Train shape: (10659, 300), Val shape: (1523, 300), Test shape: (3046, 300)
[2025-07-25 10:40:13,053] [INFO] Feature 1 normalized using token
[2025-07-25 10:40:13,053] [INFO] Train shape: (10659, 300), Val shape: (1523, 300), Test shape: (3046, 300)
[2025-07-25 10:40:13,132] [INFO] Classifier: VRScannerModel(
  (input_modules): ModuleList(
    (0): Embedding(1384, 512)
    (1): Embedding(3970, 512)
  )
  (rnn_layers): ModuleList(
    (0-1): 2 x GRU(512, 256, num_layers=3, batch_first=True, dropout=0.3, bidirectional=True)
  )
  (attn_nets): ModuleList(
    (0-1): 2 x Sequential(
      (0): Linear(in_features=512, out_features=64, bias=True)
      (1): Tanh()
      (2): Linear(in_features=64, out_features=1, bias=True)
    )
  )
  (projection_layers): ModuleList(
    (0-1): 2 x Linear(in_features=512, out_features=256, bias=True)
  )
  (feature_attn_net): Sequential(
    (0): Linear(in_features=256, out_features=128, bias=True)
    (1): Tanh()
    (2): Linear(in_features=128, out_features=1, bias=True)
  )
  (fc): Sequential(
    (0): Linear(in_features=256, out_features=128, bias=True)
    (1): ReLU()
    (2): Dropout(p=0.3, inplace=False)
    (3): Linear(in_features=128, out_features=50, bias=True)
  )
)
[2025-07-25 10:40:13,132] [INFO] Training...
[2025-07-25 10:40:28,633] [INFO] Epoch 1/50, ValAcc: 37.62%, TrainLoss: 3.2119, ValLoss: 2.3537, LR: 0.001
[2025-07-25 10:40:42,967] [INFO] Epoch 2/50, ValAcc: 52.79%, TrainLoss: 2.1118, ValLoss: 1.7879, LR: 0.001
[2025-07-25 10:40:57,316] [INFO] Epoch 3/50, ValAcc: 59.03%, TrainLoss: 1.5884, ValLoss: 1.5818, LR: 0.001
…
 ['2038' '2038' '2038' ... '418' '1046' '2038']
 ...
 ['265' '774' '774' ... '310' '310' '944']
 ['265' '265' '332' ... '300' '300' '300']
 ['343' '761' '300' ... '300' '300' '300']]
[2025-07-25 10:46:09,637] [INFO] Feature 0 normalized using token
[2025-07-25 10:46:09,637] [INFO] Train shape: (10659, 500), Val shape: (1523, 500), Test shape: (3046, 500)
[2025-07-25 10:46:17,286] [INFO] Feature 1 normalized using token
[2025-07-25 10:46:17,286] [INFO] Train shape: (10659, 500), Val shape: (1523, 500), Test shape: (3046, 500)
[2025-07-25 10:46:17,371] [INFO] Classifier: VRScannerModel(
  (input_modules): ModuleList(
    (0): Embedding(1384, 512)
    (1): Embedding(4461, 512)
  )
  (rnn_layers): ModuleList(
    (0-1): 2 x GRU(512, 256, num_layers=3, batch_first=True, dropout=0.3, bidirectional=True)
  )
  (attn_nets): ModuleList(
    (0-1): 2 x Sequential(
      (0): Linear(in_features=512, out_features=64, bias=True)
      (1): Tanh()
      (2): Linear(in_features=64, out_features=1, bias=True)
    )
  )
  (projection_layers): ModuleList(
    (0-1): 2 x Linear(in_features=512, out_features=256, bias=True)
  )
  (feature_attn_net): Sequential(
    (0): Linear(in_features=256, out_features=128, bias=True)
    (1): Tanh()
    (2): Linear(in_features=128, out_features=1, bias=True)
  )
  (fc): Sequential(
    (0): Linear(in_features=256, out_features=128, bias=True)
    (1): ReLU()
    (2): Dropout(p=0.3, inplace=False)
    (3): Linear(in_features=128, out_features=50, bias=True)
  )
)
[2025-07-25 10:46:17,371] [INFO] Training...
[2025-07-25 10:46:39,805] [INFO] Epoch 1/50, ValAcc: 42.42%, TrainLoss: 3.1061, ValLoss: 2.1941, LR: 0.001
[2025-07-25 10:47:01,032] [INFO] Epoch 2/50, ValAcc: 57.85%, TrainLoss: 1.9117, ValLoss: 1.5490, LR: 0.001
[2025-07-25 10:47:22,272] [INFO] Epoch 3/50, ValAcc: 67.76%, TrainLoss: 1.2874, ValLoss: 1.1972, LR: 0.001
…
 ['2038' '2038' '2038' ... '1540' '2043' '2043']
 ...
 ['265' '774' '774' ... '2038' '3081' '3081']
 ['265' '265' '332' ... '774' '5403' '5404']
 ['343' '761' '300' ... '2038' '2038' '2038']]
[2025-07-25 10:54:03,560] [INFO] Feature 0 normalized using token
[2025-07-25 10:54:03,560] [INFO] Train shape: (10659, 700), Val shape: (1523, 700), Test shape: (3046, 700)
[2025-07-25 10:54:15,022] [INFO] Feature 1 normalized using token
[2025-07-25 10:54:15,022] [INFO] Train shape: (10659, 700), Val shape: (1523, 700), Test shape: (3046, 700)
[2025-07-25 10:54:15,132] [INFO] Classifier: VRScannerModel(
  (input_modules): ModuleList(
    (0): Embedding(1384, 512)
    (1): Embedding(4791, 512)
  )
  (rnn_layers): ModuleList(
    (0-1): 2 x GRU(512, 256, num_layers=3, batch_first=True, dropout=0.3, bidirectional=True)
  )
  (attn_nets): ModuleList(
    (0-1): 2 x Sequential(
      (0): Linear(in_features=512, out_features=64, bias=True)
      (1): Tanh()
      (2): Linear(in_features=64, out_features=1, bias=True)
    )
  )
  (projection_layers): ModuleList(
    (0-1): 2 x Linear(in_features=512, out_features=256, bias=True)
  )
  (feature_attn_net): Sequential(
    (0): Linear(in_features=256, out_features=128, bias=True)
    (1): Tanh()
    (2): Linear(in_features=128, out_features=1, bias=True)
  )
  (fc): Sequential(
    (0): Linear(in_features=256, out_features=128, bias=True)
    (1): ReLU()
    (2): Dropout(p=0.3, inplace=False)
    (3): Linear(in_features=128, out_features=50, bias=True)
  )
)
[2025-07-25 10:54:15,132] [INFO] Training...
[2025-07-25 10:54:45,577] [INFO] Epoch 1/50, ValAcc: 45.76%, TrainLoss: 3.0560, ValLoss: 1.9628, LR: 0.001
[2025-07-25 10:55:14,824] [INFO] Epoch 2/50, ValAcc: 64.94%, TrainLoss: 1.6880, ValLoss: 1.2256, LR: 0.001
[2025-07-25 10:55:44,029] [INFO] Epoch 3/50, ValAcc: 72.29%, TrainLoss: 1.0781, ValLoss: 1.0107, LR: 0.001
…
 ['2038' '2038' '2038' ... '534' '534' '310']
 ...
 ['265' '774' '774' ... '300' '300' '300']
 ['265' '265' '332' ... '289' '289' '289']
 ['343' '761' '300' ... '774' '5404' '5404']]
[2025-07-25 11:04:47,169] [INFO] Feature 0 normalized using token
[2025-07-25 11:04:47,170] [INFO] Train shape: (10659, 1000), Val shape: (1523, 1000), Test shape: (3046, 1000)
[2025-07-25 11:05:03,812] [INFO] Feature 1 normalized using token
[2025-07-25 11:05:03,812] [INFO] Train shape: (10659, 1000), Val shape: (1523, 1000), Test shape: (3046, 1000)
[2025-07-25 11:05:03,910] [INFO] Classifier: VRScannerModel(
  (input_modules): ModuleList(
    (0): Embedding(1384, 512)
    (1): Embedding(5137, 512)
  )
  (rnn_layers): ModuleList(
    (0-1): 2 x GRU(512, 256, num_layers=3, batch_first=True, dropout=0.3, bidirectional=True)
  )
  (attn_nets): ModuleList(
    (0-1): 2 x Sequential(
      (0): Linear(in_features=512, out_features=64, bias=True)
      (1): Tanh()
      (2): Linear(in_features=64, out_features=1, bias=True)
    )
  )
  (projection_layers): ModuleList(
    (0-1): 2 x Linear(in_features=512, out_features=256, bias=True)
  )
  (feature_attn_net): Sequential(
    (0): Linear(in_features=256, out_features=128, bias=True)
    (1): Tanh()
    (2): Linear(in_features=128, out_features=1, bias=True)
  )
  (fc): Sequential(
    (0): Linear(in_features=256, out_features=128, bias=True)
    (1): ReLU()
    (2): Dropout(p=0.3, inplace=False)
    (3): Linear(in_features=128, out_features=50, bias=True)
  )
)
[2025-07-25 11:05:03,910] [INFO] Training...
[2025-07-25 11:05:47,223] [INFO] Epoch 1/50, ValAcc: 50.56%, TrainLoss: 3.0112, ValLoss: 1.8669, LR: 0.001
[2025-07-25 11:06:29,063] [INFO] Epoch 2/50, ValAcc: 70.39%, TrainLoss: 1.5172, ValLoss: 1.1156, LR: 0.001
[2025-07-25 11:07:10,891] [INFO] Epoch 3/50, ValAcc: 75.18%, TrainLoss: 0.8977, ValLoss: 0.8858, LR: 0.001
…
 ['2038' '2038' '2038' ... '289' '289' '300']
 ...
 ['265' '774' '774' ... '268' '268' '310']
 ['265' '265' '332' ... '282' '282' '310']
 ['343' '761' '300' ... '774' '65535' '65535']]
[2025-07-25 11:19:46,903] [INFO] Feature 0 normalized using token
[2025-07-25 11:19:46,903] [INFO] Train shape: (10659, 2000), Val shape: (1523, 2000), Test shape: (3046, 2000)
[2025-07-25 11:20:23,767] [INFO] Feature 1 normalized using token
[2025-07-25 11:20:23,767] [INFO] Train shape: (10659, 2000), Val shape: (1523, 2000), Test shape: (3046, 2000)
[2025-07-25 11:20:23,884] [INFO] Classifier: VRScannerModel(
  (input_modules): ModuleList(
    (0): Embedding(1384, 512)
    (1): Embedding(5677, 512)
  )
  (rnn_layers): ModuleList(
    (0-1): 2 x GRU(512, 256, num_layers=3, batch_first=True, dropout=0.3, bidirectional=True)
  )
  (attn_nets): ModuleList(
    (0-1): 2 x Sequential(
      (0): Linear(in_features=512, out_features=64, bias=True)
      (1): Tanh()
      (2): Linear(in_features=64, out_features=1, bias=True)
    )
  )
  (projection_layers): ModuleList(
    (0-1): 2 x Linear(in_features=512, out_features=256, bias=True)
  )
  (feature_attn_net): Sequential(
    (0): Linear(in_features=256, out_features=128, bias=True)
    (1): Tanh()
    (2): Linear(in_features=128, out_features=1, bias=True)
  )
  (fc): Sequential(
    (0): Linear(in_features=256, out_features=128, bias=True)
    (1): ReLU()
    (2): Dropout(p=0.3, inplace=False)
    (3): Linear(in_features=128, out_features=50, bias=True)
  )
)
[2025-07-25 11:20:23,884] [INFO] Training...
[2025-07-25 11:21:49,143] [INFO] Epoch 1/50, ValAcc: 55.55%, TrainLoss: 2.8507, ValLoss: 1.7012, LR: 0.001
[2025-07-25 11:23:13,232] [INFO] Epoch 2/50, ValAcc: 72.29%, TrainLoss: 1.3463, ValLoss: 0.9811, LR: 0.001
[2025-07-25 11:24:37,341] [INFO] Epoch 3/50, ValAcc: 80.11%, TrainLoss: 0.8241, ValLoss: 0.7375, LR: 0.001
…
 ['2038' '2038' '2038' ... '65535' '256' '256']
 ...
 ['265' '774' '774' ... '300' '300' '300']
 ['265' '265' '332' ... '5404' '5404' '774']
 ['343' '761' '300' ... '955' '976' '998']]
[2025-07-25 11:52:24,757] [INFO] Feature 0 normalized using token
[2025-07-25 11:52:24,758] [INFO] Train shape: (10659, 3000), Val shape: (1523, 3000), Test shape: (3046, 3000)
[2025-07-25 11:53:20,533] [INFO] Feature 1 normalized using token
[2025-07-25 11:53:20,533] [INFO] Train shape: (10659, 3000), Val shape: (1523, 3000), Test shape: (3046, 3000)
[2025-07-25 11:53:20,657] [INFO] Classifier: VRScannerModel(
  (input_modules): ModuleList(
    (0): Embedding(1384, 512)
    (1): Embedding(5878, 512)
  )
  (rnn_layers): ModuleList(
    (0-1): 2 x GRU(512, 256, num_layers=3, batch_first=True, dropout=0.3, bidirectional=True)
  )
  (attn_nets): ModuleList(
    (0-1): 2 x Sequential(
      (0): Linear(in_features=512, out_features=64, bias=True)
      (1): Tanh()
      (2): Linear(in_features=64, out_features=1, bias=True)
    )
  )
  (projection_layers): ModuleList(
    (0-1): 2 x Linear(in_features=512, out_features=256, bias=True)
  )
  (feature_attn_net): Sequential(
    (0): Linear(in_features=256, out_features=128, bias=True)
    (1): Tanh()
    (2): Linear(in_features=128, out_features=1, bias=True)
  )
  (fc): Sequential(
    (0): Linear(in_features=256, out_features=128, bias=True)
    (1): ReLU()
    (2): Dropout(p=0.3, inplace=False)
    (3): Linear(in_features=128, out_features=50, bias=True)
  )
)
[2025-07-25 11:53:20,658] [INFO] Training...
[2025-07-25 11:55:33,574] [INFO] Epoch 1/50, ValAcc: 57.91%, TrainLoss: 2.7711, ValLoss: 1.5378, LR: 0.001
[2025-07-25 11:57:45,373] [INFO] Epoch 2/50, ValAcc: 77.61%, TrainLoss: 1.2491, ValLoss: 0.8266, LR: 0.001
[2025-07-25 11:59:57,170] [INFO] Epoch 3/50, ValAcc: 80.30%, TrainLoss: 0.7261, ValLoss: 0.7131, LR: 0.001
…
 ['2038' '2038' '2038' ... <NA> <NA> <NA>]
 ...
 ['265' '774' '774' ... <NA> <NA> <NA>]
 ['265' '265' '332' ... <NA> <NA> <NA>]
 ['343' '761' '300' ... <NA> <NA> <NA>]]
[2025-07-25 12:46:53,412] [INFO] Feature 0 normalized using token
[2025-07-25 12:46:53,412] [INFO] Train shape: (10659, 5000), Val shape: (1523, 5000), Test shape: (3046, 5000)
[2025-07-25 12:48:16,851] [INFO] Feature 1 normalized using token
[2025-07-25 12:48:16,851] [INFO] Train shape: (10659, 5000), Val shape: (1523, 5000), Test shape: (3046, 5000)
[2025-07-25 12:48:16,995] [INFO] Classifier: VRScannerModel(
  (input_modules): ModuleList(
    (0): Embedding(1384, 512)
    (1): Embedding(6004, 512)
  )
  (rnn_layers): ModuleList(
    (0-1): 2 x GRU(512, 256, num_layers=3, batch_first=True, dropout=0.3, bidirectional=True)
  )
  (attn_nets): ModuleList(
    (0-1): 2 x Sequential(
      (0): Linear(in_features=512, out_features=64, bias=True)
      (1): Tanh()
      (2): Linear(in_features=64, out_features=1, bias=True)
    )
  )
  (projection_layers): ModuleList(
    (0-1): 2 x Linear(in_features=512, out_features=256, bias=True)
  )
  (feature_attn_net): Sequential(
    (0): Linear(in_features=256, out_features=128, bias=True)
    (1): Tanh()
    (2): Linear(in_features=128, out_features=1, bias=True)
  )
  (fc): Sequential(
    (0): Linear(in_features=256, out_features=128, bias=True)
    (1): ReLU()
    (2): Dropout(p=0.3, inplace=False)
    (3): Linear(in_features=128, out_features=50, bias=True)
  )
)
[2025-07-25 12:48:16,995] [INFO] Training...
[2025-07-25 12:52:05,344] [INFO] Epoch 1/50, ValAcc: 48.33%, TrainLoss: 3.0506, ValLoss: 1.9045, LR: 0.001
[2025-07-25 12:55:52,542] [INFO] Epoch 2/50, ValAcc: 72.75%, TrainLoss: 1.4466, ValLoss: 0.9431, LR: 0.001
[2025-07-25 12:59:39,703] [INFO] Epoch 3/50, ValAcc: 80.11%, TrainLoss: 0.7937, ValLoss: 0.6895, LR: 0.001
…
