…
[2025-07-31 18:01:51,978] [INFO] (15228, 10)
[2025-07-31 18:01:51,978] [INFO] [['244' '141' '52' ... '52' '221' '146']
 ['60' '60' '52' ... '52' '52' '52']
 ['1432' '1432' '1432' ... '52' '76' '52']
 ...
 ['52' '1432' '1432' ... '52' '935' '76']
 ['1432' '340' '52' ... '1432' '478' '52']
 ['52' '52' '1432' ... '52' '1432' '1432']]
[2025-07-31 18:01:52,038] [INFO] Feature 0 normalized using token
[2025-07-31 18:01:52,039] [INFO] Train shape: (10659, 10), Val shape: (1523, 10), Test shape: (3046, 10)
[2025-07-31 18:01:52,080] [INFO] Classifier: VRScannerModel(
  (input_modules): ModuleList(
    (0): Embedding(969, 512)
  )
  (rnn_layers): ModuleList(
    (0): GRU(512, 256, num_layers=3, batch_first=True, dropout=0.3, bidirectional=True)
  )
  (attn_nets): ModuleList(
    (0): Sequential(
      (0): Linear(in_features=512, out_features=64, bias=True)
      (1): Tanh()
      (2): Linear(in_features=64, out_features=1, bias=True)
    )
  )
  (projection_layers): ModuleList(
    (0): Linear(in_features=512, out_features=256, bias=True)
  )
  (feature_attn_net): Sequential(
    (0): Linear(in_features=256, out_features=128, bias=True)
    (1): Tanh()
    (2): Linear(in_features=128, out_features=1, bias=True)
  )
  (fc): Sequential(
    (0): Linear(in_features=256, out_features=128, bias=True)
    (1): ReLU()
    (2): Dropout(p=0.3, inplace=False)
    (3): Linear(in_features=128, out_features=50, bias=True)
  )
)
[2025-07-31 18:01:52,080] [INFO] Training...
[2025-07-31 18:01:54,177] [INFO] Epoch 1/50, ValAcc: 4.66%, TrainLoss: 3.8840, ValLoss: 3.8251, LR: 0.001
[2025-07-31 18:01:55,356] [INFO] Epoch 2/50, ValAcc: 6.24%, TrainLoss: 3.7889, ValLoss: 3.7437, LR: 0.001
[2025-07-31 18:01:56,533] [INFO] Epoch 3/50, ValAcc: 6.96%, TrainLoss: 3.7143, ValLoss: 3.7076, LR: 0.001
…
[2025-07-31 18:02:45,585] [INFO] (15228, 20)
[2025-07-31 18:02:45,585] [INFO] [['244' '141' '52' ... '203' '52' '52']
 ['60' '60' '52' ... '52' '52' '60']
 ['1432' '1432' '1432' ... '1432' '1432' '1432']
 ...
 ['52' '1432' '1432' ... '40' '267' '140']
 ['1432' '340' '52' ... '368' '94' '52']
 ['52' '52' '1432' ... '1432' '52' '1432']]
[2025-07-31 18:02:45,718] [INFO] Feature 0 normalized using token
[2025-07-31 18:02:45,718] [INFO] Train shape: (10659, 20), Val shape: (1523, 20), Test shape: (3046, 20)
[2025-07-31 18:02:45,759] [INFO] Classifier: VRScannerModel(
  (input_modules): ModuleList(
    (0): Embedding(1079, 512)
  )
  (rnn_layers): ModuleList(
    (0): GRU(512, 256, num_layers=3, batch_first=True, dropout=0.3, bidirectional=True)
  )
  (attn_nets): ModuleList(
    (0): Sequential(
      (0): Linear(in_features=512, out_features=64, bias=True)
      (1): Tanh()
      (2): Linear(in_features=64, out_features=1, bias=True)
    )
  )
  (projection_layers): ModuleList(
    (0): Linear(in_features=512, out_features=256, bias=True)
  )
  (feature_attn_net): Sequential(
    (0): Linear(in_features=256, out_features=128, bias=True)
    (1): Tanh()
    (2): Linear(in_features=128, out_features=1, bias=True)
  )
  (fc): Sequential(
    (0): Linear(in_features=256, out_features=128, bias=True)
    (1): ReLU()
    (2): Dropout(p=0.3, inplace=False)
    (3): Linear(in_features=128, out_features=50, bias=True)
  )
)
[2025-07-31 18:02:45,759] [INFO] Training...
[2025-07-31 18:02:48,014] [INFO] Epoch 1/50, ValAcc: 5.98%, TrainLoss: 3.8459, ValLoss: 3.7094, LR: 0.001
[2025-07-31 18:02:49,343] [INFO] Epoch 2/50, ValAcc: 9.06%, TrainLoss: 3.6374, ValLoss: 3.5402, LR: 0.001
[2025-07-31 18:02:50,682] [INFO] Epoch 3/50, ValAcc: 10.90%, TrainLoss: 3.4762, ValLoss: 3.4613, LR: 0.001
…
[2025-07-31 18:03:43,490] [INFO] (15228, 30)
[2025-07-31 18:03:43,490] [INFO] [['244' '141' '52' ... '52' '52' '711']
 ['60' '60' '52' ... '52' '52' '52']
 ['1432' '1432' '1432' ... '52' '247' '181']
 ...
 ['52' '1432' '1432' ... '94' '52' '203']
 ['1432' '340' '52' ... '247' '181' '52']
 ['52' '52' '1432' ... '1432' '1432' '52']]
[2025-07-31 18:03:43,693] [INFO] Feature 0 normalized using token
[2025-07-31 18:03:43,693] [INFO] Train shape: (10659, 30), Val shape: (1523, 30), Test shape: (3046, 30)
[2025-07-31 18:03:43,738] [INFO] Classifier: VRScannerModel(
  (input_modules): ModuleList(
    (0): Embedding(1157, 512)
  )
  (rnn_layers): ModuleList(
    (0): GRU(512, 256, num_layers=3, batch_first=True, dropout=0.3, bidirectional=True)
  )
  (attn_nets): ModuleList(
    (0): Sequential(
      (0): Linear(in_features=512, out_features=64, bias=True)
      (1): Tanh()
      (2): Linear(in_features=64, out_features=1, bias=True)
    )
  )
  (projection_layers): ModuleList(
    (0): Linear(in_features=512, out_features=256, bias=True)
  )
  (feature_attn_net): Sequential(
    (0): Linear(in_features=256, out_features=128, bias=True)
    (1): Tanh()
    (2): Linear(in_features=128, out_features=1, bias=True)
  )
  (fc): Sequential(
    (0): Linear(in_features=256, out_features=128, bias=True)
    (1): ReLU()
    (2): Dropout(p=0.3, inplace=False)
    (3): Linear(in_features=128, out_features=50, bias=True)
  )
)
[2025-07-31 18:03:43,738] [INFO] Training...
[2025-07-31 18:03:46,098] [INFO] Epoch 1/50, ValAcc: 7.42%, TrainLoss: 3.8135, ValLoss: 3.5957, LR: 0.001
[2025-07-31 18:03:47,630] [INFO] Epoch 2/50, ValAcc: 11.62%, TrainLoss: 3.4841, ValLoss: 3.3842, LR: 0.001
[2025-07-31 18:03:49,110] [INFO] Epoch 3/50, ValAcc: 14.90%, TrainLoss: 3.2719, ValLoss: 3.2687, LR: 0.001
…
[2025-07-31 18:04:51,090] [INFO] (15228, 50)
[2025-07-31 18:04:51,090] [INFO] [['244' '141' '52' ... '52' '83' '826']
 ['60' '60' '52' ... '1432' '1432' '1432']
 ['1432' '1432' '1432' ... '52' '52' '64']
 ...
 ['52' '1432' '1432' ... '60' '52' '569']
 ['1432' '340' '52' ... '83' '87' '52']
 ['52' '52' '1432' ... '40' '1432' '1432']]
[2025-07-31 18:04:51,439] [INFO] Feature 0 normalized using token
[2025-07-31 18:04:51,439] [INFO] Train shape: (10659, 50), Val shape: (1523, 50), Test shape: (3046, 50)
[2025-07-31 18:04:51,483] [INFO] Classifier: VRScannerModel(
  (input_modules): ModuleList(
    (0): Embedding(1306, 512)
  )
  (rnn_layers): ModuleList(
    (0): GRU(512, 256, num_layers=3, batch_first=True, dropout=0.3, bidirectional=True)
  )
  (attn_nets): ModuleList(
    (0): Sequential(
      (0): Linear(in_features=512, out_features=64, bias=True)
      (1): Tanh()
      (2): Linear(in_features=64, out_features=1, bias=True)
    )
  )
  (projection_layers): ModuleList(
    (0): Linear(in_features=512, out_features=256, bias=True)
  )
  (feature_attn_net): Sequential(
    (0): Linear(in_features=256, out_features=128, bias=True)
    (1): Tanh()
    (2): Linear(in_features=128, out_features=1, bias=True)
  )
  (fc): Sequential(
    (0): Linear(in_features=256, out_features=128, bias=True)
    (1): ReLU()
    (2): Dropout(p=0.3, inplace=False)
    (3): Linear(in_features=128, out_features=50, bias=True)
  )
)
[2025-07-31 18:04:51,483] [INFO] Training...
[2025-07-31 18:04:56,357] [INFO] Epoch 1/50, ValAcc: 8.86%, TrainLoss: 3.8302, ValLoss: 3.5278, LR: 0.001
[2025-07-31 18:05:00,056] [INFO] Epoch 2/50, ValAcc: 17.14%, TrainLoss: 3.4045, ValLoss: 3.1552, LR: 0.001
[2025-07-31 18:05:03,727] [INFO] Epoch 3/50, ValAcc: 20.88%, TrainLoss: 3.0192, ValLoss: 2.9636, LR: 0.001
…
[2025-07-31 18:06:33,078] [INFO] (15228, 70)
[2025-07-31 18:06:33,078] [INFO] [['244' '141' '52' ... '1167' '1432' '1418']
 ['60' '60' '52' ... '1432' '1432' '1432']
 ['1432' '1432' '1432' ... '233' '52' '52']
 ...
 ['52' '1432' '1432' ... '83' '87' '52']
 ['1432' '340' '52' ... '1023' '52' '52']
 ['52' '52' '1432' ... '1432' '1432' '1432']]
[2025-07-31 18:06:33,591] [INFO] Feature 0 normalized using token
[2025-07-31 18:06:33,591] [INFO] Train shape: (10659, 70), Val shape: (1523, 70), Test shape: (3046, 70)
[2025-07-31 18:06:33,636] [INFO] Classifier: VRScannerModel(
  (input_modules): ModuleList(
    (0): Embedding(1339, 512)
  )
  (rnn_layers): ModuleList(
    (0): GRU(512, 256, num_layers=3, batch_first=True, dropout=0.3, bidirectional=True)
  )
  (attn_nets): ModuleList(
    (0): Sequential(
      (0): Linear(in_features=512, out_features=64, bias=True)
      (1): Tanh()
      (2): Linear(in_features=64, out_features=1, bias=True)
    )
  )
  (projection_layers): ModuleList(
    (0): Linear(in_features=512, out_features=256, bias=True)
  )
  (feature_attn_net): Sequential(
    (0): Linear(in_features=256, out_features=128, bias=True)
    (1): Tanh()
    (2): Linear(in_features=128, out_features=1, bias=True)
  )
  (fc): Sequential(
    (0): Linear(in_features=256, out_features=128, bias=True)
    (1): ReLU()
    (2): Dropout(p=0.3, inplace=False)
    (3): Linear(in_features=128, out_features=50, bias=True)
  )
)
[2025-07-31 18:06:33,636] [INFO] Training...
[2025-07-31 18:06:39,188] [INFO] Epoch 1/50, ValAcc: 11.42%, TrainLoss: 3.7913, ValLoss: 3.4788, LR: 0.001
[2025-07-31 18:06:43,549] [INFO] Epoch 2/50, ValAcc: 25.28%, TrainLoss: 3.1737, ValLoss: 2.8391, LR: 0.001
[2025-07-31 18:06:47,982] [INFO] Epoch 3/50, ValAcc: 32.63%, TrainLoss: 2.6793, ValLoss: 2.4845, LR: 0.001
…
[2025-07-31 18:08:31,456] [INFO] (15228, 100)
[2025-07-31 18:08:31,457] [INFO] [['244' '141' '52' ... '52' '52' '365']
 ['60' '60' '52' ... '934' '76' '52']
 ['1432' '1432' '1432' ... '98' '1432' '52']
 ...
 ['52' '1432' '1432' ... '52' '76' '52']
 ['1432' '340' '52' ... '94' '52' '286']
 ['52' '52' '1432' ... '52' '1432' '1432']]
[2025-07-31 18:08:32,187] [INFO] Feature 0 normalized using token
[2025-07-31 18:08:32,187] [INFO] Train shape: (10659, 100), Val shape: (1523, 100), Test shape: (3046, 100)
[2025-07-31 18:08:32,233] [INFO] Classifier: VRScannerModel(
  (input_modules): ModuleList(
    (0): Embedding(1366, 512)
  )
  (rnn_layers): ModuleList(
    (0): GRU(512, 256, num_layers=3, batch_first=True, dropout=0.3, bidirectional=True)
  )
  (attn_nets): ModuleList(
    (0): Sequential(
      (0): Linear(in_features=512, out_features=64, bias=True)
      (1): Tanh()
      (2): Linear(in_features=64, out_features=1, bias=True)
    )
  )
  (projection_layers): ModuleList(
    (0): Linear(in_features=512, out_features=256, bias=True)
  )
  (feature_attn_net): Sequential(
    (0): Linear(in_features=256, out_features=128, bias=True)
    (1): Tanh()
    (2): Linear(in_features=128, out_features=1, bias=True)
  )
  (fc): Sequential(
    (0): Linear(in_features=256, out_features=128, bias=True)
    (1): ReLU()
    (2): Dropout(p=0.3, inplace=False)
    (3): Linear(in_features=128, out_features=50, bias=True)
  )
)
[2025-07-31 18:08:32,233] [INFO] Training...
[2025-07-31 18:08:39,074] [INFO] Epoch 1/50, ValAcc: 7.94%, TrainLoss: 3.8508, ValLoss: 3.5223, LR: 0.001
[2025-07-31 18:08:45,005] [INFO] Epoch 2/50, ValAcc: 21.80%, TrainLoss: 3.2817, ValLoss: 2.8952, LR: 0.001
[2025-07-31 18:08:50,781] [INFO] Epoch 3/50, ValAcc: 31.71%, TrainLoss: 2.7148, ValLoss: 2.5010, LR: 0.001
…
[2025-07-31 18:10:52,413] [INFO] (15228, 200)
[2025-07-31 18:10:52,413] [INFO] [['244' '141' '52' ... '1432' '52' '1432']
 ['60' '60' '52' ... '52' '1432' '1432']
 ['1432' '1432' '1432' ... '52' '365' '87']
 ...
 ['52' '1432' '1432' ... '1432' '1432' '52']
 ['1432' '340' '52' ... '1432' '1432' '1432']
 ['52' '52' '1432' ... '251' '52' '140']]
[2025-07-31 18:10:54,043] [INFO] Feature 0 normalized using token
[2025-07-31 18:10:54,043] [INFO] Train shape: (10659, 200), Val shape: (1523, 200), Test shape: (3046, 200)
[2025-07-31 18:10:54,093] [INFO] Classifier: VRScannerModel(
  (input_modules): ModuleList(
    (0): Embedding(1384, 512)
  )
  (rnn_layers): ModuleList(
    (0): GRU(512, 256, num_layers=3, batch_first=True, dropout=0.3, bidirectional=True)
  )
  (attn_nets): ModuleList(
    (0): Sequential(
      (0): Linear(in_features=512, out_features=64, bias=True)
      (1): Tanh()
      (2): Linear(in_features=64, out_features=1, bias=True)
    )
  )
  (projection_layers): ModuleList(
    (0): Linear(in_features=512, out_features=256, bias=True)
  )
  (feature_attn_net): Sequential(
    (0): Linear(in_features=256, out_features=128, bias=True)
    (1): Tanh()
    (2): Linear(in_features=128, out_features=1, bias=True)
  )
  (fc): Sequential(
    (0): Linear(in_features=256, out_features=128, bias=True)
    (1): ReLU()
    (2): Dropout(p=0.3, inplace=False)
    (3): Linear(in_features=128, out_features=50, bias=True)
  )
)
[2025-07-31 18:10:54,093] [INFO] Training...
[2025-07-31 18:11:04,796] [INFO] Epoch 1/50, ValAcc: 9.46%, TrainLoss: 3.8028, ValLoss: 3.4488, LR: 0.001
[2025-07-31 18:11:14,331] [INFO] Epoch 2/50, ValAcc: 25.94%, TrainLoss: 3.1225, ValLoss: 2.6437, LR: 0.001
[2025-07-31 18:11:23,851] [INFO] Epoch 3/50, ValAcc: 38.41%, TrainLoss: 2.4522, ValLoss: 2.1750, LR: 0.001
…
