…
[2025-07-31 14:21:18,872] [INFO] (15228, 10)
[2025-07-31 14:21:18,872] [INFO] [['1281' '1281' '580' ... '1036' '2566' '2566']
 ['65535' '65535' '256' ... '261' '261' '261']
 ['2038' '2038' '2038' ... '3064' '1224' '1224']
 ...
 ['265' '774' '774' ... '774' '1523' '310']
 ['265' '265' '332' ... '774' '774' '5404']
 ['343' '761' '300' ... '825' '300' '300']]
[2025-07-31 14:21:18,937] [INFO] Feature 0 normalized using token
[2025-07-31 14:21:18,937] [INFO] Train shape: (10659, 10), Val shape: (1523, 10), Test shape: (3046, 10)
[2025-07-31 14:21:18,981] [INFO] Classifier: VRScannerModel(
  (input_modules): ModuleList(
    (0): Embedding(2108, 512)
  )
  (rnn_layers): ModuleList(
    (0): GRU(512, 256, num_layers=3, batch_first=True, dropout=0.3, bidirectional=True)
  )
  (attn_nets): ModuleList(
    (0): Sequential(
      (0): Linear(in_features=512, out_features=64, bias=True)
      (1): Tanh()
      (2): Linear(in_features=64, out_features=1, bias=True)
    )
  )
  (projection_layers): ModuleList(
    (0): Linear(in_features=512, out_features=256, bias=True)
  )
  (feature_attn_net): Sequential(
    (0): Linear(in_features=256, out_features=128, bias=True)
    (1): Tanh()
    (2): Linear(in_features=128, out_features=1, bias=True)
  )
  (fc): Sequential(
    (0): Linear(in_features=256, out_features=128, bias=True)
    (1): ReLU()
    (2): Dropout(p=0.3, inplace=False)
    (3): Linear(in_features=128, out_features=50, bias=True)
  )
)
[2025-07-31 14:21:18,981] [INFO] Training...
[2025-07-31 14:21:20,983] [INFO] Epoch 1/50, ValAcc: 11.75%, TrainLoss: 3.7899, ValLoss: 3.5855, LR: 0.001
[2025-07-31 14:21:22,116] [INFO] Epoch 2/50, ValAcc: 17.79%, TrainLoss: 3.4276, ValLoss: 3.3564, LR: 0.001
[2025-07-31 14:21:23,257] [INFO] Epoch 3/50, ValAcc: 18.84%, TrainLoss: 3.1157, ValLoss: 3.2897, LR: 0.001
…
[2025-07-31 14:22:14,396] [INFO] (15228, 20)
[2025-07-31 14:22:14,396] [INFO] [['1281' '1281' '580' ... '261' '261' '261']
 ['65535' '65535' '256' ... '343' '354' '65535']
 ['2038' '2038' '2038' ... '1540' '1540' '1540']
 ...
 ['265' '774' '774' ... '0' '5404' '5404']
 ['265' '265' '332' ... '774' '5404' '774']
 ['343' '761' '300' ... '300' '890' '300']]
[2025-07-31 14:22:14,534] [INFO] Feature 0 normalized using token
[2025-07-31 14:22:14,535] [INFO] Train shape: (10659, 20), Val shape: (1523, 20), Test shape: (3046, 20)
[2025-07-31 14:22:14,577] [INFO] Classifier: VRScannerModel(
  (input_modules): ModuleList(
    (0): Embedding(2554, 512)
  )
  (rnn_layers): ModuleList(
    (0): GRU(512, 256, num_layers=3, batch_first=True, dropout=0.3, bidirectional=True)
  )
  (attn_nets): ModuleList(
    (0): Sequential(
      (0): Linear(in_features=512, out_features=64, bias=True)
      (1): Tanh()
      (2): Linear(in_features=64, out_features=1, bias=True)
    )
  )
  (projection_layers): ModuleList(
    (0): Linear(in_features=512, out_features=256, bias=True)
  )
  (feature_attn_net): Sequential(
    (0): Linear(in_features=256, out_features=128, bias=True)
    (1): Tanh()
    (2): Linear(in_features=128, out_features=1, bias=True)
  )
  (fc): Sequential(
    (0): Linear(in_features=256, out_features=128, bias=True)
    (1): ReLU()
    (2): Dropout(p=0.3, inplace=False)
    (3): Linear(in_features=128, out_features=50, bias=True)
  )
)
[2025-07-31 14:22:14,577] [INFO] Training...
[2025-07-31 14:22:16,872] [INFO] Epoch 1/50, ValAcc: 17.66%, TrainLoss: 3.6667, ValLoss: 3.3065, LR: 0.001
[2025-07-31 14:22:18,258] [INFO] Epoch 2/50, ValAcc: 25.94%, TrainLoss: 3.0892, ValLoss: 2.9648, LR: 0.001
[2025-07-31 14:22:19,646] [INFO] Epoch 3/50, ValAcc: 30.01%, TrainLoss: 2.7139, ValLoss: 2.7931, LR: 0.001
…
[2025-07-31 14:23:13,797] [INFO] (15228, 30)
[2025-07-31 14:23:13,797] [INFO] [['1281' '1281' '580' ... '1540' '1540' '354']
 ['65535' '65535' '256' ... '267' '278' '289']
 ['2038' '2038' '2038' ... '1540' '2038' '2038']
 ...
 ['265' '774' '774' ... '5404' '261' '261']
 ['265' '265' '332' ... '2038' '2038' '3081']
 ['343' '761' '300' ... '300' '300' '933']]
[2025-07-31 14:23:13,993] [INFO] Feature 0 normalized using token
[2025-07-31 14:23:13,993] [INFO] Train shape: (10659, 30), Val shape: (1523, 30), Test shape: (3046, 30)
[2025-07-31 14:23:14,037] [INFO] Classifier: VRScannerModel(
  (input_modules): ModuleList(
    (0): Embedding(2772, 512)
  )
  (rnn_layers): ModuleList(
    (0): GRU(512, 256, num_layers=3, batch_first=True, dropout=0.3, bidirectional=True)
  )
  (attn_nets): ModuleList(
    (0): Sequential(
      (0): Linear(in_features=512, out_features=64, bias=True)
      (1): Tanh()
      (2): Linear(in_features=64, out_features=1, bias=True)
    )
  )
  (projection_layers): ModuleList(
    (0): Linear(in_features=512, out_features=256, bias=True)
  )
  (feature_attn_net): Sequential(
    (0): Linear(in_features=256, out_features=128, bias=True)
    (1): Tanh()
    (2): Linear(in_features=128, out_features=1, bias=True)
  )
  (fc): Sequential(
    (0): Linear(in_features=256, out_features=128, bias=True)
    (1): ReLU()
    (2): Dropout(p=0.3, inplace=False)
    (3): Linear(in_features=128, out_features=50, bias=True)
  )
)
[2025-07-31 14:23:14,037] [INFO] Training...
[2025-07-31 14:23:16,400] [INFO] Epoch 1/50, ValAcc: 20.95%, TrainLoss: 3.5918, ValLoss: 3.1894, LR: 0.001
[2025-07-31 14:23:17,912] [INFO] Epoch 2/50, ValAcc: 30.86%, TrainLoss: 2.9519, ValLoss: 2.7393, LR: 0.001
[2025-07-31 14:23:19,449] [INFO] Epoch 3/50, ValAcc: 33.09%, TrainLoss: 2.5279, ValLoss: 2.6404, LR: 0.001
…
[2025-07-31 14:24:16,954] [INFO] (15228, 50)
[2025-07-31 14:24:16,954] [INFO] [['1281' '1281' '580' ... '271' '271' '300']
 ['65535' '65535' '256' ... '300' '300' '300']
 ['2038' '2038' '2038' ... '774' '774' '774']
 ...
 ['265' '774' '774' ... '65535' '256' '256']
 ['265' '265' '332' ... '271' '282' '300']
 ['343' '761' '300' ... '0' '300' '300']]
[2025-07-31 14:24:17,322] [INFO] Feature 0 normalized using token
[2025-07-31 14:24:17,322] [INFO] Train shape: (10659, 50), Val shape: (1523, 50), Test shape: (3046, 50)
[2025-07-31 14:24:17,367] [INFO] Classifier: VRScannerModel(
  (input_modules): ModuleList(
    (0): Embedding(2997, 512)
  )
  (rnn_layers): ModuleList(
    (0): GRU(512, 256, num_layers=3, batch_first=True, dropout=0.3, bidirectional=True)
  )
  (attn_nets): ModuleList(
    (0): Sequential(
      (0): Linear(in_features=512, out_features=64, bias=True)
      (1): Tanh()
      (2): Linear(in_features=64, out_features=1, bias=True)
    )
  )
  (projection_layers): ModuleList(
    (0): Linear(in_features=512, out_features=256, bias=True)
  )
  (feature_attn_net): Sequential(
    (0): Linear(in_features=256, out_features=128, bias=True)
    (1): Tanh()
    (2): Linear(in_features=128, out_features=1, bias=True)
  )
  (fc): Sequential(
    (0): Linear(in_features=256, out_features=128, bias=True)
    (1): ReLU()
    (2): Dropout(p=0.3, inplace=False)
    (3): Linear(in_features=128, out_features=50, bias=True)
  )
)
[2025-07-31 14:24:17,367] [INFO] Training...
[2025-07-31 14:24:20,200] [INFO] Epoch 1/50, ValAcc: 24.89%, TrainLoss: 3.5274, ValLoss: 2.9999, LR: 0.001
[2025-07-31 14:24:22,083] [INFO] Epoch 2/50, ValAcc: 34.41%, TrainLoss: 2.8142, ValLoss: 2.5295, LR: 0.001
[2025-07-31 14:24:23,973] [INFO] Epoch 3/50, ValAcc: 38.35%, TrainLoss: 2.3658, ValLoss: 2.3784, LR: 0.001
…
[2025-07-31 14:25:26,705] [INFO] (15228, 70)
[2025-07-31 14:25:26,705] [INFO] [['1281' '1281' '580' ... '284' '284' '284']
 ['65535' '65535' '256' ... '300' '300' '300']
 ['2038' '2038' '2038' ... '256' '261' '261']
 ...
 ['265' '774' '774' ... '300' '282' '300']
 ['265' '265' '332' ... '284' '407' '418']
 ['343' '761' '300' ... '300' '300' '300']]
[2025-07-31 14:25:27,188] [INFO] Feature 0 normalized using token
[2025-07-31 14:25:27,188] [INFO] Train shape: (10659, 70), Val shape: (1523, 70), Test shape: (3046, 70)
[2025-07-31 14:25:27,234] [INFO] Classifier: VRScannerModel(
  (input_modules): ModuleList(
    (0): Embedding(3098, 512)
  )
  (rnn_layers): ModuleList(
    (0): GRU(512, 256, num_layers=3, batch_first=True, dropout=0.3, bidirectional=True)
  )
  (attn_nets): ModuleList(
    (0): Sequential(
      (0): Linear(in_features=512, out_features=64, bias=True)
      (1): Tanh()
      (2): Linear(in_features=64, out_features=1, bias=True)
    )
  )
  (projection_layers): ModuleList(
    (0): Linear(in_features=512, out_features=256, bias=True)
  )
  (feature_attn_net): Sequential(
    (0): Linear(in_features=256, out_features=128, bias=True)
    (1): Tanh()
    (2): Linear(in_features=128, out_features=1, bias=True)
  )
  (fc): Sequential(
    (0): Linear(in_features=256, out_features=128, bias=True)
    (1): ReLU()
    (2): Dropout(p=0.3, inplace=False)
    (3): Linear(in_features=128, out_features=50, bias=True)
  )
)
[2025-07-31 14:25:27,234] [INFO] Training...
[2025-07-31 14:25:30,182] [INFO] Epoch 1/50, ValAcc: 25.02%, TrainLoss: 3.5204, ValLoss: 2.9810, LR: 0.001
[2025-07-31 14:25:32,422] [INFO] Epoch 2/50, ValAcc: 34.73%, TrainLoss: 2.7707, ValLoss: 2.5211, LR: 0.001
[2025-07-31 14:25:34,673] [INFO] Epoch 3/50, ValAcc: 39.72%, TrainLoss: 2.3109, ValLoss: 2.3393, LR: 0.001
…
[2025-07-31 14:26:41,964] [INFO] (15228, 100)
[2025-07-31 14:26:41,964] [INFO] [['1281' '1281' '580' ... '774' '774' '774']
 ['65535' '65535' '256' ... '664' '310' '310']
 ['2038' '2038' '2038' ... '300' '300' '271']
 ...
 ['265' '774' '774' ... '429' '267' '300']
 ['265' '265' '332' ... '5404' '774' '5404']
 ['343' '761' '300' ... '1214' '300' '300']]
[2025-07-31 14:26:42,767] [INFO] Feature 0 normalized using token
[2025-07-31 14:26:42,767] [INFO] Train shape: (10659, 100), Val shape: (1523, 100), Test shape: (3046, 100)
[2025-07-31 14:26:42,812] [INFO] Classifier: VRScannerModel(
  (input_modules): ModuleList(
    (0): Embedding(3279, 512)
  )
  (rnn_layers): ModuleList(
    (0): GRU(512, 256, num_layers=3, batch_first=True, dropout=0.3, bidirectional=True)
  )
  (attn_nets): ModuleList(
    (0): Sequential(
      (0): Linear(in_features=512, out_features=64, bias=True)
      (1): Tanh()
      (2): Linear(in_features=64, out_features=1, bias=True)
    )
  )
  (projection_layers): ModuleList(
    (0): Linear(in_features=512, out_features=256, bias=True)
  )
  (feature_attn_net): Sequential(
    (0): Linear(in_features=256, out_features=128, bias=True)
    (1): Tanh()
    (2): Linear(in_features=128, out_features=1, bias=True)
  )
  (fc): Sequential(
    (0): Linear(in_features=256, out_features=128, bias=True)
    (1): ReLU()
    (2): Dropout(p=0.3, inplace=False)
    (3): Linear(in_features=128, out_features=50, bias=True)
  )
)
[2025-07-31 14:26:42,812] [INFO] Training...
[2025-07-31 14:26:46,427] [INFO] Epoch 1/50, ValAcc: 24.29%, TrainLoss: 3.4948, ValLoss: 2.9770, LR: 0.001
[2025-07-31 14:26:49,157] [INFO] Epoch 2/50, ValAcc: 37.29%, TrainLoss: 2.7850, ValLoss: 2.4905, LR: 0.001
[2025-07-31 14:26:51,891] [INFO] Epoch 3/50, ValAcc: 42.68%, TrainLoss: 2.3213, ValLoss: 2.2686, LR: 0.001
…
[2025-07-31 14:28:08,920] [INFO] (15228, 200)
[2025-07-31 14:28:08,920] [INFO] [['1281' '1281' '580' ... '300' '836' '300']
 ['65535' '65535' '256' ... '1540' '1540' '1540']
 ['2038' '2038' '2038' ... '1046' '774' '2566']
 ...
 ['265' '774' '774' ... '300' '300' '588']
 ['265' '265' '332' ... '300' '300' '300']
 ['343' '761' '300' ... '5404' '343' '5404']]
[2025-07-31 14:28:10,821] [INFO] Feature 0 normalized using token
[2025-07-31 14:28:10,821] [INFO] Train shape: (10659, 200), Val shape: (1523, 200), Test shape: (3046, 200)
[2025-07-31 14:28:10,873] [INFO] Classifier: VRScannerModel(
  (input_modules): ModuleList(
    (0): Embedding(3683, 512)
  )
  (rnn_layers): ModuleList(
    (0): GRU(512, 256, num_layers=3, batch_first=True, dropout=0.3, bidirectional=True)
  )
  (attn_nets): ModuleList(
    (0): Sequential(
      (0): Linear(in_features=512, out_features=64, bias=True)
      (1): Tanh()
      (2): Linear(in_features=64, out_features=1, bias=True)
    )
  )
  (projection_layers): ModuleList(
    (0): Linear(in_features=512, out_features=256, bias=True)
  )
  (feature_attn_net): Sequential(
    (0): Linear(in_features=256, out_features=128, bias=True)
    (1): Tanh()
    (2): Linear(in_features=128, out_features=1, bias=True)
  )
  (fc): Sequential(
    (0): Linear(in_features=256, out_features=128, bias=True)
    (1): ReLU()
    (2): Dropout(p=0.3, inplace=False)
    (3): Linear(in_features=128, out_features=50, bias=True)
  )
)
[2025-07-31 14:28:10,873] [INFO] Training...
[2025-07-31 14:28:16,143] [INFO] Epoch 1/50, ValAcc: 32.37%, TrainLoss: 3.3867, ValLoss: 2.7248, LR: 0.001
[2025-07-31 14:28:20,512] [INFO] Epoch 2/50, ValAcc: 43.20%, TrainLoss: 2.4698, ValLoss: 2.1507, LR: 0.001
[2025-07-31 14:28:24,889] [INFO] Epoch 3/50, ValAcc: 48.33%, TrainLoss: 1.9275, ValLoss: 1.9679, LR: 0.001
…
[2025-07-31 14:30:03,075] [INFO] (15228, 300)
[2025-07-31 14:30:03,075] [INFO] [['1281' '1281' '580' ... '261' '261' '2043']
 ['65535' '65535' '256' ... '300' '300' '300']
 ['2038' '2038' '2038' ... '300' '300' '300']
 ...
 ['265' '774' '774' ... '2038' '2038' '3081']
 ['265' '265' '332' ... '1613' '1634' '1650']
 ['343' '761' '300' ... '407' '418' '284']]
[2025-07-31 14:30:06,560] [INFO] Feature 0 normalized using token
[2025-07-31 14:30:06,560] [INFO] Train shape: (10659, 300), Val shape: (1523, 300), Test shape: (3046, 300)
[2025-07-31 14:30:06,619] [INFO] Classifier: VRScannerModel(
  (input_modules): ModuleList(
    (0): Embedding(3970, 512)
  )
  (rnn_layers): ModuleList(
    (0): GRU(512, 256, num_layers=3, batch_first=True, dropout=0.3, bidirectional=True)
  )
  (attn_nets): ModuleList(
    (0): Sequential(
      (0): Linear(in_features=512, out_features=64, bias=True)
      (1): Tanh()
      (2): Linear(in_features=64, out_features=1, bias=True)
    )
  )
  (projection_layers): ModuleList(
    (0): Linear(in_features=512, out_features=256, bias=True)
  )
  (feature_attn_net): Sequential(
    (0): Linear(in_features=256, out_features=128, bias=True)
    (1): Tanh()
    (2): Linear(in_features=128, out_features=1, bias=True)
  )
  (fc): Sequential(
    (0): Linear(in_features=256, out_features=128, bias=True)
    (1): ReLU()
    (2): Dropout(p=0.3, inplace=False)
    (3): Linear(in_features=128, out_features=50, bias=True)
  )
)
[2025-07-31 14:30:06,619] [INFO] Training...
[2025-07-31 14:30:13,561] [INFO] Epoch 1/50, ValAcc: 38.15%, TrainLoss: 3.1903, ValLoss: 2.4423, LR: 0.001
[2025-07-31 14:30:19,545] [INFO] Epoch 2/50, ValAcc: 51.08%, TrainLoss: 2.1663, ValLoss: 1.8024, LR: 0.001
[2025-07-31 14:30:25,538] [INFO] Epoch 3/50, ValAcc: 57.39%, TrainLoss: 1.6192, ValLoss: 1.6363, LR: 0.001
…
[2025-07-31 14:32:26,508] [INFO] (15228, 500)
[2025-07-31 14:32:26,508] [INFO] [['1281' '1281' '580' ... '65535' '256' '256']
 ['65535' '65535' '256' ... '2043' '774' '1540']
 ['2038' '2038' '2038' ... '418' '1046' '2038']
 ...
 ['265' '774' '774' ... '310' '310' '944']
 ['265' '265' '332' ... '300' '300' '300']
 ['343' '761' '300' ... '300' '300' '300']]
[2025-07-31 14:32:32,999] [INFO] Feature 0 normalized using token
[2025-07-31 14:32:33,000] [INFO] Train shape: (10659, 500), Val shape: (1523, 500), Test shape: (3046, 500)
[2025-07-31 14:32:33,057] [INFO] Classifier: VRScannerModel(
  (input_modules): ModuleList(
    (0): Embedding(4461, 512)
  )
  (rnn_layers): ModuleList(
    (0): GRU(512, 256, num_layers=3, batch_first=True, dropout=0.3, bidirectional=True)
  )
  (attn_nets): ModuleList(
    (0): Sequential(
      (0): Linear(in_features=512, out_features=64, bias=True)
      (1): Tanh()
      (2): Linear(in_features=64, out_features=1, bias=True)
    )
  )
  (projection_layers): ModuleList(
    (0): Linear(in_features=512, out_features=256, bias=True)
  )
  (feature_attn_net): Sequential(
    (0): Linear(in_features=256, out_features=128, bias=True)
    (1): Tanh()
    (2): Linear(in_features=128, out_features=1, bias=True)
  )
  (fc): Sequential(
    (0): Linear(in_features=256, out_features=128, bias=True)
    (1): ReLU()
    (2): Dropout(p=0.3, inplace=False)
    (3): Linear(in_features=128, out_features=50, bias=True)
  )
)
[2025-07-31 14:32:33,057] [INFO] Training...
[2025-07-31 14:32:43,518] [INFO] Epoch 1/50, ValAcc: 47.67%, TrainLoss: 3.0740, ValLoss: 2.0707, LR: 0.001
[2025-07-31 14:32:53,015] [INFO] Epoch 2/50, ValAcc: 62.25%, TrainLoss: 1.8160, ValLoss: 1.4404, LR: 0.001
[2025-07-31 14:33:02,515] [INFO] Epoch 3/50, ValAcc: 67.30%, TrainLoss: 1.2513, ValLoss: 1.2864, LR: 0.001
…
[2025-07-31 14:36:12,245] [INFO] (15228, 700)
[2025-07-31 14:36:12,245] [INFO] [['1281' '1281' '580' ... '300' '858' '300']
 ['65535' '65535' '256' ... '1046' '1046' '291']
 ['2038' '2038' '2038' ... '1540' '2043' '2043']
 ...
 ['265' '774' '774' ... '2038' '3081' '3081']
 ['265' '265' '332' ... '774' '5403' '5404']
 ['343' '761' '300' ... '2038' '2038' '2038']]
[2025-07-31 14:36:21,793] [INFO] Feature 0 normalized using token
[2025-07-31 14:36:21,793] [INFO] Train shape: (10659, 700), Val shape: (1523, 700), Test shape: (3046, 700)
[2025-07-31 14:36:21,854] [INFO] Classifier: VRScannerModel(
  (input_modules): ModuleList(
    (0): Embedding(4791, 512)
  )
  (rnn_layers): ModuleList(
    (0): GRU(512, 256, num_layers=3, batch_first=True, dropout=0.3, bidirectional=True)
  )
  (attn_nets): ModuleList(
    (0): Sequential(
      (0): Linear(in_features=512, out_features=64, bias=True)
      (1): Tanh()
      (2): Linear(in_features=64, out_features=1, bias=True)
    )
  )
  (projection_layers): ModuleList(
    (0): Linear(in_features=512, out_features=256, bias=True)
  )
  (feature_attn_net): Sequential(
    (0): Linear(in_features=256, out_features=128, bias=True)
    (1): Tanh()
    (2): Linear(in_features=128, out_features=1, bias=True)
  )
  (fc): Sequential(
    (0): Linear(in_features=256, out_features=128, bias=True)
    (1): ReLU()
    (2): Dropout(p=0.3, inplace=False)
    (3): Linear(in_features=128, out_features=50, bias=True)
  )
)
[2025-07-31 14:36:21,854] [INFO] Training...
[2025-07-31 14:36:36,001] [INFO] Epoch 1/50, ValAcc: 50.89%, TrainLoss: 2.9595, ValLoss: 1.8864, LR: 0.001
[2025-07-31 14:36:49,047] [INFO] Epoch 2/50, ValAcc: 66.84%, TrainLoss: 1.6096, ValLoss: 1.2101, LR: 0.001
[2025-07-31 14:37:02,086] [INFO] Epoch 3/50, ValAcc: 72.95%, TrainLoss: 1.0025, ValLoss: 0.9583, LR: 0.001
…
[2025-07-31 14:40:56,215] [INFO] (15228, 1000)
[2025-07-31 14:40:56,215] [INFO] [['1281' '1281' '580' ... '291' '291' '291']
 ['65535' '65535' '256' ... '291' '291' '1540']
 ['2038' '2038' '2038' ... '534' '534' '310']
 ...
 ['265' '774' '774' ... '300' '300' '300']
 ['265' '265' '332' ... '289' '289' '289']
 ['343' '761' '300' ... '774' '5404' '5404']]
[2025-07-31 14:41:10,684] [INFO] Feature 0 normalized using token
[2025-07-31 14:41:10,684] [INFO] Train shape: (10659, 1000), Val shape: (1523, 1000), Test shape: (3046, 1000)
[2025-07-31 14:41:10,742] [INFO] Classifier: VRScannerModel(
  (input_modules): ModuleList(
    (0): Embedding(5137, 512)
  )
  (rnn_layers): ModuleList(
    (0): GRU(512, 256, num_layers=3, batch_first=True, dropout=0.3, bidirectional=True)
  )
  (attn_nets): ModuleList(
    (0): Sequential(
      (0): Linear(in_features=512, out_features=64, bias=True)
      (1): Tanh()
      (2): Linear(in_features=64, out_features=1, bias=True)
    )
  )
  (projection_layers): ModuleList(
    (0): Linear(in_features=512, out_features=256, bias=True)
  )
  (feature_attn_net): Sequential(
    (0): Linear(in_features=256, out_features=128, bias=True)
    (1): Tanh()
    (2): Linear(in_features=128, out_features=1, bias=True)
  )
  (fc): Sequential(
    (0): Linear(in_features=256, out_features=128, bias=True)
    (1): ReLU()
    (2): Dropout(p=0.3, inplace=False)
    (3): Linear(in_features=128, out_features=50, bias=True)
  )
)
[2025-07-31 14:41:10,742] [INFO] Training...
[2025-07-31 14:41:30,367] [INFO] Epoch 1/50, ValAcc: 52.00%, TrainLoss: 2.9113, ValLoss: 1.8110, LR: 0.001
[2025-07-31 14:41:48,775] [INFO] Epoch 2/50, ValAcc: 70.98%, TrainLoss: 1.4934, ValLoss: 1.0313, LR: 0.001
[2025-07-31 14:42:07,184] [INFO] Epoch 3/50, ValAcc: 77.41%, TrainLoss: 0.9070, ValLoss: 0.8300, LR: 0.001
…
[2025-07-31 14:47:04,834] [INFO] (15228, 2000)
[2025-07-31 14:47:04,834] [INFO] [['1281' '1281' '580' ... '300' '300' '300']
 ['65535' '65535' '256' ... '774' '2566' '2566']
 ['2038' '2038' '2038' ... '289' '289' '300']
 ...
 ['265' '774' '774' ... '268' '268' '310']
 ['265' '265' '332' ... '282' '282' '310']
 ['343' '761' '300' ... '774' '65535' '65535']]
[2025-07-31 14:47:38,022] [INFO] Feature 0 normalized using token
[2025-07-31 14:47:38,023] [INFO] Train shape: (10659, 2000), Val shape: (1523, 2000), Test shape: (3046, 2000)
[2025-07-31 14:47:38,088] [INFO] Classifier: VRScannerModel(
  (input_modules): ModuleList(
    (0): Embedding(5677, 512)
  )
  (rnn_layers): ModuleList(
    (0): GRU(512, 256, num_layers=3, batch_first=True, dropout=0.3, bidirectional=True)
  )
  (attn_nets): ModuleList(
    (0): Sequential(
      (0): Linear(in_features=512, out_features=64, bias=True)
      (1): Tanh()
      (2): Linear(in_features=64, out_features=1, bias=True)
    )
  )
  (projection_layers): ModuleList(
    (0): Linear(in_features=512, out_features=256, bias=True)
  )
  (feature_attn_net): Sequential(
    (0): Linear(in_features=256, out_features=128, bias=True)
    (1): Tanh()
    (2): Linear(in_features=128, out_features=1, bias=True)
  )
  (fc): Sequential(
    (0): Linear(in_features=256, out_features=128, bias=True)
    (1): ReLU()
    (2): Dropout(p=0.3, inplace=False)
    (3): Linear(in_features=128, out_features=50, bias=True)
  )
)
[2025-07-31 14:47:38,088] [INFO] Training...
[2025-07-31 14:48:15,886] [INFO] Epoch 1/50, ValAcc: 59.42%, TrainLoss: 2.7180, ValLoss: 1.5062, LR: 0.001
[2025-07-31 14:48:52,419] [INFO] Epoch 2/50, ValAcc: 76.69%, TrainLoss: 1.2418, ValLoss: 0.8308, LR: 0.001
[2025-07-31 14:49:28,953] [INFO] Epoch 3/50, ValAcc: 80.83%, TrainLoss: 0.7284, ValLoss: 0.6798, LR: 0.001
…
[2025-07-31 14:59:52,093] [INFO] (15228, 3000)
[2025-07-31 14:59:52,093] [INFO] [['1281' '1281' '580' ... '289' '261' '276']
 ['65535' '65535' '256' ... '1540' '1046' '2038']
 ['2038' '2038' '2038' ... '65535' '256' '256']
 ...
 ['265' '774' '774' ... '300' '300' '300']
 ['265' '265' '332' ... '5404' '5404' '774']
 ['343' '761' '300' ... '955' '976' '998']]
[2025-07-31 15:00:43,905] [INFO] Feature 0 normalized using token
[2025-07-31 15:00:43,905] [INFO] Train shape: (10659, 3000), Val shape: (1523, 3000), Test shape: (3046, 3000)
[2025-07-31 15:00:43,981] [INFO] Classifier: VRScannerModel(
  (input_modules): ModuleList(
    (0): Embedding(5878, 512)
  )
  (rnn_layers): ModuleList(
    (0): GRU(512, 256, num_layers=3, batch_first=True, dropout=0.3, bidirectional=True)
  )
  (attn_nets): ModuleList(
    (0): Sequential(
      (0): Linear(in_features=512, out_features=64, bias=True)
      (1): Tanh()
      (2): Linear(in_features=64, out_features=1, bias=True)
    )
  )
  (projection_layers): ModuleList(
    (0): Linear(in_features=512, out_features=256, bias=True)
  )
  (feature_attn_net): Sequential(
    (0): Linear(in_features=256, out_features=128, bias=True)
    (1): Tanh()
    (2): Linear(in_features=128, out_features=1, bias=True)
  )
  (fc): Sequential(
    (0): Linear(in_features=256, out_features=128, bias=True)
    (1): ReLU()
    (2): Dropout(p=0.3, inplace=False)
    (3): Linear(in_features=128, out_features=50, bias=True)
  )
)
[2025-07-31 15:00:43,981] [INFO] Training...
[2025-07-31 15:01:39,526] [INFO] Epoch 1/50, ValAcc: 56.47%, TrainLoss: 2.8354, ValLoss: 1.5888, LR: 0.001
[2025-07-31 15:02:33,889] [INFO] Epoch 2/50, ValAcc: 77.02%, TrainLoss: 1.2785, ValLoss: 0.8495, LR: 0.001
[2025-07-31 15:03:28,016] [INFO] Epoch 3/50, ValAcc: 80.43%, TrainLoss: 0.6915, ValLoss: 0.6969, LR: 0.001
…
[2025-07-31 15:18:40,753] [INFO] (15228, 5000)
[2025-07-31 15:18:40,753] [INFO] [['1281' '1281' '580' ... <NA> <NA> <NA>]
 ['65535' '65535' '256' ... <NA> <NA> <NA>]
 ['2038' '2038' '2038' ... <NA> <NA> <NA>]
 ...
 ['265' '774' '774' ... <NA> <NA> <NA>]
 ['265' '265' '332' ... <NA> <NA> <NA>]
 ['343' '761' '300' ... <NA> <NA> <NA>]]
[2025-07-31 15:19:59,276] [INFO] Feature 0 normalized using token
[2025-07-31 15:19:59,276] [INFO] Train shape: (10659, 5000), Val shape: (1523, 5000), Test shape: (3046, 5000)
[2025-07-31 15:19:59,364] [INFO] Classifier: VRScannerModel(
  (input_modules): ModuleList(
    (0): Embedding(6004, 512)
  )
  (rnn_layers): ModuleList(
    (0): GRU(512, 256, num_layers=3, batch_first=True, dropout=0.3, bidirectional=True)
  )
  (attn_nets): ModuleList(
    (0): Sequential(
      (0): Linear(in_features=512, out_features=64, bias=True)
      (1): Tanh()
      (2): Linear(in_features=64, out_features=1, bias=True)
    )
  )
  (projection_layers): ModuleList(
    (0): Linear(in_features=512, out_features=256, bias=True)
  )
  (feature_attn_net): Sequential(
    (0): Linear(in_features=256, out_features=128, bias=True)
    (1): Tanh()
    (2): Linear(in_features=128, out_features=1, bias=True)
  )
  (fc): Sequential(
    (0): Linear(in_features=256, out_features=128, bias=True)
    (1): ReLU()
    (2): Dropout(p=0.3, inplace=False)
    (3): Linear(in_features=128, out_features=50, bias=True)
  )
)
[2025-07-31 15:19:59,364] [INFO] Training...
[2025-07-31 15:21:32,306] [INFO] Epoch 1/50, ValAcc: 54.63%, TrainLoss: 2.9053, ValLoss: 1.6757, LR: 0.001
[2025-07-31 15:23:03,072] [INFO] Epoch 2/50, ValAcc: 74.52%, TrainLoss: 1.3354, ValLoss: 0.9124, LR: 0.001
[2025-07-31 15:24:33,312] [INFO] Epoch 3/50, ValAcc: 79.05%, TrainLoss: 0.7738, ValLoss: 0.7319, LR: 0.001
…
